src/fminst/models/teacher_5cl_2.pt (torch, 447183 bytes, 8 tensors)

stack.0.0.weight f4 [128, 784]
00000000: 7200 553d a485 193d 0cb5 133d 3c6b 15bc
00000010: f367 52bc d305 943d 516d 053e 8200 4a3d
00000020: 0935 00bd 909f f83c 9cea ff3d bb36 683d
00000030: 53e2 82bd d82d a1bd d3c0 e6bd 6396 66bd
00000040: 3ec2 503d 1a46 e53d 2894 3e3d 2d79 17bd
00000050: 4e38 72bd c6ea cf3d efe3 903d 25f5 3c3c
00000060: 7620 7f3c fdd5 073d 4f63 143d 18c9 473b
00000070: ab50 723c 7b1e f33c 6648 48bd 327f 073d
00000080: 2ba1 313d fb24 e03d c212 9a3d 988a 17bc
00000090: 4fef a33d 5109 e23d 0624 2e3d de27 c1bc
000000a0: 68b0 11bc 7e29 6bbc c74e e13c d4de 98bb
000000b0: 3471 2abc 1536 f43c 0217 d43d 485a aa3d
000000c0: d2d0 77bc 51c5 2a3d c6a2 d63d be04 aa3d
000000d0: ae36 483d 4679 833b b6bb 00bd a0f7 afba
000000e0: 67ac 2a3d 9a18 623d 347c 10bc 8692 803d
000000f0: 457d 6f3d e78f 17bc ed55 6b3d 8e5a e13d
00000100: 36aa cb3d e5a7 6a3d a1b3 8a3c 61c3 c3bc
00000110: 7f93 10bd ba43 a9bb 2724 65bd e6a1 cbbc
00000120: 7bfe 26bd 2063 c23c 348d 863c 4e83 573d
00000130: 4d34 913d 9fcd 87bb 3a44 8dbc 485d 3b3b
00000140: 2d55 d33d 7770 f63a 94d9 75bd 0d4c d43b
00000150: d9ba 943d 1fda 8bbc 9181 e0bc a581 b63b
00000160: d882 d2bc d8ac 843c 88f5 b53c cccd c13c
00000170: 9d61 8e3d 7651 9a3c afd3 3e3d 1db0 563d
00000180: 0f89 fcbc af2a 51bd 0e11 63bd 695c 07bd
00000190: 0d9c 09bc 490b d93c d211 b2bc b52f 003d
000001a0: 70d9 0c3d 09b4 893c db0b 073d 0e84 9f3c
000001b0: f5db 1cbd 0420 293d 96e3 5e3b 53d2 2fbd
000001c0: 5907 213d 2a0a 00bd e2d4 10bd 0705 f0bc
000001d0: 1eff 8fbc 0a28 ae3c 625f 3d3c 60f7 b73d
000001e0: 6f12 9f3d 3fd1 663c 65e7 79ba 7d0f 873d
000001f0: d69e 543c 1378 6ebd 0d4c 47bd c836 b33c
00000200: 2805 cbbc b3ad 443c 7b5f 3fbc ed29 9a3c
00000210: b1b8 223d f4ae fdbb 83c2 07bc bfb8 303d
00000220: ad23 c8bb c118 d3bb fc32 913c 1a1d 023c
00000230: 6984 6b3c 7d46 153c 3c9a 043c db5a 563c
00000240: 6f0c efbc f05c e23c 2507 2ebb dcbb b23d
00000250: 693d a53d 2d99 30bc 05b4 1f3d 7e16 623c
00000260: 660d 49bc cd6c 02bd d177 4dbd b2b7 5abc
00000270: dd46 33bc 9126 eb3c de86 4c3d 8911 173c
00000280: 9273 3d3c 114c 623d dd8f 943c 1ac6 51bd
00000290: b18b 2bbc bd42 d43c cd8f cbbc f534 493b
000002a0: 03b3 1c3c ebc3 7cbd 3823 d1bd ad2f c1bd
000002b0: 08ac e7bc d3ab 17bd 4bb5 26bc 6510 ef3c
000002c0: dcea d9bc 7e78 ef3c dac1 683d 9cbd 9c3c
000002d0: 6e86 553a 5d8b ddbc 03e0 babc aa2f 953c
000002e0: 1f46 81bc c7df 96bb 0ddb a33b 65c2 5f3c
000002f0: 9705 593d 460d 273d cb45 cf3c 67d6 ccbd
00000300: 275f dcbc 46d6 6cbd 8457 12bd eec4 7dbd
00000310: cd6f 533d 3438 a9ba ebe7 cdbd 7878 85bd
00000320: 43df d9bd 1993 3fbd 434f 143c f971 b2bc
00000330: f2dd 2fbc ab2f 0d3d ccae ac3c 8c7c 373c
00000340: f460 c53c c338 0fbc 8177 40bd 16b3 183c
00000350: 63ae f03c 0926 6ebc 7273 dbbc 9909 363c
00000360: ba54 e43c f56e 313c 43f3 ae3c edf9 2dbd
00000370: e1aa b2bd 8a33 eabd addd f93b 7a22 dc3a
00000380: 6630 ca3c db57 b8bb 8d62 9ebd e41f bebd
00000390: 07b2 80bd 50e0 45bd 71a6 113b 6dd2 bfbb
000003a0: c63c 1dbc 483d d3bc 563c 43bd ee37 f93c
000003b0: ca95 c13c d7b7 a6bb b0eb f4bc c896 25bc
000003c0: 6c7f 51bb d84f 1a3c 2ae2 8dbd 7868 12bd
000003d0: ff6d 593d f954 333d 90a5 be3c f089 85bd
000003e0: a461 01be b334 92bd 2b20 e4bc ca6f 203c
000003f0: 68c4 84bb 3bf4 cf3b dd3c a5bd 1fc4 70bd
0.052002378 0.037480965 0.03606133 -0.009119805 -0.012842166 0.072276734 0.13029982 0.04931689
-0.03130058 0.030349523 0.1249592 0.05669282 -0.06390824 -0.07870072 -0.11267247 -0.056295764
0.050966494 0.111950114 0.04652801 -0.036980797 -0.059135728 0.10152201 0.07074725 0.011533056
0.015571704 0.03316306 0.03622752 0.0030484851 0.014789741 0.02967762 -0.04889717 0.033080287
0.043366592 0.109445535 0.07523109 -0.009249352 0.08004629 0.11036933 0.042514823 -0.02357858
-0.008892156 -0.014353154 0.027503384 -0.004665235 -0.010402966 0.029810945 0.10355951 0.08318001
-0.01512547 0.04169208 0.10480265 0.08301686 0.04888027 0.0040122597 -0.031429015 -0.0013425238
0.041668322 0.055199243 -0.008818675 0.06277947 0.058469076 -0.009250618 0.057454992 0.110036
0.099445745 0.057289023 0.016931357 -0.023896875 -0.035296913 -0.0051655443 -0.05594268 -0.024857473
-0.040770035 0.023728907 0.016424753 0.052615456 0.07090054 -0.004144385 -0.017244447 0.0028589536
0.1031898 0.0018801828 -0.06002195 0.0064787925 0.07262201 -0.017071782 -0.027405532 0.005569654
-0.025697157 0.0161957 0.022211805 0.023657702 0.06952212 0.018837672 0.046588596 0.05241405
-0.030827073 -0.051066097 -0.055436186 -0.033047114 -0.008399022 0.026494639 -0.021737013 0.031295497
0.034387052 0.01680948 0.03297029 0.019472148 -0.038295705 0.041290298 0.0034010164 -0.04292519
0.039313648 -0.031259693 -0.03535927 -0.029299272 -0.017577704 0.021259326 0.011558386 0.0898273
0.07767188 0.014087974 -0.00095330767 0.06594751 0.012977323 -0.05821998 -0.048656512 0.021876708
-0.024782732 0.012004304 -0.011680479 0.01881882 0.039726917 -0.0077418033 -0.008286121 0.043144938
-0.0061077685 -0.00644216 0.017724507 0.007941509 0.014374831 0.009111044 0.008093413 0.013083185
-0.029180733 0.027632207 -0.0026554551 0.087272376 0.08068354 -0.010778707 0.03899004 0.013799308
-0.012271261 -0.03184204 -0.050163094 -0.01334946 -0.010942188 0.028704913 0.049933307 0.009220489
0.011563199 0.055248324 0.018135006 -0.051214315 -0.010470317 0.02591073 -0.024848843 0.003070173
0.009564164 -0.06171028 -0.102117956 -0.094329216 -0.028280273 -0.0370291 -0.01017506 0.029182622
-0.026601247 0.02923226 0.056825496 0.019133382 0.0008145337 -0.027043993 -0.022811895 0.018211205
-0.015780507 -0.004604313 0.005000478 0.013657187 0.052983847 0.040784143 0.025301835 -0.100018315
-0.02690084 -0.057821535 -0.035727993 -0.061955385 0.051620293 -0.0012910427 -0.100540005 -0.06517118
-0.10638287 -0.046771143 0.009052101 -0.021782862 -0.010734068 0.034469288 0.021079443 0.011199128
0.024094082 -0.00874156 -0.046988968 0.009320041 0.029380029 -0.0145354355 -0.026788447 0.011110687
0.027872432 0.010829677 0.02135623 -0.042474676 -0.08723999 -0.114356115 0.0076253028 0.0016794943
0.024681281 -0.0056257076 -0.07733641 -0.092834264 -0.06283956 -0.048309624 0.002222445 -0.005853942
-0.009597009 -0.025786057 -0.047664963 0.030422177 0.023630995 -0.0050878334 -0.02989754 -0.01010675
-0.0031966818 0.00941845 -0.06927903 -0.03574416 0.053083416 0.043782208 0.023272306 -0.0652045
-0.12634903 -0.07138958 -0.02784737 0.009792278 -0.0040517338 0.006346253 -0.080682494 -0.058780786

stack.0.0.bias f4 [128]
00000000: acac 223e 45af 33bd 395b c739 11b1 a43d
00000010: ae9b c0bc 9b7c b53d b841 ff3d 3fc1 bdbc
00000020: 2b32 743d 2899 753d d4c5 20bb 757c a53d
00000030: 790b 9d3c fce4 67bc bdd5 08bc 6417 25bd
00000040: 2a64 353d 1f3e eb3d ea96 d0bd b544 1d3e
00000050: 744c bb3d 5283 44bd 527f 203d 9fcf 03bd
00000060: 02a5 bd3c e009 0d3e ee55 2db9 1e4a 143e
00000070: 2c0d 213d a2b5 a43d 1c1c a03d 21b0 0cbd
00000080: 66c2 23bc 51fb 5cbb efe6 e5bc 6e69 0abc
00000090: 55f0 e63d a758 87bd f8a2 f1bc 09d2 023d
000000a0: a2bc a9bd b00a 77bd 68f7 63bd a5e5 be3d
000000b0: 4e44 18bd f8ec bf3d 2867 ee3d 91f6 aebd
000000c0: 3263 883d 5e79 d43d 8a0f d03d 528e ecbc
000000d0: 643f 7d3d 4505 d73c 611d 773d 3825 183e
000000e0: 1086 833d 06e8 ca3d 5528 91bd 32ed 62bd
000000f0: 88ad e73d f7eb a0bb 8e6c b33b fb1e b63c
00000100: ba15 b43d 257a fa3d 0ad1 123e 7808 49bd
00000110: 94e0 b0bc 46fe aa3d 25ae 293d 1618 a83b
00000120: ddf7 db3d 5295 333e fe9e c13d 305b 17bd
00000130: f29e 423d 7dd5 9b3d c1c7 8a3d 6d64 fc3d
00000140: d585 06bd 0bfa 193e 52e7 ee3c 66c3 ac3c
00000150: b3f2 0d3e 3a50 92bb 7f28 a23d fabe cf3d
00000160: 833f 3dbd 112e db3d 7ba8 903c 6bbc 5c3d
00000170: 9387 3c3d 28a8 163e 1dbd 3dbd 1ad6 0fbe
00000180: d742 613d 8a2a d63d 711c cb3c b89e 77bd
00000190: 5dcc 913b 8810 a5bb 7955 5f3b 3955 5a3c
000001a0: 00b9 003e 0e54 c1bb e826 4bbc 8d56 51bd
000001b0: eb3c 063d 3d99 70bd 5871 89bd ce14 a43d
000001c0: f911 a93d ecd4 3b3d 1ad9 af3d 991f a53d
000001d0: 97a5 023e c628 85bd 92c8 9f3d bc39 94bd
000001e0: c76a 873d 6d2b 083d 1cf3 713d 64ba 093e
000001f0: 0980 a43d ce95 753d 5292 ac3d 0490 15bc
0.15886182 -0.043868322 0.00038024204 0.08041585 -0.023511734 0.08861657 0.12463707 -0.023163436
0.059618156 0.059960514 -0.0024531977 0.08080379 0.01917051 -0.014153715 -0.00835174 -0.04030551
0.044284977 0.11486458 -0.101850346 0.15358241 0.09145442 -0.0479768 0.039183922 -0.032180425
0.02314997 0.13773298 -0.00016530577 0.14481398 0.039319202 0.08042456 0.078178614 -0.034347657
-0.009995079 -0.0033719132 -0.02806422 -0.008447988 0.112763084 -0.06608706 -0.029496655 0.031938586
-0.08287932 -0.060312927 -0.055655867 0.09321145 -0.037174515 0.0937137 0.11640769 -0.085431226
0.06659545 0.103747115 0.10159214 -0.028876457 0.061828032 0.02624763 0.060330752 0.14857948
0.06422055 0.09907536 -0.07087771 -0.05540199 0.11312395 -0.0049109417 0.005475587 0.02223157
0.087932065 0.122303285 0.14337555 -0.049080342 -0.021591462 0.0834928 0.041425843 0.0051298244
0.107406355 0.1753743 0.094541535 -0.036952198 0.047514863 0.07609079 0.06776381 0.12323842
-0.032842476 0.1503679 0.029163036 0.021089267 0.13862114 -0.00446513 0.0791788 0.10143848
-0.046203148 0.10702146 0.017658463 0.053890627 0.04602773 0.14712584 -0.04632293 -0.14046517
0.054995384 0.104573324 0.024793835 -0.0604541 0.004449411 -0.005037371 0.0034078045 0.013325983
0.12570572 -0.0058999127 -0.012399413 -0.051107932 0.03277294 -0.05873989 -0.06711072 0.08011781
0.08255381 0.045857355 0.08586331 0.080626674 0.1275848 -0.065019175 0.078019276 -0.072375745
0.06612163 0.03324454 0.059069738 0.13450009 0.08032233 0.059957318 0.08426346 -0.009128574

stack.1.0.weight f4 [64, 128]
00000000: 25ae 143e 3268 8e3d 3434 cf3d ca55 90bc
00000010: eafd 67bd eca3 4c3d 0287 3bbd 98c1 8e3d
00000020: 3272 1f3e 7696 8abd f3ce aebd 8ca9 2a3e
00000030: 3d1d 2dbc e3fc ee3d d60b 82bd ca21 563d
00000040: 3fe7 52bd 043a 9dbd e3d9 213d a6e8 8b3d
00000050: f4c3 b43d d100 a13d 66da d13c 4d1c 703d
00000060: 2c54 d6bd 3e7c 833d 742b 25be 758c 033e
00000070: 336a 95bd 66eb d53d d61b acbd 86e7 bfbd
00000080: 4711 4bbe 98cf 5f3c 83b7 283b 0761 73bd
00000090: 5fe2 ee3d 9427 e4bc 7389 bdbd 5724 aa3d
000000a0: 5c65 c53d f562 f13d 2304 833c d1b4 293d
000000b0: 43aa 2a3c 923c 0c3d 08eb 073a 8b1a d43d
000000c0: e0fe 04bd ac31 ec3d 06d0 dc3d f16f d8bd
000000d0: 301d 50bd d7e0 f6bc 55a3 84b9 1216 c13d
000000e0: b0b9 4c3b 4b0c ce3d bc8c 99bc 114c 753d
000000f0: 926b 1d3e 1d93 ea3d 8ee6 7e3c 6b60 9dbc
00000100: 5b2c 053c 0f53 7f3d d7ec 093e c8b8 babd
00000110: 7fc2 97bc 4c9a b63d 65d2 72bd 887b a13d
00000120: 8e0b af3d 464c 8bbc 69ff b7bd cbc8 37bc
00000130: 0c43 17bd 82d0 273e 7877 d93c f674 ad3d
00000140: 00cf eb3d 32a0 8ebd 4f38 05bd 97f8 3dbd
00000150: eb32 c6bd 9545 35bd c0a4 e03d 8060 953d
00000160: e3b0 f73c 06e4 193d 6546 0abd 3387 243d
00000170: 0106 a53d ab28 7bbb ec0e 6d3e e883 153e
00000180: ed2c 61be 1613 bfbb ba2e 54bd e966 363d
00000190: ba38 b73c 730b 5fbd 0bdf 963d 843e 5d3d
000001a0: 9e04 3d3c 5478 67ba 4075 c13d 1933 aa3d
000001b0: 5882 95bd 7223 f9bb 0d7e 983c defd 3b3d
000001c0: a640 233e 68b8 1cbd f1a9 06be a137 823c
000001d0: 98fb 7ebd f752 bbbb 40bd bbba 14bc fd3d
000001e0: b5ed c1bd ca38 d7bd 7c4a aebd 4cab 263e
000001f0: dde5 3bbd 71af 9c3d 8fa5 0f3d d7fc 893d
00000200: 4315 95bd 1118 0d3e 3058 e33d f495 003e
00000210: 2f1b e8bd ed32 94bd 2b5b 3abd b60a 053e
00000220: f2bd 21bd 79a5 f03c 1629 a33d 084d 89be
00000230: 0d23 96bd 78f3 853d b922 c0bc 915f f03c
00000240: 6537 d4bd da0d bd3c 91fa c43d 5438 6cbd
00000250: 2ba7 a63d 61db 283d d494 a9bd 35e1 a63d
00000260: 4043 df3c f8e0 1ebe a349 bebd f6e0 03be
00000270: da37 a9bd 4e3b e4bb 3a0a f5bd b161 4fbd
00000280: a126 103d 9954 c33c 5ee8 293d 8212 04be
00000290: e808 593d 8a04 d93c 2557 34bd 2b18 a03c
000002a0: 6bbc 8e3d f24b dc3d f248 94bb a916 5c3d
000002b0: 7d2e 60bd d649 eabd 180b 1ebb e9ef 0b3e
000002c0: 147a d8bd 3c0d 5abd 7d9b 91bc 3629 0bbd
000002d0: d271 aabc df2b 4b3c c845 bb3d 108e 863d
000002e0: f9b0 01be 811e 1b3d 28e4 ed3d 7cbb a93c
000002f0: 8d85 01bd 9900 b13d 5786 a9bd 264f 823d
00000300: 218d 633c 8be2 7fbd 3d41 96be a66e b13c
00000310: 1c70 36bc eba6 14be 3458 a6bb 45b0 f0bc
00000320: 95d7 dabc eafe 13be ee7a a7bc 8748 ae3d
00000330: c22b 863d 5899 61bc 2a95 be3d 568c 9d3d
00000340: 50f0 db3d 2aca 14be 6932 44bc 9e3a 8e3d
00000350: 7c94 13be ddee 983d bd5c 183d 1377 34be
00000360: 5e26 9bbd c7ca 43be eda1 c23b 6b9c 92bd
00000370: dc4a 2cbc 5ae4 e8bd be39 813e d576 b13d
00000380: f84b 42be 8deb d1bc 662d 6bbd c1ef b13d
00000390: 53d5 adbc c289 e03d d997 023e e48f 223d
000003a0: ed79 98bd 229c 053d 7db1 d33d 5ae2 d03c
000003b0: e166 643a 1a40 803d 900b 923d 31c3 8d3d
000003c0: ce47 873d d13b b3bd 358f 31be 9240 94bd
000003d0: 5b55 1abe 91e2 a63d dbb5 23bd f3f5 fe3d
000003e0: 90cf 17be 7f53 5ebd c42a b8bd ce4a 203d
000003f0: 946a a8bc 233a 603d 6440 d53c 1441 9dbd
0.14519556 0.069534674 0.10117379 -0.017619032 -0.056638636 0.049961016 -0.04578305 0.06970519
0.15570906 -0.067669794 -0.08535566 0.1666624 -0.010566053 0.11669328 -0.06349914 0.052278318
-0.051490065 -0.07677081 0.039514434 0.068314835 0.088264376 0.07861484 0.025616836 0.05862074
-0.10465273 0.06420182 -0.16129857 0.12846549 -0.072956465 0.10445289 -0.08403747 -0.093703315
-0.1983081 0.013660334 0.0025744147 -0.059418704 0.116642706 -0.027850904 -0.09254732 0.083077125
0.096384734 0.11786453 0.015993183 0.041432206 0.01041657 0.03423745 0.00051848637 0.10356625
-0.03246963 0.11532912 0.10781865 -0.10568226 -0.050809085 -0.030136509 -0.00025298694 0.09428038
0.0031238608 0.100609384 -0.018743865 0.059886996 0.15373066 0.11453841 0.015557898 -0.019211015
0.008128251 0.06233507 0.13469253 -0.091172755 -0.01852536 0.089161485 -0.05928268 0.0788489
0.08547126 -0.017004143 -0.089842625 -0.011217306 -0.036929175 0.16388133 0.026546225 0.08469574
0.115140915 -0.069641486 -0.032524403 -0.046379652 -0.096776806 -0.04425581 0.109689236 0.072937965
0.030235713 0.037570976 -0.03375854 0.040168 0.08057786 -0.00383238 0.23150223 0.146011
-0.21989794 -0.0058311326 -0.051802374 0.044531737 0.022365917 -0.05445428 0.07366761 0.054014698
0.011536745 -0.0008829881 0.09446192 0.08310527 -0.07300252 -0.0076031024 0.018614793 0.045896403
0.1594263 -0.0382618 -0.13150765 0.015895667 -0.062251657 -0.0057166773 -0.0014323369 0.12389389
-0.09469167 -0.105088785 -0.085103005 0.16276282 -0.04587351 0.0765065 0.03507 0.067376785
-0.07279446 0.13778712 0.11100805 0.12557203 -0.1133331 -0.07236276 -0.0454971 0.12992367
-0.039487787 0.029375779 0.07966821 -0.26816583 -0.07330904 0.065405786 -0.023454057 0.029342445
-0.10362128 0.023077894 0.09618104 -0.057670906 0.081373535 0.04122484 -0.0828034 0.081484236
0.027253747 -0.15515506 -0.09291389 -0.12878785 -0.08262606 -0.0069650775 -0.11964841 -0.050630275
0.03519309 0.02384405 0.04148137 -0.12897685 0.05298701 0.026491422 -0.04402842 0.019542774
0.069695316 0.10756673 -0.0045252973 0.053732548 -0.054731835 -0.11439864 -0.00241155 0.13665737
-0.105701596 -0.053235278 -0.017774338 -0.03397485 -0.020806227 0.012400596 0.09144169 0.06570065
-0.12665166 0.037870888 0.11615783 0.020719282 -0.031621505 0.08642692 -0.082775764 0.063627526
0.013888628 -0.062471908 -0.29346648 0.021659207 -0.011135127 -0.14516799 -0.0050764326 -0.029380927
-0.026714126 -0.14452711 -0.02044436 0.08509927 0.06551315 -0.01376947 0.093057945 0.076927826
0.10739195 -0.14530244 -0.011974909 0.06944774 -0.14412111 0.074674346 0.037197817 -0.17623548
-0.07575677 -0.19120322 0.005939713 -0.071587406 -0.010515895 -0.113716796 0.25239366 0.086652435
-0.18974292 -0.025625015 -0.057416342 0.086883076 -0.021219885 0.10963775 0.12753238 0.039688006
-0.074451305 0.032619603 0.103365876 0.025498558 0.000871284 0.062622264 0.071311116 0.069219954
0.066054925 -0.087516434 -0.17339785 -0.07238878 -0.15071623 0.08148683 -0.039968353 0.12449255
-0.14825273 -0.054278847 -0.08992532 0.03913384 -0.020558633 0.054742943 0.02603168 -0.07678428

stack.1.0.bias f4 [64]
00000000: 179d fc3d ef5f 30bc 0afd d63d 3801 1fbd
00000010: fb42 a5bd 6083 143d 4187 40bb b112 d8bd
00000020: 4471 563d c5f9 f3bc 3397 293e abbd 303b
00000030: 138f 223d 46f6 683d 837d f03d bba2 dd3c
00000040: c58a b9bd 6d13 fe3c d360 24bd 2353 863c
00000050: e74d 8d3d 294b e53c 0d1e 7b3d b76f 063e
00000060: 3c0a 9d3d 5168 533d eb5e 9d3d 2034 363e
00000070: 7725 40bd 1b08 b8bd 72af d63d d831 093e
00000080: 1668 2bbc 3a51 a5bd 04eb 4d3d 44c1 faba
00000090: 4819 4ebd bf3d 49bd 2574 db3d c5a2 ba3a
000000a0: 9450 cabd 71bd dc3d 86ad a7bd e73a a73d
000000b0: a9e5 d83b d059 57bd c10b cb3d 3119 193e
000000c0: 5030 113e b991 013e 17b3 73bd 60a8 9abd
000000d0: f9e2 a83d 317a d03c 3349 06be efea a13d
000000e0: bf39 6c3c 942e 84bd d028 11bd a5de 353d
000000f0: 07d6 cc3b bd55 2a3d 8a21 423c d4c1 b03b
0.1233465 -0.01076506 0.10497482 -0.03881952 -0.08069416 0.0362581 -0.0029377493 -0.1055044
0.052354112 -0.029782185 0.16561584 0.002696852 0.039687227 0.05687549 0.117426895 0.027055135
-0.09059671 0.031015122 -0.0401314 0.016397065 0.06899624 0.02798994 0.061307956 0.13128553
0.07667968 0.051613156 0.0768412 0.17793322 -0.04691073 -0.08985921 0.10482682 0.1339792
-0.010461828 -0.08072133 0.050272956 -0.0019131084 -0.05031708 -0.04913115 0.10715512 0.0014239183
-0.0987865 0.107783206 -0.08187394 0.081655316 0.0066191745 -0.052575886 0.09914351 0.14951016
0.14178586 0.12653245 -0.059496965 -0.07551646 0.082464166 0.02544889 -0.13113861 0.07906138
0.014418065 -0.064541966 -0.035439312 0.044401783 0.0062511 0.041585673 0.011848817 0.0053942

stack.2.0.weight f4 [32, 64]
00000000: 6591 313d da08 1d3e c208 03be e07b 5d3d
00000010: 17ef a23d 4428 783c 4283 083e 4d54 babc
00000020: 192e 81be d0e4 6ebc 3142 803d 77df ecbd
00000030: fb9d 4bbd 6d63 8cbe b9e6 bc3c c902 efbd
00000040: 6153 c03d 68f4 0d3d 7f80 51bd 40b4 ea3d
00000050: 8b6c b13d d189 67bd af86 ab3a b36c d93d
00000060: 8aaf bb3d 33b4 b73d d6f8 563d 0fab 62bb
00000070: b1c3 493d 9ab7 0abe 15a2 fbbd a187 993d
00000080: 3a6f a03a 5c5d e13d d2ed b83d f90a a8bd
00000090: 75fe 113e f698 b5bd 6c94 afbd df75 18bd
000000a0: a21e 133e cbfa 85bd 678a 6fbd 8c11 ee3d
000000b0: c2cb b93d 1d10 f9ba c82d bf3c cff6 3ebd
000000c0: ca09 cf3d 0156 acbc 1af2 c43d 4abf 99bd
000000d0: 7102 95bd 5ffa 01bc 0276 a0bc 148f 12bd
000000e0: 1060 c53d 98b8 ea3d 549f 04be e6ee f5bc
000000f0: 3371 b7bc 42e6 8f3d f00e b33d 7176 01be
00000100: 72a4 0abc e5e3 df3b ccd9 113d c0ca be3b
00000110: 735d 583e 4650 9b3c 8bda 4bbd b29a 253e
00000120: 6c25 48be 6e63 26bd 5f9e 38be 97ac 39bc
00000130: 6a51 2abe dabf 6cbe c658 4ebe 7ded ddbb
00000140: bcfb 873d 4f8b 523d 3db5 553b 52da 193e
00000150: 9a52 8bbd 1fce 32bd 00b7 233e a514 9c3d
00000160: 4910 f4bd bde1 183e d5df a73c 154c 1f3b
00000170: 5f31 1dbd 9cd1 1a3d 9939 0ebd 4ca5 cc3d
00000180: 6466 25bd b793 ab3d c4e7 153e 264e 153e
00000190: b4de d8bd 7bbb bd3d aec3 b5ba b017 153d
000001a0: 1b84 02bc 4972 91bc 7f08 a53d e2c9 e63b
000001b0: bf5c 77bc 3225 4d3d 8cfa c73d 108b 15be
000001c0: f80e ccbd 3f9d 183d eb6e 063e f643 d43d
000001d0: a4c7 2a3d 048a a5bc 4c9d ac3d 63a0 1d3e
000001e0: 6db3 91bd 6c0d 8d3d 77ff f5bb 321a 37bd
000001f0: e4af 04bd 8f34 e8bc 4cdc c13d 1c07 d53c
00000200: b804 ef3c c490 c1bd 8ad2 8dbd 208a 4e3d
00000210: 9424 06bd 48cf c9bd 9896 a73c 10c8 71bd
00000220: 0ee2 a2bd 24d5 a83d 80e9 c63a 387e f2bd
00000230: 0eaa 843d d09b ad3c a0da c83b a2c9 d7bd
00000240: e0c7 be3c dac3 c6bd 3822 9dbd dcd5 733d
00000250: 1c83 6fbd 108b 363d 40fd 513b c041 c4bd
00000260: 9a64 96bd 44f8 91bd e0c8 b33d 5059 b9bc
00000270: 42a5 b4bd 24d4 36bd 5aa2 9f3d 140f f43d
00000280: b42f a13d 903f 7e3d 90bf efbc 3019 f8bc
00000290: b0be 53bc 582e dfbc 4ed2 893d e81d 1bbd
000002a0: a0ca 993c 6089 0f3c 88c5 debd 3e9d febd
000002b0: 2002 b6bd 26af f7bd e068 a8bd 0042 143b
000002c0: b0db 65bc 7cd3 c73d 2404 efbd fcd0 5fbd
000002d0: 40d7 63bd fe40 b8bd 2ad8 fbbd 9214 c73d
000002e0: 389d 7cbd e473 51bd 5e56 f03d 2003 c53b
000002f0: 6218 afbd 3a7e e9bd 485b e03c a2f7 a83d
00000300: 0285 c4bc fc93 3f3c e68f 8d3d 802f ebbc
00000310: 00fd d43d d6b4 babc 0aba d1bc c450 22be
00000320: 9615 bcbd fda9 a13d af4a 1b3e 1cdb 80bd
00000330: 50b9 1ebd a45c babb 291c 3abe 6bc0 0b3e
00000340: c247 e3bb ef37 f2bd 22a8 fc3d 0815 e83d
00000350: 7578 eabd 1298 7b3d 18a5 a13d 93e9 ad3c
00000360: c37e 6e3c 1d5c a43d 55bc c93c 9244 093c
00000370: 2ef1 643d e8da 48be e424 56bd b18e ad3d
00000380: 18f3 86bd 451f 93bc 65ec 813d 00e8 79bd
00000390: d603 c7bc a3ed f6bd 38c7 fe3d 3901 0b3c
000003a0: aaf4 283c e728 6abd 48b6 e2bd 9d38 093e
000003b0: a3f8 c0bc b1c2 f13d 6caa 0b3d 4993 063e
000003c0: 25dc 063e c90c d83d 0121 4cbd 8cbe c5bd
000003d0: 8c32 6b3e b824 a23c 549b 04be fc75 b0bd
000003e0: 532b 053d fe2c 803d dea6 203d 9836 b5bd
000003f0: 25bf e43d b493 513e b003 f33d 85e2 26bd
0.04335155 0.15335408 -0.1279631 0.054073215 0.07955759 0.015146319 0.13331321 -0.022745276
-0.25230482 -0.01458092 0.06262625 -0.1156606 -0.04971121 -0.27419606 0.023059236 -0.11670453
0.09390903 0.034656912 -0.051147934 0.11460161 0.08663281 -0.056527916 0.0013086403 0.10616436
0.09164341 0.08969917 0.052483402 -0.0034586822 0.04925889 -0.13546601 -0.12286774 0.07496572
0.0012240179 0.11004135 0.090297356 -0.08205218 0.14257224 -0.088670656 -0.08573231 -0.037221786
0.14367154 -0.065419756 -0.0584816 0.116244406 0.09072067 -0.0019001995 0.02333726 -0.046622094
0.10109289 -0.021037104 0.0961649 -0.075071886 -0.07275856 -0.007933228 -0.01958752 -0.03578098
0.09637463 0.1146099 -0.12951404 -0.030021142 -0.022392845 0.0702634 0.087430835 -0.12642838
-0.008462058 0.006832587 0.035608098 0.0058225095 0.21129398 0.018959176 -0.049768966 0.16172293
-0.19545525 -0.040622167 -0.18029164 -0.0113326525 -0.1663262 -0.2312006 -0.20151052 -0.0067726956
0.066398114 0.051402386 0.0032609247 0.15024689 -0.068028644 -0.043653604 0.15987778 0.07621125
-0.11917169 0.14929862 0.020492474 0.0024306823 -0.038377162 0.037797555 -0.0347229 0.099924654
-0.04038085 0.08377784 0.14639193 0.14580593 -0.10589352 0.09264275 -0.0013867521 0.036399543
-0.007966067 -0.01775469 0.08058261 0.0070431093 -0.015097796 0.0500843 0.09764585 -0.1460383
-0.099637926 0.037259337 0.1312825 0.10364525 0.0416943 -0.020207413 0.084284395 0.15393214
-0.07114301 0.06887326 -0.0075072604 -0.044702716 -0.032394305 -0.028345374 0.094658464 0.026004367
0.029177055 -0.0945144 -0.06924923 0.050424695 -0.032749727 -0.09853989 0.02045755 -0.059028685
-0.07953273 0.08243778 0.001517579 -0.118404806 0.06477748 0.021192461 0.0061295778 -0.10536505
0.023288667 -0.097053245 -0.07672542 0.059530124 -0.058474645 0.044566214 0.0032041818 -0.09582853
-0.07343407 -0.07127431 0.08778548 -0.022625595 -0.08820583 -0.044635907 0.07794638 0.119169384
0.07870427 0.062072337 -0.029266149 -0.030285448 -0.012923881 -0.027243778 0.067295656 -0.037870318
0.018773377 0.00876078 -0.1087752 -0.12432335 -0.08887124 -0.12093954 -0.08223128 0.0022622347
-0.014029428 0.09757134 -0.11670712 -0.054642662 -0.0556252 -0.08996771 -0.122970894 0.0972072
-0.061673373 -0.051135913 0.11735223 0.0060123354 -0.085495725 -0.11401029 0.027387276 0.08250357
-0.023989204 0.011692997 0.06912212 -0.028709173 0.103998184 -0.022791307 -0.025601406 -0.15851122
-0.09183805 0.07893751 0.15165208 -0.06291792 -0.038750947 -0.005687313 -0.18174805 0.1364762
-0.0069360444 -0.11827075 0.12336756 0.113321364 -0.114487566 0.061424322 0.07892817 0.02122954
0.01455659 0.08025382 0.024625937 0.008378165 0.05589407 -0.19614756 -0.052281275 0.08474482
-0.06589335 -0.017959246 0.06343917 -0.061012268 -0.024293821 -0.12057044 0.12440342 0.008484178
0.010312239 -0.057167914 -0.11069924 0.13400503 -0.02355606 0.118047126 0.034098074 0.13142122
0.13169916 0.105493136 -0.049836162 -0.096554846 0.22968501 0.0197929 -0.12949878 -0.08616254
0.03251202 0.062585816 0.039221637 -0.088483036 0.111692704 0.204665 0.11865938 -0.04074337

stack.2.0.bias f4 [32]
00000000: 22d8 e53d 3fa5 01bd 144f 0cbd 45de 093e
00000010: 5ddc de3d 497f f23d bbf8 d8bd 0ad5 9e3d
00000020: 892b 3e3d f474 e43d cc82 3ebd 313f 1cbe
00000030: 998f 083d 2a06 153d d0b0 afbd 84e7 0d3d
00000040: de5b 83bc c994 c93d f820 a73c 8d2c 833c
00000050: 8e5f 12bd 8b37 153e 7ab3 933d b8c7 6bbc
00000060: 7215 8f3d 593e 3f3e 8e6c a13d c6cc 07bd
00000070: e67c 733c e071 01bd 0054 1639 9a9a 743e
0.11222865 -0.03165173 -0.034255102 0.13463695 0.10881875 0.11840684 -0.105943166 0.07755478
0.046428237 0.111551195 -0.046511456 -0.1525848 0.03334007 0.03638283 -0.08578646 0.03464462
-0.016035017 0.09842832 0.020401463 0.016012454 -0.03573566 0.14571969 0.07211967 -0.014390878
0.06986512 0.18676127 0.07882033 -0.03315427 0.014861321 -0.03160274 0.00014336407 0.23887101

stack.3.0.weight f4 [10, 32]
00000000: f6cf bb3c bd42 0dbe 4c98 88bd 5121 9b3c
00000010: 2db0 2b3e 772e e3bd 8e1c 1ebe 076c 753d
00000020: 06a8 333e 148e e5bd e019 483e c339 06be
00000030: 1dd3 623e 7cb6 2a3e d904 8b3d dee1 fa3d
00000040: 2506 a3bd ae3a 233e d3bc 0c3e 5cbb 163e
00000050: 1786 06be ce49 253e 2dbf 443e 8539 17be
00000060: 2162 503e 8d88 98bd 5cfc 2b3d 91b0 013e
00000070: d56c 30be eadf 063e 36fd 15be e16e 1f3e
00000080: 926a 293e abca 3b3d 3f5c 6dbc 91f3 043e
00000090: 9191 c93b 25fa 313e a6e4 f9bb c240 a33d
000000a0: 203c e1bd 79be 4a3e ef31 30be dc42 ee3d
000000b0: 824d 33be 4e23 2d3e 6580 2fbd 33d2 0c3e
000000c0: d6d3 883e 689c 93bd 23d9 dd3d 5fe8 463d
000000d0: 3125 a6bd d4a3 8f3d dc7c 1d3e 41d3 533e
000000e0: 29cb fe3d 309a 1bbd a1e2 72be ff65 303e
000000f0: 247d c4bd 447b 62bd e89b e73d 934f 82be
00000100: f2b7 613e f382 553e eeb3 1c3e b53a 113e
00000110: 5604 f53d fa0c 203e e10b b53c 0a07 d7bd
00000120: 492e f23d 55ff 173e 5b28 3fbe 269b 353c
00000130: e886 08be 00cb 47bd 82e8 1dbe a097 b8bd
00000140: 48e9 66be a271 e5bd 2a73 23be b113 113e
00000150: 3981 a5bd 17ee eb3d 1cdf 01be 0e22 7f3d
00000160: 82e3 c63d 3b5f 133e 741e f13d 9542 03be
00000170: 821d 0cbe 5330 833d 6943 1ebe c4cb 593d
00000180: 1b8d 57be 9a5a 15be 4922 803c b97f 123e
00000190: df46 08bd 89e5 413e a3ea 073e d85e 15bc
000001a0: 2bb2 223d 7751 fabd 7f09 4f3e f29a 97ba
000001b0: 820e 1bbc dc0b c2bd 1435 f43d c09e d8bd
000001c0: 5e49 8ebd 4b03 acbd b9e3 8dbd bef0 2b3e
000001d0: eab4 9339 c4e0 543d 994c c23d 07d1 3b3e
000001e0: 1c81 6cbe 4078 803e 4e4b 13be 6df3 373e
000001f0: d943 0f3d d67d b63c ffcb 013e 37a9 383e
00000200: 363a 0ebe 429e 813d 0e03 94bd 16f7 66bd
00000210: 6bc9 273e 2101 4f3d 1b2f 2f3e c20b 30bd
00000220: ee0f 56be dbaf 5ebe 822a c6bc 3544 613d
00000230: a31c 6ebd 8557 71be f3a2 12bd caaf 15be
00000240: 4fae 66be cf62 ca3d f883 31be 114a 643d
00000250: bd0e 1c3e d160 003e 2d74 113e e396 f53d
00000260: 9077 54be e56c 7dbe dcb9 123e c9d9 d93d
00000270: 372e 8dbd 10f7 8ebd f024 24be a68a 1c3d
00000280: 54f3 25be 33ea 953d 4dec 293d f3b5 013e
00000290: fe43 f4bd e491 8ebc 5c02 35be 015c 143e
000002a0: 3811 23bd 8083 24be a4c4 0bbe deea d9bd
000002b0: 9344 d53d ece0 0e3e a158 083e 7495 2f3e
000002c0: bef0 c53d 2bd3 44bd 7a28 9fbd cb45 1c3e
000002d0: 0011 c43d bc01 89bd f16a 8a3d 436c 59bb
000002e0: 4345 5d3c 88ad d6bd feed 6a3c d061 f2bc
000002f0: 2ff3 d1bb 9c7e 903c 4d12 25be d84b f3bd
00000300: 1b41 23bd bcbc 1cbe bc6d bbbd 5942 99bc
00000310: 6176 2e3e 2638 a0bd 4368 15be e21e 113e
00000320: c8f2 5f3d 7a0f 59bd 08f7 fb3c dd70 303e
00000330: bf97 e6bb 8e42 21be 7189 18bc 2d13 793c
00000340: 2f53 a0bd 77cf 643d 1183 ee3d b15c cbbc
00000350: cdf6 313e 1ecd fabb f059 673d 6ea6 0c3d
00000360: bd03 343e 1fe8 7e3d cdbb c03d ba60 25be
00000370: 9226 0d3b e920 ee3c 592c ccbd a08e b9bd
00000380: 03af 9bbb bdb5 b5bd 3c2f 113d d314 6abc
00000390: 0746 e93d 39d5 1abe 64c8 fa3d 2d49 69bd
000003a0: 09c3 773c d683 f7ba 36ee 6fbd 0117 0b3e
000003b0: 095f fbbd 850e 4ebc 31df 303e 61d7 18bd
000003c0: ad26 dc3d 8759 183e a1ff 2ebe e29f 853b
000003d0: 048d 69bd 20b0 33bc f21b 0b3e 5701 19bd
000003e0: 9ca6 d1bd 2d7d f9bd f674 d4bd 2715 debc
000003f0: 9911 1ebd 77e5 ee3d 5ea3 5e3d 9b4a 5a3d
0.022926312 -0.1379499 -0.06669673 0.018936785 0.16766424 -0.11092847 -0.1544058 0.059917476
0.17544565 -0.1120874 0.1954112 -0.13107972 0.22150846 0.16671175 0.06788034 0.12250112
-0.07960156 0.15940353 0.13743906 0.1471991 -0.13137089 0.16141436 0.19213553 -0.14768036
0.20349933 -0.0744792 0.041988716 0.12665011 -0.17229016 0.13171354 -0.14647374 0.1556964
0.1654456 0.045847576 -0.014487325 0.12983538 0.006151386 0.17380579 -0.007626134 0.07971336
-0.10997796 0.19799222 -0.17206548 0.11633846 -0.17510036 0.16907999 -0.042847056 0.1375206
0.26724118 -0.072075665 0.10832431 0.04856145 -0.081125624 0.070136696 0.15379661 0.20686056
0.124410935 -0.03798884 -0.23719265 0.17226408 -0.09594181 -0.055293337 0.11309034 -0.25451335
0.22042826 0.20850734 0.15303013 0.14182551 0.11963718 0.1562995 0.02210039 -0.104993895
0.118252344 0.14843495 -0.18667738 0.011084354 -0.13332713 -0.04877758 -0.15420726 -0.09013295
-0.22549927 -0.11203314 -0.159619 0.14167668 -0.08081288 0.115200214 -0.12682766 0.062288336
0.097113624 0.14391796 0.117733866 -0.12818368 -0.13683131 0.064057015 -0.15455402 0.05317284
-0.21049921 -0.14585343 0.015641348 0.14306535 -0.033270713 0.18935217 0.132731 -0.009116851
0.039720695 -0.122225694 0.20218466 -0.0011566563 -0.009463908 -0.09474918 0.11924186 -0.10577154
-0.069475874 -0.083990656 -0.069282 0.16791055 0.00028172816 0.051972166 0.09487266 0.18341456
-0.23096126 0.25091743 -0.14384195 0.17963953 0.034976814 0.0222768 0.12675475 0.180333
-0.13889393 0.063290134 -0.07227145 -0.056387983 0.16385429 0.050538186 0.17107813 -0.042979963
-0.20904514 -0.21746771 -0.024190191 0.054996688 -0.05813278 -0.23568542 -0.03579993 -0.1461784
-0.22527431 0.098821275 -0.17335498 0.055734698 0.15239997 0.12536933 0.14204474 0.1199167
-0.20748734 -0.24748571 0.14328712 0.10637242 -0.068935804 -0.06980717 -0.16029716 0.038218163
-0.16206104 0.073200606 0.04148512 0.12667064 -0.11927031 -0.01740355 -0.17676681 0.14488222
-0.039811343 -0.16065788 -0.13649231 -0.106405005 0.1041347 0.13952988 0.13315059 0.17146856
0.096650586 -0.048052948 -0.07771392 0.15260999 0.09573555 -0.06689784 0.06758679 -0.0033176101
0.013505283 -0.10482317 0.014338968 -0.029587656 -0.0064071636 0.017638497 -0.16120262 -0.118797004
-0.03985701 -0.15306371 -0.091517895 -0.018708395 0.17037345 -0.078232095 -0.14590554 0.14171937
0.054674894 -0.052993275 0.030757442 0.17230554 -0.0070371325 -0.15748045 -0.009310112 0.015202326
-0.07828366 0.055861916 0.11646093 -0.024824472 0.17379303 -0.0076538464 0.056482255 0.034338407
0.17579551 0.062233087 0.0941082 -0.1615018 0.0021537882 0.029068427 -0.09969396 -0.09060407
-0.0047510876 -0.088725545 0.035445437 -0.014287191 0.1139031 -0.151204 0.12245253 -0.05695455
0.015122184 -0.0018883895 -0.058576785 0.13582994 -0.12273986 -0.012576704 0.17272641 -0.037314776
0.10749564 0.14877902 -0.17089702 0.0040778974 -0.05701925 -0.010967284 0.13584879 -0.037354793
-0.10236856 -0.121820785 -0.10373871 -0.027109696 -0.038591 0.11664861 0.054355018 0.053293806

stack.3.0.bias f4 [10]
00000000: 49e8 a3bd 87ba 273d f550 1e3e 7bfb a23d
00000010: ab6b aebd 6774 5cbc 8c00 083d 5a97 44bc
00000020: 6f9b ef3d 3676 993d
-0.08003289 0.04094937 0.1546057 0.07958122 -0.0851663 -0.013455487 0.033203647 -0.011998976
0.116995685 0.0749325
