src/fminst/models/teacher_5cl_5.pt (torch, 447183 bytes, 8 tensors)

stack.0.0.weight f4 [128, 784]
0	0x3d658135	0.056031425
1	0xbd44723f	-0.047960516
2	0x3c9b577a	0.01896261
3	0x3d2d1698	0.042257875
4	0xbb430913	-0.0029760047
5	0xbdcc021d	-0.099613406
6	0xbde288ac	-0.11061224
7	0xbd615f26	-0.05502238
8	0xbdefa5cd	-0.11701546
9	0xbc8cca21	-0.017186226
10	0xbdd021d5	-0.10162703
11	0xbcb8c1fb	-0.022553435
12	0x3d950925	0.07277135
13	0x3d5cb846	0.053886674
14	0x3ca73a6f	0.020413605
15	0x3dbdba5e	0.09264062
16	0x3d8e9b6a	0.06963237
17	0xbd65680e	-0.056007437
18	0xbdc93788	-0.09825045
19	0xbdc1e52e	-0.09467541
20	0xbdcd5a74	-0.10027018
21	0xbe02feef	-0.12792562
22	0xbe107ddc	-0.14110512
23	0xbcacde3b	-0.021102061
24	0x3dd050bf	0.10171651
25	0x3cfdddb1	0.0309895
26	0x3d2b3672	0.04179997
27	0x3c8a234b	0.016862532
28	0x3d7d8d61	0.061902408
29	0xbcb44479	-0.022005307
30	0xbcb10d97	-0.021612925
31	0xb8e7510f	-0.00011030037
32	0xbd240476	-0.040043317
33	0xbd5aec4c	-0.053448007
34	0xbd67307c	-0.056442723
35	0xbd165511	-0.03670222
36	0x3d124d0c	0.03571801
37	0xbd03e42f	-0.032200035
38	0xbd0eb9bd	-0.034845103
39	0x3d76e152	0.060273476
40	0x3db45ded	0.088069774
41	0x3dbd373e	0.09239052
42	0x3d733bc8	0.059383184
43	0x3dfac7e3	0.122451566
44	0x3d5f2319	0.05447683
45	0xbcbbaa4e	-0.022908356
46	0x3c40f04a	0.011776039
47	0xbc8b5929	-0.017010288
48	0xbc37d804	-0.011220936
49	0xbd823c5c	-0.06359169
50	0xbca979f0	-0.020688027
51	0x3b9b4952	0.004738965
52	0x3d979521	0.07401491
53	0x3d5e400e	0.054260306
54	0x3db32b73	0.08748522
55	0x3d6fedc7	0.05857637
56	0x3d8346cf	0.0640999
57	0xbd080a52	-0.033212967
58	0x3bae97cf	0.0053281556
59	0x3d9eacf5	0.07747833
60	0xbbdff323	-0.006834404
61	0xbd8bea00	-0.06831741
62	0xbe058bf8	-0.13041675
63	0xbd8d6691	-0.069043286
64	0x3ca45cdb	0.020063808
65	0x3dcceb24	0.10005787
66	0x3cc3f5b5	0.023920873
67	0x3d0e5500	0.03474903
68	0x3d9145ee	0.07093416
69	0x3d93a73e	0.07209633
70	0x3e037b53	0.12840013
71	0x3d7f3980	0.062310696
72	0x3b7678e7	0.0037608685
73	0x3d264102	0.04058934
74	0x3d85ec0b	0.06539162
75	0x3d88a804	0.066726714
76	0xbd013f9f	-0.031554814
77	0xbd6af918	-0.05736646
78	0xbd9daef6	-0.07699387
79	0x3cdbb0e5	0.026817748
80	0x3dc471a4	0.09591988
81	0x3db6945f	0.08915018
82	0x3d44b77c	0.048026547
83	0x3d977cff	0.07396888
84	0x3d61cfbd	0.055129755
85	0xb9639ec0	-0.00021707546
86	0x3d811692	0.06303133
87	0x3d26709b	0.040634733
88	0xbceb462b	-0.028719982
89	0xbdd8b2ad	-0.10580955
90	0xbdeacb9f	-0.11464619
91	0x3bea8461	0.007156894
92	0x3d6d5d6c	0.057950422
93	0x3d626677	0.0552735
94	0xbd617191	-0.055039946
95	0xbc9cf63e	-0.019160386
96	0x3caf5dd6	0.02140705
97	0x3da5b76f	0.08091628
98	0x3de81f54	0.113341
99	0x3db3fa1e	0.087879404
100	0x3b8006f8	0.0039070807
101	0xbd6d8f11	-0.057997767
102	0xbc915ed9	-0.017745422
103	0x3d00a4c9	0.03140715
104	0x3cbbdc77	0.022932274
105	0xbda2483e	-0.07923935
106	0xbe028fb0	-0.12750125
107	0xbce14412	-0.027498279
108	0x3dadb66e	0.08482061
109	0x3df3f46c	0.11911854
110	0x3d5ab0fb	0.053391438
111	0x3ddadadb	0.106862746
112	0x3c214250	0.00984247
113	0x3d517116	0.051133238
114	0x3da939dc	0.08262989
115	0x3d4bd882	0.049767025
116	0xbd7e2b22	-0.062052853
117	0xbd95d290	-0.07315552
118	0xbbb95493	-0.005655834
119	0xbc334eb5	-0.010944058
120	0x3d4d2385	0.050082702
121	0x3a928f78	0.0011181673
122	0x3d0518f8	0.032494515
123	0x3bd759fa	0.0065720053
124	0x3d15bbbf	0.036556
125	0x3dd18bc8	0.10231739
126	0x3daac248	0.083378375
127	0x3d8a0b12	0.06740393
128	0xbbde9c22	-0.006793515
129	0xbc5e8751	-0.013582067
130	0xbce62b1b	-0.028096726
131	0x3bc3d4cd	0.0059762956
132	0xbc0585c2	-0.008149566
133	0xbca2acf7	-0.019857867
134	0xbda27de8	-0.07934171
135	0xbcd0488a	-0.025425214
136	0x3db11224	0.08646038
137	0x3d887c78	0.066643655
138	0x3dd44adf	0.10365843
139	0x3d34775f	0.044059154
140	0xbccab332	-0.02474365
141	0x3ddaf184	0.10690597
142	0x3cb2bd65	0.021818826
143	0xbcbd01a1	-0.023072066
144	0xbcbd1f7c	-0.023086302
145	0xbd0e6f92	-0.03477437
146	0xbce5655a	-0.02800243
147	0xbd769f02	-0.060210235
148	0x3a4d1981	0.000782393
149	0xbc38a8ee	-0.011270745
150	0x3b19c603	0.0023463971
151	0x3cfa9cd6	0.030592363
152	0x3cb90b6b	0.022588452
153	0x3d88f637	0.06687587
154	0x3d0088e3	0.031380545
155	0x3b90159f	0.0043971087
156	0xbb8cd792	-0.004298159
157	0xbc9c379c	-0.019069485
158	0x3c24ce85	0.010059004
159	0x3ce824d8	0.028337881
160	0xbd1e433b	-0.038638335
161	0xbcb55c7a	-0.022138823
162	0xbca4eeda	-0.020133425
163	0xbcfe9f27	-0.03108175
164	0x3d914fa9	0.07095272
165	0x3d857470	0.06516349
166	0x3de763d2	0.11298336
167	0x3d819cd0	0.06328738
168	0x3dd618b0	0.104539275
169	0x3e05f43a	0.13081446
170	0xbc5ec5c8	-0.013596959
171	0x3cf75133	0.030190086
172	0xbcd9baee	-0.026578393
173	0xbd083a96	-0.033258997
174	0xbd742801	-0.059608463
175	0xbdb8b7d9	-0.09019441
176	0xbce5a5c2	-0.028033141
177	0xbba10110	-0.0049134567
178	0x3c97cc48	0.018530026
179	0x3d032062	0.032013305
180	0x3b843450	0.0040345564
181	0x3b7950d7	0.003804257
182	0x3cb94b92	0.022619043
183	0xbc4bf106	-0.012447601
184	0x3cc59e6c	0.024123393
185	0x3c6fa2b7	0.014626197
186	0x3d2a76f1	0.041617338
187	0x3d491d76	0.04910036
188	0xbd04011a	-0.032227613
189	0xbd5f2217	-0.05447587
190	0xbcf8e646	-0.03038324
191	0xbcd43e4d	-0.025908614
192	0x3cfb2467	0.030657006
193	0x3d63bd88	0.055600673
194	0x3cf6c2a2	0.030122105
195	0x3dcecc75	0.10097591
196	0x3e04158d	0.12898846
197	0x3d4b03f3	0.049564313
198	0x3ca27082	0.019829039
199	0xbd0429c3	-0.03226639
200	0xbd19e21b	-0.037569147
201	0xbacacca1	-0.0015472361
202	0xbd4c87db	-0.04993425
203	0xbd08fe0c	-0.033445403
204	0x3cdc5518	0.026896045
205	0x3ceb1a3c	0.028699033
206	0x3d23b79a	0.039970018
207	0x3d9989df	0.07497
208	0x3d8385ed	0.06422029
209	0xbbe69326	-0.0070365844
210	0x3d1164e2	0.0354966
211	0x3c9cf720	0.019160807
212	0xbc1c2acd	-0.009531689
213	0x3c8fac94	0.017538346
214	0xbc442d79	-0.011973732
215	0x3d8df2e7	0.069310956
216	0xbbeeffad	-0.0072936625
217	0xbd893be8	-0.06700879
218	0xbd03a430	-0.032139003
219	0xbbcbdc8f	-0.006221361
220	0xbcf00984	-0.029301412
221	0x3d11651a	0.03549681
222	0xbc2de59f	-0.010613828
223	0x3d8a4e97	0.06753271
224	0x3d24d3f2	0.04024119
225	0x3d02bd49	0.031918798
226	0x3ca0eb11	0.019643338
227	0x3b82ca46	0.003991398
228	0x3c8be158	0.017075226
229	0x3d3fc6a7	0.04682031
230	0xbd033f35	-0.0320427
231	0xbd268dd8	-0.040662616
232	0x3c2e7f2a	0.010650435
233	0x3d04a2db	0.032381874
234	0xbd2cbe17	-0.04217347
235	0x3c3dfa77	0.01159536
236	0xbbb4d0db	-0.0055180616
237	0x3d2b1482	0.041767605
238	0x3c243004	0.010021213
239	0x3d2eef2f	0.042708572
240	0x3d2cb4dc	0.04216467
241	0xbca184cb	-0.019716641
242	0xbac5a58d	-0.0015079245
243	0x3d5fa994	0.05460508
244	0xbcce21be	-0.025162574
245	0xbca11eb6	-0.019667964
246	0xbbad7d45	-0.0052944743
247	0xbba10087	-0.004913393
248	0xbafdf103	-0.0019374195
249	0xbc8e3061	-0.017357053
250	0xbc6acf7b	-0.014331694
251	0xbcee8120	-0.029114306
252	0x3d651c51	0.055935208
253	0x3ab38cfa	0.001369863
254	0x3d14eb15	0.036357004
255	0xbcf0d004	-0.029396065

stack.0.0.bias f4 [128]
0	0x3e665f48	0.22497284
1	0xbd83d406	-0.06436925
2	0xbdc025db	-0.0938222
3	0x3caf1d1a	0.021376181
4	0xbcfa2f0b	-0.03054001
5	0x3def98a2	0.11699034
6	0x3b7dd808	0.00387335
7	0x3dcd72aa	0.10031636
8	0x3de0c962	0.10975911
9	0x3dbb5f25	0.09149007
10	0x3d98a112	0.07452597
11	0x3d051d2a	0.032498516
12	0x3d986f79	0.07443137
13	0xbc893e95	-0.016753474
14	0xbbe7d88e	-0.007075376
15	0x3da2ee9b	0.07955667
16	0xbcd4a937	-0.025959594
17	0x3e0b5e81	0.13610269
18	0x3d4f9886	0.050682567
19	0xbccc7200	-0.024956703
20	0xbc0cf2a5	-0.008602773
21	0xbd745b96	-0.059657656
22	0xbc7da7e0	-0.015481919
23	0x3dbb3244	0.09140447
24	0x388e6a10	6.790843e-05
25	0x3d4c20fc	0.049836144
26	0x3d881184	0.06643966
27	0xbd8e464f	-0.06947004
28	0x3dcaeaa0	0.099080324
29	0x3e015f2a	0.12633958
30	0x3e00a2f9	0.12562169
31	0xbcbc57ba	-0.02299105
32	0xbc8acc7a	-0.016943205
33	0x3dc74e37	0.09731715
34	0x3e08d7d2	0.13363579
35	0xbd68f204	-0.05687143
36	0xbd016c4f	-0.03159743
37	0x3da47a8d	0.08031187
38	0x3e0d45fb	0.13796227
39	0xbcf95f3d	-0.030440921
40	0x3cbfba46	0.023404252
41	0xbd3ec25b	-0.04657207
42	0x3e020c25	0.12699945
43	0x3d3ed32e	0.046588115
44	0xbca484d9	-0.020082878
45	0x3dbd0f97	0.09231489
46	0x3d845363	0.06461217
47	0xbb9a8db0	-0.0047165975
48	0x3e2432de	0.1603503
49	0x3d8ed45d	0.06974099
50	0xbd84efa4	-0.0649102
51	0xbb9c5a30	-0.0047714934
52	0xbca6a939	-0.020344364
53	0x3d4a97fd	0.049461354
54	0x3dbbb88c	0.09166059
55	0x3c164926	0.009172713
56	0x3e24189f	0.16025017
57	0x3e20d364	0.15705639
58	0x3d6a632a	0.057223476
59	0x3e0e9e14	0.1392749
60	0x3dd1e407	0.10248571
61	0x3d2aca97	0.04169711
62	0xbd6a5cf0	-0.05721754
63	0xbd00b897	-0.03142604
64	0x3d82d653	0.06388535
65	0x3d0c22d5	0.034212906
66	0x3db555fc	0.08854291
67	0xbd958a01	-0.07301713
68	0xbd92d645	-0.07169775
69	0x3c9a99cf	0.01887217
70	0x3d987e70	0.07445991
71	0x3dbc01dc	0.09180042
72	0xbd9c54b3	-0.076333426
73	0x3d5c67a9	0.053809796
74	0x3d954324	0.07288197
75	0xbb302ec8	-0.0026883353
76	0x3e421a1c	0.18955272
77	0x3d41ccc3	0.047314417
78	0x3dda65e6	0.10663967
79	0x3dffcf84	0.12490752
80	0x3ddc3a95	0.10753361
81	0x3dcf0e2d	0.10110126
82	0x3d45e42c	0.048313305
83	0x3da27b4b	0.079336725
84	0x3cc06fdd	0.02349084
85	0x3d282acc	0.04105644
86	0x3db482b8	0.08813995
87	0x3e129870	0.14315963
88	0x3c9e134c	0.01929631
89	0xbca5fb99	-0.020261573
90	0xbd8162aa	-0.06317647
91	0xbb1d09e2	-0.002396219
92	0xbd0f8816	-0.03504189
93	0x3c9baf8d	0.019004608
94	0x3cbfb8ae	0.023403492
95	0xbd39694c	-0.045266435
96	0x3dccfb42	0.10008861
97	0xbd9c28ec	-0.07624993
98	0x3c3ad48b	0.011403213
99	0x3c025d7d	0.00795686
100	0x3c9f1084	0.019417055
101	0x3d95aa13	0.0730783
102	0x3de3641c	0.11103079
103	0xbc69ad1f	-0.014262467
104	0x3e122031	0.14270093
105	0x3d4202c9	0.047365937
106	0x3dda9e32	0.106747046
107	0xbc35fbed	-0.011107427
108	0x3dc58e10	0.09646237
109	0xbcf78d44	-0.030218728
110	0x3b361d45	0.0027788442
111	0xbcb84038	-0.02249156
112	0xbb7588f7	-0.003746567
113	0x3d991e71	0.07476509
114	0x3e124b11	0.14286448
115	0xbc6629d5	-0.0140480595
116	0xbbc2eac2	-0.0059483955
117	0x3d18738b	0.037219565
118	0x3df1861a	0.11793156
119	0x3dbb1ba2	0.0913613
120	0x3cbc0955	0.022953669
121	0xbb837fa5	-0.004013019
122	0x3d0fad35	0.035077292
123	0x3d38a2ee	0.045077257
124	0x3e1c8583	0.15285306
125	0x3dca2682	0.09870626
126	0x3cc78132	0.024353597
127	0x3da768b1	0.08174265

stack.1.0.weight f4 [64, 128]
0	0x3d68658e	0.056737475
1	0xbd38ebbf	-0.0451467
2	0xbdb0ddd3	-0.086360596
3	0x3ddfb5c2	0.109233394
4	0x3ca89aaa	0.020581562
5	0xbd0c25e5	-0.034215827
6	0x3d595609	0.053060565
7	0x3cea11bc	0.02857291
8	0xbdff17a7	-0.12455683
9	0x3da0fc51	0.078606255
10	0xbda73305	-0.08164028
11	0xbd480b3f	-0.04883885
12	0x3d6466a1	0.055761937
13	0xbbbb541a	-0.005716813
14	0x3d793c23	0.060848366
15	0xbd8eb1ed	-0.069675304
16	0xbb037149	-0.0020056537
17	0x3e09ae3d	0.13445373
18	0x3dd1fb06	0.10252957
19	0xbd2525cd	-0.040319253
20	0xbd3efa44	-0.04662539
21	0x3cc2c1bd	0.023774022
22	0xbe556fe1	-0.2084346
23	0x3d0bbd91	0.03411633
24	0x3d87f5c1	0.06638671
25	0x3c9a7eb3	0.018859243
26	0x3d8408aa	0.06446965
27	0x3dbffad7	0.09374016
28	0x3dffd052	0.12490906
29	0x3d99e31c	0.07514021
30	0x3a2fe205	0.00067094
31	0xbdb2e436	-0.08734934
32	0xbdc85225	-0.09781293
33	0x3d79caf7	0.060984578
34	0x3b8874d6	0.0041643186
35	0xbddb0215	-0.106937565
36	0x3d72f372	0.0593142
37	0xbdee557b	-0.11637398
38	0x3cb995e4	0.022654481
39	0x3dc938bf	0.098252766
40	0xbdf3119a	-0.118685916
41	0x3dcd8016	0.10034196
42	0xbdaa46fc	-0.083143204
43	0x3d897a80	0.06712818
44	0xbcb1cb3e	-0.021703359
45	0x3d54641e	0.05185329
46	0xbd03f74e	-0.03221827
47	0x3da345a9	0.07972271
48	0xbadf0c56	-0.0017017226
49	0x3d860c87	0.06545358
50	0xbdaeb3e7	-0.085304074
51	0x3e578fa9	0.21050896
52	0x3dca16e4	0.09867647
53	0xbc644468	-0.013932325
54	0x3d3b123d	0.04567169
55	0xbe0dd839	-0.13852014
56	0x3cc6c670	0.024264544
57	0x3da7de28	0.0819667
58	0x3c70eda8	0.014705099
59	0xbd3e6a57	-0.046488132
60	0x3de8fe64	0.11376646
61	0xbcd56912	-0.026051078
62	0xbe10a16a	-0.14124075
63	0x3d23bb63	0.039973628
64	0xbd805196	-0.06265561
65	0x3da09434	0.078407675
66	0xbcba67c6	-0.022754561
67	0x3ce0d8cc	0.027447127
68	0x3c3d8bc1	0.011568964
69	0x3dc5228f	0.09625732
70	0xbd5e1c71	-0.054226343
71	0x3bb63f1f	0.005561724
72	0xbde67fca	-0.112548426
73	0x3cacdfe9	0.021102862
74	0xbd0043e7	-0.031314757
75	0x3dc469d5	0.09590498
76	0x3db6378f	0.08897316
77	0x3dbb6a91	0.09151185
78	0x3d9e8cee	0.07741724
79	0x3c3fa297	0.011696479
80	0x3d878d07	0.06618696
81	0x3c92f56e	0.017939296
82	0xbd3b68b8	-0.045754164
83	0xbae93dd7	-0.0017794919
84	0x3d79a902	0.060952194
85	0xbcda8f4a	-0.026679654
86	0x3b830540	0.0039984286
87	0x3db1862d	0.0866817
88	0x3d485791	0.048911635
89	0xbd037ee3	-0.03210343
90	0xbd863f22	-0.065550104
91	0xbdf82bfa	-0.12117763
92	0x3c651697	0.013982437
93	0xbc6e4fe8	-0.014545418
94	0xbe1d3257	-0.15351234
95	0xbde0cb99	-0.10976333
96	0xbd9e10a7	-0.0771802
97	0xbdaac7a1	-0.083388574
98	0xbde23715	-0.11045662
99	0xbe394d18	-0.18095815
100	0xbd1aa078	-0.03775069
101	0xbdd225e9	-0.10261137
102	0xbc4aaab9	-0.012369805
103	0xbd9acfe1	-0.07559181
104	0xbca3732d	-0.019952381
105	0xbcf43722	-0.029811446
106	0xbd63ed97	-0.055646505
107	0x3ddc0fea	0.10745223
108	0xbcd1168d	-0.025523448
109	0xbd627779	-0.05528972
110	0x3d99da26	0.07512312
111	0xbd1b38dc	-0.037896022
112	0x3d3923a0	0.04519999
113	0x3cf51f43	0.029922133
114	0x3d9fb1af	0.07797562
115	0x3cebc11b	0.028778603
116	0xbd6e7970	-0.05822128
117	0xbd8cf624	-0.06882885
118	0xbc0a8be5	-0.008456205
119	0xbb8a8f5d	-0.004228516
120	0x3dcee5b8	0.10102409
121	0x3d77719e	0.06041109
122	0xbb96e685	-0.004605117
123	0xbdb0d7ad	-0.08634887
124	0xbc46f890	-0.012144223
125	0x3bfd3596	0.007727335
126	0x3d2bb340	0.041918993
127	0x3dc84db3	0.09780445
128	0x3c76c102	0.015060665
129	0xbc93a632	-0.018023584
130	0x3dd19bc0	0.10234785
131	0xbd75617d	-0.059907425
132	0x3d93e6eb	0.072217785
133	0xbde63169	-0.11239893
134	0x3cdc1a17	0.02686791
135	0xbd8f3f6f	-0.06994521
136	0x3dedb492	0.11606707
137	0xbcc96081	-0.02458215
138	0x3ba4ed5b	0.005033178
139	0x3dc28bb9	0.09499306
140	0xbd096a6f	-0.03354877
141	0xbd18ab09	-0.037272487
142	0x3cebd5d8	0.028788492
143	0x3dadad52	0.08480324
144	0xbe02d33b	-0.1277589
145	0xbc3d2158	-0.011543594
146	0xbc15ed52	-0.00915082
147	0x3dbd7367	0.09250527
148	0x3e11905f	0.1421523
149	0xbd4b5346	-0.049639963
150	0x3e586c79	0.21135129
151	0x3ded029d	0.11572764
152	0xbd5de925	-0.054177422
153	0x3d9feeb2	0.078091994
154	0x3c8a74e1	0.016901435
155	0xbdf1f8b4	-0.118150145
156	0xbdb8e12c	-0.09027323
157	0x3e0b7dbb	0.13622181
158	0xbde572dc	-0.11203548
159	0x3d6c4b71	0.057689134
160	0x3d7c3452	0.061573334
161	0xbc1abac7	-0.009443945
162	0xbdb40b42	-0.0879121
163	0x3d1ad471	0.037800256
164	0xbd100500	-0.03516102
165	0x3bffd0cc	0.007806873
166	0x38d2b435	0.000100471465
167	0x3da19695	0.07890049
168	0x3ce083f6	0.027406674
169	0x3c367ff7	0.011138908
170	0x3d49caac	0.04926555
171	0x3d95af26	0.073087975
172	0x3d90697f	0.07051372
173	0xbd14855b	-0.03625999
174	0x3dd4cec7	0.10391002
175	0x3c6b7331	0.0143707255
176	0x3d9ad405	0.07559971
177	0x3cd47300	0.025933743
178	0xbc9cd240	-0.019143224
179	0x3e54cf37	0.20782171
180	0xbd87c06c	-0.066284984
181	0x3dd5a03c	0.10430953
182	0xbd70cbf1	-0.058788244
183	0xbe3b4017	-0.18286167
184	0x3d98769b	0.07444497
185	0x3da818c4	0.08207849
186	0xbdcd48f7	-0.100236826
187	0xbd241544	-0.040059343
188	0xbe19764a	-0.1498653
189	0x3d9ba459	0.07599706
190	0x3d8d0a5e	0.06886743
191	0xbd8d7cca	-0.06908567
192	0x3dbaeda7	0.0912736
193	0xbcc2b9bd	-0.023770208
194	0x3d08481f	0.033271905
195	0x3d01bdf4	0.031675294
196	0x3d190fee	0.037368707
197	0xbd8958d8	-0.06706399
198	0x3d36d2c9	0.044634614
199	0x3d8c8c1e	0.06862663
200	0x3c5272b2	0.012844728
201	0xbd87911b	-0.066194735
202	0x3e27be48	0.1638118
203	0x3d2f2cff	0.04276752
204	0xbc806062	-0.015670959
205	0x3c6ff91d	0.014646796
206	0x3dcb8c0b	0.099388205
207	0x3e063f5b	0.13110106
208	0xbd6f0612	-0.0583554
209	0xbd13f9be	-0.036126845
210	0x3e2c92b8	0.16852844
211	0x3e32ada3	0.1744905
212	0x3dfe3ecf	0.124143235
213	0x3bb48bdd	0.005509837
214	0xbb83ed51	-0.004026093
215	0x3db13e1a	0.08654423
216	0xbdcb6869	-0.09932024
217	0xbd806e1a	-0.06271
218	0x3e103c72	0.14085558
219	0x3c1d92b4	0.009617496
220	0x3cb7dd8a	0.022444505
221	0xbd4050b1	-0.046951953
222	0xbd49408c	-0.049133822
223	0x3d754f48	0.05989006
224	0x3c75855d	0.01498541
225	0x3dfa2018	0.12213153
226	0xbd216cb3	-0.039410304
227	0xbe9c97f1	-0.30584672
228	0xbde454c1	-0.11148978
229	0x3d4b5e7c	0.049650654
230	0xbe4f1d79	-0.20226087
231	0x3c531338	0.012883
232	0xbd1002aa	-0.03515879
233	0x3db4e125	0.088320054
234	0x3d9d3beb	0.07677444
235	0xbdcedb16	-0.10100381
236	0xbda1c8d4	-0.07899633
237	0xbd8be145	-0.06830076
238	0xbd5df7ef	-0.054191526
239	0x3a1dd457	0.0006020716
240	0xbce2f700	-0.02770567
241	0xbd6c55f8	-0.057699174
242	0xbceb1f70	-0.028701514
243	0x3dd6d244	0.10489324
244	0xbcd71060	-0.026252925
245	0xbd813aa7	-0.06310015
246	0xbd700fc9	-0.058608804
247	0xbdf08b3b	-0.11745306
248	0xbe08ff1f	-0.13378571
249	0xbe0e543d	-0.13899322
250	0xbd31ec9d	-0.043438543
251	0x3d179de6	0.037015818
252	0xbe8c2f1f	-0.273797
253	0xbb3b9433	-0.002862227
254	0x3d34fde1	0.04418743
255	0xbd04a861	-0.03238714

stack.1.0.bias f4 [64]
0	0x3ce4c4ff	0.027925966
1	0xbd8878aa	-0.0666364
2	0xbce681d4	-0.028138079
3	0xbc49bf9a	-0.012313748
4	0xbd822fe8	-0.06356794
5	0xbd2f2e22	-0.042768605
6	0xbe0031c4	-0.12518984
7	0xbd9773b8	-0.073951185
8	0x3e18a314	0.1490596
9	0xbe1f2855	-0.15542729
10	0x3c462c1c	0.012095477
11	0x3da45cd7	0.0802552
12	0x3981e172	0.00024772767
13	0x3dfbc158	0.12292737
14	0x3d93be19	0.072139926
15	0xbd226a1b	-0.03965197
16	0x3db7d9b2	0.08977069
17	0xbd9b92f6	-0.0759639
18	0xbd6efb9e	-0.05834543
19	0xbd314921	-0.04328263
20	0x3e285f19	0.16442527
21	0xbccbf8b2	-0.02489886
22	0x3d83bd20	0.06432557
23	0x3d2f238b	0.042758506
24	0x3d870d9c	0.06594393
25	0xbcb59534	-0.022165872
26	0x3e448451	0.191911
27	0xbd469066	-0.048477553
28	0x3c294d5c	0.010333385
29	0xbdfcd0bf	-0.12344503
30	0x3d9d909f	0.076936
31	0x3d4ee624	0.050512448
32	0x3c664d2c	0.014056485
33	0x3dd94aeb	0.106099926
34	0xbe05d843	-0.13070779
35	0xbe1ab1bf	-0.15106867
36	0x3cedec5e	0.029043373
37	0x3e63a440	0.22230625
38	0x3d5e1c22	0.05422605
39	0xbd20d49f	-0.03926527
40	0xbd1f629b	-0.038912397
41	0x3d408127	0.04699817
42	0xbc887fd2	-0.016662512
43	0x3dcff0b4	0.10153332
44	0x3db0ce64	0.08633116
45	0x3d8119ca	0.06303747
46	0x3dcd44f8	0.1002292
47	0x3d34bf7b	0.044127923
48	0xbc04b2fb	-0.008099313
49	0xbd504d7c	-0.050855145
50	0x3e0a3a6e	0.13498852
51	0x3dcd219d	0.10016177
52	0xbd524c7e	-0.05134248
53	0x3bb0962c	0.0053889956
54	0x3cccd6a6	0.025004696
55	0x3d344dbc	0.044019446
56	0x3da7614b	0.08172854
57	0x3da38dc3	0.07986023
58	0x3d89e5d5	0.0673329
59	0x3dc3eb73	0.09566393
60	0x3e40f8b7	0.18844877
61	0xbd8c481f	-0.068496935
62	0x3d84c412	0.0648271
63	0x3d57a1b3	0.052644443

stack.2.0.weight f4 [32, 64]
0	0xbde1cecc	-0.110257715
1	0x3dc952d4	0.09830251
2	0x3cd7b130	0.026329607
3	0x3d3f7e34	0.046751216
4	0x3d6b0ed0	0.057387173
5	0x3d33f118	0.043931097
6	0xbdba4c16	-0.090965435
7	0x3d6a2cec	0.057171747
8	0x3d8427ec	0.06452927
9	0xbd84aa80	-0.06477833
10	0xbd1b5128	-0.037919194
11	0xbde3c664	-0.111218244
12	0xbd6aeef8	-0.057356805
13	0xbd19f458	-0.03758654
14	0xbddd522c	-0.10806689
15	0x3c9a1368	0.018808082
16	0x3ca2aca8	0.01985772
17	0xbdedc780	-0.11610317
18	0x3d221e94	0.039579943
19	0xbdaa5726	-0.083174035
20	0xbd9e9e0a	-0.07744987
21	0xbcf8cdf8	-0.030371651
22	0xbdf5ba5e	-0.11998437
23	0x3dd1290a	0.10212906
24	0x3db28c28	0.08718139
25	0xbddfe676	-0.10932629
26	0xbd4e87dc	-0.050422534
27	0x3be14320	0.006874457
28	0xbd01eeac	-0.031721756
29	0xbb140080	-0.0022583306
30	0x3d155320	0.036456227
31	0x3daf3d14	0.085565716
32	0xbdbdf310	-0.09274876
33	0xbdfb9e02	-0.12285997
34	0xbd810b4e	-0.06300984
35	0xbcb1b6a0	-0.021693528
36	0x3dbd0950	0.09230292
37	0xbd9bdeb6	-0.07610838
38	0x3bd47840	0.0064840615
39	0xbcf1afe0	-0.029502809
40	0x3dcd1f7c	0.10015771
41	0xbca3dfb0	-0.020004123
42	0xbc1ac840	-0.009447157
43	0xbdd4b604	-0.10386279
44	0x3cd8b948	0.026455536
45	0xbd141488	-0.036152393
46	0xbde866c4	-0.11347726
47	0xbd999966	-0.074999616
48	0xbdc8d370	-0.098059535
49	0xbcd10bc0	-0.025518298
50	0x3dccd0f4	0.10000792
51	0x3d59e6e8	0.053198725
52	0xbc7b0830	-0.015321776
53	0xbd24b324	-0.040209904
54	0x3dc5d6ba	0.096600965
55	0x3d65a1f4	0.056062654
56	0xbdbfe072	-0.093689814
57	0xbc9801c0	-0.018555522
58	0xbb8f3180	-0.0043699145
59	0xbdf6642a	-0.120308235
60	0xbdf97332	-0.12180175
61	0x3d3aac84	0.04557468
62	0x3dad40a2	0.08459593
63	0xbd894998	-0.0670349
64	0x3df433f8	0.11923975
65	0xbe22625f	-0.15857838
66	0xbd9f7c06	-0.077873275
67	0x3c8730e2	0.016502801
68	0xbd89d433	-0.06729927
69	0x3bea2aae	0.007146201
70	0x3d7d44cf	0.0618332
71	0xbd43b1c4	-0.047776952
72	0x3d311297	0.04323062
73	0x3e17b1be	0.14813897
74	0x3da73742	0.081648365
75	0xbe48f039	-0.19622888
76	0xbc9b4a66	-0.018956374
77	0x3c385958	0.01125177
78	0xbdc02b37	-0.093832426
79	0x3e252f19	0.16131248
80	0xbd823542	-0.06357814
81	0xbd5e1596	-0.054219805
82	0xbe403c54	-0.18773013
83	0xbd30c86c	-0.043159887
84	0x3d797a12	0.06090743
85	0x3c883bfe	0.016630169
86	0x3d8673ac	0.065650314
87	0xbdeea7ad	-0.11653075
88	0x3dc081e2	0.09399773
89	0xbd8e0c7e	-0.069359764
90	0xbde1407d	-0.10998628
91	0xba6b52e5	-0.0008976891
92	0x3da2fedc	0.07958767
93	0x3db7200a	0.08941658
94	0x3d542a27	0.051798012
95	0xbe31d267	-0.17365418
96	0xbdd7f47f	-0.10544681
97	0x3e04bcaf	0.12962602
98	0x3dbe34e6	0.09287433
99	0xbd75a6dd	-0.059973586
100	0xbe20ecc3	-0.15715317
101	0x3c2078c6	0.00979442
102	0x3dd08612	0.10181822
103	0x3d910ed4	0.07082906
104	0x3d27bec4	0.040953413
105	0x3b42a98d	0.002970311
106	0xbda0a82f	-0.078445785
107	0xbe143409	-0.14472975
108	0x3d95080c	0.072769254
109	0x3d0362f9	0.03207681
110	0x3d1e40e3	0.0386361
111	0x3dc6c6f4	0.09705916
112	0xbdd819cd	-0.10551796
113	0x3cba3ee4	0.022735067
114	0x3d9969e1	0.07490898
115	0x3dcbdcaa	0.09954198
116	0x3c809648	0.01569666
117	0x3d4d06f0	0.050055444
118	0x3cce3631	0.025172325
119	0x3d28a00f	0.04116827
120	0xbb74cffd	-0.0037355416
121	0xbe468c5a	-0.19389477
122	0xbe293259	-0.16523112
123	0x3df41c47	0.11919456
124	0x3db8f11a	0.090303615
125	0xbdd75c14	-0.105156094
126	0x3d84cb2d	0.06484065
127	0xbe0ba820	-0.13638353
128	0xbcc66772	-0.024219248
129	0x3cb3f866	0.021969032
130	0x3d5b8e68	0.053602606
131	0x3de95163	0.113924764
132	0xbcf6e9c8	-0.030140772
133	0x3d6154a5	0.055012364
134	0x3d7ae2ba	0.06125138
135	0x3cab4f10	0.020911723
136	0x3cdec511	0.027193578
137	0xbd94c409	-0.07263953
138	0xbcf7079b	-0.030154994
139	0x3dea0da2	0.114283815
140	0xbde84961	-0.11342121
141	0x3d920383	0.07129576
142	0xbbbdab09	-0.0057882112
143	0xbcb4f4f7	-0.022089465
144	0xbe348e38	-0.17632377
145	0x3e2e16e2	0.17000917
146	0x3de234e1	0.11045242
147	0x3dc6a8d1	0.09700168
148	0x3df6e7f0	0.12055957
149	0x3d72bb14	0.059260443
150	0xbe3447a3	-0.17605452
151	0x3ba6f57c	0.005095182
152	0x3d9b3f8f	0.07580482
153	0xbcfb4baf	-0.030675737
154	0xbd20d47f	-0.039265152
155	0x3df4c489	0.119515486
156	0xbd125583	-0.03572608
157	0xbda17301	-0.078832634
158	0xbcd01dd7	-0.025404854
159	0xbccdb2cc	-0.025109671
160	0xbda64fdd	-0.081207015
161	0x3dbbf239	0.0917706
162	0x3e23b022	0.15985158
163	0x3d915117	0.07095545
164	0x3e1e998c	0.15488261
165	0x3d840814	0.06446853
166	0x3d95d5dd	0.07316182
167	0x3e0dc2d5	0.13843854
168	0x3e1b3265	0.15155943
169	0xbd9ffbc1	-0.0781169
170	0x3c7efb2d	0.015562815
171	0xbe0055d8	-0.12532747
172	0x3cb22905	0.021748075
173	0xbe1cca9c	-0.15311664
174	0xbc948c7d	-0.018133396
175	0xbd91a3eb	-0.07111343
176	0x3bd645cb	0.0065390817
177	0xbdc84530	-0.097788215
178	0xbd04d959	-0.03243384
179	0xbe02c050	-0.12768674
180	0x3cf5504d	0.029945517
181	0x3d8cd8a8	0.068772614
182	0xbd0d6e12	-0.0345288
183	0xbdd94f86	-0.10610871
184	0xbe273239	-0.16327752
185	0xbdaa6d9c	-0.083216876
186	0x3cd1a8c8	0.025593176
187	0x3dbd4918	0.09242457
188	0x3d136d05	0.03599264
189	0xbe25fcc6	-0.16209707
190	0xbdfbc3e9	-0.12293226
191	0xbe5fd3b4	-0.21858102
192	0xbd91b7c7	-0.07115131
193	0x3d7dcdc3	0.061963808
194	0x3bea93a0	0.0071587116
195	0x3d97d776	0.07414143
196	0xbe28d06e	-0.1648576
197	0x3d90e9fb	0.07075878
198	0xbd083127	-0.03325
199	0xbda26f66	-0.07931404
200	0xb810d739	-3.4532717e-05
201	0x3dd47ec0	0.10375738
202	0x3d9535be	0.07285641
203	0x3d438f70	0.047744215
204	0xbd9cf73f	-0.07664346
205	0xbd897eff	-0.06713676
206	0xbdd1eba6	-0.102500245
207	0x3dd0a853	0.10188355
208	0x3d257612	0.040395804
209	0x3d2623ee	0.04056161
210	0x3d3caaa1	0.046061162
211	0xbd60111c	-0.054703817
212	0xbc9ae5f9	-0.018908488
213	0x3d4ce4ed	0.05002301
214	0xbd316dcc	-0.0433176
215	0xbc2ff10b	-0.0107386215
216	0x3d8a9bb1	0.06767977
217	0xbcc4c194	-0.024018086
218	0xbd07399b	-0.03301392
219	0xbd8e21e6	-0.06940059
220	0xbd187f94	-0.037231043
221	0x3d842be8	0.06453687
222	0xbd5b4b50	-0.05353862
223	0xbdd19566	-0.102335736
224	0xbc942858	-0.018085644
225	0x3d35d569	0.044392977
226	0x3d266b71	0.040629808
227	0x3e006733	0.12539367
228	0x3e01b3a0	0.12666178
229	0xbe5b17f3	-0.21395855
230	0x3dbb07f4	0.09132376
231	0xbd5445ee	-0.051824503
232	0x3d2c25ef	0.042028364
233	0x3c5e638a	0.013573537
234	0xbc57f2ae	-0.013180418
235	0xbddf3f20	-0.10900712
236	0x3dcfe44d	0.10150967
237	0x3a56bc9f	0.0008191559
238	0x3d9a0067	0.07519608
239	0xbe0d1ffb	-0.13781731
240	0x3dc15ae4	0.09441164
241	0x3d803791	0.062605985
242	0x3d7817ca	0.060569562
243	0x3d9d7771	0.07688797
244	0xbc1148a3	-0.008867416
245	0xbdc2d174	-0.09512606
246	0x3d9926b5	0.07478086
247	0x3df1c415	0.11804978
248	0xbe5f83a7	-0.21827565
249	0xbdfd6f91	-0.12374795
250	0xbe0718fc	-0.13193125
251	0x3dae33a2	0.08505942
252	0xbdf01a95	-0.1172382
253	0xbd98805a	-0.07446356
254	0xbd8de363	-0.06928136
255	0xbd47c184	-0.048768535

stack.2.0.bias f4 [32]
0	0xbd339b34	-0.043849185
1	0xbdc41539	-0.095743604
2	0xbc749173	-0.014927256
3	0x3d15a852	0.036537476
4	0xbcfb0ac4	-0.030644782
5	0x3e31e005	0.17370613
6	0xbd4f9ed8	-0.050688595
7	0x3d97d955	0.074145
8	0x3db60e13	0.08889403
9	0xbbf31df4	-0.007419342
10	0xbe409152	-0.18805435
11	0x3da31434	0.07962838
12	0x3db1bcdd	0.08678601
13	0x3b9a8132	0.0047151083
14	0x3dc10fe5	0.0942686
15	0x3d91758b	0.07102498
16	0x3dd64377	0.10462087
17	0xbd7fccf9	-0.062451337
18	0x3e0b52f3	0.13605861
19	0x3d73fb3a	0.05956576
20	0xbca6ffcf	-0.02038565
21	0x3d4d2e37	0.050092902
22	0x3e20e9cb	0.15714185
23	0x3e56c512	0.20973614
24	0x3d790b90	0.060802042
25	0x3d01291a	0.031533338
26	0xbca55685	-0.020182857
27	0x3d837a54	0.064198166
28	0x3d37755c	0.044789657
29	0xbdbffbaa	-0.09374173
30	0xbd808666	-0.062756345
31	0x3dfa2a95	0.12215153

stack.3.0.weight f4 [10, 32]
0	0x3df79a90	0.12090027
1	0xbdd93533	-0.1060585
2	0xbe102261	-0.14075615
3	0xbdfe31c1	-0.124118336
4	0x3e235e99	0.15954055
5	0x3e463c34	0.19358903
6	0x3d9fda3a	0.07805295
7	0x3df5b77f	0.1199789
8	0x3cdcc8a7	0.026951147
9	0xbdecea46	-0.115681216
10	0xbe45a109	-0.19299711
11	0x3dad71f4	0.084690005
12	0x3e49aa73	0.19693927
13	0x3e3dc96b	0.18533866
14	0xbcc53350	-0.02407232
15	0x3c4c3852	0.0124646
16	0xbdd1fa27	-0.10252791
17	0xbe4fc1e3	-0.20288806
18	0x3e882840	0.26593208
19	0x3e4fab2f	0.20280145
20	0x3b4c7082	0.003119499
21	0xbdb0ac2f	-0.086265914
22	0x3e4dc04e	0.2009289
23	0x3e2165d3	0.15761499
24	0xbe0c037a	-0.13673201
25	0xbd2d68d3	-0.042336296
26	0xbe459c56	-0.19297919
27	0x3da2a357	0.07941311
28	0x3dc7036b	0.09717449
29	0x3d6f70c4	0.05845715
30	0xbcabfef2	-0.02099559
31	0xbd5785e5	-0.052617926
32	0xbc5e2e85	-0.013560896
33	0xbe855133	-0.26038513
34	0x3e4d4708	0.20046628
35	0x3ce15f4e	0.027511265
36	0x3e44d8ae	0.19223282
37	0x396e2fc1	0.00022715238
38	0x3b9aea4b	0.004727637
39	0x3e7193e6	0.23591575
40	0xbe898862	-0.26861864
41	0xbd75db35	-0.060023505
42	0x3e11fe12	0.14257076
43	0xbc34385c	-0.010999765
44	0xbd95f334	-0.07321778
45	0x3dfff1d9	0.12497301
46	0xba802d88	-0.0009779194
47	0xbdf754a4	-0.12076691
48	0xbdf00e32	-0.117214575
49	0x3e034c4c	0.12822074
50	0xbd7cee4a	-0.061750688
51	0xbd30a5d0	-0.04312688
52	0xbe18a2fb	-0.14905922
53	0xbd5d7069	-0.05406228
54	0x3e00cfcd	0.1257927
55	0xbe6d826e	-0.23194286
56	0xbda24418	-0.07923144
57	0x3d20c206	0.039247535
58	0xbcfefa32	-0.031125162
59	0xbcb55a0c	-0.022137664
60	0x3e1071ee	0.1410596
61	0x3c0781c6	0.0082706865
62	0xbe1037d2	-0.14083794
63	0x3e723fa3	0.23657088
64	0xbd9bb4b1	-0.076028235
65	0x3d22cf8c	0.039748713
66	0xbdf34427	-0.118782334
67	0xbe2e9818	-0.17050207
68	0x3debb73b	0.11509558
69	0xbddf6003	-0.10906985
70	0xbdf99d4e	-0.121882066
71	0xbe34bc7a	-0.17650023
72	0xbe31f2bc	-0.17377752
73	0xbe304035	-0.17211993
74	0xbd429a42	-0.047510393
75	0xbdca7835	-0.09886209
76	0x3d7c730a	0.061633147
77	0xbd1c0767	-0.038092997
78	0xbe12e52d	-0.14345236
79	0xbb884c02	-0.0041594515
80	0x3d65e44c	0.056125924
81	0xbdf1433f	-0.11780404
82	0x3dec2234	0.11529961
83	0xbdb8fd81	-0.09032727
84	0x3d9509d9	0.07277269
85	0xbcb9e8e2	-0.022694055
86	0x3de001a4	0.10937813
87	0xbbf2ca82	-0.0074093947
88	0xbd7e2aaf	-0.062052425
89	0xbdc1a563	-0.09455373
90	0xbe11a894	-0.14224464
91	0xbdd61825	-0.10453824
92	0xbe3349a7	-0.17508565
93	0x3e2614ec	0.16218919
94	0xbe2cc160	-0.16870642
95	0xbe317e5c	-0.17333359
96	0x3e00d47e	0.1258106
97	0x3cab862d	0.020938003
98	0xbd20d66b	-0.039266985
99	0xbe007600	-0.12545013
100	0x3d76a8f7	0.06021973
101	0x3e3deada	0.1854662
102	0x3c376e2a	0.011195699
103	0x3df802c0	0.121098995
104	0xbd2fd14a	-0.042924203
105	0xbdf12795	-0.11775128
106	0xbde19bde	-0.110160574
107	0xbe300613	-0.17189817
108	0xbe2e4c8e	-0.17021391
109	0xbd96120e	-0.073276624
110	0x3d304941	0.04303861
111	0xbce3704a	-0.027763505
112	0xbdcf9290	-0.101353765
113	0x3e275d16	0.16344103
114	0xbdc6278d	-0.096755125
115	0x3d057fe3	0.032592665
116	0xbe18355d	-0.14864106
117	0xbe17aec6	-0.14812765
118	0xbb5665b7	-0.0032714435
119	0x3e5d0385	0.21583374
120	0xbe1859c3	-0.14877991
121	0xbd700e5b	-0.05860744
122	0x3e8aa614	0.27079833
123	0xba747a99	-0.000932613
124	0xbe17ffc5	-0.14843662
125	0x3ccbbe68	0.024871066
126	0xbde93918	-0.11387843
127	0x3e1afc7e	0.1513538
128	0x3dd6d9e1	0.10490776
129	0xbe08cbb5	-0.13358958
130	0xbe730818	-0.23733556
131	0xbe9062ad	-0.28200284
132	0x3e405457	0.18782173
133	0x3e5549fe	0.20829007
134	0xbd0567b0	-0.032569587
135	0xbe0c7bed	-0.13719149
136	0xbc0e9bcf	-0.00870414
137	0x3d995596	0.07487027
138	0x3d62005f	0.055176135
139	0xbdadd197	-0.08487242
140	0xbcc20afc	-0.023686878
141	0x3e349932	0.17636564
142	0xbe0c7b95	-0.13719018
143	0x3e5c7fa5	0.21533068
144	0xbdbcb843	-0.09214833
145	0xbd22760e	-0.039663367
146	0xbe040115	-0.12891038
147	0xbe6e5409	-0.23274244
148	0x3e11ec2e	0.14250252
149	0x3d2cd9ce	0.042199902
150	0xbe28a532	-0.16469267
151	0xbe62131b	-0.220776
152	0xbd5fb0e9	-0.054612074
153	0x3e15e69b	0.1463875
154	0xbe0e6add	-0.13907953
155	0xbd56e0dc	-0.052460536
156	0xbd76c478	-0.06024596
157	0x3cc4a135	0.02400265
158	0xbd9e1030	-0.07717931
159	0x3e63959a	0.22225037
160	0x3e2729f7	0.16324602
161	0xbe27b3f9	-0.16377248
162	0xbde4f43c	-0.111793965
163	0x3df6ba58	0.12047261
164	0x3dae9876	0.08525173
165	0x3e2a79e9	0.16648068
166	0x3e108f1d	0.14117093
167	0xbdd8f693	-0.10593905
168	0xbe0a6a71	-0.13517167
169	0x3dbcdc56	0.09221713
170	0x3e2ee8da	0.17081013
171	0x3c8baf8a	0.017051477
172	0x3de6e4b3	0.1127409
173	0xbde9c1fe	-0.11413954
174	0xbd486679	-0.04892585
175	0xbdd20965	-0.10255698
176	0xbda2414f	-0.07922613
177	0x3c89a71c	0.016803317
178	0x3df092b4	0.117467314
179	0x3ce6d024	0.028175421
180	0xbe08e977	-0.1337031
181	0xbcee6ddb	-0.029105118
182	0xbe14c7e4	-0.14529377
183	0x3d90a479	0.07062621
184	0xbdaf9c83	-0.08574774
185	0xbdf9364d	-0.1216856
186	0xbe09ecc9	-0.13469233
187	0x3e32395d	0.17404695
188	0xbdc3842d	-0.09546695
189	0xbc78787f	-0.015165447
190	0x3ce3ff3f	0.027831672
191	0x3d81ab12	0.06331457
192	0xbe2af9d6	-0.16696867
193	0xbbb3ee87	-0.005491081
194	0x3db8dda4	0.090266496
195	0x3c8e350a	0.017359275
196	0xbd9e8e59	-0.077419944
197	0xbe15aeab	-0.14617412
198	0x3dac0b0a	0.08400543
199	0x3dc229ce	0.0948063
200	0xbcd3fc69	-0.025877194
201	0xbdfd4260	-0.12366176
202	0x3e1d93e1	0.15388443
203	0x3df671f2	0.12033452
204	0xbd8beff1	-0.068328746
205	0xbdba55d2	-0.090984
206	0xbdafdf93	-0.08587565
207	0x3da44dfe	0.08022688
208	0x3c82012c	0.0158697
209	0xbd8c4f25	-0.06851033
210	0xbd54ecf6	-0.051983796
211	0x3e187ba6	0.14890918
212	0xbdfd6ebf	-0.12374639
213	0x3d37c244	0.044863
214	0xbd2d4ba3	-0.04230846
215	0x3dfc14d7	0.123086624
216	0xbb8b33e2	-0.0042481283
217	0xbd984eac	-0.074368805
218	0x3e16c1d9	0.14722385
219	0xbddfb639	-0.10923428
220	0xbd8569b0	-0.06514299
221	0x3e06765a	0.13131085
222	0xbd734eb7	-0.05940124
223	0xbd15a5cf	-0.03653508
224	0x3e0de928	0.13858473
225	0xbe04575d	-0.12923951
226	0xbe29a424	-0.16566521
227	0xbcd9b354	-0.026574768
228	0x3dc0d8ae	0.09416328
229	0x3ded2c1f	0.11580681
230	0xbe19cfd6	-0.1502069
231	0x3de78646	0.113049075
232	0x3dc3a081	0.09552098
233	0xbc095570	-0.008382186
234	0x3d4a797d	0.049432267
235	0x3dc3848d	0.095467664
236	0x3deb35ca	0.11484869
237	0xbdbc3fef	-0.09191882
238	0xbe13388f	-0.14377044
239	0x3bb23c02	0.0054392824
240	0x3dafb3ec	0.08579239
241	0xbe2526bb	-0.16128056
242	0xbdd8ec71	-0.105919726
243	0xbd177551	-0.036977116
244	0x3da0b5df	0.07847189
245	0xbe27c8bb	-0.16385166
246	0x3d1c85f3	0.03821368
247	0xbe23665d	-0.15957017
248	0xbd8ae705	-0.06782345
249	0xbe18ad9d	-0.14909978
250	0xbe2e9801	-0.17050172
251	0xbb96a75f	-0.004597589
252	0x3e2364ec	0.15956467
253	0xbdcc6f8c	-0.099822134
254	0xbd0bd164	-0.034135237
255	0x3e01890c	0.12649935

stack.3.0.bias f4 [10]
0	0xbe191166	-0.14948043
1	0xbde80080	-0.1132822
2	0x3d263fb8	0.04058811
3	0xbc8b7bad	-0.017026747
4	0x3cf88ea4	0.030341454
5	0x3e20d04b	0.15704457
6	0xbd3c9140	-0.04603696
7	0xbc323e65	-0.010879134
8	0xbd118b61	-0.035533313
9	0x3d980be3	0.07424142
