src/fminst/models/teacher_4.pt (torch, 447183 bytes, 8 tensors)

stack.0.0.weight f4 [128, 784]
000000 43 bc cd bd 7f 0a 48 3c 35 64 03 bd 82 6c 83 bb
       -0.10045674 0.012209534 -0.032077987 -0.004010738
000010 f0 7f 18 be 68 91 85 be 64 2b 4d be da 54 8e bd
       -0.14892554 -0.260875 -0.20036083 -0.06949778
000020 3b 0a 8c bc 26 dc 11 bd 12 6b 2b bc 1c c0 e8 3c
       -0.017094722 -0.03561034 -0.010462539 0.028411917
000030 18 ff a8 bd 14 c7 7b bc 10 cc 17 3d eb 38 67 bd
       -0.0825178 -0.015367288 0.037059844 -0.056450766
000040 a6 f5 14 3d 32 f6 5f 3d bd 23 f3 bc e4 94 c2 bc
       0.03636708 0.05467815 -0.029680127 -0.023752637
000050 16 fe 24 bd 51 2a 3d be 52 cf c9 bd 6a ae be bd
       -0.040281378 -0.18473174 -0.09853996 -0.093106106
000060 16 0b 91 bd 04 8b 5a bd 80 cf 0a bb b2 ec 48 bd
       -0.070821926 -0.053355232 -0.0021180809 -0.049053855
000070 55 7c 25 3d 1e 6f f8 3c 9c fe b1 3d 10 e1 c6 bc
       0.040401775 0.030326422 0.08691141 -0.02427724
000080 ba 42 21 be a2 15 c1 bd c2 db d8 bd a5 3a 30 bd
       -0.1574811 -0.09427954 -0.105887905 -0.043024678
000090 aa 5f 9a bd c6 27 2d 3d cb 26 af 3d 29 4d 15 3d
       -0.07537778 0.04227426 0.08552321 0.03645054
0000a0 fe c3 5c bc 1a ff 4b 3d 5f 7d 88 3d 3b 59 6d bc
       -0.013474463 0.04980383 0.06664538 -0.014486606
0000b0 9a ba 6c 3d 79 a2 17 3e 74 1e b0 3d f5 4d 87 bc
       0.057795145 0.14808072 0.085995585 -0.016516665
0000c0 04 78 68 bd 3e e1 dd bc 77 59 d8 bd bd a1 d2 bb
       -0.05675508 -0.027084943 -0.10563939 -0.006427972
0000d0 79 4f a1 bc f5 ee 97 bd 6d 31 48 bb 00 9e 7d 3d
       -0.019691216 -0.07418624 -0.0030547038 0.06191826
0000e0 52 40 1b 3d 85 06 a7 3b 1a fa ca 3c d3 9a 73 bd
       0.037903138 0.0050972127 0.02477746 -0.059473824
0000f0 75 3a ba bd 8a e8 c5 bc 93 1c c3 3b 97 b7 68 3d
       -0.09093181 -0.024158735 0.005954334 0.05681571
000100 b1 a6 65 bd 2a 4c 80 bc 0f f9 8f bc 5d 42 82 bd
       -0.056067172 -0.015661318 -0.017574815 -0.06360314
000110 41 de 98 3c 4b 65 0b bc 7d d1 b9 bc f0 8e d3 bc
       0.018660666 -0.008508037 -0.0226829 -0.025824994
000120 95 b5 bc 3a 2e 34 43 bd dd e5 d3 bc 08 98 fe bb
       0.0014397377 -0.047657184 -0.025866443 -0.0077695884
000130 a0 6a 35 3d 85 ee e5 3c 41 b4 b5 3c 0e 6e 68 bd
       0.04429114 0.028067837 0.022180678 -0.05674558
000140 8a 41 0b bc 48 ea 87 3d 7b 40 99 3d 6e 0e 90 3d
       -0.008499512 0.066364825 0.07483002 0.07034002
000150 9f e3 d3 bd 2f 96 71 bd f4 9f ea 3c 47 bf 62 bd
       -0.1034615 -0.058981117 0.028640725 -0.055358198
000160 d1 f4 5e 3d ca 73 be 3b 76 f4 83 3d e7 23 4e bd
       0.054432694 0.005812143 0.064431116 -0.050327208
000170 1a 33 a7 bd 9d bb 00 bc 53 0a 68 3d 36 c8 aa bc
       -0.08164044 -0.0078572305 0.05665047 -0.020847421
000180 ba e9 d8 bc ad 20 0c bc 2c 4d b9 3c a8 6c 10 bd
       -0.026478637 -0.008552712 0.022619806 -0.035259873
000190 91 57 ca bc 2a 26 35 3d ed 2a 1b 3d c0 ef b8 bd
       -0.024699958 0.04422585 0.037882734 -0.09030104
0001a0 cb dc c3 bd de 01 ec bb ad b4 b3 3b 7e bc 2e 3d
       -0.09563597 -0.007202371 0.0054841847 0.04266023
0001b0 4e 02 ab 3a 98 34 03 bd 0f 9d 01 3d c8 85 8f bc
       0.0013046951 -0.03203258 0.031643923 -0.017519847
0001c0 45 9f cf bd f1 f1 e7 bd 96 01 14 be 63 61 ad 3c
       -0.101378 -0.113254435 -0.1445373 0.021164602
0001d0 c3 f5 bd 3d e5 33 b4 3c 1f 4c 30 3c be f1 c8 bb
       0.09275391 0.021997401 0.010760336 -0.0061323335
0001e0 cf b4 e8 bc 94 ba ad 3b 74 5d a3 3c 16 ec de bc
       -0.028406529 0.005301783 0.019942023 -0.027212184
0001f0 ab 95 a6 bc 38 81 13 bd 3b 94 86 bc a0 70 93 bc
       -0.02033504 -0.036011904 -0.016428104 -0.01799804
000200 ed 67 de bc f5 60 16 3d ce 02 0d 3d 60 b3 10 3d
       -0.027149165 0.03671356 0.034426503 0.035327315
000210 80 29 2c bc 12 46 c6 bc ef a3 7a 3c a3 1d a4 3d
       -0.010507941 -0.024203334 0.015297874 0.08013465
000220 4b 57 a4 3d df 96 39 bd b5 d2 94 bc c5 51 97 3d
       0.08024462 -0.045309898 -0.01816688 0.07388643
000230 35 cc 7a 3b cc cb c5 bd c4 ab f3 bd ee 81 2d 3d
       0.003826869 -0.09658012 -0.11897996 0.04236024
000240 80 9a c0 3d c7 31 67 3d 15 25 db 3c 16 e4 c1 3c
       0.094044685 0.056443956 0.02675108 0.02366833
000250 67 14 70 3c 0a be f4 ba 64 78 16 bd e3 6f 87 bb
       0.014653302 -0.0018672359 -0.036735907 -0.004133211
000260 1e ef ed bc df c6 45 bc 0b 30 c7 bc d3 57 99 bc
       -0.029044684 -0.01207134 -0.0243149 -0.018718636
000270 86 88 99 bc 46 c9 6c 3d 9f 5f 0e 3d 67 36 ba 3c
       -0.018741857 0.057809137 0.03475916 0.02273102
000280 bf e9 fd 3b 5f c9 d9 3b e9 39 04 bd 10 21 90 3d
       0.007748812 0.0066463198 -0.03228179 0.07037556
000290 9d f1 d6 3c b1 71 67 bd de 31 09 bd fa c2 f3 3d
       0.026238257 -0.05650491 -0.033494823 0.11902423
0002a0 1f 75 17 bd 9f e4 0a be 6c 55 b0 3b dd 50 5f 3d
       -0.03697693 -0.13563775 0.005381277 0.054520477
0002b0 a5 d0 ac 3d 3d 79 64 3d b8 b4 57 3d 4f 7f 54 3d
       0.08438233 0.055779684 0.05266258 0.051879223
0002c0 d4 44 81 3c 85 62 41 bd ac 69 94 bd 8e 2c 28 bb
       0.01577989 -0.047213096 -0.07246718 -0.0025661322
0002d0 63 9d 3d bc 94 5d 23 bd c9 b1 52 bd 8d 38 f8 bc
       -0.011573168 -0.039884165 -0.05143908 -0.030300403
0002e0 1f 4f be bc b4 cc 50 3b d1 75 5c 3c a6 f3 a7 bb
       -0.023231087 0.0031860294 0.013455824 -0.0051254807
0002f0 e3 a8 d0 3c 0d d1 ac bc ef 4a 7e 3c da 0d 77 3d
       0.025471156 -0.021095777 0.015520795 0.060315944
000300 10 e1 5b 3d 45 31 f1 bc 76 e2 c5 3a 25 10 ea 3c
       0.053681433 -0.029442439 0.0015097398 0.028572151
000310 9a 13 4a bc bb 9f de bc cc f4 96 bc ab bd 91 bc
       -0.012333775 -0.027175775 -0.018427275 -0.017790636
000320 34 47 82 3d 55 df 5e 3c d0 99 83 3d 8d c2 8d 3d
       0.06361237 0.013603051 0.06425822 0.06921873
000330 14 76 22 3c f9 66 1b bd 0d cd 80 bd 08 a0 37 bd
       0.009915847 -0.03794 -0.0628911 -0.044830352
000340 7b 70 ed bb d0 b8 0a bd 6e db 06 bd 66 72 16 bd
       -0.0072460747 -0.033867657 -0.03292411 -0.036730193
000350 c0 75 0d bd 0b 93 05 3d 4a c5 e7 3c 08 69 1d 3d
       -0.034536123 0.032610934 0.028292317 0.038430244
000360 46 6e 49 3d 4e 18 5c 3b e5 f8 90 3c 82 41 4d 3d
       0.04917743 0.0033583823 0.017696807 0.0501113
000370 01 7a 3a 3d f6 c3 ef bc 22 e8 5c bd 73 72 8e bd
       0.04552651 -0.029268246 -0.053932317 -0.06955423
000380 e2 ca c9 3b 5e ff 8c bd 54 1d e7 bc 7d 20 6e bc
       0.0061582187 -0.06884645 -0.028212227 -0.014534113
000390 4b 04 20 3d 99 2d 2e 3d 6b b0 bf 3c 50 34 13 3d
       0.039066594 0.042523954 0.023399552 0.03593856
0003a0 a5 b1 1b 3d c2 cb 5a 3c 80 26 1a 3c 1e a0 ee bc
       0.038011212 0.013354244 0.009408593 -0.029129084
0003b0 fe 27 dd bc 3d e6 9e bd 32 01 50 bd 5e 7c 2c 3b
       -0.026996609 -0.07758758 -0.05078239 0.0026319246
0003c0 b3 5a 77 bc b8 e7 88 3d 79 7d 8e 3c 57 a1 13 3c
       -0.015097308 0.06684822 0.017393814 0.009010634
0003d0 c9 48 43 3c b6 6e e8 3c d1 25 94 bc f8 41 cc 3c
       0.011919209 0.028373104 -0.018084439 0.0249338
0003e0 64 35 79 3b a4 1e 38 bc d8 38 37 bd 2f a0 29 3b
       0.0038026208 -0.011237774 -0.044731945 0.002588283
0003f0 7e 01 80 b9 e0 f2 66 bd 28 85 81 bd 61 f9 e8 bc
       -0.00024415174 -0.056383967 -0.06324226 -0.028439226

stack.0.0.bias f4 [128]
000000 5a 1f 64 bc e6 e7 56 3d 9d 05 d5 3c 20 6a 76 bd
       -0.01392349 0.05246725 0.026003653 -0.060159802
000010 1c ce a9 bc 3f 2b 4d 3d f1 59 1b 3e 1a 21 6b bc
       -0.020728163 0.05009007 0.15171029 -0.014351154
000020 0a 5b 82 3c 58 6b 6b 3b 9b be bc 3c d1 2d 4f bd
       0.015912551 0.0035922136 0.023040107 -0.050580803
000030 3c 86 46 3d fe 0a 78 3d 1e e9 71 3d 17 73 ba 3e
       0.04846786 0.060557358 0.05906021 0.36415932
000040 a5 df 9f 3d 14 39 ca bb 92 68 b5 bb 70 a4 ac 3d
       0.07806329 -0.006171355 -0.0055361474 0.084298015
000050 12 db 3a 3e 3c f8 e9 3a 9e d2 e3 3c 9d 45 aa 3b
       0.18247631 0.0017850469 0.027810391 0.005196287
000060 16 a8 64 3d 9b 90 86 bd 03 d9 11 3d 14 9a ad 3e
       0.05582436 -0.0657055 0.03560735 0.33906615
000070 60 8e ad bd 9a 1b 81 3c bf 19 35 3e bf c7 de 3d
       -0.084744215 0.015760232 0.17685603 0.10877942
000080 4f 9f 9f 3d 51 3a a5 bd 18 3d 3d bc f3 5a a6 3d
       0.077940576 -0.080677636 -0.01155021 0.08122816
000090 4c 2e ab 3d 09 dd 7b bc 07 4f 53 bd c6 46 ca 3d
       0.0835844 -0.015372523 -0.05158904 0.0987678
0000a0 c9 36 86 3e 07 f6 40 3e 51 94 d4 bb f7 7b 0a be
       0.26213673 0.18843852 -0.0064874073 -0.13523851
0000b0 d3 0c 58 bd da 6b 2e 3d 0a 73 79 3e d4 48 aa bc
       -0.052746605 0.042583324 0.2436029 -0.02078668
0000c0 de b1 d3 bd fe cc ce bd 8e c1 a5 bc 0d 4e e4 bd
       -0.1033666 -0.10097693 -0.020233896 -0.111476995
0000d0 0f e7 c3 bc 53 99 7b 3d da 6d 97 3d 60 cd 9f 3c
       -0.023913888 0.06142552 0.073939994 0.01950711
0000e0 47 48 42 bb 62 06 32 bb 7c 88 82 3e e5 56 36 3d
       -0.0029645131 -0.002716445 0.25494754 0.044516463
0000f0 68 c9 82 bc 4e fb 89 3e 2f e0 12 3e 9b 28 79 3c
       -0.015965179 0.26949543 0.14343332 0.015207435
000100 79 17 aa 3d 8b bc 5c be df 91 c9 bd 7c 24 33 be
       0.08305258 -0.21556298 -0.09842276 -0.17494386
000110 b2 c0 5b 3d 83 10 b1 3d 16 9c 0c 3d ae 05 24 3e
       0.053650565 0.086457275 0.034328543 0.16017792
000120 cd 49 b8 bc aa 0f ee 3d 42 53 1f 3e c2 8c cd 3d
       -0.022496128 0.116240814 0.15559104 0.10036613
000130 72 98 a4 3d a3 b4 a6 bd b0 75 fc 3d 6e d2 dc bd
       0.08036889 -0.081399225 0.123271346 -0.10782324
000140 49 5d 40 bd 93 b5 60 3e 61 e0 48 3e d9 e5 1b 3d
       -0.046963964 0.21944265 0.19616844 0.038060997
000150 4f 2f 5f 3c 92 bf df 3d 6d 0b 05 3e 9e dd 05 3e
       0.013622119 0.10925211 0.1299264 0.13072821
000160 bc 73 b7 bd 2a d7 32 3e e1 92 38 be 6e b8 e5 bc
       -0.089576215 0.17464891 -0.1802478 -0.028042044
000170 3e a5 03 bd e2 b4 d5 bd 31 dc 9e bd cb f4 3a 3e
       -0.03214001 -0.10434891 -0.07756842 0.18257444
000180 cd 70 94 3e 2c 64 91 3d 36 5a 4f bc 98 19 78 bd
       0.2899231 0.070991844 -0.012655785 -0.060571283
000190 41 6d 66 3d 3d 30 81 3b 58 25 3c 3d 3b 1e 0a 3d
       0.056256536 0.003942518 0.04593405 0.033720236
0001a0 c9 7e 06 bd b4 66 c8 3d 70 b2 b4 bd 3b 2b b1 3d
       -0.032835755 0.09785214 -0.08823097 0.08650824
0001b0 0c e0 d7 3d c5 8a a4 bc b6 95 bb bc a0 b2 42 be
       0.105407804 -0.020085702 -0.022898536 -0.19013453
0001c0 00 b7 17 bd 35 1e 9b bd 21 f9 74 bc 56 7d 2c 3e
       -0.037039757 -0.07574121 -0.014951975 0.16844687
0001d0 5c 46 79 3e a8 aa 62 3e fa 1d 79 3c 97 ad 30 3e
       0.24343246 0.22135413 0.015204901 0.1725372
0001e0 1a 1b 4f 3d 1b 16 98 3e 3f 48 44 3e c6 83 ce 3d
       0.050562955 0.29704365 0.19168185 0.100837275
0001f0 da b8 e9 bd f2 74 35 be 64 5a ca bb 24 a0 d1 3a
       -0.11412211 -0.17720392 -0.006175326 0.001599316

stack.1.0.weight f4 [64, 128]
000000 e4 86 8b bd 6c 68 97 bd cf 13 5c bd c9 a4 d9 bd
       -0.06812838 -0.07392964 -0.05372983 -0.106271334
000010 fb a7 6f 3d 14 00 96 3d db 75 21 3e bd 4d e0 bc
       0.058509808 0.07324234 0.15767615 -0.027380819
000020 8b 1d 7e 3d 52 bd df bd bb 4a 02 bd 87 24 22 bd
       0.062039893 -0.10924782 -0.03180955 -0.039585616
000030 cb 32 da bd 20 d2 33 bd 6b 83 c3 3c 9d d4 be bb
       -0.10654219 -0.043901563 0.023866376 -0.0058236853
000040 05 e9 b1 ba 2e fc 4b 3a e9 c3 b1 bc 6d 40 69 bd
       -0.0013573474 0.0007781413 -0.021699863 -0.056946207
000050 3c a9 cd 3d 46 0b b7 bc b8 de a3 3c f2 e9 d4 3c
       0.100420445 -0.022344243 0.020003662 0.02599046
000060 1f 98 13 bc 20 c0 ba bd ce 39 ac ba e3 c7 0c 3e
       -0.009008436 -0.09118676 -0.0013139786 0.13748126
000070 45 e9 c7 bd da ec 0b bd 15 25 0b 3e e6 cb 7a 3d
       -0.097612895 -0.034161426 0.13588364 0.06122961
000080 04 05 7e 3d cc 3c e7 bc 6d 89 40 bd de ab b6 bd
       0.062016502 -0.028227232 -0.04700606 -0.089195
000090 e7 ba eb 3d bc b0 80 3d 6b 6c 04 3d 54 63 0d bd
       0.11510258 0.062837094 0.032329958 -0.034518555
0000a0 f2 61 13 bc 27 07 42 3d ce a7 b6 bc 92 e6 61 bd
       -0.00899552 0.047370102 -0.022296812 -0.05515153
0000b0 41 16 f5 bd b5 83 92 3d db 7d a5 3d c3 4a 25 3c
       -0.11967135 0.071540274 0.08080646 0.010088625
0000c0 af 51 00 3b 16 b0 34 be 61 f4 92 3d 5a 1f db bd
       0.0019579937 -0.17645296 0.07175518 -0.10699339
0000d0 59 02 d1 3c 9b aa 95 3d e0 c0 35 3d 49 48 48 3c
       0.025513815 0.07307931 0.044373393 0.012224265
0000e0 88 f6 61 3c fd f3 89 3b 23 f4 c0 3d 8c 44 86 3d
       0.013791688 0.004209994 0.094215654 0.06556043
0000f0 6d 27 30 bd 2c 5e fa bc a2 c5 b9 be 51 d2 97 3c
       -0.04300635 -0.030562483 -0.36283594 0.018532904
000100 92 0c ae bc 48 25 3a be d0 84 66 be 49 a4 4f 3d
       -0.021246228 -0.18178284 -0.22511601 0.050693784
000110 4c ff 31 3c 07 f3 90 3d b7 6c 36 3d e5 3c 49 3d
       0.01086409 0.07077604 0.044537272 0.04913034
000120 7c 1e 45 bd d2 f3 27 3e 7d d4 98 3c 14 0e 73 bd
       -0.048124775 0.16401604 0.01865601 -0.059339598
000130 53 b5 89 3c ef d8 69 bd 8f ec a9 3d 1d f4 ca bd
       0.016810095 -0.05709165 0.08297073 -0.09909842
000140 52 3b 3d bc 46 a8 69 3e e7 cf 76 3b af f0 bc bd
       -0.011549788 0.22818097 0.003766054 -0.09225594
000150 dd 65 c0 bd c8 87 02 3d dc f7 cb 3c 53 6e 7c 3d
       -0.09394429 0.031867772 0.024898462 0.06162865
000160 3d 85 8d 3d 28 25 bf 3d 82 af b0 3c d7 04 71 3d
       0.06910179 0.09333259 0.021568064 0.058842506
000170 97 16 7e 3d 8d d2 38 bd 84 25 25 bd 7c 0d 9a 38
       0.062033262 -0.045122672 -0.04031898 7.345804e-05
000180 fe f9 f1 bb ed 11 1b 3d 9a a5 fa 3c d2 d7 1c bc
       -0.0073845377 0.037858892 0.030596543 -0.00957294
000190 f0 a9 09 bc d0 15 81 3d fb ce 20 bd f8 72 50 be
       -0.008402333 0.063029885 -0.039259892 -0.20356357
0001a0 1b bb d4 bc 23 4a 4c bd 44 ef 0f 3d 09 3a 1b 3d
       -0.025968125 -0.04987539 0.03514029 0.037897144
0001b0 8c 57 a1 3d d2 b2 93 bd ea 7d 46 bd 83 22 04 be
       0.07878026 -0.07211842 -0.048459925 -0.1290379
0001c0 09 52 38 bd 6d 77 3e bd 15 77 9c 3b 7e c8 16 be
       -0.04500011 -0.046500612 0.004774938 -0.14724919
0001d0 8e fa 0c 3e 08 c2 e6 bc 1b b4 a8 bd a9 6c 2f 3d
       0.13767454 -0.028168693 -0.082374774 0.042828236
0001e0 84 a0 d4 3d b3 3b 58 3d 63 fc 8b 3d 34 42 0d 3d
       0.103821784 0.05279131 0.06835248 0.034486964
0001f0 3f e1 90 bd fd 9b 93 3c 1d bc 24 bd 69 f2 10 bd
       -0.07074212 0.018018717 -0.04021846 -0.03538743
000200 ef 4b 0e bd e2 9e d7 3c 39 83 4d bd 2f b9 b1 3d
       -0.034740385 0.026320878 -0.05017397 0.08677899
000210 e6 29 be bc 2b 1d 43 3d a4 9f 01 3e 75 6b d6 3c
       -0.023213338 0.04763524 0.12658554 0.026174286
000220 79 d8 34 bd 06 13 d0 bd 65 f4 ac bd 2c 46 f3 3d
       -0.044151757 -0.101598784 -0.08445052 0.118786186
000230 41 a8 c7 ba 88 2b 98 3d 80 53 a9 bd 0f 20 56 3d
       -0.0015232639 0.07430178 -0.082678795 0.052276667
000240 eb f6 a3 3d 46 fc 6c 3d 46 01 c2 3c 9a 70 5b bd
       0.0800608 0.057857774 0.023682248 -0.053574182
000250 59 56 43 3e f6 21 fe bb 51 7f 21 3c ad d0 95 3e
       0.19075908 -0.0077555133 0.009857015 0.2926077
000260 0a 94 b4 3d 79 a1 ef 3c f3 a4 eb 3d 04 e6 e4 3d
       0.08817299 0.0292518 0.11506071 0.111766845
000270 d3 26 a3 bd 79 b4 e9 3d ed 08 81 3d 70 47 9d bd
       -0.079663895 0.114113756 0.063005306 -0.07679641
000280 86 8f fc 3d 3f d8 61 3d 0b 35 85 bc f2 ae ea bd
       0.123320624 0.05513787 -0.016260644 -0.114591494
000290 a6 95 ff 3c e9 ea b5 bd 63 2d b3 3d a1 6a 21 ba
       0.031199288 -0.08882696 0.08748891 -0.00061575515
0002a0 ea 2e 0b be bb e2 ce 3b 00 16 84 3d b7 f1 65 bc
       -0.13592115 0.0063136495 0.06449509 -0.01403468
0002b0 17 ec 50 3e a6 47 2f bd 1f 43 a0 3d 3d 15 9a 3d
       0.20402561 -0.04279294 0.07825302 0.07523582
0002c0 08 06 88 bd 99 71 43 3e 8f 49 dd 3c 2f 99 c6 3c
       -0.06641775 0.19086303 0.027012615 0.024242966
0002d0 c3 45 fd bc 27 df 16 3c c1 aa d2 bc 4d eb 7c 3d
       -0.030917054 0.009208477 -0.025716187 0.061747838
0002e0 e4 20 a7 bb 0c 60 a3 3c 18 51 fa 3d 32 94 3b 3d
       -0.0051003564 0.01994326 0.12222499 0.045795627
0002f0 36 b5 32 bb 05 f9 10 3e 9d 69 93 3d e6 70 89 3d
       -0.0027268655 0.14157493 0.071978785 0.06710987
000300 85 14 eb 3d dd 41 32 be 03 57 68 be 27 81 9c 3d
       0.11478523 -0.17407937 -0.22689442 0.07641821
000310 35 4d 87 bd bd 5d cc 3d 50 ac 50 3d f1 8d 5e bb
       -0.06606523 0.09978817 0.05094558 -0.0033959115
000320 c8 8a 08 3d ce 33 af 3d 8a 3b 94 3b c0 13 87 bd
       0.033335477 0.08554803 0.004523699 -0.06595564
000330 03 df db bd 1b f1 40 3c ff 46 b1 3d 7e 53 34 3d
       -0.107358955 0.011776234 0.086561196 0.044024937
000340 f6 c3 a4 3d 7a 66 1d bd 7f d4 bd 3d d1 ee 4f be
       0.08045189 -0.038427807 0.09269046 -0.20305945
000350 7e c5 e5 3d 37 cf 3b 3d 59 95 cc 3d 66 5f 4b 3d
       0.11219309 0.045851912 0.09989423 0.049651526
000360 f6 8c 6f bd 54 f8 e5 bc 93 8d 3d bc 4c 45 87 bc
       -0.05848404 -0.028072514 -0.011569398 -0.016512536
000370 5a 97 eb bd 7f 89 b1 bd 56 55 64 3c 46 ce 81 bc
       -0.115034774 -0.086688034 0.013936361 -0.01584543
000380 db 20 7a 3c be d5 aa 3d e5 8b 91 bd f9 b6 20 be
       0.015266622 0.08341549 -0.07106761 -0.15694799
000390 78 9e 24 3c 57 e3 92 3b 1c 7a 80 bd bc 44 55 3e
       0.0100475475 0.0044826674 -0.062732905 0.20827001
0003a0 45 2c 01 bd 55 03 57 3e a1 4c 93 3c ea c7 a5 3d
       -0.03153636 0.20997365 0.017980875 0.08094771
0003b0 2b 78 e6 bc 90 c5 da 3d 0e ec 21 3c b7 61 38 be
       -0.028133472 0.10682213 0.00988294 -0.18006025
0003c0 cb db a8 3d 7e bf 83 3d c4 6c ed bd 02 89 75 3d
       0.08245047 0.064330086 -0.11593011 0.059945114
0003d0 96 63 78 be 79 dc 5a 3d fe 1f 91 3d b9 8e 80 3b
       -0.24256739 0.053432915 0.0708618 0.003923264
0003e0 b9 26 05 be 08 5b 22 bc 2d 0f 93 bd 16 72 8e bd
       -0.13003053 -0.009909399 -0.07180629 -0.06955354
0003f0 75 47 8c 3d 30 a9 bb bd 9c ad 8c 3d 76 94 e3 3d
       0.06849567 -0.09163129 0.06869051 0.11112301

stack.1.0.bias f4 [64]
000000 86 d7 94 3e c0 5c 0c 3e 42 fc 99 3d 32 36 e5 bd
       0.2907068 0.13707256 0.075188175 -0.111919776
000010 5f 8a 80 bd 08 47 8c bd 94 bf bf 3c 5b 08 18 be
       -0.06276392 -0.06849486 0.023406781 -0.14846937
000020 e2 c0 26 3d dc 13 45 bc b0 f9 ae 3d 17 fc 03 3e
       0.04071129 -0.012028661 0.08543718 0.12889133
000030 77 2c fb 3c 34 43 c8 3d fe bb 65 3e b2 59 1d be
       0.03066085 0.09778443 0.22434995 -0.15366247
000040 2b ca 3d 3d 70 7d 5a 3e 3d 06 96 bc c0 b5 90 3c
       0.04633538 0.21336913 -0.018313522 0.01766479
000050 c3 3b 29 bd 95 3e fa 3b 30 88 92 3e 03 8c eb 3d
       -0.04131676 0.007636855 0.28619528 0.115013145
000060 02 28 b2 3a 86 35 b4 bd 13 11 ef bd 0d d5 46 3d
       0.0013592246 -0.08799271 -0.116731785 0.048543025
000070 a9 1b 61 bd dd c2 e4 bc dc d6 bf 3d 05 3c 02 3d
       -0.05495802 -0.02792495 0.09367153 0.03179552
000080 ab 26 62 ba e0 91 46 be 23 f1 75 3d 40 73 19 3c
       -0.0008626978 -0.19391584 0.06004442 0.009365857
000090 0f a3 96 3d c6 05 ac 3e cb 70 5d 3d d8 cb 27 3e
       0.0735532 0.33598155 0.054062646 0.16386354
0000a0 a3 22 88 3d 0c 20 d0 3d 60 74 e0 bb 45 0d 94 3d
       0.066472314 0.101623625 -0.0068498105 0.072290935
0000b0 1a 72 6a bd aa 4c c9 3d 13 5b 50 3c 49 b3 29 bc
       -0.057237722 0.09829076 0.012717026 -0.010357686
0000c0 bd db 76 be aa 3d 51 3e a6 56 18 3e f9 50 80 3e
       -0.24107261 0.20433679 0.14876804 0.25061777
0000d0 ab 95 8f 3d 0c 33 b5 3d 2b fb 0c be 62 8f 9a 3d
       0.07010969 0.08847627 -0.13767688 0.07546879
0000e0 93 46 3c 3c 25 9e f5 3d 67 96 af bd 40 a3 26 3d
       0.011491436 0.11993054 -0.08573609 0.04068303
0000f0 51 33 7f 3d 1f 22 19 3d 45 6e 7f 3c ae 75 0b 3d
       0.0623048 0.037386056 0.015590255 0.034047775

stack.2.0.weight f4 [32, 64]
000000 54 ce dd bd e8 1c a3 3c b2 5b 0e bc 52 43 09 3e
       -0.108303696 0.019911245 -0.008688854 0.13404587
000010 52 a9 26 bd d8 88 31 3e 4a f2 b9 bc 07 cb dd 3d
       -0.04068882 0.17337358 -0.02269854 0.1082974
000020 e1 de 51 be 52 52 fa bb ce e5 2d be e9 a5 87 3b
       -0.20495178 -0.007639208 -0.16982195 0.004139651
000030 a1 8e 80 be 61 4f 16 be 10 fd 6f be b6 99 94 3d
       -0.25108817 -0.14678718 -0.2343638 0.072558805
000040 95 03 4c 3e 55 45 e0 bb ab 7a 05 be df fb 05 3e
       0.19923241 -0.0068442025 -0.13035075 0.13084362
000050 25 9d 22 bc 40 2e d6 bd 25 c8 1f 3e 8b e4 a6 bd
       -0.0099251615 -0.1045804 0.15603693 -0.0814906
000060 ff be 07 bd bd e5 66 3d 5d a5 02 bd 44 bb 3e bb
       -0.033141132 0.05637144 -0.031895984 -0.0029103318
000070 3c 30 dc bd b3 03 93 bd be fd 1d 3d a1 3e bc bd
       -0.107513875 -0.0717844 0.038572066 -0.09191633
000080 06 30 f5 bd 29 bf 75 3a f4 07 08 bd 3c d0 9d bd
       -0.1197205 0.00093744934 -0.03321071 -0.07705733
000090 64 03 30 3d 62 13 1f bd 5c ae 80 3d e2 ed ff bd
       0.042971984 -0.038836844 0.062832564 -0.124965444
0000a0 b9 93 61 bd 88 76 de 3d e4 8e c3 bd e1 f7 6f bd
       -0.05507252 0.10862452 -0.095487386 -0.058586005
0000b0 f7 4e 93 bc f8 32 87 3d fe e2 21 be 33 62 c9 3c
       -0.01798199 0.066015184 -0.15809247 0.024582958
0000c0 cb 4f a2 3c 1e c3 8d bc f9 81 90 bd 29 be dc 3d
       0.019813439 -0.017304953 -0.0705604 0.10778458
0000d0 a6 e6 30 3e 92 4b ac bc d6 c5 69 3d c9 b7 fe 3d
       0.17275485 -0.021032128 0.057073437 0.12437398
0000e0 8f 81 d4 3d 64 fa 80 3d c6 93 fc bd 25 0b 94 3d
       0.10376274 0.06297758 -0.12332873 0.07228688
0000f0 23 8f 83 3e 0f cd 97 bd be 88 b8 bd c8 6e 1f 3c
       0.25695142 -0.07412159 -0.090104565 0.009731002
000100 9f 5e 67 be 0f b2 99 3b 1a a1 94 bd 2a 12 31 bc
       -0.22594689 0.0046904157 -0.0725729 -0.010807553
000110 09 3a b7 3d 6e a0 2b 3e ca c8 b6 3d 7c 8b 6d 3d
       0.08946616 0.16760418 0.08925016 0.05799435
000120 46 52 48 bd 0e 11 c1 3d 22 52 36 be d2 eb ac bd
       -0.048906587 0.09427081 -0.17804769 -0.08443417
000130 31 3b 23 3d 00 ce ab be 4f b0 c0 3c 12 33 13 3e
       0.03985137 -0.33555603 0.02352157 0.1437495
000140 7f 32 e2 3d 11 10 cc bd 29 d7 dc bd c8 7e 53 3d
       0.110447876 -0.09964002 -0.10783226 0.05163458
000150 c8 b7 5b 3d 8e 4f a5 bd 78 cd 00 3e 62 fb 99 3d
       0.053642064 -0.080718145 0.1257838 0.075186506
000160 29 bb 93 3d 52 03 22 3e 20 c9 91 3c f8 ff f2 3b
       0.07213432 0.15821579 0.0177961 0.0074157678
000170 bc f3 cb bc b1 55 1d bc ca cc e4 bd 8e 4a dc 3d
       -0.024896495 -0.00960295 -0.11171873 0.10756408
000180 d0 1f da 3c f2 5d 2e 3e 56 7c db bd 5e 04 bd bd
       0.026626498 0.17028025 -0.107170746 -0.092293486
000190 35 c0 e9 3c d7 aa 40 be 82 6d 02 be e9 df a3 3d
       0.028534034 -0.1881517 -0.12737086 0.08001692
0001a0 8c 26 0a be 20 96 24 3d 94 c0 5a 3d 92 5b 76 bd
       -0.13491267 0.040182233 0.053406313 -0.060145922
0001b0 cb 41 71 bd a0 c2 5c 3e 31 2a 05 3e cd c7 1f 3e
       -0.058900636 0.21558619 0.13004376 0.15603562
0001c0 4f d4 73 bd ff f8 3e be f7 ae 95 be bc fe 47 3d
       -0.059528645 -0.18649672 -0.2923505 0.048826918
0001d0 d4 ea 1b 3e 70 31 a7 bd 0f 3c 82 bd e0 b0 b0 3d
       0.15226299 -0.08163726 -0.063591115 0.08627486
0001e0 01 e3 1a 3e 50 b2 ed be 24 78 a6 bc da 7b 28 3d
       0.15125658 -0.46425104 -0.02032096 0.04113374
0001f0 49 3c d7 3d f7 ad 30 3d 9c e0 de bd 36 06 47 3c
       0.10509545 0.043134656 -0.108826846 0.012147477
000200 a6 99 83 be ef ab e4 bc 8e 2c 0c 3d d6 d0 02 3e
       -0.25703162 -0.027914016 0.03422218 0.12774977
000210 50 29 00 bc 2c ef 15 3e d8 36 a1 bc 79 15 89 3d
       -0.00782235 0.14642018 -0.019679472 0.06693549
000220 fa 50 de 3d 9a 7c d4 3d b0 f5 e0 3d a6 49 48 bd
       0.10855289 0.10375328 0.10984361 -0.04889836
000230 ac 48 ee bd 96 c1 64 3d 94 e6 de 3d 71 65 45 3d
       -0.11634955 0.05584868 0.10883823 0.048192445
000240 b1 81 5d be 31 3b b8 bd 2d f5 ad 3d f5 20 eb 3d
       -0.21631505 -0.08995665 0.08494029 0.114808954
000250 43 72 12 3d 45 96 e5 3d 18 8e bc bd dd 26 84 bd
       0.0357535 0.11210302 -0.0920679 -0.06452725
000260 50 4d ed 3b 7e 6c f5 3d a4 8a bb 3d bf 70 2d bd
       0.0072418824 0.11983584 0.09157303 -0.04234385
000270 f2 81 d0 3d b6 09 36 3e f0 dc d2 3d 38 d8 f3 3c
       0.10181035 0.17777142 0.10296047 0.029766187
000280 f6 3b 78 3d b1 3e 03 be 81 aa 97 3c 32 7d ad bd
       0.06060406 -0.12816884 0.01851392 -0.08471145
000290 8b 60 d7 3d 36 b0 38 3c 1d 2d ee bd d7 8e d3 3d
       0.10516461 0.011272481 -0.116296984 0.10329979
0002a0 9c 53 6c 3e 52 e0 15 bc 4c d9 58 3d 8f 63 07 3e
       0.2307877 -0.00914772 0.052941605 0.13221572
0002b0 c9 f3 34 3d 03 91 8d 3d fa a5 ac bb b5 dc d8 ba
       0.044177804 0.069124244 -0.0052688094 -0.0016545268
0002c0 b2 47 1d 3e 70 f6 55 3d ba 7c 9f be a4 07 7a be
       0.15359381 0.052236974 -0.31149846 -0.24416977
0002d0 62 fe b1 3c 8f 61 77 bc d3 b2 af 3c f1 35 e3 bd
       0.021727744 -0.015098943 0.021447575 -0.11094273
0002e0 8e 34 1a bc ee 29 32 3e 33 25 84 3c cd 65 52 3d
       -0.009411944 0.17398807 0.01613102 0.051366616
0002f0 b9 82 cb bd 08 1c 1a 3d 95 d7 08 be 99 b4 c1 bc
       -0.09937043 0.03762439 -0.13363488 -0.023645686
000300 f4 0b cb bc 71 f2 c1 3d 2d 80 a4 bc b2 9c 39 3d
       -0.024785973 0.0947007 -0.02008065 0.045315452
000310 f8 43 3f 3d b3 db b9 bd 12 3f e1 3d e8 f6 a7 3c
       0.04669568 -0.090751074 0.10998358 0.020503476
000320 06 09 b9 3d 48 ab b8 3d 17 d7 44 bd a0 f4 bb bd
       0.09034924 0.09017044 -0.04805669 -0.09177518
000330 27 b5 f6 bd d8 24 b6 bd c6 b4 c7 bb f1 57 d7 bd
       -0.12046271 -0.08893746 -0.006094548 -0.1051482
000340 1d 03 0c bd 41 12 cb bd 38 16 e4 bd 94 3a cb bd
       -0.034182657 -0.09915591 -0.111370504 -0.09923282
000350 11 b4 89 bd d8 2b 8f bd 45 98 ba 3c 6c ad 70 3c
       -0.06723798 -0.069907844 0.022777686 0.0146897845
000360 59 16 85 3d e8 cf 98 3c f5 d8 7f bd b0 82 b0 bd
       0.06498403 0.018653825 -0.062462766 -0.08618677
000370 00 75 34 3a 7f f2 c7 3c 86 fd a7 3d 25 1a 23 3d
       0.00068838894 0.024407623 0.08202653 0.039819855
000380 74 0f 66 bd a5 93 df bd 5d b0 d9 3c e9 46 06 bc
       -0.05616708 -0.10916833 0.026573354 -0.008195617
000390 fb 36 8b bd fb 49 61 bb 78 82 87 3d fc c4 f6 3d
       -0.06797596 -0.0034376371 0.06616682 0.120492905
0003a0 01 15 29 3d 2f 1b 29 3d 3f 78 a4 bb b2 b7 95 bd
       0.041279797 0.04128569 -0.0050192173 -0.07310428
0003b0 00 96 29 3a 00 96 70 3d d2 a7 d5 bd 4c d9 85 bd
       0.000646919 0.0587368 -0.104324 -0.06535587
0003c0 8b 0a 08 3d f2 d0 36 bd 04 89 06 bd 7e 08 b4 3d
       0.03321318 -0.04463286 -0.032845512 0.08790682
0003d0 8a 29 ef bd 58 da ee bd c3 c9 f3 3d 72 a6 57 bd
       -0.11677845 -0.116627395 0.11903717 -0.05264897
0003e0 39 27 63 3c c0 0b a8 3b e8 75 e4 bd f7 bc d4 3d
       0.013864332 0.005128354 -0.11155301 0.10387605
0003f0 2f f1 94 bd d2 0b 09 3c 57 41 0f 3d af 22 8f bd
       -0.072725646 0.008364635 0.034974422 -0.06989037

stack.2.0.bias f4 [32]
000000 f0 b3 c0 3d d0 db c3 bb c8 ed 0e be 32 81 aa bc
       0.0940932 -0.0059771314 -0.13957894 -0.020813558
000010 33 61 2e 3e 7a bf de 3d 9f 8d 0c bc 97 9f 9b 3d
       0.17029266 0.10876365 -0.008578687 0.07598799
000020 64 2a 6d 3e 3d ab d1 3d 23 09 b9 bd eb 21 2f 3d
       0.23160702 0.10237739 -0.09034946 0.042756956
000030 08 00 21 be 13 67 62 bc e3 10 fb bd b2 16 73 3e
       -0.15722668 -0.01381852 -0.1225908 0.23739126
000040 e3 1e 9e bd fe c7 86 bd bc ff 83 bc 3e 4d 84 be
       -0.07720735 -0.06581114 -0.016113155 -0.2584018
000050 28 6c 20 3d 90 f0 81 be 33 83 cb 3d c0 96 9d bd
       0.039165646 -0.25378847 0.09937134 -0.07694769
000060 f6 23 b6 3d d4 be 62 be 92 84 bb 3d f7 8f ba 3c
       0.08893578 -0.22143108 0.09156145 0.022773726
000070 f7 b1 ff 3d 0b c3 82 3c ca d4 4b bd c0 51 34 be
       0.12485116 0.015962144 -0.04976348 -0.1760931

stack.3.0.weight f4 [10, 32]
000000 c4 d5 c1 bc bd bf 7f 3d 8b 8e 77 bd 5f 46 f4 3d
       -0.023661502 0.062438715 -0.060438674 0.11927485
000010 cc bb 47 be 9d 37 90 bd 65 22 8b 3d 27 ae fa bd
       -0.19505233 -0.070418574 0.067936696 -0.12240248
000020 21 d5 dc 3d 6e 9f df 3c 31 95 9b 3d dd 2f 20 3e
       0.107828386 0.027297702 0.075968154 0.15643258
000030 a5 5f d2 bd a6 4b 97 3d 5a c0 07 be 72 f2 50 3d
       -0.10272149 0.07387476 -0.1325697 0.051012464
000040 50 88 a3 3d 5b 43 00 be dd 77 86 be cd d4 0b 3e
       0.07984984 -0.12525694 -0.26263323 0.13655396
000050 47 4c 83 3e 66 7e 63 be 2d cf 90 bd 86 2c 32 be
       0.25644132 -0.22216186 -0.07070766 -0.17399797
000060 86 60 0f 3e 74 d1 9e bd a0 b3 5c 3d 17 39 3d 3e
       0.14001665 -0.07754794 0.05388224 0.1847881
000070 11 c8 6c be 1b ff 87 be 7c dc b0 3d da a6 1d 3e
       -0.23123194 -0.26561818 0.08635804 0.1539568
000080 c9 0f b3 3e 8c d3 84 3e 8e 3c 81 be 31 85 02 bd
       0.3497298 0.25942647 -0.25241512 -0.031865302
000090 9d ed 88 be 93 86 d0 3d fb 63 67 be 71 35 35 3e
       -0.26743785 0.10181918 -0.22596733 0.17696168
0000a0 0a a1 2e be d9 73 a1 be b6 19 5e bc 1d 52 f5 3d
       -0.17053619 -0.31533697 -0.013555935 0.119785525
0000b0 4e 24 2a 3e 65 b5 da bd f0 24 54 bd 7b e2 02 be
       0.16615412 -0.106791295 -0.05179304 -0.12781708
0000c0 fa f8 8c 3d 61 f1 a6 3d 6b ad 11 3e 27 4a 30 be
       0.06883426 0.08151508 0.1422631 -0.17215787
0000d0 2f d1 b6 3d fc 6c d7 3d a9 9b 97 bd e9 a0 e3 bd
       0.08926617 0.10518834 -0.07402737 -0.111146756
0000e0 a7 2d 17 3e 79 00 17 be d7 f7 00 bd b4 88 bf 3e
       0.14763509 -0.14746274 -0.03148636 0.37408984
0000f0 10 5e eb 3d 56 82 00 be 7f ec 26 3e a8 b1 31 3e
       0.114925504 -0.12549719 0.16301154 0.17352927
000100 d7 cc 62 bd e2 13 33 3e 2e 5e 74 be 7c 83 0c 3e
       -0.05537113 0.17488053 -0.23864052 0.13722032
000110 d1 55 a7 3d 34 e6 b9 3d 0e 01 02 3e 67 a2 7a 3d
       0.08170665 0.09077111 0.12695715 0.061190035
000120 1d 78 53 3e bf b7 3b bb c4 7c 25 3c e1 f0 20 be
       0.20651288 -0.0028643457 0.010100547 -0.15716888
000130 f7 d4 28 be 75 e9 51 be b3 b0 05 be 21 f7 da 3c
       -0.1648749 -0.20499213 -0.13055687 0.026729168
000140 19 12 24 3d d6 e1 d4 3d 64 30 34 be ad d0 ac bd
       0.04005632 0.10394637 -0.17596585 -0.08438239
000150 db e7 c2 bc bd 68 49 3e dd c4 2a be 8c 6e 15 be
       -0.023792198 0.1966886 -0.1667666 -0.14592952
000160 0a e0 15 3e 83 28 51 be 3c d7 26 be 5c f8 c9 bd
       0.14636245 -0.2042561 -0.16293043 -0.09861824
000170 21 1e 59 be 15 80 25 3e 49 6b 0d 3e 5a 7f 57 3c
       -0.212029 0.1616214 0.13810457 0.013152922
000180 b1 d1 9e be be 7f 62 3d e8 aa ae bd 02 24 0e be
       -0.31019357 0.055297606 -0.085286915 -0.13880923
000190 05 a5 11 3c d5 0a 36 bd 1d 14 02 be 97 c5 54 3d
       0.008889441 -0.044443924 -0.12702985 0.05194625
0001a0 92 53 f8 3d cc f1 eb bd 9e 45 23 be da d4 e7 3d
       0.12125315 -0.115207285 -0.15944526 0.11319895
0001b0 8a 4b 9b be 20 61 48 3e 2c 4d 3b 3d e1 9e ea 3d
       -0.3033107 0.195683 0.045727894 0.11456085
0001c0 c0 35 55 bc 8d eb cb bd 7e b1 e2 3d 3f 93 3b be
       -0.013013303 -0.09957037 0.1106901 -0.18317889
0001d0 5f 2a e1 bc e6 b7 44 be e2 ff 23 be cb 2d ab 3c
       -0.027486024 -0.19210777 -0.1601558 0.02089586
0001e0 e9 ff 9e 3d c5 66 b4 bd 2d a0 1e be f9 51 9e be
       0.07763655 -0.08808664 -0.1549079 -0.30921915
0001f0 7f 29 0b 3d bf 98 da 3d 79 e2 e4 3d 70 ad dd 3b
       0.03397512 0.10673665 0.11176009 0.00676506
000200 d5 e1 8a be 8c 3e c2 bd 7d ac 79 3d 97 3f 97 bd
       -0.2712542 -0.09484586 0.060955513 -0.07385176
000210 a5 2b 97 be 18 11 fe 3d 75 ae 38 3e 36 88 19 3e
       -0.29525486 0.12405604 0.180353 0.14993367
000220 4a 6a f0 bd 13 a1 92 bd 50 65 db bd 52 e7 15 be
       -0.11739023 -0.07159629 -0.10712683 -0.14639023
000230 b2 6b d7 bd eb 16 02 be c2 0a 53 3e 9a 3e df bd
       -0.10518588 -0.12704055 0.20609573 -0.10900612
000240 1a e7 36 bd b7 96 15 be f4 7d bd 39 77 63 2f 3e
       -0.04465399 -0.14608274 0.00036142732 0.17127787
000250 9f c4 0c be d3 23 3b 3e a1 df 97 be 61 c2 3b 3c
       -0.1374688 0.18275385 -0.29662803 0.011459918
000260 bb cf b6 3c c2 31 38 be 1b 6a 8d 3d 04 42 ea bd
       0.02231585 -0.17987731 0.06905004 -0.11438373
000270 95 db ef bb 17 9d 22 be 1b d7 00 be ed 80 5c 3e
       -0.0073198774 -0.15880238 -0.12582056 0.21533556
000280 b2 f1 63 bd d9 3d 9a be c5 ff 8c 3e 84 63 8e 3d
       -0.05565042 -0.3012531 0.27538887 0.06952575
000290 81 30 5e 3e b5 6f 13 3e a4 ee 42 bb c8 5e e8 3d
       0.2169819 0.14398082 -0.0029744292 0.11346203
0002a0 28 f7 3d be a9 30 fb 3d 22 7b 06 bd e8 75 65 be
       -0.18551314 0.122651406 -0.032832272 -0.22408259
0002b0 b3 9a b5 3c fa 40 ab bd 99 2c 9d 3e 23 9b b0 3c
       0.022168493 -0.08362003 0.30698088 0.02155835
0002c0 4a 94 bb 3c 52 ea 0b 3e 68 8a 48 3c 46 37 43 3b
       0.022897858 0.13663605 0.01224003 0.0029787584
0002d0 f8 69 02 3c 37 38 c1 be 66 1b 2e 3d 98 c9 d8 bd
       0.007959835 -0.377382 0.042506598 -0.10585326
0002e0 27 7f 48 be ee bc 70 be aa c9 27 3d ce 6a ed bc
       -0.19579755 -0.23509571 0.040963806 -0.028981593
0002f0 46 29 5c 3e f8 d6 0e be 84 97 3a bd 8c 71 ca bd
       0.2150012 -0.13949192 -0.045554653 -0.098849386
000300 0b b1 c4 3c 26 40 42 be e5 b4 bc bd 2e 00 e3 3d
       0.024010202 -0.18969783 -0.092141904 0.11084019
000310 0b 31 5c be 87 b9 cd 3d 72 02 31 3e 21 75 97 3d
       -0.21503083 0.10045152 0.17286089 0.073953874
000320 99 7c 1e 3e e2 9d 81 be 02 6b 9d bd ce d9 0d 3e
       0.15477218 -0.25315768 -0.07686426 0.13852617
000330 1e 6d ab bd c5 bf 8e 3d e6 89 43 be 3b ce 18 3e
       -0.08370422 0.06970171 -0.19095573 0.1492242
000340 7b 4f 08 3e d6 af 2d 3e 64 b8 08 be 50 fa 4e bc
       0.1331157 0.16961607 -0.1335159 -0.012632921
000350 3c b2 2b be e9 1a e8 bd 85 a3 77 3d 35 95 07 3e
       -0.1676721 -0.11333258 0.06045868 0.13240512
000360 4d 27 d0 bd 39 2f 3c 3c 68 66 b5 bb 80 e1 15 be
       -0.10163746 0.011485868 -0.0055358894 -0.14636803
000370 78 3e 6f bd 67 3f 70 be c7 73 f4 bd f4 a4 b6 bd
       -0.058409184 -0.23461686 -0.11936145 -0.08918181
000380 eb 62 64 bd 6c 02 39 be 92 d6 20 be a7 5b fe 3c
       -0.055758398 -0.1806733 -0.15706852 0.031049563
000390 ac b6 c0 3d a6 b3 61 3e a1 e0 3f be 0b e4 81 be
       0.09409842 0.22041187 -0.18738033 -0.25369295
0003a0 d1 b2 95 3d 5b 7d ab 3d b8 30 16 3e 41 91 50 3e
       0.07309497 0.08373519 0.14667022 0.2036791
0003b0 21 5d f7 3d f3 e2 2d be ae 2d 44 be 16 d4 67 bc
       0.1207831 -0.16981106 -0.1915805 -0.014149686
0003c0 59 63 ca 3d 7a 1c e9 bd 19 50 45 3e df 24 99 be
       0.0988223 -0.113823846 0.19268836 -0.29910943
0003d0 68 07 4e be 85 64 8d 3d d9 18 4a 3e 1c bb 76 3c
       -0.20120013 0.06903938 0.19736041 0.015059259
0003e0 31 94 b0 be 14 b0 2f 3e db 8a 68 bd e6 f7 d1 bb
       -0.3448806 0.17157012 -0.056773048 -0.0064077256
0003f0 06 ac a5 bc 94 40 5b 3e ae 85 08 3d bd b3 93 be
       -0.020223629 0.21411353 0.033330612 -0.28848067

stack.3.0.bias f4 [10]
000000 32 36 3b 3e 1b 9b 01 bd f3 47 ad bc 82 81 5b 3e
       0.18282393 -0.03164206 -0.021152472 0.21436122
000010 dd e2 49 bc 03 a4 f9 3d aa b0 ca 3d 22 fa 17 bd
       -0.012322155 0.12189486 0.09896977 -0.03710378
000020 14 e6 25 be 67 49 16 be
       -0.16201049 -0.14676438
