src/fminst/models/teacher_5cl_7.pt (torch, 447183 bytes, 8 tensors)

stack.0.0.weight f4 [128, 784]
00000000: 377a 233b 413e b0bc 0ca8 2abc e64a 523d
00000010: 2f48 1ebc 2e66 afbb ed28 9dbd 32d1 45bd
00000020: dfeb 233d 82c3 0ebd 4103 0ebd 2404 67bd
00000030: ef28 9abd eef0 a5bd 0003 83bd 8590 8fbd
00000040: b176 35bd 1162 b9bd 4571 d8bc 7233 b4bd
00000050: 82d3 efbc 9485 79bd 31ae 22bd 778e ee3c
00000060: fb08 f4bc dc36 da3b 632e de3c 6a7c 163c
00000070: 1739 9b3c 3c52 e2bc 0747 d03c f174 113d
00000080: 35a3 27bd 8204 52bd e383 29bd e251 bd3d
00000090: d28c 8abd 11b7 a3bd 5160 8dbd 518f a7bd
000000a0: 399a 2fbd c922 9fbd 8b05 a2bd 6481 efbc
000000b0: 0c38 e0bc a021 65bd 479d 87bd 7c5d 84bd
000000c0: bc24 30bd 6fad bdbd 2a69 b5bd 8dfa efbc
000000d0: 42f7 ff3c a516 0bbb 132d e7bc 93ce 7f3a
000000e0: 251c 88bc b7fd 8fb8 0034 8f3c 0e8d 433d
000000f0: 3d9b 80bd d59b 7f3d 6a5c 8e3d f225 023d
00000100: 38bf 93bd 1a38 70bd 09b7 a4bd a9ed 9abd
00000110: 49d6 44bd 8ec7 21bd 90eb 73bd d56f 97bd
00000120: eedf 25bd 3d14 a3bd b824 8cbd 17ce d7bc
00000130: d26f 5abd 48d1 7d3d ac43 22bd bd3b 8bbd
00000140: bb18 ddbc 48a0 eebc aaf5 20bc e54d cabb
00000150: 3cc5 70bc d7d2 10bc 7552 b53c 8bd9 20bd
00000160: 03b3 68bd 232b ba3d 5fd5 0d3d 348e a6bd
00000170: 00dc 33bd aed3 7dbd 7ea3 bdbd a29c adbd
00000180: 1b83 a7bd 2102 05bd 35b9 33bd 9ccd 04bd
00000190: 5f70 b1bd f04b c2bd 1ff3 aabd ad4f 66bd
000001a0: 0d68 89bd 11f2 a8bd 218b ae3d 7a5d 8fbd
000001b0: 6d8a a3bd fe24 873c dca8 1dbc ae84 ba3c
000001c0: f373 0b3c 01fa 663a 5824 6abc 61f6 acbd
000001d0: 87e0 9dbd 1b40 303d 4d57 a4bd 7b05 5cbd
000001e0: fabd 58bd d65f 99bd 459b 16bd 74ae a3bd
000001f0: 0070 58bd 14df 8fbd ab6e babd 9c9c aabd
00000200: dd36 3abd 8914 3cbd 8736 a8bd d2ca 91bd
00000210: 185c bfbd 0a50 27bd 68c4 e9bc c042 42bd
00000220: 07db a6bd d551 9a3c 05cd f23c 536c efbb
00000230: c1d6 bfbb 6187 4a3c 6c08 51bd 0c2f 91bd
00000240: 6495 d93c 52d7 adbd 5506 6ebd fccf 7dbd
00000250: d256 fabc 1ef6 70bd 79d1 8dbd c073 c2bd
00000260: f03b bebd 4b34 39bd 6b59 e7bc 4930 78bd
00000270: 265c bcbd 4508 42bd 7ba5 fdbc ac64 abbd
00000280: 9a3d 8ebd 62a8 69bd 38a9 a4bd 2d80 b83c
00000290: 6584 30bd 7812 8fbd 13e0 12bc bc59 9bbc
000002a0: 7c06 dc3c caf5 e13b 24f7 25bd 4562 abbd
000002b0: 6ced b73d 89cd 68bd d68b a3bd 1f89 7fbd
000002c0: ecc5 aebd 9db8 7cbd 0048 24bd 7cdd 9bbd
000002d0: baa2 f4bc 174e 49bd e7c8 87bd 9745 48bd
000002e0: 9675 88bd f2fb 8bbd b6f8 aabd 01bb 20bd
000002f0: 8e27 1ebd cddf 43bd ef67 1fbd 23ab c13d
00000300: d101 d3bc fa1a bdbd bc6c 053c 8167 48bb
00000310: 61b0 463c 24cc 533d 811f 8b3d a831 babd
00000320: 77f3 9b3d 57b1 d2bc 6522 88bd c829 b5bd
00000330: 06c9 b7bd 1104 89bd 692e 78bd 27a7 65bd
00000340: 479d 63bd b5c8 07bd 2041 88bd 8f38 4cbd
00000350: 45db a1bd cc2d ccbc 0bd5 3dbd ce20 85bd
00000360: 96ce 15bd c62e 42bd e9d9 5cbd 2d4f 90bd
00000370: 6981 5fbd 742e 66bd c43f 1b3d 93f8 053a
00000380: 418e ff3b a613 1b3d 310a 653d 2e76 2a3d
00000390: 77d5 f63c 64c4 a6bd c607 b5bd e11c 54bd
000003a0: 107c 1cbd edf3 e1bc 1b12 cdbc a159 3cbd
000003b0: 2b6b 2ebd 3f75 87bd 7e13 fabc abf2 96bd
000003c0: ffdb 8ebd b453 93bd 0304 acbd 1e5b b3bd
000003d0: 0ce5 89bd c279 ffbc 6969 9fbd dd45 bdbd
000003e0: 9bf2 85bd 611b b83d 1f44 8b3d 0b25 413d
000003f0: 02ba 353d a525 b93d 6728 c23c 9ea3 a23d
0.0024944672 -0.02151406 -0.010416042 0.05134096 -0.009660765 -0.005352757 -0.076738216 -0.048295207
0.040019866 -0.03485442 -0.034671072 -0.056400433 -0.07527339 -0.08102594 -0.063970566 -0.07009987
-0.044302646 -0.09051908 -0.026421199 -0.08798875 -0.02927566 -0.060918406 -0.039716903 0.029120667
-0.029789438 0.006659372 0.027121728 0.009184936 0.018948121 -0.027627103 0.025424493 0.035511915
-0.04092713 -0.05127383 -0.041385543 0.092441335 -0.067651406 -0.079939015 -0.069031365 -0.08181632
-0.042871688 -0.077703066 -0.079112135 -0.029236503 -0.027370475 -0.05594027 -0.06621795 -0.06463143
-0.043003783 -0.092615955 -0.08857949 -0.029294277 0.031245831 -0.0021223214 -0.028219735 0.000975826
-0.016614983 -6.8660294e-05 0.01748085 0.047741942 -0.06279609 0.062404472 0.0695122 0.03177447
-0.072142065 -0.058647253 -0.08042724 -0.07564861 -0.04805592 -0.03949695 -0.05955082 -0.07394377
-0.04049676 -0.079628445 -0.06842941 -0.026343388 -0.053329296 0.061967164 -0.03961532 -0.067985035
-0.026989331 -0.029129162 -0.009824196 -0.0061738365 -0.014695462 -0.008839331 0.022134045 -0.039269965
-0.056811344 0.09090259 0.034627315 -0.08132592 -0.04391098 -0.06196945 -0.09259699 -0.08477141
-0.08179303 -0.032472733 -0.0438778 -0.032422647 -0.08664011 -0.0948714 -0.08347153 -0.05622833
-0.06709299 -0.082492955 0.085226305 -0.07000251 -0.07985387 0.016497131 -0.009622779 0.022768345
0.008511531 0.0008811057 -0.014290892 -0.084454305 -0.07708841 0.043029886 -0.08024464 -0.053716164
-0.05291555 -0.074889824 -0.03676917 -0.07992259 -0.052841187 -0.07024971 -0.091031395 -0.08330652
-0.045462478 -0.04591802 -0.08213525 -0.07118763 -0.09343737 -0.040847816 -0.028536037 -0.04742694
-0.08147245 0.018837849 0.029638777 -0.0073066144 -0.005854458 0.012361378 -0.051033422 -0.070890516
0.026560493 -0.08488335 -0.058111507 -0.061965927 -0.030558977 -0.058828466 -0.06924719 -0.09494734
-0.09288776 -0.045215886 -0.02824088 -0.060592923 -0.091972634 -0.047371168 -0.030962696 -0.08368811
-0.06945343 -0.057045348 -0.080400884 0.022522056 -0.04309501 -0.069859445 -0.008964556 -0.018963687
0.02685856 0.0068957554 -0.040518895 -0.08368353 0.089808315 -0.05683664 -0.07985656 -0.06238663
-0.08533844 -0.0616995 -0.040107727 -0.07610604 -0.02986275 -0.049146738 -0.06630116 -0.04889449
-0.06663053 -0.06835164 -0.08348219 -0.03924084 -0.03861194 -0.047820855 -0.03891748 0.0945647
-0.025757702 -0.09233661 0.0081436 -0.0030579271 0.012127013 0.051708356 0.06793118 -0.090915024
0.076147966 -0.025719328 -0.06647185 -0.0884586 -0.08973889 -0.06690229 -0.060591135 -0.056067612
-0.055569913 -0.033150394 -0.066530466 -0.049858626 -0.079031505 -0.024924181 -0.04634575 -0.065003976
-0.03657397 -0.047407888 -0.053918753 -0.070463516 -0.054566775 -0.056196645 0.03790261 0.0005110588
0.0077989404 0.037860535 0.055917922 0.04161661 0.030131085 -0.08142927 -0.08839373 -0.051785354
-0.038204253 -0.027582133 -0.025033047 -0.045983914 -0.042582672 -0.0661416 -0.030526873 -0.07370504
-0.06975555 -0.071936995 -0.08399203 -0.087576136 -0.0673314 -0.031185988 -0.07783777 -0.09241841
-0.06540414 0.08989597 0.068001024 0.047154468 0.044366844 0.09040383 0.023700906 0.07941364

stack.0.0.bias f4 [128]
00000000: 4838 62bd 6628 9dbe 4727 30bd 1e37 10bd
00000010: 18ca 04be 218f b03e a47e 0abe 6995 8bbd
00000020: 117e a8bd 3481 9c3f f083 8b3d e7e7 123e
00000030: 77d1 3d3f fa12 31bf 7f93 a83e 5a95 15bd
00000040: 82ae 253d f561 babd 2d50 b03f a9aa b7bd
00000050: 2588 2f3f c130 673b af96 08bc a550 25bd
00000060: b99b a83d 4fc9 82bd e70d a6bd d7ab 833f
00000070: fa48 f5bc b548 97bd f630 8c3f 403f fabc
00000080: 97bb 21be 8a7f 85bd 3f45 6bbe 1344 1a3e
00000090: 1029 0e3f 1e99 91bd 49ad ec3f 8ea3 10bd
000000a0: 46d1 2d3f c1e6 f5bd ce72 80bd c50d cdbd
000000b0: 5e74 a0bd 3d6a a2bd 3a94 98bd dce8 97bd
000000c0: 94a2 80bd 54bf 0dbc ef0b 833e 3401 52be
000000d0: a3a3 d9bc 60f1 a8bd 6d3e ecbc 2380 563d
000000e0: 337f 2ebd 4277 19bd 0223 023d 23e4 fdbd
000000f0: f997 0f3e 490c 0b3e 0a46 77bd 9de6 1bbd
00000100: ac7c a3be a5ef a53e 6ae7 2cbd 743a e93d
00000110: 18f7 7dbd e70e 28bd 5d87 bf3f 1c5e 493f
00000120: 4457 bdbd 3c10 9d3f 3901 87bd c32b ff3f
00000130: a051 b1bc fac6 fbbd 5f86 31bd cdfa 95bb
00000140: 0d4f 0440 8a3c 93bd 0f51 1ebd f1f3 ccbc
00000150: 9eaf 2fbe 23fa 23bd 53c4 943e 3e92 d5bc
00000160: eac2 b3bd e01a b6bd 7d56 c83e bd8d 9dbd
00000170: 480f 96be bf44 3fbd bdaa 6ebd 3b8d 76bd
00000180: fc93 e93e 3519 babc f911 a33e e4f6 afbd
00000190: a05c 0ebd 1b44 5abd 8722 b6bb 39f8 64bd
000001a0: 8cce 04bd 5383 e4bd 9d5e 73bd 9701 e1bd
000001b0: fd21 51be b989 bbbd af2b 32bd 191b 3abd
000001c0: 332f 05bd 33f8 2ebe 224c b7bd 6be0 82bf
000001d0: 7c5a a3bd 6992 383e 30da b1bf 2c9d 83bd
000001e0: 7ce2 40be 3d69 88bd f40b 023e 649b 8bbd
000001f0: 7cf6 90bd 12be 45bf 4b1e 9a3d f5db 64bd
-0.055229455 -0.30694884 -0.043006208 -0.035208814 -0.12967718 0.344842 -0.13524872 -0.06815607
-0.0822717 1.222693 0.068122745 0.14346276 0.74147743 -0.6916958 0.3292503 -0.036519386
0.040449627 -0.09100715 1.3774468 -0.08968098 0.68567115 0.0035276862 -0.008336707 -0.04036011
0.08232827 -0.06386053 -0.081081204 1.0286816 -0.029942024 -0.07386915 1.0952442 -0.030547738
-0.15794216 -0.06518467 -0.22975634 0.15065031 0.55531406 -0.07109283 1.8490382 -0.035312228
0.6789745 -0.120069034 -0.06271897 -0.10012392 -0.07834695 -0.079304196 -0.07450147 -0.07417461
-0.06281009 -0.008651573 0.25595042 -0.20508271 -0.026567286 -0.08249164 -0.02883836 0.052368294
-0.042601775 -0.03746725 0.031771667 -0.12397029 0.14022817 0.13578905 -0.06036953 -0.038061727
-0.31931055 0.32409397 -0.04221288 0.11388102 -0.062003225 -0.041029837 1.4963185 0.78659225
-0.0924516 1.2270579 -0.0659203 1.993523 -0.021645367 -0.12293811 -0.043341037 -0.004577017
2.0673249 -0.07189281 -0.038651522 -0.025018664 -0.17156836 -0.04003347 0.29056033 -0.02607071
-0.08777411 -0.08891845 0.39128485 -0.0769305 -0.29308534 -0.04669642 -0.058268297 -0.06019328
0.45620716 -0.022717098 0.3184965 -0.085920125 -0.034756303 -0.053287607 -0.005558315 -0.055900786
-0.03242354 -0.111578606 -0.059416402 -0.10986631 -0.20423122 -0.09157128 -0.04349869 -0.045436
-0.032515716 -0.17086868 -0.08950068 -1.0224737 -0.07976243 0.18024601 -1.389471 -0.064264625
-0.18836397 -0.066606976 0.12699872 -0.06816748 -0.07078263 -0.7724315 0.07525309 -0.05587383

stack.1.0.weight f4 [64, 128]
00000000: 3ea2 b1bd 6ca1 8bbd 2075 c4bd b9e2 43bd
00000010: bb39 adbd 8356 56be 2f04 80bd 0494 68bd
00000020: ce91 2b3c a3b4 843b 001d 86bd 3f81 f9bd
00000030: e969 70bb 7f6c 76bd 0f4f c3bc e7e4 fdbd
00000040: bf64 bdb8 c291 94bd c311 debc 96db d93d
00000050: 0821 55be e304 09bd da65 60bd 225e 34bc
00000060: fd0d 37bc 5090 d0bd cf01 f63b 6eac c4bd
00000070: a6bd 15bd 8019 f3bd c023 d0bd f3cc d8bd
00000080: 126c 5c3c cd8e ea3a a929 e4bd 69a5 43bd
00000090: 346e dd3c 83ef 4dbd c487 ca3c a109 dcbd
000000a0: 5b9d 89bd 24d7 11bd cacf 9bbd 3179 fabd
000000b0: 9d0b 8f3d 78a7 50bc a212 87bd a93e d0bd
000000c0: b41c afbd 2a11 edbd eaab fdbd b22f 183d
000000d0: 0f5f 7bbd a592 0dbe 3ddf e43c 04bd 97bd
000000e0: 7d1c fabd 9823 24bc 7d42 853c 6c0f 993c
000000f0: 6cd7 e8bd c2fd 533d 4cca 83bc d025 5ebd
00000100: 0f3c 50be d866 113c f8e5 673c 2e4d 8bbe
00000110: 8267 f1bd 0d91 923d e23f 8fbe e14b 00be
00000120: b5ba 80bd 4f78 81bd f799 e43c dd79 19bd
00000130: 4ec8 6abd 7f03 5a3c b223 bbbd ffc7 0dbe
00000140: ced3 97be b7c4 50bd 83ee 87bd b457 dcbd
00000150: 9973 63bd cd4c 3dbd 887c cb3c b874 c9bd
00000160: 7a87 4ebd a843 3a3c 6aa5 51be f511 8f3a
00000170: ba6a f4bc 6e53 a63d 2bf0 91bc 3721 673d
00000180: 77f5 41bd de89 123e fe7e 35bd 9513 24bd
00000190: fe9d 10be e115 053d e709 cfbd 09df a1bd
000001a0: f671 cabd 8118 9d3d 431f 053e f12c aabd
000001b0: a1fc 88bd f9e7 6cbd b75e d8bd a2ed d6bd
000001c0: 0c0b 08be c411 0ebe 689a d3bc 70cf afbc
000001d0: 54e5 8d3d eb19 09be 1f96 14be a980 09be
000001e0: d8eb bf3b ed7b 2dbd d956 b6bd 9c85 0abe
000001f0: 58b5 9bbd e170 0fbe 2dc5 6abd 20cc 31bd
00000200: 2032 bf3d eef3 48be 90fe eb3a a6b9 4dbd
00000210: ff2e 313f 7bc4 12bf 631e ecbd 5832 8fbb
00000220: c66a 863c 0e0b 423e fe3e 8cbc 152c 5f3e
00000230: beae bcbe 83a2 b4be 2e32 e23d 9495 a93c
00000240: 8e12 14b8 34a5 a4bc 0941 1abf b92b 88bd
00000250: 2585 f1bd 8ab9 babc 617b 823d 8583 adbd
00000260: c99e 473f e507 aa3c 68e6 0a3e d81e 83be
00000270: 138a 07be d4a7 02be 16aa 123f a2a4 c9bd
00000280: 4e15 aabd 55d3 83bc c70c 4dbe 738b e93c
00000290: 0fb7 0a3f e01e e43c ef66 f73e 1ad0 4d3c
000002a0: c726 77be 9ee4 dcbd fd7c d6bd 116c afbd
000002b0: 1142 613c 5780 1d3d 7148 14be d5e6 d5bd
000002c0: 3865 03bd 01c6 70bc c594 b23d 43b2 0abe
000002d0: 0a09 953b b2f7 26bd 9298 19bc 1fc4 343f
000002e0: 22a1 b3bd 1285 453c 580e 24bf fd25 53bd
000002f0: ff2d 003e e203 6cbd c637 203d 7e2f 36bd
00000300: 5d7c 11bf 430f a9be e04b 13be 321e 57be
00000310: 86aa cdbd 0fa0 c93d 5ce7 27be eec4 f7be
00000320: db48 1e3d deb0 de3e 53e1 24bd 97cf 4e3e
00000330: 4abe b4bd bc78 fb3d 7c0a afbd 2ed4 2bbe
00000340: aa4a 593e dc3c a5bd 55fa b5bd f291 d43b
00000350: cb79 0abe 6145 08bc 36da 8ebe 3364 8f3e
00000360: f58c 82bc 121b 61bd e288 25bf 32e0 31bd
00000370: 9dc1 de3e 33ce 153d ea50 35bd 6d08 a1bd
00000380: e99e bc3c 1386 07bd 0e61 a5be 38d2 563b
00000390: 7bab 03be 4d73 9039 5ee7 d0bd b2f9 1d3c
000003a0: 4edf 54bc cbef 01bd 0f92 1dbc 5bc1 a03f
000003b0: 2ea0 acbd dbf0 8b3d 1038 aabd 1f6b 70bd
000003c0: b82d be3d 8a98 a4be c378 adbd aa96 8fbf
000003d0: 8b6f 17bd 39e0 133f 105e 783f dcdf 3a3e
000003e0: 800d 5ebf 0613 35bd 031c 5b3d 64c4 f1bd
000003f0: 3526 05bc 4265 c7be bb17 893d 5bce e23b
-0.08673523 -0.06817898 -0.09592652 -0.04782364 -0.08458277 -0.20931439 -0.06250798 -0.056781784
0.010471774 0.004049854 -0.065485 -0.12182855 -0.003668422 -0.060162064 -0.023841409 -0.12397175
-9.030988e-05 -0.072543636 -0.027108079 0.10637586 -0.20813382 -0.033451926 -0.054784633 -0.011008771
-0.011172769 -0.101837754 0.00750754 -0.09603201 -0.036557816 -0.11870098 -0.10163069 -0.10585966
0.0134535 0.0017895341 -0.111407585 -0.04776517 0.027030088 -0.050277244 0.024722941 -0.10744024
-0.06719466 -0.035605565 -0.07607992 -0.12230147 0.06984637 -0.01273524 -0.06595351 -0.101682015
-0.085503966 -0.115755394 -0.12386306 0.03715486 -0.06136995 -0.13825472 0.02793848 -0.07409099
-0.12212465 -0.010018252 0.016267056 0.018684112 -0.113692135 0.051755674 -0.016087674 -0.05423528
-0.2033541 0.0088746175 0.01415395 -0.2720732 -0.11787321 0.071565725 -0.27978426 -0.12528946
-0.062856115 -0.06321775 0.027905447 -0.037469734 -0.05731993 0.013306498 -0.09137668 -0.13845824
-0.29653782 -0.050968852 -0.066372894 -0.107589155 -0.055530164 -0.04621582 0.024839655 -0.098367155
-0.05042217 0.01136867 -0.20473257 0.0010915386 -0.029836047 0.08121382 -0.017814716 0.05642816
-0.047353234 0.14310405 -0.044310562 -0.040057737 -0.14122769 0.03249157 -0.101093106 -0.07903869
-0.098850176 0.076706894 0.13000207 -0.08309353 -0.0668881 -0.057838414 -0.105649404 -0.104945436
-0.13285464 -0.13873965 -0.025830463 -0.021461219 0.069285065 -0.13388793 -0.14510392 -0.13427986
0.005856972 -0.042354513 -0.089032836 -0.1352753 -0.07602948 -0.14007904 -0.057316948 -0.04340756
0.093357325 -0.19624302 0.0018004943 -0.050225876 0.69212335 -0.57331055 -0.11529233 -0.004370015
0.016408335 0.1894953 -0.01711988 0.2179416 -0.36852068 -0.35280237 0.11044727 0.020701207
-3.530323e-05 -0.020098306 -0.60255486 -0.066489644 -0.117929734 -0.02279355 0.06371189 -0.08472351
0.7797666 0.020755718 0.13564456 -0.2560947 -0.13236265 -0.12759334 0.5729078 -0.09845854
-0.08304845 -0.016091982 -0.20024405 0.028508877 0.54185575 0.027846754 0.4832072 0.012561822
-0.24135886 -0.10785793 -0.104730584 -0.08565534 0.013748662 0.038452473 -0.14480759 -0.10444418
-0.03207895 -0.014695645 0.08719782 -0.13544564 0.0045481967 -0.040763564 -0.0093747545 0.7061176
-0.08770968 0.012055652 -0.64084387 -0.0515499 0.12517546 -0.05762089 0.03911569 -0.044478886
-0.5683039 -0.33019456 -0.14384413 -0.21007612 -0.100422904 0.09844982 -0.1639685 -0.48392433
0.0386437 0.43494314 -0.04025395 0.20196377 -0.08825357 0.12278888 -0.085469216 -0.16780159
0.21219888 -0.08068249 -0.08885638 0.0064871246 -0.13523023 -0.0083173225 -0.27900857 0.28006133
-0.015936354 -0.054957457 -0.6466199 -0.0434267 0.4350709 0.0365736 -0.04426662 -0.07862935
0.023024993 -0.033086848 -0.3230061 0.0032779109 -0.12858383 0.00027551726 -0.1020038 0.0096420515
-0.012992693 -0.031722825 -0.009617343 1.2559007 -0.08428989 0.06833049 -0.08311474 -0.05869591
0.09286064 -0.32147628 -0.08470299 -1.1217854 -0.03697161 0.5776401 0.9701853 0.18249458
-0.8673935 -0.044207595 0.05349351 -0.11805037 -0.008126785 -0.3894444 0.06693979 0.006921572

stack.1.0.bias f4 [64]
00000000: 74ce 07be 2057 263f 4097 34be ba03 983f
00000010: 633a fbbd 8206 173f 3610 04be 7bc8 95be
00000020: b9ea 6dbe a454 953f ab10 29bd 9791 f6bd
00000030: 773c 0d3e c4d6 9abd 9851 81be 75e7 b2be
00000040: 1d0f db3d bc0b 2dbd 6307 393f 2fe2 8cbe
00000050: 3d6d 81be c602 953f 180a 65be 36ea c73f
00000060: b156 61bc a675 ddbe 4bdb 183f 6975 a7bd
00000070: 29bf 5ebe 5cdd 6a3e 08c1 94be 0fb6 b1bd
00000080: 7e51 b4bd b498 4abd ff30 eebe 7426 393f
00000090: 889b 5fbe b6d4 2bbf cc18 133d 5936 593f
000000a0: 5ef4 67be 519b f3be ab09 dbbd 8520 ba3e
000000b0: d041 3cbe b10a ebbd cb65 6dbe b1f8 893d
000000c0: 6fcf 8fbe 956b 103f fe57 86be 5848 393d
000000d0: 6925 9ebe 77ba 1bbe a561 57be f82c cb3e
000000e0: adba 7abd 9721 223f 2ceb 4cbe 2c87 343f
000000f0: 04bf 46be 01f7 483f ac4f 1bbe a144 5cbe
-0.1326235 0.6497669 -0.17635822 1.1876137 -0.12266996 0.58994305 -0.12896809 -0.29254517
-0.23234071 1.1666455 -0.04127566 -0.12039488 0.13792597 -0.075604945 -0.25257564 -0.34942213
0.10696242 -0.04224752 0.72276896 -0.27516314 -0.25278655 1.1641471 -0.22367132 1.561835
-0.013753579 -0.4325382 0.59709615 -0.08176691 -0.2175261 0.22936004 -0.2905352 -0.08677303
-0.08804606 -0.049462035 -0.46521756 0.723243 -0.21836674 -0.67121446 0.03591232 0.8484855
-0.22651812 -0.47579435 -0.106952034 0.36352935 -0.1838448 -0.114766486 -0.23183362 0.06736887
-0.28087947 0.5641416 -0.26239008 0.045235008 -0.30887917 -0.1520785 -0.21033342 0.39682746
-0.061213184 0.63332504 -0.20011586 0.70518756 -0.19408804 0.785019 -0.15167111 -0.21510555

stack.2.0.weight f4 [32, 64]
00000000: 3e8a 5a3d 8ba2 333f 6b56 473c abc8 31be
00000010: 06f6 303d 2d74 86be cd7e 6a3e a670 28bf
00000020: 9679 d3be 098d 97be f86e 483c be49 a13d
00000030: d413 bfbe 118c 6a3d 29cc 9dbd ee4c debd
00000040: 196e 67be b504 7abd e8ad 343d 399a 6fbe
00000050: 4448 2dbd 0bb7 503e 6f8a 7b3d 1e69 2d3f
00000060: 42ce b43e 8eff 14be fa76 80bf b09a 4e3e
00000070: 3864 2bbd cea3 503d 6667 1b3f 3ddf 1a3d
00000080: 477c 433e 0dc5 08bc 6b07 a4be 9c1b 91bd
00000090: 6022 153e 198c c13e 4f97 fb3d a15d 12bf
000000a0: ff70 02be 89d6 b2bd 69f1 043e 5341 61be
000000b0: d9dd 733b 3cb5 7a3e 3305 bd3c adc4 5dbe
000000c0: 2822 113e 47e4 4cbe 851b 003e 2169 1b3e
000000d0: f63f 86be feda 0cbd 210e c13d c6b2 bf3e
000000e0: 06cd a6bc 8e37 603e 8466 1b3e b2ac cc3e
000000f0: afd4 713d dcd9 633e 788d 27be e60d 8cbe
00000100: 5009 ffbd a6d3 183e 4654 763c 4cfa eebb
00000110: c4b0 6ebd fba3 23be b334 163e 0a85 933e
00000120: 1ff5 b9bd 25c6 3dbe b296 f0bd 1a23 09be
00000130: 33d5 4abe 942f 3dbd cf3e 183d a9bd 723e
00000140: 96c2 c8bd b8a1 91bd b078 41be 6772 0b3e
00000150: f39c 18bd 3002 b5bd b2e0 a8bc ca6a 6bbd
00000160: 14a4 45be ccba 8abe 7748 bbbd 6416 acbc
00000170: 0c7a 43be 6447 babc 18d0 b3be 72f5 9abd
00000180: e318 05be de3f 79bd e910 ccbb 54de 343d
00000190: dc07 043e ebc7 debd c9f1 55bb a92e 22be
000001a0: 0f5d fcbd 08b1 b3bc 9062 f83d ee06 86be
000001b0: 0516 b9be 3124 9c3d 317f 1c3d b0d6 7a3d
000001c0: 2286 eebd 50cd a0be ce76 50bd 5dc6 d2ba
000001d0: 5c8a 2f3e 540a 16be d1fa 39bd e00f 06be
000001e0: e34a 92bc f77b dbbd 504a 8fbd 08d0 30be
000001f0: c3e7 69bd 2bae 37be 04d6 00bd c380 e73d
00000200: 3918 883e fdd6 803e 0e3a fe3d 2999 f8bb
00000210: 722c adbd 9d71 85be c1be e63d a8a6 8dbe
00000220: 9591 bdbe 3cb0 c33d 0f41 81bd b7b6 b53d
00000230: 67c2 6c3d 1dda 1a3d 99c1 22be 4965 08be
00000240: 72fe dbbd c224 933c d9c7 12be 6213 03be
00000250: 86ee ffbd 7501 7bbe 80b8 5abd c4a6 133f
00000260: 8fc1 1f3e 4073 64be 23ce 15bf e28a 063e
00000270: c801 453d de94 79be 8bc9 013f 9318 553c
00000280: e30c ccbd f4cf 62bd a316 67be 5a3c 113b
00000290: cb86 80bd 3f5c 453f 44e9 8a3d 2334 4dbe
000002a0: 3e97 e9be 3bd5 a9bd ef85 e3bd 16c9 65be
000002b0: 2135 cc3d 7c8d a1be ba53 ee3c ce59 94be
000002c0: e1f3 fd3d 9b9e 61bd affc 423d b9c3 223e
000002d0: b560 cabe 1656 8dbe a054 ca3c 157d 92bd
000002e0: b23e 0e3d 6abe 113d 0034 77bc 0c92 af3d
000002f0: 7303 33bc 7279 8bbe f965 bfbd a824 f73c
00000300: 467e 233e 0f9c e8bd f242 913e 6402 92be
00000310: 1e5f 53be 9742 b1be b837 e43d de51 3bbe
00000320: 85c3 3abe 658e b5bd de6a 79bd 4509 68bd
00000330: bb2a 94bd f277 1b3d 50b8 273e 0142 203e
00000340: 9103 5abb fbfa e2bd 166d 68be c9b8 13bf
00000350: 6f8c 18be abbc ccbd 5613 29be 2045 31be
00000360: 6471 3b3d 29a3 e8bc 5227 14bf 4112 dcbd
00000370: b6a3 ce3b 8dcd 22be c653 bfbe 9fdf 9fbd
00000380: 1e43 adbd 2c60 a03d e9a6 e53c 0d48 24be
00000390: 67d7 93be c4e1 85bd b85f 90bd cfed 0dbe
000003a0: 91c1 6bbe 3397 f73c f1b3 9d3c dc7f babd
000003b0: f03e cc3c cc1e f8bd 004f 6ebe 0f00 94be
000003c0: e63a 9b3c 825b b3bd 2414 93bc 86eb 42bd
000003d0: b379 b8be 619c 2e3a 4755 1ebd 4f28 323e
000003e0: 476f 5abe d7a9 a5bd 9232 ba3d 6215 b5be
000003f0: 625c 6abe 0432 5d3d c4d4 40be aade 96be
0.053354494 0.70169896 0.0121666 -0.17361705 0.043203376 -0.2626051 0.22899933 -0.6579689
-0.413037 -0.2959979 0.012233488 0.07875393 -0.37319815 0.057262484 -0.07704956 -0.10854517
-0.22600593 -0.061039645 0.044111162 -0.23398675 -0.042305246 0.20382325 0.061411317 0.6773852
0.35313612 -0.14550611 -1.0036309 0.20176196 -0.041843623 0.050937466 0.6070465 0.037810553
0.19090377 -0.008347762 -0.3203691 -0.07085344 0.14563894 0.378022 0.12284719 -0.57174116
-0.12738417 -0.087323256 0.12982716 -0.21997575 0.003721109 0.24483198 0.023073768 -0.21657057
0.14173186 -0.20008956 0.12510498 0.15176822 -0.26220673 -0.034388535 0.09426523 0.3744108
-0.020361435 0.21896192 0.15175825 0.39975506 0.05904072 0.22251076 -0.1636256 -0.27354354
-0.12452948 0.14924487 0.015034741 -0.0072930213 -0.058274046 -0.15980522 0.1466854 0.28812438
-0.09079956 -0.18532617 -0.11747493 -0.13392296 -0.19807892 -0.046187952 0.037169274 0.23705162
-0.09802739 -0.071109235 -0.18893695 0.1361786 -0.037259053 -0.08838308 -0.020614956 -0.05747489
-0.19300872 -0.2709564 -0.09144681 -0.02100677 -0.19089526 -0.02273912 -0.351197 -0.07566346
-0.12997775 -0.060851924 -0.006227602 0.04415734 0.12893623 -0.10877975 -0.0032645336 -0.15838112
-0.12322437 -0.021935001 0.12128174 -0.26177162 -0.36149612 0.076240905 0.038207237 0.0612399
-0.116466776 -0.3140664 -0.05089455 -0.0016080845 0.17142624 -0.14652377 -0.045405213 -0.13091993
-0.017857974 -0.10717004 -0.06996596 -0.17266858 -0.05710579 -0.17937534 -0.0314541 0.11303856
0.2658098 0.25164023 0.12413417 -0.0075866175 -0.08455743 -0.26063243 0.11266852 -0.2766621
-0.37025133 0.095550984 -0.06311237 0.08872741 0.057802584 0.037805665 -0.15894164 -0.13319887
-0.10741891 0.017961863 -0.14334048 -0.12800363 -0.124966666 -0.24512275 -0.05339861 0.5767634
0.1560118 -0.2230959 -0.58517665 0.13138917 0.0480974 -0.24373195 0.50698155 0.013006347
-0.099633954 -0.0553741 -0.22567229 0.0022161216 -0.0627571 0.7709388 0.06782773 -0.2003942
-0.456232 -0.082926236 -0.1110953 -0.2243999 0.09971071 -0.31553257 0.029092658 -0.28974766
0.12400032 -0.0550829 0.04760426 0.15894975 -0.39526907 -0.2760474 0.024698555 -0.07152764
0.03472776 0.035581984 -0.015088081 0.08572778 -0.010926115 -0.27241093 -0.093456216 0.030168846
0.15966138 -0.11357891 0.28371388 -0.2851745 -0.20641753 -0.34621117 0.1114344 -0.18292949
-0.18238647 -0.0886505 -0.060892932 -0.056649465 -0.07234713 0.037956186 0.16378903 0.15650178
-0.0033266286 -0.11083027 -0.22697863 -0.57703835 -0.14897321 -0.09996923 -0.16511282 -0.17311525
0.045762435 -0.028398113 -0.578725 -0.10745669 0.006306137 -0.15898724 -0.37368602 -0.07806324
-0.08460067 0.07830843 0.02803369 -0.1604311 -0.28875276 -0.06537202 -0.07049507 -0.13860248
-0.23023058 0.030223465 0.019250842 -0.091064185 0.024932355 -0.12115249 -0.23272324 -0.28906295
0.018948983 -0.08757688 -0.01795394 -0.047587894 -0.3603035 0.00066608755 -0.038655546 0.17398189
-0.21331511 -0.08089035 0.09091677 -0.35367876 -0.22886804 0.054002777 -0.18831164 -0.29466754

stack.2.0.bias f4 [32]
00000000: 6ac6 433f 0143 98be 65da cf3e 4fb5 443f
00000010: 9300 663e dfe5 81bd 8170 823f 734e d7bd
00000020: 1dfd f23e e8aa 66be cc8b 603f f69d 3f3f
00000030: 234a 183f 3a94 0e3e 8c2c 16bf 3047 1a3e
00000040: 661a 01bd c66e 143f a682 6a3f 03de 51bd
00000050: cc02 f2be f28a f43e 86e7 9f3e d214 113a
00000060: d58d 1abe 6ab9 14bd a2ff 063f 5199 f53c
00000070: bf60 8c3f ca83 aebe 1238 393f 2b01 dcbe
0.7647463 -0.2973862 0.4059631 0.76839155 0.22461157 -0.063426726 1.0190583 -0.1051301
0.47458735 -0.22526133 0.87713313 0.74850404 0.59488124 0.13923731 -0.58661723 0.15066218
-0.031519316 0.57981527 0.91605604 -0.051237117 -0.4726776 0.47762257 0.31231326 0.00055344135
-0.15093167 -0.036309637 0.52733815 0.029980334 1.0967025 -0.34084922 0.7235118 -0.4296964

stack.3.0.weight f4 [10, 32]
00000000: 0947 893e 2d16 91bd 9208 e93d 0557 093f
00000010: 5a58 bbbe 29e1 89bd 9c4b 463e 0e9e 84be
00000020: fa99 3b3e ed08 c4bd f9e4 a5bd 257b 5bbe
00000030: 697e 18be 0d86 273e 96e1 bb3d b8ba 263e
00000040: 785a ca3d b27e c13e 2976 b53d f9be 62bd
00000050: 06e2 22bd 47c6 203e cdec adbe c7e0 ae3c
00000060: 3f3d c73b 46ed c53d 8cab 29bf fef1 c53c
00000070: e8ec 533e 6569 dfbd 4581 21bf 00a9 d3bd
00000080: d811 88bd d4f1 d43d 36b1 0fbf 2e8b 08bf
00000090: 04fc b9bc ee40 44bd 6d95 ce3d 7f42 863e
000000a0: 8b26 c8be 8c60 0f3e 943e 0ebf be0c 37be
000000b0: 0fa4 b9be cb91 29be bf5a dabd 1062 07bd
000000c0: e6eb 953e 749e fcbe 6478 a3be e21e 1dbe
000000d0: 4ef1 99bd dc29 9b3e 8e1f 34bf e81f 9d3e
000000e0: f4ee 9c3e 862b a63b 828e 223d ce74 3bbe
000000f0: e4dc 053e a3ec a8bd 9479 dbbe ecbd 8a3d
00000100: b597 9e3e cc52 1bbe f857 123e 3f26 0e3e
00000110: 88a8 77be 0737 6dbe 2f7f 58be ef2e 09bd
00000120: 6856 833d bf9e 7a3d 685d 2fbf af9a 8f3e
00000130: c7ad 7e3e 96f4 fdbe fe87 e8bd c53e 273e
00000140: 3a9a bbbd 6594 8d3e d3dd 9e3e a99c 7abd
00000150: dd09 c3bc 8fd4 bcbe 4456 dbbd 531c 84be
00000160: 777e e43d 023c 183e 46b6 04bf 971c c1bd
00000170: 9b7e a13e 2e88 d13d e413 a23e 2587 6a3d
00000180: fa17 f4bd 6ed9 f83d 9a95 06bc 6a79 cc3d
00000190: 2200 e6bc 4526 1b3e 08a7 6abe 6a8d 163d
000001a0: 0b19 4abe f363 61be 825d 40be 36ed 39bd
000001b0: d795 42be 431b 57be c4cc febd 7d8e 10be
000001c0: dcb7 cebd 6243 5b3d 3240 4dbe 7ff6 04be
000001d0: a7e7 19be 8665 82be 564c b6bd ba38 5e3c
000001e0: 6751 a6ba a9b5 30be 9d9c 19be 8439 d73d
000001f0: f6fc 5fbe bc9f 0bbe d561 44be f1f3 80bc
00000200: 932a b33e 27e1 a23d 7229 943e 4245 c43d
00000210: 427d 14be 7b98 0b3d 7af9 0d3e c090 633c
00000220: fb12 ecbe 1cc9 d53c de75 98bd 2702 9d3e
00000230: 32b5 383e 182c 18bf 4d69 89be f4e0 8c3e
00000240: 4062 1dbd 418d 013e 41f0 e5bd 887e 613c
00000250: a57f 2dbf a3cd c9be da64 f73d fa60 1e3c
00000260: 610e f4bc adda 99bd 2b86 17bd 5afa eebd
00000270: 810a 3b3d 2281 ecbd e434 b5be 5611 803d
00000280: 61e3 083e 7020 0f3e efcf 213e 81a2 bd3c
00000290: 621c 613d d7a7 ccbb 6932 23be 7195 6cbd
000002a0: b69a fbbb 088e 18be 4789 20be 4b52 da3c
000002b0: 1075 083e c69f bb3d 8fcf 283d f658 4abc
000002c0: 19f9 14be cac6 17bd 6f20 223e fac7 21be
000002d0: 6bb6 10be a42d f03d 43c8 d1bd 308e 71bd
000002e0: a6ab 19be fcca cebd 7957 053e 8f75 063d
000002f0: da44 d3bd 3f0e 9dbd fb5c f73d cfc2 67bd
00000300: e8d0 ca3d 0907 b1bd f2a9 85bd 83e4 0a3e
00000310: eea9 413d c35a 21be 0ea6 00be 9a81 023d
00000320: 7c9d 0d3e ceb4 813d 2203 cfbd 9b40 2f3e
00000330: 7b3e 2a3e 7fe2 1f3e cd5d 0cbe a018 153e
00000340: 9c78 223e d4ed 9c3d 0610 93bd bbec 993d
00000350: fa4b e23c d6f6 d03d e895 0fbd 4422 cbbd
00000360: 8c01 893d 3446 113e 353f fdbd aceb 11be
00000370: 46c8 17be 2e9e 6a3d 545a 683d 4446 babc
00000380: a0ec f0bd bef1 d93d 090d 89bd 2caf c6bd
00000390: 789c 203d 9fca b7bd c52e febd bdb9 bf3d
000003a0: 95c9 a6bd 09c2 80bd a81e afbd 3c10 8e3d
000003b0: c119 0dbc e37d 30be 6d5d ee3d f9ae 28be
000003c0: 186a f33d d701 01bd ec94 853d bd61 eb3c
000003d0: ab97 a53c 9184 923d 958c 74bd 8065 a73a
000003e0: 4497 1d3e 1c74 093d 7d26 103b d2c9 2fbe
000003f0: 1130 1f3e e84e f0bd 6cb9 f33d 88f0 d63d
0.26812008 -0.07084308 0.11378588 0.53648406 -0.36590844 -0.06732399 0.1936478 -0.25901836
0.18320456 -0.09572015 -0.08100314 -0.21433695 -0.14891972 0.1635973 0.091738865 0.16282165
0.09880537 0.37791973 0.08860428 -0.055357907 -0.039766334 0.15700637 -0.33969727 0.021347417
0.006080299 0.09664397 -0.66277385 0.024163242 0.20695841 -0.10908774 -0.63087875 -0.103349686
-0.066440284 0.103976876 -0.5612978 -0.5333737 -0.022703178 -0.047913484 0.100870945 0.26222607
-0.39091906 0.14001673 -0.55564237 -0.17875955 -0.3625798 -0.16559522 -0.1066184 -0.033052504
0.2928154 -0.4933964 -0.31927788 -0.15343812 -0.07516728 0.30305374 -0.7036065 0.30688405
0.30651057 0.0050711064 0.039686687 -0.18306276 0.13072544 -0.0824826 -0.42866194 0.06774506
0.30975118 -0.15168303 0.1429137 0.13881777 -0.24185383 -0.23165523 -0.21142267 -0.033492025
0.06412965 0.06118655 -0.685019 0.28047702 0.24870978 -0.49600667 -0.113540635 0.16332538
-0.09160276 0.2765228 0.31028613 -0.06118456 -0.023808414 -0.3688092 -0.10709813 -0.2580286
0.11156934 0.14866641 -0.5184063 -0.09429281 0.31541905 0.10231052 0.316558 0.05725779
-0.11918636 0.121508464 -0.008214379 0.099840954 -0.028076235 0.15151317 -0.2291528 0.036755957
-0.19736116 -0.22010784 -0.1878567 -0.045392238 -0.19002472 -0.21006493 -0.124414 -0.14116855
-0.10093662 0.053531058 -0.2004402 -0.12984656 -0.15029775 -0.2546808 -0.08901279 0.013563329
-0.0012689055 -0.17256798 -0.1500115 0.10509017 -0.2187384 -0.13635153 -0.19177945 -0.01574132
0.3499342 0.07953101 0.2893787 0.095835224 -0.14500907 0.034080964 0.13864699 0.013889492
-0.4610823 0.026096873 -0.074443564 0.30665705 0.1803787 -0.5944228 -0.2683815 0.27515376
-0.038423777 0.1265154 -0.112274654 0.013763078 -0.67772895 -0.394147 0.12079783 0.009666676
-0.029792013 -0.07512412 -0.036993187 -0.116688445 0.045664314 -0.11548068 -0.35391915 0.062533066
0.13367988 0.13977218 0.15801977 0.023148777 0.05495871 -0.006245594 -0.15937199 -0.057759706
-0.007678355 -0.1489793 -0.15677367 0.026650568 0.13325906 0.09161334 0.04121357 -0.0123503115
-0.14548148 -0.037054814 0.15832685 -0.15798941 -0.14132087 0.11727455 -0.10243275 -0.05897349
-0.15006885 -0.1009731 0.1302165 0.032826956 -0.10315867 -0.07668733 0.120782815 -0.05658227
0.09903127 -0.0864392 -0.06526555 0.13563733 0.0472812 -0.15757279 -0.12563345 0.03186188
0.13829607 0.06333314 -0.101080194 0.17114489 0.16625397 0.15613745 -0.13707657 0.14560175
0.15866321 0.076625496 -0.071807906 0.07515856 0.02762412 0.1020333 -0.03505507 -0.09918645
0.06689748 0.14186937 -0.123655714 -0.14250058 -0.14822492 0.05727976 0.05672677 -0.022738583
-0.11763883 0.10641812 -0.066919394 -0.0970138 0.03921172 -0.08974194 -0.12411264 0.09361599
-0.081439175 -0.06287009 -0.08550769 0.0693669 -0.008612097 -0.17235522 0.11638913 -0.16472997
0.1188547 -0.031495895 0.06522545 0.028733129 0.020213922 0.07154191 -0.059704382 0.0012771338
0.15389735 0.033557996 0.0021995597 -0.17166832 0.1554568 -0.117338 0.11900601 0.104950964

stack.3.0.bias f4 [10]
00000000: d272 663e c460 0d3d 3b27 cc3e a376 b2be
00000010: 8c99 3a3d 8c17 e73d c82f cdbd 46f0 113e
00000020: 50ae cabd 08a7 dbbc
0.22504738 0.03451611 0.3987368 -0.34856138 0.04555659 0.11283788 -0.10018879 0.14251813
-0.09896529 -0.026813045
