src/fminst/models/teacher_5cl_5.pt (torch, 447183 bytes, 8 tensors)

stack.0.0.weight f4 [128, 784]
0	0x3cc13e9a	0.023589421
1	0xbcdac74e	-0.026706364
2	0x3cee6d91	0.02910498
3	0x3cbb33fa	0.022851933
4	0x3cf5d20e	0.030007388
5	0xbce0513c	-0.027382486
6	0xbcc46101	-0.023972036
7	0xbd1b35be	-0.03789305
8	0xbdb5a4d3	-0.08869328
9	0xbca4caf9	-0.020116316
10	0xbd444231	-0.047914688
11	0xbd9fd7de	-0.07804845
12	0xbe62f4e4	-0.22163731
13	0xbdac02e5	-0.083989896
14	0xbe056e20	-0.1303029
15	0xbe21e340	-0.15809345
16	0xbddc5abe	-0.10759495
17	0xbd72236f	-0.059115823
18	0xbdb24b28	-0.08705741
19	0xbccf7a3d	-0.025326842
20	0xbd2d66c6	-0.04233434
21	0xbc8b9283	-0.017037636
22	0xbd065fa5	-0.032806057
23	0x3ca6c963	0.0203597
24	0x3d0b04c5	0.033940095
25	0xbcefb508	-0.029261127
26	0x3affd3dc	0.0019518095
27	0x3c51eee1	0.012813301
28	0xbc8a29de	-0.016865667
29	0xbc00089c	-0.007814553
30	0xbcc35bd3	-0.023847496
31	0xbc8a5185	-0.016884575
32	0xbd055d28	-0.032559544
33	0xbd63bb4b	-0.05559854
34	0xbd0c39c1	-0.034234766
35	0xbd1bfbe3	-0.038082015
36	0xbcb334d9	-0.021875786
37	0xbe066893	-0.1312583
38	0xbe4e747d	-0.20161624
39	0xbda18069	-0.078858204
40	0xbe2c1ea5	-0.16808565
41	0xbe33120e	-0.17487356
42	0xbe25372c	-0.16134328
43	0xbdf6e091	-0.120545514
44	0xbe0cf090	-0.13763642
45	0xbd816e20	-0.06319833
46	0xbe2dc0bc	-0.16968054
47	0xbe0bc60d	-0.13649769
48	0xbcf5d8fa	-0.030010689
49	0xbd83e4a1	-0.06440092
50	0xbccf69a8	-0.025318936
51	0xbb48414a	-0.0030556493
52	0xbbf15593	-0.0073649376
53	0xbc916f10	-0.017753154
54	0x3c9bc62c	0.019015394
55	0x3c6cc07c	0.014450189
56	0x3cba196c	0.0227172
57	0xbcbaf921	-0.022823872
58	0xbc9b8f65	-0.018989274
59	0x3d0a6f07	0.03379729
60	0xbd98a004	-0.074523956
61	0xbd9b264b	-0.07575663
62	0xbd850da1	-0.0649674
63	0xbd88fd9b	-0.066889964
64	0xbe487a02	-0.19577792
65	0xbe2b7aa5	-0.16746004
66	0xbdb34e07	-0.08755117
67	0xbd8d8e24	-0.06911877
68	0xbe2fb794	-0.17159873
69	0xbdecc911	-0.11561788
70	0xbe2fe918	-0.17178762
71	0xbddb1ed9	-0.10699243
72	0xbdbcb2dc	-0.09213802
73	0xbd8621e0	-0.0654943
74	0xbe289e1a	-0.16466561
75	0xbd7ace74	-0.061232045
76	0xbe0f5de9	-0.14000668
77	0xbcb62c0c	-0.0222378
78	0xbd8bdcd2	-0.068292275
79	0xbd686178	-0.05673358
80	0xbc48232e	-0.012215419
81	0xbb2c0737	-0.0026249418
82	0xbb8e4cae	-0.004342637
83	0x3c9c504c	0.019081257
84	0x3cc918cc	0.024547957
85	0xbcd2af3e	-0.025718328
86	0xbca18ecc	-0.019721411
87	0xbc33f693	-0.010984081
88	0xbd4f1707	-0.05055907
89	0xbd8dc15e	-0.069216475
90	0xbd9edb0f	-0.07756626
91	0xbd7d7380	-0.061877728
92	0xbde0aab6	-0.109700605
93	0xbe4b791d	-0.1987042
94	0xbe64d908	-0.22348416
95	0xbe4e214c	-0.20129889
96	0xbe52b972	-0.20578554
97	0xbdba0739	-0.09083409
98	0xbd636550	-0.05551654
99	0xbe0c45ea	-0.13698545
100	0xbe54c502	-0.20778278
101	0xbe6a9ae5	-0.2291065
102	0xbe58bbc9	-0.21165384
103	0xbdf7bf44	-0.12097028
104	0xbe5036ce	-0.20333406
105	0xbd91e990	-0.07124627
106	0xbda485ca	-0.08033331
107	0xbd426ace	-0.047465138
108	0x3b169e93	0.0022982701
109	0xbbaf721c	-0.005354179
110	0xbc541d77	-0.012946478
111	0x3cf95cfe	0.03043985
112	0xbd0ced4c	-0.03440599
113	0xba5f0d25	-0.00085087336
114	0x3c87d125	0.01657922
115	0xbce49f73	-0.027908063
116	0xbdb0f633	-0.08640709
117	0xbd79aec0	-0.06095767
118	0xbcd1b45d	-0.0255987
119	0xbe0336fe	-0.12813947
120	0xbda6abda	-0.08138247
121	0xbe5c8319	-0.21534385
122	0xbe2cd535	-0.16878207
123	0xbe567b15	-0.2094539
124	0xbe5d7da6	-0.21629962
125	0xbe279bfb	-0.16368096
126	0xbe041545	-0.12898739
127	0xbe34e424	-0.17665154
128	0xbdf02ce8	-0.11727315
129	0xbe50982c	-0.20370549
130	0xbe66f9b0	-0.22556186
131	0xbdedb773	-0.11607256
132	0xbe4ebad6	-0.2018846
133	0xbd46a2f0	-0.048495233
134	0xbdad53c2	-0.08463241
135	0xbcf41bf0	-0.029798478
136	0x3cd72dfa	0.02626704
137	0xbd08239c	-0.033237085
138	0x3cb6e113	0.02232412
139	0xbcaf9047	-0.021431101
140	0xbcee6978	-0.029103026
141	0x3d090c5b	0.03345905
142	0xbc6b4c78	-0.014361493
143	0xbd87595e	-0.06608842
144	0xbd507cc6	-0.050900243
145	0xbd102c08	-0.03519824
146	0xbd579d86	-0.05264046
147	0xbe206fba	-0.1566762
148	0xbdb0ae6b	-0.086270176
149	0xbe47b97a	-0.19504347
150	0xbe65e7fe	-0.22451779
151	0xbe4205d4	-0.18947536
152	0xbe4721c0	-0.19446468
153	0xbd9b719f	-0.07590031
154	0xbe543dfb	-0.20726769
155	0xbe6989ff	-0.22806548
156	0xbdcb3319	-0.099218555
157	0xbe6e9bf9	-0.23301686
158	0xbe4b03bb	-0.19825642
159	0xbd9682c3	-0.073491596
160	0xbe4a0fcc	-0.19732589
161	0xbd31a990	-0.043374598
162	0xbd478e02	-0.048719414
163	0xbd242573	-0.040074777
164	0xbcb953b2	-0.022622917
165	0x3bae21c1	0.0053140824
166	0x3bc2c025	0.0059433156
167	0xbc6d6c41	-0.014491142
168	0x3cb66fe3	0.022270149
169	0x3cf56e0a	0.029959697
170	0xbccb355a	-0.024805713
171	0xbca7a862	-0.020466033
172	0xbd36ae24	-0.044599667
173	0xbd77522f	-0.06038111
174	0xbdb466f8	-0.08808702
175	0xbe5a67ea	-0.21328703
176	0xbdf41cfc	-0.11919591
177	0xbe6aca5d	-0.22928758
178	0xbe63eee5	-0.222591
179	0xbe55305a	-0.20819226
180	0xbe69db3b	-0.22837536
181	0xbdfb221b	-0.122623645
182	0xbe4b8b1d	-0.19877286
183	0xbe60d3e7	-0.21955834
184	0xbdbf4ab7	-0.093404226
185	0xbe444e7b	-0.19170563
186	0xbe3892a0	-0.18024683
187	0xbd85eccf	-0.06539308
188	0xbe327f4a	-0.1743137
189	0xbe13dbb0	-0.14439273
190	0xbd8a1e11	-0.06744016
191	0xbd5f7c01	-0.05456162
192	0xbccd1851	-0.025036009
193	0x3c8dfdd3	0.017332947
194	0xbca3ba1c	-0.019986205
195	0xbb89502e	-0.0041904664
196	0x3bd38725	0.0064553195
197	0x3c4b3a77	0.012404076
198	0xbc596e77	-0.013270966
199	0xbdb16da8	-0.086634934
200	0xbd9e11fb	-0.07718273
201	0xbd5deb29	-0.054179344
202	0xbda34fe4	-0.07974222
203	0xbe152032	-0.14563063
204	0xbe339889	-0.17538656
205	0xbe4c2fca	-0.19940105
206	0xbe31a5cf	-0.17348407
207	0xbe308da8	-0.17241538
208	0xbe33e954	-0.17569476
209	0xbe017f7c	-0.12646288
210	0xbdec8acd	-0.11549912
211	0xbe42b96a	-0.19016042
212	0xbe01c611	-0.12673213
213	0xbe3b1dde	-0.18273112
214	0xbe61b52c	-0.22041768
215	0xbd6b833e	-0.05749821
216	0xbe1fbdcb	-0.15599744
217	0xbe51f1d5	-0.20502408
218	0xbda7b7e6	-0.08189373
219	0xbd589963	-0.052880656
220	0xbd84b790	-0.06480324
221	0x3c7a8c53	0.015292245
222	0xbd08467a	-0.033270337
223	0x3cd8e951	0.026478441
224	0x3b51df4a	0.003202396
225	0x3a37e24a	0.00070146157
226	0xbcba9e4a	-0.022780556
227	0xbd59c2cd	-0.053164292
228	0xbcff3696	-0.031153958
229	0xbca8cc64	-0.020605274
230	0xbda0e853	-0.07856812
231	0xbe3aa24b	-0.18225972
232	0xbdac4efe	-0.08413504
233	0xbe354019	-0.17700233
234	0xbe5afaad	-0.21384688
235	0xbe547ba2	-0.20750287
236	0xbe67afce	-0.22625658
237	0xbd79a05a	-0.06094394
238	0xbdc3f647	-0.09568458
239	0xbd8fbe35	-0.07018701
240	0xbd93e348	-0.07221085
241	0xbe2f57da	-0.17123356
242	0xbe405934	-0.18784028
243	0xbe340af4	-0.17582303
244	0xbe338218	-0.17530096
245	0xbe38775e	-0.18014285
246	0xbd7690c1	-0.06019664
247	0xbd60955f	-0.05482995
248	0xbd30c134	-0.043153003
249	0xbd03fb4c	-0.032222077
250	0xbc8b4d07	-0.017004503
251	0xbce983b5	-0.028505186
252	0xbc31f041	-0.010860504
253	0xbb13345c	-0.0022461629
254	0xbd1c11ac	-0.03810279
255	0xbdabf6b1	-0.08396662

stack.0.0.bias f4 [128]
0	0xbd9e4f8e	-0.077300176
1	0x3ec9cb09	0.39412716
2	0xbd85016c	-0.06494412
3	0xbf0d6c8c	-0.55243754
4	0xbd9910db	-0.07473918
5	0x3fcc06d3	1.5939583
6	0x3eb0e040	0.3454609
7	0xbcfebdde	-0.031096395
8	0xbd48b194	-0.048997477
9	0x3f87d03f	1.0610427
10	0x3f202a6f	0.6256475
11	0x3f130326	0.5742668
12	0xbd5ddd6d	-0.054166246
13	0xbd098e81	-0.033583168
14	0xbe9a7693	-0.3016859
15	0xbd373b35	-0.0447342
16	0xbda9702d	-0.08273349
17	0xbd8afbed	-0.06786332
18	0x3e080423	0.13282828
19	0x3d0db157	0.034592953
20	0xbd91406b	-0.07092365
21	0xbf3e782d	-0.74402124
22	0x3d807a08	0.062732756
23	0xbcc9ed85	-0.024649391
24	0x3de789e2	0.11305596
25	0x3fb76168	1.4326601
26	0x3f6751b4	0.90359044
27	0xbd6dbc48	-0.058040887
28	0xbdabe0bc	-0.08392474
29	0x3f5791a6	0.84206617
30	0xbd7b0562	-0.06128443
31	0x3f5ad1e0	0.85476494
32	0xbdbf58dd	-0.09343121
33	0xbd8c97c7	-0.06864887
34	0xbd7b4905	-0.061348934
35	0xbdaf890f	-0.08571064
36	0xbd22dd2d	-0.03976171
37	0x3fb083e1	1.3790246
38	0xbd960bd1	-0.073264726
39	0xbe9f152a	-0.31070834
40	0xbdbe8523	-0.093027376
41	0xbd117dab	-0.035520237
42	0xbda83339	-0.08212895
43	0xbe67f865	-0.22653349
44	0xbda9db2b	-0.08293756
45	0x3f820e5f	1.0160636
46	0xbd5a998a	-0.053369083
47	0xbe9f61bf	-0.31129262
48	0x3e356ca5	0.17717226
49	0x3f00c8e5	0.5030654
50	0x3e8f728d	0.28017083
51	0xbd966220	-0.073429346
52	0xbd916220	-0.07098794
53	0xbd023f68	-0.03179875
54	0xbda6a5a5	-0.08137063
55	0xbf33efbd	-0.70287687
56	0x3f445cb2	0.7670394
57	0x3e81700d	0.252808
58	0xbdb3970e	-0.08769046
59	0xbd3276b6	-0.043570243
60	0xbdb1f4ef	-0.086892955
61	0x3daf687b	0.0856485
62	0xbd44f479	-0.04808471
63	0x3d885c56	0.06658237
64	0x3f4c6ed3	0.79856604
65	0xbdaa6a76	-0.08321087
66	0x3ee319c0	0.44355583
67	0xbe80206f	-0.25024745
68	0xbd38525a	-0.04500041
69	0xbf83ca96	-1.0296199
70	0xbdaef5ff	-0.08543014
71	0xbd67297e	-0.056436054
72	0x3e022f85	0.1271344
73	0xbde0c019	-0.1097414
74	0xbd57e1fd	-0.052705754
75	0x3de1c727	0.110243134
76	0x3f386a09	0.72036797
77	0x3f0a3e70	0.5400152
78	0x3ea492a3	0.32143125
79	0x3d4b8719	0.049689386
80	0xbd8f1028	-0.069855034
81	0xbd70f765	-0.058829684
82	0xbd506039	-0.050873015
83	0xbcee4123	-0.029083794
84	0x3f9b6ebf	1.2143172
85	0xbdb77f4b	-0.08959826
86	0xbd82a033	-0.06378212
87	0xbcc78282	-0.024354223
88	0xbd947f75	-0.07250873
89	0x3ffee5f7	1.991393
90	0xbd0ea04d	-0.034820843
91	0xbea7517b	-0.32679352
92	0xbf2957de	-0.661497
93	0xbd0bf950	-0.03417331
94	0x3e813b68	0.25240636
95	0x3e49d886	0.19711503
96	0xbccda559	-0.025103258
97	0x3f2336d0	0.6375551
98	0xbdaa8505	-0.08326153
99	0xbd9a7490	-0.07541764
100	0xbd8aa961	-0.06770588
101	0xbd10a629	-0.035314713
102	0x3d17fcf4	0.03710647
103	0xbdc358c5	-0.09538416
104	0x3fb3bf58	1.4042768
105	0x3f7a1757	0.97691864
106	0xbc7d0fd2	-0.015445666
107	0xbf1e9862	-0.6195127
108	0x3f8d8c5a	1.1058457
109	0xbdb838b9	-0.08995194
110	0xbd9efd5f	-0.077631705
111	0xbd97463f	-0.07386445
112	0x3ea55ace	0.3229584
113	0x3ea8672d	0.32891217
114	0xbd05e7fd	-0.032691944
115	0xbdab9921	-0.083788164
116	0xbda45aea	-0.08025153
117	0xbd85bfc1	-0.06530715
118	0x3f009807	0.50231975
119	0x3f9460c4	1.159203
120	0x3e256328	0.16151106
121	0xbdb7d538	-0.08976215
122	0xbccb2fe1	-0.024803104
123	0xbd2e2ea7	-0.04252496
124	0x3e9e4ed5	0.3091952
125	0xbd898731	-0.06715239
126	0x3a13c74b	0.0005637302
127	0x3e7c134a	0.24616733

stack.1.0.weight f4 [64, 128]
0	0x3d83c156	0.0643336
1	0xbd4af828	-0.049553066
2	0xbc145a54	-0.009054739
3	0x3e30c1b5	0.17261393
4	0x3b201fa3	0.002443292
5	0xbdb38e20	-0.087673426
6	0x3b9bcae3	0.0047544106
7	0xbd22d032	-0.03974933
8	0xbc0c2829	-0.008554497
9	0xbd97b620	-0.074077845
10	0xbe942d3c	-0.2894076
11	0xbe93a9cf	-0.2884049
12	0x3dea6c76	0.114464685
13	0xbdc59ffd	-0.09649656
14	0x3eb6bff7	0.35693333
15	0x3cdf2c3b	0.02724277
16	0x3ce7b220	0.028283179
17	0x3cff39b1	0.03115544
18	0xbbbf8339	-0.0058445004
19	0xbd0f0a70	-0.034922063
20	0x3d09208b	0.0334783
21	0x3daaea5b	0.08345481
22	0xbe031771	-0.12801911
23	0x3cd39df9	0.025832163
24	0xbc8b287d	-0.01698708
25	0xbd7e345d	-0.062061656
26	0xbe158351	-0.14600874
27	0x3d7c8507	0.061650302
28	0x3dfe9698	0.12431067
29	0xbc7f8eb6	-0.01559799
30	0x3d33273d	0.043738592
31	0xbf0deed2	-0.55442536
32	0x3d39d017	0.045364466
33	0xbb80aa67	-0.0039265635
34	0x3d7bac26	0.06144347
35	0x3c824eb9	0.015906679
36	0xbccf6cab	-0.025320372
37	0xbf202370	-0.62554073
38	0x3d73c0a0	0.059509873
39	0x3a8a1477	0.0010534663
40	0x3cb138ee	0.021633592
41	0x3defc034	0.11706582
42	0x3d7700f9	0.060303662
43	0x3cacd9c4	0.021099932
44	0xbcac2d91	-0.021017822
45	0xbd0e8e68	-0.034803778
46	0xbbe4b53c	-0.0069796126
47	0x3d166b4f	0.03672343
48	0xbd2ec29d	-0.042666066
49	0xbeb2099f	-0.34772965
50	0xbe179923	-0.14804511
51	0x3ce1b754	0.027553238
52	0x3e0042c0	0.12525463
53	0x3ce6aef9	0.028159605
54	0x3dc4ee5f	0.09615778
55	0xbe04dad3	-0.129741
56	0xbd28ce7e	-0.04121255
57	0xbe4e9c3d	-0.20176788
58	0x3d4f7ff7	0.050659146
59	0x3c8b67b6	0.017017227
60	0x3d3b1eaa	0.04568354
61	0xbd3c070f	-0.04590517
62	0xbc9e4383	-0.019319301
63	0xbe190b89	-0.14945807
64	0xbdd0a2c5	-0.10187296
65	0x3deafe67	0.11474305
66	0xbdf85835	-0.12126199
67	0xbd72f639	-0.059316847
68	0xbdc99e7d	-0.09844682
69	0x3eabf226	0.33583182
70	0x3c705eb5	0.014671017
71	0x3db2e62a	0.087353066
72	0xbe037d73	-0.12840824
73	0xbd873bd7	-0.066032104
74	0x3cee5fbc	0.029098384
75	0xbe8e8826	-0.27838248
76	0x3dc83d1a	0.09777279
77	0xbc7534db	-0.014966215
78	0x3c11fc62	0.00891027
79	0xbd917f6d	-0.07104383
80	0x3e012353	0.12611131
81	0x3d0b4893	0.03400476
82	0xbc86de03	-0.016463285
83	0xbcaaa8f8	-0.020832524
84	0xbe395dac	-0.18102139
85	0x3d2e6606	0.042577766
86	0x3ce0b7ae	0.027431335
87	0x3e0961e1	0.13416244
88	0x3d16cf94	0.036819056
89	0xbbb397e8	-0.005480755
90	0x3c3900fc	0.011291739
91	0x3c095212	0.0083813835
92	0xbd7f16ec	-0.06227772
93	0x3d306051	0.043060604
94	0xbe0ab07a	-0.13543883
95	0xbdc7fbca	-0.09764822
96	0x3c6ac03b	0.014328058
97	0xbdfb7ae6	-0.122793004
98	0x3cf5fcb5	0.030027727
99	0x3cf4e037	0.02989207
100	0x3ca702e4	0.02038712
101	0xbd8f9a6c	-0.070118755
102	0xbcbcada7	-0.023032023
103	0xbd8e6528	-0.06952888
104	0xbd98291d	-0.07429717
105	0xbdcbcd92	-0.09951319
106	0xbcb74ddc	-0.022375993
107	0xbf16a8b1	-0.5885115
108	0xbe07ff24	-0.13280922
109	0xbdbf3d96	-0.093379185
110	0x3c34bdea	0.011031607
111	0x3c92e0f3	0.01792953
112	0xbd0fd73d	-0.035117377
113	0x3e23153e	0.15926072
114	0xbd6b5005	-0.05744936
115	0x3d966ead	0.073453285
116	0x3b96cafe	0.0046018353
117	0xbe16a8be	-0.14712808
118	0x3e862e57	0.2620723
119	0xbdd1d3e0	-0.1024549
120	0x3cbb2116	0.022842925
121	0x3d2d929c	0.042376146
122	0xbd965ba9	-0.073417015
123	0x3d04c802	0.032417305
124	0xbe1e0a0d	-0.15433522
125	0x3d8c23e8	0.06842786
126	0xbd2a2df9	-0.04154775
127	0xbbe4f0f6	-0.0069867326
128	0x3d3b7e60	0.045774817
129	0xbdd7ffdc	-0.10546848
130	0x3c07a054	0.008277971
131	0xbd8c229f	-0.06842541
132	0x3c9f2641	0.01942742
133	0xbe23b38d	-0.15986462
134	0x3c0ec767	0.008714533
135	0xbd62154c	-0.05519609
136	0x3de74537	0.112924986
137	0xbde8a4d5	-0.11359564
138	0xbe12396f	-0.14279722
139	0xbda7bbec	-0.0819014
140	0xbd1650dc	-0.036698207
141	0xbbb7cfec	-0.005609503
142	0xbce0c955	-0.027439753
143	0x3a6b224c	0.0008969649
144	0xbd53629e	-0.05160772
145	0x3d6af941	0.057366613
146	0x3cc72cd0	0.02431336
147	0xbe3747fd	-0.17898555
148	0x3976911b	0.00023514444
149	0xbe96db29	-0.2946408
150	0x3c90cbbb	0.017675271
151	0x3d979910	0.07402241
152	0xbde1868e	-0.110119924
153	0xbe4acc13	-0.1980441
154	0xbd921b8b	-0.0713416
155	0xbe01d491	-0.12678744
156	0xbd1fafa7	-0.038985875
157	0xbd7ada5b	-0.061243396
158	0x3b9abb4e	0.0047220355
159	0x3d2eac41	0.042644743
160	0xbd8b8e8e	-0.068142995
161	0x3c4c04df	0.012452333
162	0xbe044cb1	-0.1291988
163	0xbda47d45	-0.08031706
164	0xbd081a93	-0.03322847
165	0xbe2cf828	-0.16891539
166	0xbd7ab083	-0.06120349
167	0xbd112e83	-0.035444748
168	0x3c95b347	0.018273963
169	0x3b0672bf	0.0020515171
170	0x3d151fe4	0.036407366
171	0xbb59210a	-0.0033131265
172	0xbc05dc68	-0.008170225
173	0xbd7d8f1e	-0.061904065
174	0x3cf06fd5	0.0293502
175	0xbdc9ab49	-0.09847123
176	0xbda83256	-0.08212726
177	0xbd2f997b	-0.04287098
178	0xbe2654ef	-0.16243337
179	0x3d57cc71	0.052685205
180	0xbe091a7e	-0.13389012
181	0x3b92dc3e	0.0044818213
182	0xbe027f5e	-0.12743899
183	0xbf44972f	-0.7679319
184	0xbd2edc58	-0.042690605
185	0xbe67ea62	-0.22648004
186	0xbe05eb2d	-0.13077994
187	0xbdf525bc	-0.11970088
188	0xbd9352fe	-0.07193564
189	0xbdc3edc5	-0.09566835
190	0xbd5277d1	-0.051383797
191	0xbe94773d	-0.28997222
192	0xbdf85bdd	-0.121268965
193	0x3dd42088	0.10357767
194	0xbe15bb06	-0.14622125
195	0x3db49131	0.088167556
196	0x3d05dbcd	0.03268032
197	0xbe1956cc	-0.14974517
198	0x3d8122bf	0.063054554
199	0xbd5236b9	-0.05132172
200	0xbdaf441c	-0.08557913
201	0xbd933a64	-0.071888715
202	0x3dcc7fe3	0.0998533
203	0xbe26e2c5	-0.16297443
204	0xbdb56b61	-0.088583715
205	0x3d9e8e0e	0.077419385
206	0x3ce87663	0.028376764
207	0x3db657d5	0.089034714
208	0xbd534978	-0.051583737
209	0xbd55e797	-0.052222814
210	0x3e073e0e	0.13207266
211	0x3d8d890d	0.06910906
212	0xbea8f028	-0.32995725
213	0x3dbd613a	0.0924706
214	0xbd3d1fce	-0.04617291
215	0x3c6567cf	0.014001801
216	0xbdcd2a29	-0.10017807
217	0xbe348a0e	-0.17630789
218	0x3e107615	0.14107545
219	0xbe141428	-0.14460814
220	0xbd9b1360	-0.07572055
221	0xbdd62fc5	-0.1045833
222	0xbdcf31dd	-0.101169325
223	0xbcf57642	-0.029963616
224	0x3d5c473d	0.053778876
225	0x3d3f40ee	0.04669278
226	0x3e0df54e	0.13863108
227	0x3c1dcdac	0.0096315555
228	0xbe00a11c	-0.12561458
229	0xbce3d4b7	-0.027811391
230	0xbd4ddc89	-0.050259147
231	0xbd0daf38	-0.03459093
232	0xbdfc5f51	-0.12322868
233	0x3d8a41e5	0.0675085
234	0xbca010cb	-0.019539258
235	0xbe382a76	-0.17984948
236	0xbe263d7d	-0.16234393
237	0xbd8be36b	-0.06830486
238	0xbcc7a68a	-0.024371404
239	0xba9dca89	-0.001203851
240	0xbe1020a6	-0.14074954
241	0xbdde46bf	-0.108533375
242	0x3c933909	0.017971532
243	0x3d8a6125	0.0675681
244	0x3dd078c3	0.101792835
245	0xbb078edb	-0.0020684514
246	0xbe39dd8f	-0.18150924
247	0xbec5627e	-0.38551706
248	0xbe4d26f7	-0.20034395
249	0xbcc24d56	-0.023718517
250	0x3d33760d	0.043813754
251	0xbdbf2bfe	-0.09334563
252	0xbccb2ac9	-0.024800675
253	0x3d9e9b61	0.0774448
254	0xbcf7f917	-0.030270142
255	0x3c0bf65d	0.008542624

stack.1.0.bias f4 [64]
0	0xbc9534b3	-0.018213606
1	0xbea9757d	-0.3309745
2	0xbd861984	-0.065478355
3	0xbcfb58e6	-0.030682039
4	0xbed4cf5c	-0.41564453
5	0xbf368a87	-0.71305126
6	0xbeedd98e	-0.46455044
7	0xbd6e297f	-0.058145043
8	0xbea71e47	-0.32640287
9	0x3db8a881	0.090165146
10	0xbdfd8219	-0.1237833
11	0xbda4ba0d	-0.08043299
12	0xbd96060b	-0.07325371
13	0xbdfa2438	-0.122139394
14	0xbf24a116	-0.643083
15	0xbe302b84	-0.172041
16	0xbf003619	-0.50082546
17	0x3f4da8fd	0.8033598
18	0xbdb6a0b2	-0.08917369
19	0xbe6448d3	-0.22293405
20	0xbe63b52a	-0.22237077
21	0xbd90055f	-0.070322745
22	0xbe71ff5a	-0.23632565
23	0x3f0a1c5a	0.5394951
24	0x3fa4fd04	1.2889714
25	0x3e240241	0.16016485
26	0x3eec6b1f	0.46175477
27	0xbedf750a	-0.4364398
28	0x3f05f076	0.5232004
29	0x3f34f4fa	0.70686305
30	0x3dec5637	0.11539882
31	0x3f818fb7	1.0121983
32	0xbed7f3cc	-0.4217819
33	0xbebe6bae	-0.37191528
34	0x3f69071a	0.9102646
35	0xbebd170f	-0.36931655
36	0x3da83683	0.08213522
37	0xbe01989e	-0.12655875
38	0xbe5349a3	-0.20633559
39	0xbea34c16	-0.31893986
40	0xbe50c862	-0.2038894
41	0xbee143b9	-0.4399698
42	0xbed53d7d	-0.41648474
43	0xbe40915d	-0.18805452
44	0x3ee3fd4e	0.44529194
45	0x3f8e7b84	1.1131444
46	0x3fdf0cd1	1.7425786
47	0xbde50d60	-0.11184192
48	0xbea74e81	-0.3267708
49	0xbe956777	-0.291805
50	0x3f154c34	0.583194
51	0xbe02cf1c	-0.12774318
52	0xbdec89e6	-0.115497395
53	0x3d42f1fb	0.04759405
54	0x3de40151	0.111330636
55	0x3f893e76	1.0722187
56	0xbddc5c8f	-0.10759842
57	0xbd8943a1	-0.06702352
58	0x3f3d0ead	0.7385052
59	0xbe5e5816	-0.2171329
60	0x3fabeeaa	1.343221
61	0xbe92bbad	-0.2865881
62	0x3f4032d0	0.75077534
63	0x3d036cff	0.03208637

stack.2.0.weight f4 [32, 64]
0	0xbd28d9e3	-0.041223418
1	0x3ce4d2b1	0.027932497
2	0x3cd7b130	0.026329607
3	0x3bf41455	0.007448713
4	0x3d6b0ed0	0.057387173
5	0xbf03e668	-0.5152345
6	0xbdba4c16	-0.090965435
7	0x3e43a128	0.19104445
8	0xba6732e2	-0.0008819533
9	0xbf0d6f6e	-0.55248153
10	0xbd1b5128	-0.037919194
11	0xbde3c664	-0.111218244
12	0x3d26e82c	0.04074876
13	0xbd19f458	-0.03758654
14	0xbee2289b	-0.44171605
15	0x3c9a1368	0.018808082
16	0x3eb19112	0.34680992
17	0xbe63c884	-0.2224446
18	0x3d221e94	0.039579943
19	0x3e4abe46	0.19799146
20	0xbd9e9e0a	-0.07744987
21	0xbcf8cdf8	-0.030371651
22	0xbdf5ba5e	-0.11998437
23	0xbe7f1ef2	-0.24914148
24	0x3f5de589	0.8667837
25	0x3eb0c4db	0.3452519
26	0xbee0e6fd	-0.4392623
27	0x3be14320	0.006874457
28	0xbf845a12	-1.0339987
29	0xbe47b5b8	-0.19502914
30	0x3dd06710	0.101759076
31	0x3e82bf1e	0.25536436
32	0xbea7dd9f	-0.3278627
33	0xbf0a7975	-0.5409158
34	0xbed8624c	-0.42262495
35	0xbdea4ead	-0.114407875
36	0x3db1b741	0.08677531
37	0xbeb8f7f7	-0.36126682
38	0xbd80c7b1	-0.06288088
39	0x3ddf6e93	0.10909762
40	0x3dcd1f7c	0.10015771
41	0x3ef3381d	0.4750375
42	0xbc1ac840	-0.009447157
43	0xbeb7090d	-0.35749093
44	0x3e0db0bb	0.13836949
45	0x3ee61bed	0.4494318
46	0xbedb4366	-0.42824858
47	0xbd999966	-0.074999616
48	0x3c973d75	0.018461922
49	0xbe00d051	-0.12579466
50	0x3c6c0c0d	0.01440717
51	0x3d59e6e8	0.053198725
52	0xbc7b0830	-0.015321776
53	0xbe6f5dfe	-0.23375699
54	0xbe152f95	-0.14568932
55	0xbb9b8d30	-0.0047470555
56	0xbdbfe072	-0.093689814
57	0xbc9801c0	-0.018555522
58	0xbede52fe	-0.43422693
59	0x3e02202f	0.1270759
60	0xbee5dbba	-0.448942
61	0xbe7b6efe	-0.24554059
62	0xbeb2c23c	-0.34913814
63	0xbe0cb4ae	-0.13740799
64	0x3cd8c4ca	0.026461024
65	0xbd5b0319	-0.05346975
66	0x3d3248ac	0.043526337
67	0xbd27bcf5	-0.040951688
68	0xbced6478	-0.028978571
69	0x3c0a6c90	0.008448735
70	0x3e41a7a1	0.18911602
71	0xbd43b1c4	-0.047776952
72	0xbdba0844	-0.09083608
73	0xbdf8d512	-0.12150015
74	0x3d57063c	0.05249618
75	0xbdfbb404	-0.12290195
76	0xbd984704	-0.0743542
77	0xbd078c7c	-0.03309296
78	0x3dc28e6a	0.094998196
79	0x3de4bc20	0.111686945
80	0xbe759892	-0.23983982
81	0xbe3df63c	-0.18550962
82	0xbe307c7c	-0.17234987
83	0xbebc8624	-0.3682109
84	0x3c957500	0.018244267
85	0xbd0ad1e4	-0.033891574
86	0x3d904f56	0.07046382
87	0xbe35f4e6	-0.17769203
88	0xbd501b24	-0.050807133
89	0xbe5dd633	-0.21663742
90	0xbe2980b8	-0.16553009
91	0x3afb4d80	0.0019172877
92	0xbde737c0	-0.1128993
93	0xbe0f1bfe	-0.13975522
94	0x3bc6305d	0.006048246
95	0xbed57472	-0.41690403
96	0xbecfad4d	-0.40561906
97	0x3dad42fb	0.08460041
98	0xbdac5134	-0.08413926
99	0xbe84a903	-0.25910196
100	0xbeead634	-0.4586655
101	0xbbdfc2c0	-0.006828636
102	0x3d750100	0.059815407
103	0xbe3161a5	-0.17322405
104	0x3c944b00	0.018102169
105	0xbc4b2990	-0.012400046
106	0x3e386070	0.18005538
107	0xbd7a0eac	-0.06104915
108	0x3d95080c	0.072769254
109	0xbe12620c	-0.14295214
110	0xbe50f1a5	-0.2040468
111	0x3e3b9a07	0.18320476
112	0x3eb8b39e	0.36074537
113	0xbe851ccd	-0.25998536
114	0x3c6f6218	0.01461079
115	0x3db59108	0.08865553
116	0xbdbca6b0	-0.092114806
117	0xbe8cf838	-0.27533126
118	0xbdf05fd1	-0.117370255
119	0xbded5a4c	-0.115894884
120	0x3d74e3c4	0.059787527
121	0xbdf694b0	-0.12040079
122	0xbdaf0317	-0.08545511
123	0x3ea745da	0.3267048
124	0xbe28edfc	-0.16497034
125	0xbe0d7cae	-0.13817093
126	0xbdc0f535	-0.094217695
127	0xbdc0ede6	-0.094203755
128	0xbd2063dd	-0.039157737
129	0xbdae14b5	-0.08500043
130	0x3d5b8e68	0.053602606
131	0x3d5165a1	0.05112231
132	0x3c9ca408	0.019121185
133	0x3d66abac	0.056316063
134	0xbba49277	-0.005022343
135	0x3cab4f10	0.020911723
136	0xbc63dec0	-0.013908088
137	0xbe963e01	-0.2934418
138	0xbe1102e9	-0.14161266
139	0x3b9bd21e	0.0047552725
140	0xbda89056	-0.08230655
141	0xbc1e4151	-0.009659127
142	0xbd817a9b	-0.06322213
143	0xbe037e04	-0.1284104
144	0xbe24c908	-0.16092312
145	0x3d70e064	0.058807746
146	0x3a4ee549	0.00078924425
147	0x3dc59fa8	0.09649593
148	0x3d190305	0.037356395
149	0x3d7bb510	0.06145197
150	0xbda09766	-0.07841377
151	0xbd47066e	-0.048590116
152	0x3c9be3e5	0.019029567
153	0xbe93b1e1	-0.28846648
154	0xbdd8bf8e	-0.10583411
155	0x3df76b86	0.12081055
156	0xbec6dd2b	-0.38840613
157	0xbe14a709	-0.14516844
158	0xbdabca7e	-0.08388232
159	0xbed8015f	-0.42188546
160	0xbbfc7574	-0.007704431
161	0x3bfd642a	0.0077328878
162	0x3c8d149f	0.017221747
163	0xbd22b831	-0.03972644
164	0xbcd77d41	-0.026304843
165	0x3d7b5f96	0.061370455
166	0x3cb591e7	0.022164298
167	0xbca72269	-0.02040215
168	0x3d2e3b6d	0.04253714
169	0xbe1f74f6	-0.15571961
170	0xbc9a7f78	-0.01885961
171	0xbc5e64d0	-0.01357384
172	0xbd1892f8	-0.037249535
173	0xbe377319	-0.17915
174	0xbee4bd9a	-0.44675905
175	0xbbbc8260	-0.0057528466
176	0x3c345400	0.011006355
177	0xbeb4ee14	-0.3533789
178	0xbdc91ec7	-0.098203234
179	0xbe29f298	-0.16596448
180	0x3d5b21a4	0.05349888
181	0xbe826880	-0.25470352
182	0xbd15150c	-0.036397025
183	0xbe6fdee5	-0.23424871
184	0xbdb3ca3a	-0.08778806
185	0x3bf0d1e0	0.007349238
186	0xbe11a984	-0.14224821
187	0xbd1fb114	-0.038987234
188	0xbd0acb96	-0.03388556
189	0xbdb61878	-0.08891386
190	0xbe7b6150	-0.2454884
191	0xbdf34b46	-0.11879592
192	0x3f0bd0b7	0.5461535
193	0x3f33ca16	0.70230234
194	0x3d9fb1f6	0.07797615
195	0x3d314202	0.04327584
196	0x3e8be18d	0.2732052
197	0x3ed7866c	0.42094743
198	0x3debca62	0.11513211
199	0x3e94bb6b	0.2904924
200	0x3ddb4fd9	0.10708589
201	0x3e238163	0.15967326
202	0xbd016d9a	-0.031598665
203	0x3da8cda3	0.08242347
204	0x3e3026ab	0.1720225
205	0xbe14bc43	-0.14524941
206	0x3eb0cd40	0.34531593
207	0x3d7e4803	0.062080394
208	0x3da0bc95	0.07848469
209	0xbe1236c3	-0.14278702
210	0xbc7ae9e6	-0.015314555
211	0xbec85b86	-0.39132327
212	0xbd9edc88	-0.07756907
213	0x3e611a25	0.2198263
214	0xbeb37b5b	-0.3505505
215	0xbe0ee123	-0.1395307
216	0x3f1b2576	0.60604036
217	0x3e81ec1c	0.2537545
218	0xbec0180d	-0.3751835
219	0x3ef645e1	0.48100188
220	0xbb5125a9	-0.0031913316
221	0x3e1e6a31	0.15470196
222	0x3d810d20	0.063013315
223	0xbe92f2e6	-0.28700942
224	0xbf053c10	-0.52044773
225	0x3eb3408d	0.35010186
226	0x3d567591	0.052358214
227	0x3e975333	0.29555663
228	0xbd75491f	-0.059884187
229	0x3e4e2100	0.20129776
230	0x3e7afcf3	0.24510555
231	0xbecd9ab9	-0.40157107
232	0x3ce4be40	0.02792275
233	0x3ec77540	0.38956642
234	0x3e6bbba4	0.23020798
235	0x3df32a28	0.11873275
236	0x3e42ec93	0.19035558
237	0xbec84fb0	-0.39123297
238	0xbc448f03	-0.011996987
239	0x3eb17550	0.34659815
240	0x3f57ac37	0.84247154
241	0xbf14e202	-0.5815736
242	0x3eb398dd	0.35077563
243	0x3cba2ce6	0.022726487
244	0xbcc65bd8	-0.024213716
245	0xbf659381	-0.896782
246	0x3df21c8e	0.118218526
247	0x3c97e7c8	0.01854314
248	0xbdab6a8e	-0.08369933
249	0x3dde2535	0.108469404
250	0xbd7a0224	-0.061037198
251	0x3e7e88d1	0.24856879
252	0xbf2f7dc3	-0.6855127
253	0xbeee5788	-0.46551156
254	0x3c7ca7c3	0.015420857
255	0xbdf10dfd	-0.11770246

stack.2.0.bias f4 [32]
0	0xbdb81666	-0.08988647
1	0xbeaf48de	-0.3423528
2	0xbef1a9a5	-0.4719974
3	0x3fb72c01	1.4310304
4	0xbe8ae90f	-0.27130935
5	0x3fa19479	1.2623435
6	0x3fa3c28c	1.2793746
7	0x3f810f8f	1.0082873
8	0x3eb6c63c	0.35698116
9	0x3f3fcfca	0.74926436
10	0xbdcd2b89	-0.10018069
11	0x3ed796d3	0.42107257
12	0xbef8207f	-0.48462293
13	0x3f12e851	0.57385737
14	0xbd4b2272	-0.049593396
15	0x3f05674a	0.5211073
16	0xbd7b40a6	-0.06134095
17	0x3f2148d1	0.63001734
18	0xbda36a40	-0.0797925
19	0x3f11109c	0.5666597
20	0xbd882891	-0.066483624
21	0xbe6fa1a5	-0.23401506
22	0xbda7c896	-0.081925556
23	0xbd979278	-0.074009836
24	0xbf20690e	-0.626603
25	0x3f4c76d2	0.79868805
26	0x3f2c6d61	0.673544
27	0xbccdae88	-0.025107637
28	0xbdd78aa5	-0.10524491
29	0xbecdd231	-0.40199426
30	0x3f225724	0.63414216
31	0x3f52f7b6	0.82409227

stack.3.0.weight f4 [10, 32]
0	0xbee62071	-0.44946626
1	0xbbe18243	-0.0068819835
2	0xbe3183c7	-0.17335425
3	0xbdb248b0	-0.0870527
4	0x3e7c7247	0.24652968
5	0x3ea4c3af	0.32180545
6	0x3d29a4ad	0.041416813
7	0x3e415523	0.18880133
8	0x3dd5d73e	0.10441445
9	0xbea2af00	-0.3177414
10	0xbea42416	-0.3205878
11	0x3eaefb8b	0.34176287
12	0xbe32f27b	-0.17475311
13	0x3ea056aa	0.3131612
14	0xbe369075	-0.17828543
15	0xbeef6d4a	-0.46763068
16	0xbf4099aa	-0.7523447
17	0x3cf15c9f	0.02946311
18	0x3cd338d9	0.025783943
19	0x3eba26f0	0.36357832
20	0xbd4d3855	-0.05010255
21	0xbc8077a1	-0.015682044
22	0xbf3c8e13	-0.7365429
23	0x3ddd2217	0.10797518
24	0xbf0d8730	-0.55284405
25	0xbf30c886	-0.69055974
26	0x3d350d4a	0.044202127
27	0xbe1aadcb	-0.1510536
28	0xbe2cf36d	-0.16889735
29	0x3d9db0e7	0.07699757
30	0x3d915ce4	0.070977956
31	0xbebea898	-0.37238002
32	0x3e8151df	0.25257775
33	0x3d269a77	0.040674653
34	0xbe85d31b	-0.26137623
35	0xbf442631	-0.76620775
36	0x3e9417ac	0.2892431
37	0xbdf05164	-0.11734274
38	0x3e4d4086	0.20044145
39	0x3ee02015	0.43774477
40	0xbf3bb5a6	-0.7332405
41	0xbeca5a60	-0.39522076
42	0x3dfa348e	0.12217055
43	0x3d59b9e7	0.053155806
44	0xbc617bb2	-0.013762401
45	0x3e6cd566	0.2312828
46	0x39d49898	0.00040549482
47	0xbe82330a	-0.25429565
48	0x3dcae003	0.09906008
49	0x3e6a88d9	0.22903766
50	0xbcd2352b	-0.025660118
51	0xbeb2e656	-0.34941357
52	0xbe7a8d72	-0.2446802
53	0xbe3c4a19	-0.18387641
54	0xbeaa80a6	-0.33301276
55	0xbe10b2ea	-0.1413075
56	0xbe33ff42	-0.17577842
57	0xbf1f60ab	-0.6225688
58	0x3e345eaa	0.17614236
59	0xbcc09dbd	-0.023512715
60	0xbe7a46b9	-0.24441041
61	0xbe1c8c65	-0.15287931
62	0xbf06ad55	-0.52608234
63	0x3e6ee701	0.23330308
64	0xbd9bb4b1	-0.076028235
65	0x3d22cf8c	0.039748713
66	0xbdf34427	-0.118782334
67	0xbe2e9818	-0.17050207
68	0x3debb73b	0.11509558
69	0xbddf6003	-0.10906985
70	0xbdf99d4e	-0.121882066
71	0xbe34bc7a	-0.17650023
72	0xbe31f2bc	-0.17377752
73	0xbe304035	-0.17211993
74	0xbd429a42	-0.047510393
75	0xbdca7835	-0.09886209
76	0x3d7c730a	0.061633147
77	0xbd1c0767	-0.038092997
78	0xbe12e52d	-0.14345236
79	0xbb884c02	-0.0041594515
80	0x3d65e44c	0.056125924
81	0xbdf1433f	-0.11780404
82	0x3dec2234	0.11529961
83	0xbdb8fd81	-0.09032727
84	0x3d9509d9	0.07277269
85	0xbcb9e8e2	-0.022694055
86	0x3de001a4	0.10937813
87	0xbbf2ca82	-0.0074093947
88	0xbd7e2aaf	-0.062052425
89	0xbdc1a563	-0.09455373
90	0xbe11a894	-0.14224464
91	0xbdd61825	-0.10453824
92	0xbe3349a7	-0.17508565
93	0x3e2614ec	0.16218919
94	0xbe2cc160	-0.16870642
95	0xbe317e5c	-0.17333359
96	0xbed4a478	-0.4153173
97	0x3d0813ac	0.033221886
98	0x3d31c149	0.04339722
99	0xbee5b491	-0.44864324
100	0xbefe183e	-0.4962787
101	0x3ea9ef76	0.33190507
102	0x3dcbd5a3	0.09952857
103	0x3e8570c3	0.26062593
104	0x3d30ecd8	0.04319462
105	0xbf5dd238	-0.86648893
106	0xbe83e27e	-0.25758737
107	0x3e71c6ac	0.23610944
108	0x3c74e397	0.01494684
109	0xbdcb919b	-0.099398814
110	0xbee7742c	-0.4520582
111	0x3debfe1e	0.115230784
112	0xbf20f6f7	-0.6287684
113	0x3e67cd88	0.22636998
114	0xbe332495	-0.17494424
115	0x3ddef07d	0.10885713
116	0x3db77706	0.08958249
117	0xbead0b09	-0.33797482
118	0xbeb3fe60	-0.3515501
119	0x3dc93304	0.098241836
120	0xbd081ca0	-0.033230424
121	0x3d4a5510	0.04939753
122	0x3eaad021	0.33361915
123	0xbe7209eb	-0.23636596
124	0x3d937c0b	0.07201394
125	0x3e35e77f	0.1776409
126	0xbef50a7a	-0.47859555
127	0x3e89a49c	0.268834
128	0x3adbda2b	0.0016773393
129	0xbccbbca1	-0.024870219
130	0xbf01fa85	-0.5077289
131	0xbf0fba81	-0.5614396
132	0x3ede8747	0.43462583
133	0x3eaf6644	0.3425771
134	0xbf0907b2	-0.5352737
135	0xbe9bc541	-0.3042393
136	0xbcf556bd	-0.029948587
137	0x3d18e6ee	0.037329607
138	0x3e28c4bc	0.16481298
139	0xbd94f74f	-0.07273733
140	0xbe584e80	-0.21123695
141	0x3dc22b1d	0.094808795
142	0xbdb1d048	-0.086823046
143	0x3df3ab28	0.1189788
144	0x3ddbb81b	0.10728475
145	0x3d5d36f0	0.05400747
146	0xbda3c1b0	-0.07995927
147	0xbef6af21	-0.48180488
148	0xbd92c5e2	-0.071666494
149	0x3c2d9c54	0.010596354
150	0x3d638977	0.05555102
151	0xbde88111	-0.113527425
152	0xbd6eaefc	-0.058272347
153	0x3d266ae3	0.04062928
154	0xb7404d84	-1.146214e-05
155	0x3b9e0d3b	0.0048233545
156	0x3d9f18f2	0.0776843
157	0xbaedadf5	-0.0018133508
158	0x3cee2920	0.029072344
159	0x3e8897cc	0.26678312
160	0x3e2729f7	0.16324602
161	0xbe27b3f9	-0.16377248
162	0xbde4f43c	-0.111793965
163	0x3df6ba58	0.12047261
164	0x3dae9876	0.08525173
165	0x3e2a79e9	0.16648068
166	0x3e108f1d	0.14117093
167	0xbdd8f693	-0.10593905
168	0xbe0a6a71	-0.13517167
169	0x3dbcdc56	0.09221713
170	0x3e2ee8da	0.17081013
171	0x3c8baf8a	0.017051477
172	0x3de6e4b3	0.1127409
173	0xbde9c1fe	-0.11413954
174	0xbd486679	-0.04892585
175	0xbdd20965	-0.10255698
176	0xbda2414f	-0.07922613
177	0x3c89a71c	0.016803317
178	0x3df092b4	0.117467314
179	0x3ce6d024	0.028175421
180	0xbe08e977	-0.1337031
181	0xbcee6ddb	-0.029105118
182	0xbe14c7e4	-0.14529377
183	0x3d90a479	0.07062621
184	0xbdaf9c83	-0.08574774
185	0xbdf9364d	-0.1216856
186	0xbe09ecc9	-0.13469233
187	0x3e32395d	0.17404695
188	0xbdc3842d	-0.09546695
189	0xbc78787f	-0.015165447
190	0x3ce3ff3f	0.027831672
191	0x3d81ab12	0.06331457
192	0xbe2af9d6	-0.16696867
193	0xbbb3ee87	-0.005491081
194	0x3db8dda4	0.090266496
195	0x3c8e350a	0.017359275
196	0xbd9e8e59	-0.077419944
197	0xbe15aeab	-0.14617412
198	0x3dac0b0a	0.08400543
199	0x3dc229ce	0.0948063
200	0xbcd3fc69	-0.025877194
201	0xbdfd4260	-0.12366176
202	0x3e1d93e1	0.15388443
203	0x3df671f2	0.12033452
204	0xbd8beff1	-0.068328746
205	0xbdba55d2	-0.090984
206	0xbdafdf93	-0.08587565
207	0x3da44dfe	0.08022688
208	0x3c82012c	0.0158697
209	0xbd8c4f25	-0.06851033
210	0xbd54ecf6	-0.051983796
211	0x3e187ba6	0.14890918
212	0xbdfd6ebf	-0.12374639
213	0x3d37c244	0.044863
214	0xbd2d4ba3	-0.04230846
215	0x3dfc14d7	0.123086624
216	0xbb8b33e2	-0.0042481283
217	0xbd984eac	-0.074368805
218	0x3e16c1d9	0.14722385
219	0xbddfb639	-0.10923428
220	0xbd8569b0	-0.06514299
221	0x3e06765a	0.13131085
222	0xbd734eb7	-0.05940124
223	0xbd15a5cf	-0.03653508
224	0x3e0de928	0.13858473
225	0xbe04575d	-0.12923951
226	0xbe29a424	-0.16566521
227	0xbcd9b354	-0.026574768
228	0x3dc0d8ae	0.09416328
229	0x3ded2c1f	0.11580681
230	0xbe19cfd6	-0.1502069
231	0x3de78646	0.113049075
232	0x3dc3a081	0.09552098
233	0xbc095570	-0.008382186
234	0x3d4a797d	0.049432267
235	0x3dc3848d	0.095467664
236	0x3deb35ca	0.11484869
237	0xbdbc3fef	-0.09191882
238	0xbe13388f	-0.14377044
239	0x3bb23c02	0.0054392824
240	0x3dafb3ec	0.08579239
241	0xbe2526bb	-0.16128056
242	0xbdd8ec71	-0.105919726
243	0xbd177551	-0.036977116
244	0x3da0b5df	0.07847189
245	0xbe27c8bb	-0.16385166
246	0x3d1c85f3	0.03821368
247	0xbe23665d	-0.15957017
248	0xbd8ae705	-0.06782345
249	0xbe18ad9d	-0.14909978
250	0xbe2e9801	-0.17050172
251	0xbb96a75f	-0.004597589
252	0x3e2364ec	0.15956467
253	0xbdcc6f8c	-0.099822134
254	0xbd0bd164	-0.034135237
255	0x3e01890c	0.12649935

stack.3.0.bias f4 [10]
0	0x3e6d9245	0.23200329
1	0xbd96da47	-0.07365852
2	0x3d263fb8	0.04058811
3	0x3e8153a3	0.25259122
4	0x3e10d03d	0.14141937
5	0x3e20d04b	0.15704457
6	0xbd3c9140	-0.04603696
7	0xbc323e65	-0.010879134
8	0xbd118b61	-0.035533313
9	0x3d980be3	0.07424142
