src/fminst/models/teacher_2.pt (torch, 447183 bytes, 8 tensors)

stack.0.0.weight f4 [128, 784]
0.049052026 -0.071510054 -0.10751383 -0.00647006 -0.036713798 0.059841067 0.12226346 -0.033112843
-0.14664619 -0.10313924 0.007857144 -0.06303988 -0.10377512 0.013935837 -0.000453526 -0.008426372
-0.032176774 0.0070776455 -0.08197255 -0.1399039 -0.20618173 0.019720893 0.03351537 0.017654259
0.003272118 0.06369037 -0.00038445677 -0.08579576 -0.054547966 -0.035524506 -0.122113876 -0.060395
0.01330776 0.13574694 0.11440383 -0.05539165 0.038091924 0.12934816 0.017070327 -0.036128268
-0.016865864 -0.009857609 0.029694378 -0.026995482 -0.022124909 0.020343587 0.0688126 0.0461083
-0.07986932 0.016713247 0.11972209 0.1006716 0.042785298 0.06306621 0.068161145 -0.10466665
0.07468738 0.03777898 0.018111236 -0.02350605 0.037891205 -0.005766874 0.0153464265 -0.0039603664
0.064672954 0.032730434 -0.015229022 -0.03647871 -0.06698991 -0.03515696 -0.087742284 -0.042918578
-0.032685954 0.00979785 0.0021747719 0.027407454 -0.008290587 -0.061338034 -0.053752463 0.007844343
0.036560263 0.042974774 0.027331315 0.035654668 0.1439099 0.027890464 0.0049056653 -0.00031602572
-0.01708756 -0.027954996 -0.030213501 -0.010548912 0.022377111 -0.031755056 0.022820449 0.070293285
-0.043936517 -0.038230807 -0.039890826 -0.017106412 0.0046774214 0.008804994 -0.03471844 -0.0058988715
6.329941e-05 -0.03536466 -0.002840773 -0.017491693 -0.05087378 0.08548463 0.06910535 0.07584646
0.10494802 0.04930048 -0.035480533 -0.0044207103 -0.017897282 0.02412921 -0.017102394 0.04858762
0.061350197 -0.023172593 -0.0015415796 0.08766641 0.015985707 -0.047067143 -0.03892348 0.028291067
0.008736926 0.01063763 -0.017581433 -0.001081501 -0.002339874 -0.037245143 -0.041894622 0.0006488817
-0.042534567 0.04054869 0.117347464 0.024117826 0.09095845 0.098643154 -0.01632092 0.07726984
-0.0871063 0.029184543 -0.038947947 0.07468603 0.07702401 -0.010184823 0.060838003 0.036185697
-0.0028271154 -0.027744694 -0.045348793 -0.00062761165 0.014384912 0.0432909 0.04219438 -0.006598629
-0.009830166 0.04221644 -0.015448769 -0.04216503 0.0047417157 0.08511669 0.11195954 0.057511404
0.075762816 0.014484362 -0.053374495 0.014799409 -0.014559557 -0.047527306 -0.035439737 0.018419223
-0.05072677 0.033382174 0.063551866 0.03507295 0.018081672 -0.049860757 -0.036168545 -0.007852841
-0.004450103 0.007899547 0.008723322 -0.00022588945 0.04605053 0.05165126 -0.002322676 -0.07794517
0.032501817 0.016120417 0.056322705 0.056846425 0.056238722 -0.025348432 0.022156801 0.022431573
-0.07227289 -0.048032302 -0.02258356 -0.050631024 -0.043446314 0.05421093 0.04912896 0.030854547
0.03596342 -0.011821738 -0.04081491 -0.008060411 0.022133091 -0.0022789917 -0.010828453 -0.009979198
0.0039278874 0.006594065 -0.012458819 -0.000108820415 -0.011158528 -0.0315773 0.043577068 0.0893707
0.04539631 0.0006653522 -0.011159847 0.022477645 -0.0707935 -0.02791937 -0.022483723 -0.053916875
-0.048982967 -0.016170727 -0.028664641 0.056643188 0.019738829 -0.010688578 -0.032166664 -0.033412803
-0.0111335125 0.0066549596 -0.058781646 -0.05133975 0.03143746 0.039485484 0.023270765 -0.006722768
-0.040056262 0.025797518 0.033792987 0.09056572 0.16469765 0.0132866055 -0.008135664 0.027477706
00000000: c7ea 483d dd73 92bd 3630 dcbd cc02 d4bb
00000010: 3561 16bd e81b 753d 4465 fa3d 55a1 07bd
00000020: 6b2a 16be aa3a d3bd 40bb 003c 0d1b 81bd
00000030: 0d88 d4bd 2353 643c 3bc7 edb9 c40e 0abc
00000040: cbcb 03bd 98eb e73b 39e1 a7bd f842 0fbe
00000050: 4e21 53be b68d a13c 6a47 093d aa9f 903c
00000060: 0871 563b 1970 823d ea90 c9b9 b0b5 afbd
00000070: b06d 5fbd 2582 11bd d716 fabd bf60 77bd
00000080: ca08 5a3c 3f01 0b3e 8e4c ea3d 5be2 62bd
00000090: 4706 1c3d d873 043e 12d7 8b3c 3cfb 13bd
000000a0: 482a 8abc cf81 21bc a041 f33c a125 ddbc
000000b0: 4c3f b5bc 98a7 a63c 9fed 8c3d 0fdc 3c3d
000000c0: 8792 a3bd 38ea 883c db30 f53d e92c ce3d
000000d0: a33f 2f3d db28 813d 1298 8b3d 785b d6bd
000000e0: b2f5 983d 22be 1a3d 045e 943c c38f c0bc
000000f0: cf33 1b3d 0cf8 bcbb 946f 7b3c f6c5 81bb
00000100: 4173 843d 5910 063d 2683 79bc b36a 15bd
00000110: 0232 89bd bf00 10bd 3ab2 b3bd 64cb 2fbd
00000120: b5e1 05bd 2987 203c 9e86 0e3b 9985 e03c
00000130: 3ed5 07bc 973d 7bbd 8b2b 5cbd 8f85 003c
00000140: 37c0 153d 5106 303d ece5 df3c a10a 123d
00000150: 1e5d 133e 8b7a e43c b4bf a03b 41b0 a5b9
00000160: 36fb 8bbc e001 e5bc 4e82 f7bc 58d5 2cbc
00000170: 3450 b73c 9711 02bd f3f1 ba3c edf5 8f3d
00000180: c7f6 33bd e897 1cbd 9064 23bd bf22 8cbc
00000190: 0e45 993b d242 103c ec34 0ebd 524b c1bb
000001a0: 9dbf 8438 89da 10bd 432c 3abb bd4a 8fbc
000001b0: 0661 50bd 9112 af3d 1b87 8d3d 6455 9b3d
000001c0: fdee d63d 4def 493d 0954 11bd 9bdb 90bb
000001d0: 529d 92bc 9faa c53c 521a 8cbc d003 473d
000001e0: 584a 7b3d 73d4 bdbc d40e caba 728a b33d
000001f0: 75f4 823c 7ac9 40bd 3a6e 1fbd abc2 e73c
00000200: 5325 0f3c 7449 2e3c f006 90bc 27c1 8dba
00000210: 9258 19bb 5d8e 18bd b299 2bbd b719 2a3a
00000220: ba38 2ebd 6216 263d de53 f03d bf92 c53c
00000230: 6d48 ba3d 6c05 ca3d 73b3 85bc a63f 9e3d
00000240: ca64 b2bd 6c14 ef3c e287 1fbd fdf4 983d
00000250: c4be 9d3d 3ede 26bc 4531 793d 7437 143d
00000260: 2047 39bb d748 e3bc a8bf 39bd 4e86 24ba
00000270: b2ae 6b3c cc51 313d 04d4 2c3d 5039 d8bb
00000280: b40e 21bc 25eb 2c3d d51c 7dbc 3db5 2cbd
00000290: 6560 9b3b a951 ae3d 0b4b e53d 1491 6b3d
000002a0: 8929 9b3d d14f 6d3c 379f 5abd 3879 723c
000002b0: 358b 6ebc feab 42bd 4229 11bd e9e3 963c
000002c0: e0c6 4fbd bfbb 083d 7b27 823d a7a8 0f3d
000002d0: 0420 943c cb3a 4cbd 7825 14bd 34a9 00bc
000002e0: 2bd2 91bb 1a6d 013c 44ec 0e3c bddc 6cb9
000002f0: 7b9f 3c3d 4690 533d 0938 18bb b8a1 9fbd
00000300: a020 053d f70e 843c a3b2 663d ccd7 683d
00000310: 935a 663d 84a7 cfbc 2e82 b53c 6bc2 b73c
00000320: cf03 94bd 85bd 44bd 2801 b9bc 7a62 4fbd
00000330: c3f4 31bd 480c 5e3d 733b 493d adc2 fc3c
00000340: 614e 133d f7af 41bc 892d 27bd d00f 04bc
00000350: 7550 b53c 235b 15bb d369 31bc ca7f 23bc
00000360: 82b5 803b 0713 d83b 1320 4cbc 8436 e4b8
00000370: 42d2 36bc 3357 01bd de7d 323d fc07 b73d
00000380: 7bf1 393d 086b 2e3a cad7 36bc 0a23 b83c
00000390: 2ffc 90bd 2ab7 e4bc c92f b8bc f1d7 5cbd
000003a0: 5da2 48bd 7978 84bc 1cd2 eabc b002 683d
000003b0: 53b3 a13c 251f 2fbc 31c1 03bd dddb 08bd
000003c0: 5669 36bc d911 da3b 06c5 70bd a149 52bd
000003d0: 91c4 003d 88bb 213d 55a2 be3c aa4a dcbb
000003e0: 0912 24bd 5155 d33c 846a 0a3d 857a b93d
000003f0: 80a6 283e 10b0 593c 734b 05bc ed18 e13c

stack.0.0.bias f4 [128]
0.14382884 0.090981536 -0.0011375104 0.10045187 -0.07901082 0.10082446 -0.026359 -0.09043855
0.05493146 -0.017387848 -0.037213486 0.14030384 0.008340617 0.012108586 0.006068126 0.028963055
0.0420844 0.26047605 0.17103958 0.09267302 0.24944125 -0.05009067 -0.038038228 0.14851224
-0.06595381 0.056211 -0.17194384 0.05820089 -0.036215443 0.22063193 0.14117268 -0.08482225
-0.013566041 0.05124047 -0.060021278 -0.042270012 0.17612743 0.051287066 -0.14610858 -0.16010949
-0.027444223 -0.0096432725 -0.007868811 0.14009184 0.11500542 -0.042493053 0.1285645 0.14502229
0.10042024 0.043280527 0.13906038 -0.03050749 0.004690997 -0.091367744 -0.09434762 0.012446112
-0.053039312 0.037484765 -0.14296949 -0.13742286 0.05918295 -0.014908589 0.15155125 0.02689408
0.10974724 0.15887803 -0.00908675 0.04034602 0.16968681 0.05996716 0.06200298 0.17720203
0.014226947 -0.073045984 -0.017239194 0.1484747 0.09014638 0.017062997 0.1452013 0.063026495
0.24387713 -0.11497775 0.11930183 -0.060876686 -0.17678054 -0.045828596 0.07215474 0.048967574
0.16559745 0.031148588 -0.064718306 0.13554487 0.12309617 0.22238666 -0.10530212 0.0238612
0.003384855 0.0146302795 0.06407947 0.25058544 0.078625284 0.048784744 0.11210985 -0.009242458
-0.049813844 0.15572006 0.0006381463 -0.026077865 -0.06553881 -0.032983065 0.09036676 0.21106441
0.018345414 0.04097906 0.03225558 0.15036911 0.0012594247 -0.05528415 0.21096137 0.0036485184
0.029156784 0.06927129 -0.012813453 0.15557693 0.26840028 -0.09850643 0.23739763 -0.20931913
00000000: de47 133e 8754 ba3d 8418 95ba b6b9 cd3d
00000010: 6dd0 a1bd 0e7d ce3d d4ee d7bc d937 b9bd
00000020: d0ff 603d f670 8ebc 2b6d 18bd cfab 0f3e
00000030: 15a7 083c 1763 463c 21d7 c63b ee43 ed3c
00000040: b160 2c3d 1e5d 853e 0025 2f3e 5acb bd3d
00000050: 876d 7f3e e02b 4dbd f9cd 1bbd 9813 183e
00000060: cb12 87bd 813d 663d 0c12 30be 0e64 6e3d
00000070: a556 14bd 56ed 613e 928f 103e 4ab7 adbd
00000080: 1a44 5ebc 87e1 513d dfd8 75bd 5223 2dbd
00000090: c05a 343e 6312 523d 7d9d 15be bef3 23be
000000a0: b5d2 e0bc d1fe 1dbc 2fec 00bc 3c74 0f3e
000000b0: f687 eb3d 320d 2ebd 6aa6 033e b980 143e
000000c0: 20a9 cd3d ec46 313d d865 0e3e d8ea f9bc
000000d0: efb6 993b 031f bbbd 5339 c1bd c7ea 4b3c
000000e0: c03f 59bd a089 193d 9866 12be 94b8 0cbe
000000f0: d269 723d 2843 74bc 4030 1b3e f950 dc3c
00000100: 29c3 e03d ecb0 223e 98e0 14bc de41 253d
00000110: 61c2 2d3e 20a0 753d d6f6 7d3d 7374 353e
00000120: 2418 693c 2299 95bd 3639 8dbc c009 183e
00000130: aa9e b83d b3c7 8b3c a6af 143e 0914 813d
00000140: edba 793e 7479 ebbd 8554 f43d d559 79bd
00000150: f505 35be c4b6 3bbd ddc5 933d 3992 483d
00000160: 6192 293e 532b ff3c 088b 84bd 46cc 0a3e
00000170: d819 fc3d 54b9 633e a3a8 d7bd 9078 c33c
00000180: 72d4 5d3b d7b3 6f3c 193c 833d bc4c 803e
00000190: 4b06 a13d 83d2 473d d999 e53d ae6d 17bc
000001a0: 9a09 4cbd 1475 1f3e 4649 273a 3fa1 d5bc
000001b0: 3639 86bd 4019 07bd 3512 b93d 4521 583e
000001c0: 1f49 963c a9d9 273d 6d1e 043d 5cfa 193e
000001d0: 4813 a53a a271 62bd 4206 583e fb1b 6f3b
000001e0: 35da ee3c 1bde 8d3d 84ef 51bc 8f4f 1f3e
000001f0: c36b 893e bdbd c9bd 5d18 733e c157 56be

stack.1.0.weight f4 [64, 128]
0.1366317 0.21391372 0.046600804 -0.026305063 0.09482632 0.041349437 -0.11457327 0.14042108
0.15569313 -0.11233382 -0.117408305 -0.009590443 -0.019180711 0.16122133 0.00799214 0.005803289
0.012919283 -0.05609274 0.04870772 0.122676976 0.02768854 0.008382184 0.015682982 -0.15728465
-0.034891553 0.13676782 -0.06711519 0.1588508 -0.044888485 0.19938214 -0.039101407 -0.06916502
-0.05065624 -0.03019605 0.06831713 0.009736405 0.09971601 0.05184437 0.060066037 0.06842317
0.014336648 0.16144319 0.10674216 -0.012349189 -0.040552422 0.06561212 -0.04534289 0.017626002
0.06404807 0.055781823 0.11303584 -0.056043215 -0.088060334 0.084293246 0.011337483 0.08592481
0.04802106 0.17873965 -0.018165419 0.14850464 0.039225705 0.17054951 -0.026970027 -0.12553559
-0.042002495 0.1167376 0.087634064 -0.05471765 0.13189772 0.14528303 -0.0803308 0.036987584
0.098050244 0.10588013 -0.08708942 -0.0594646 -0.07171138 0.20231053 0.007679285 0.116472855
0.1911567 0.06313334 0.026082769 -0.08954784 -0.05324172 -0.1099104 0.14111747 0.2384749
0.017814247 0.01337681 -0.0011216323 -0.002524228 0.047660008 -0.011412593 0.11553584 0.1454852
0.01849046 0.11357668 -0.028441828 0.25955838 -0.020403452 -0.07752537 0.051761206 0.024461456
0.011698569 -0.063671716 0.09723821 0.04676042 0.063282035 -0.03905468 -0.031490084 0.07992622
0.15213045 -0.036042605 -0.05209617 -0.00047532932 -0.002532982 -0.013481219 0.024578366 0.12476491
-0.07594702 0.00070569647 -0.11209577 0.0985029 -0.07268434 0.16558908 -0.012376598 0.11536579
-0.025498683 0.17065096 0.11250983 0.10511946 -0.02483969 0.032580294 -0.042965528 0.12937744
-0.00031553526 0.020868655 0.099149756 -0.078818664 -0.07082607 0.2604937 0.021676831 0.021045
0.08641186 0.04937286 -0.018886112 -0.046448767 0.08134506 0.05076641 -0.08986277 0.10926238
0.05273056 -0.14152946 -0.082954496 -0.10101804 -0.08257874 -0.112709716 -0.12692836 -0.030219335
0.073010944 0.023885703 0.09637694 -0.11236717 0.066407144 0.098233424 0.0083939005 0.028508268
0.066799454 0.0867281 0.017852115 0.04901096 -0.07930633 -0.041000534 -0.00015727466 -0.0625391
-0.077211425 -0.07983618 -0.049412936 -0.015767828 0.022582663 0.035808362 0.07212063 0.06838933
-0.10024411 0.14953685 0.1420236 0.053893212 0.1086476 0.11277363 -0.09756059 0.2195461
0.008907325 -0.02039449 -0.08918365 0.016705293 0.058186766 -0.1531732 -0.041355874 -0.010388547
-0.021642797 0.030001715 -0.018123083 0.088131964 0.09664565 0.044771172 0.11647997 0.046086747
0.09915957 -0.14882651 -0.31736252 0.0665674 -0.030115064 0.11511182 0.06583567 0.008624934
-0.108799875 -0.10426408 0.021041762 0.04509416 -0.036012333 -0.13191178 0.12548275 0.0065106107
-0.09390912 0.043357737 -0.05269242 0.29476085 -0.013909754 0.1988779 0.11158428 0.0023710176
-0.09581389 0.02593875 0.10677532 0.023765415 0.09371159 0.058640085 -0.3390911 0.09300303
0.108228035 -0.099734955 -0.105682276 -0.057903733 -0.118814185 0.081261836 -0.02803584 0.124420114
-0.13688526 -0.0010143393 -0.10520841 0.106771864 -0.016418217 0.05414273 0.013817905 -0.009177444
00000000: 2ee9 0b3e 330c 5b3e 7ce0 3e3d b77d d7bc
00000010: 4d34 c23d 075e 293d 64a5 eabd 8bca 0f3e
00000020: 056e 1f3e 460f e6bd c473 f0bd 3c21 1dbc
00000030: de20 9dbc 3417 253e 77f1 023c 8429 be3b
00000040: 66ab 533c 80c1 65bd bf81 473d 113e fb3d
00000050: 14d3 e23c 6e55 093c 9979 803c 3a0f 21be
00000060: 72ea 0ebd dd0c 0c3e b073 89bd c9a9 223e
00000070: fddc 37bd d52a 4c3e cc28 20bd 64a6 8dbd
00000080: eb7c 4fbd b55d f7bc dae9 8b3d 7185 1f3c
00000090: e837 cc3d c35a 543d ce07 763d 7221 8c3d
000000a0: 43e4 6a3c 5d51 253e a29b da3d 4154 4abc
000000b0: 4c1a 26bd a65f 863d 77b9 39bd 6864 903c
000000c0: a22b 833d 7b7b 643d 567f e73d 928d 65bd
000000d0: fa58 b4bd f0a1 ac3d dac0 393c 59f9 af3d
000000e0: bbb1 443d 8707 373e a5cf 94bc 9a11 183e
000000f0: 22ab 203d 88a4 2e3e 3ff0 dcbc 678c 00be
00000100: cf0a 2cbd 1f14 ef3d 7d79 b33d 9d1f 60bd
00000110: 3210 073e 13c5 143e 7984 a4bd 4b80 173d
00000120: 91ce c83d aed7 d83d f05b b2bd 2791 73bd
00000130: 6add 92bd 7e2a 4f3e 83a2 fb3b 5289 ee3d
00000140: 95be 433e 0d4c 813d 88ab d53c dc64 b7bd
00000150: fd13 5abd b418 e1bd 1981 103e c432 743e
00000160: 2fef 913c 682a 5b3c bc03 93ba 856d 25bb
00000170: 2437 433d e2fb 3abc 0e9e ec3d 13fa 143e
00000180: 4e79 973c e49a e83d d6fe e8bc d6e4 843e
00000190: 2425 a7bc 9fc5 9ebd 8f03 543d 6463 c83c
000001a0: 5bab 3f3c 5166 82bd d424 c73d db87 3f3d
000001b0: 039a 813d cdf7 1fbd bffb 00bd 5cb0 a33d
000001c0: 16c8 1b3e 69a1 13bd cb62 55bd 9f35 f9b9
000001d0: 6300 26bb 55e0 5cbc 9258 c93c bf84 ff3d
000001e0: 1c8a 9bbd 7dfe 383a 7892 e5bd e3bb c93d
000001f0: 87db 94bd 2f90 293e 37c7 4abc e644 ec3d
00000200: 9de2 d0bc 20bf 2e3e 8e6b e63d df48 d73d
00000210: 9b7c cbbc ea72 053d 9ffc 2fbd 857b 043e
00000220: 6d6e a5b9 bef4 aa3c 070f cb3d ae6b a1bd
00000230: 420d 91bd 6e5f 853e 9c93 b13c 9066 ac3c
00000240: b4f8 b03d 323b 4a3d 0cb7 9abc 1041 3ebd
00000250: 3d98 a63d 70f0 4f3d f909 b8bd f4c4 df3d
00000260: 00fc 573d 19ed 10be 0ce4 a9bd 8ce2 cebd
00000270: 0b1f a9bd 5ad4 e6bd 82f9 01be 8a8e f7bc
00000280: c386 953d f3ab c33c 4661 c53d c220 e6bd
00000290: 7800 883d 9b2e c93d 9286 093c 2c8a e93c
000002a0: 27ce 883d 819e b13d 993e 923c b7bf 483d
000002b0: 5b6b a2bd 2df0 27bd 18ea 24b9 8014 80bd
000002c0: 0621 9ebd 2781 a3bd 3865 4abd 882b 81bc
000002d0: 47ff b83c caab 123d fbb3 933d b40f 8c3d
000002e0: c94c cdbd 3020 193e a26e 113e 21bf 5c3d
000002f0: a282 de3d dcf5 e63d d9cd c7bd b1d0 603e
00000300: 07f0 113c 5812 a7bc eba5 b6bd 8ad9 883c
00000310: 3f55 6e3d 6fd9 1cbe c764 29bd b934 2abc
00000320: 3c4c b1bc 28c6 f53c dc76 94bc 887e b43d
00000330: 28ee c53d fa61 373d 0d8d ee3d 75c5 3c3d
00000340: 2c14 cb3d fa65 18be 577d a2be 7d54 883d
00000350: deb3 f6bc bfbf eb3d dad4 863d 984f 0d3c
00000360: 78d2 debd 6888 d5bd c65f ac3c a7b4 383d
00000370: ab81 13bd e213 07be 8d7e 003e f656 d53b
00000380: 6d53 c0bd e297 313d 02d4 57bd e5ea 963e
00000390: bde5 63bc a6a6 4b3e 4d86 e43d 1363 1b3b
000003a0: 133a c4bd 807d d43c 05ad da3d b0af c23c
000003b0: ddeb bf3d 9630 703d 599d adbe 5f78 be3d
000003c0: a9a6 dd3d d741 ccbd f36f d8bd 772c 6dbd
000003d0: da54 f3bd 9b6c a63d 6bab e5bc f9cf fe3d
000003e0: a62b 0cbe 94f3 84ba 8277 d7bd 35ab da3d
000003f0: 7f7f 86bc c4c4 5d3d 7f64 623c fd5c 16bc

stack.1.0.bias f4 [64]
0.10729837 0.12650147 0.22621451 -0.038756456 0.015305634 0.27143374 -0.03964998 -0.048025373
-0.11479314 0.05336103 -0.06618164 0.068560414 0.08245139 -0.003329387 0.055921923 0.059485514
-0.15516295 -0.008108187 0.009490162 -0.0043466645 0.012845221 -0.018482815 0.24753284 0.15402009
0.22518861 -0.049985223 -0.10699178 0.07319378 0.08891645 -0.08155679 0.07904711 0.24313492
0.023981445 -0.18877006 0.18188275 -0.10061327 -0.19832404 0.11678207 0.1530556 0.11085315
-0.011448763 0.13155976 -0.2519599 0.12870128 -0.049018186 -0.045530178 0.026999015 -0.04713798
0.030971207 0.06250068 0.07450414 -0.15559882 0.14505652 0.073647074 -0.12637976 0.12907217
-0.0048352173 -0.0677025 -0.04794459 0.10318764 0.07648914 0.087816834 0.017356204 0.064583234
00000000: 3fbf db3d 9a89 013e c7a4 673e 17bf 1ebd
00000010: 7bc4 7a3c 5df9 8a3e 0468 22bd 41b6 44bd
00000020: aa18 ebbd 1891 5a3d 3d8a 87bd 6769 8c3d
00000030: 46dc a83d d831 5abb 630e 653d 15a7 733d
00000040: 09e3 1ebe 33d8 04bc a07c 1b3c 776e 8ebb
00000050: c374 523c 4669 97bc 4079 7d3e 71b7 1d3e
00000060: d897 663e 4ebd 4cbd 821e dbbd 9fe6 953d
00000070: d419 b63d 3f07 a7bd 74e3 a13d 5cf8 783e
00000080: bc74 c43c f04c 41be 793f 3a3e 550e cebd
00000090: 7515 4bbe 702b ef3d 9bba 1c3e fa06 e33d
000000a0: 9893 3bbc 9ab7 063e e300 81be 45ca 033e
000000b0: 4bc7 48bd da7d 3abd 0a2d dd3c c113 41bd
000000c0: 54b7 fd3c 5b00 803d a095 983d 4c55 1fbe
000000d0: b289 143e 47d4 963d b269 01be 7f2b 043e
000000e0: be70 9ebb 9ca7 8abd 8c61 44bd 0b54 d33d
000000f0: 57a6 9c3d 50d9 b33d 992e 8e3c 3744 843d

stack.2.0.weight f4 [32, 64]
-0.021496454 0.13420035 -0.17817469 0.053854976 0.06286589 0.029250257 0.10533628 -0.08847565
-0.16871466 0.023312055 0.06760122 -0.24559657 -0.10123011 0.08290418 0.011991065 -0.23797858
0.09298306 -0.006201837 0.039997756 0.09960961 0.10804884 -0.09560873 0.008050426 0.15276685
0.17310894 0.11557441 0.12984711 0.017061887 0.07991609 -0.07971575 -0.14734364 0.055065632
0.032964114 0.16505109 0.010930298 -0.058546823 0.1700942 -0.12125626 -0.047674086 -0.049657892
0.14270476 -0.030452633 -0.07384382 0.11239674 0.10804678 0.041427944 0.082366586 -0.037891567
0.0052482975 -0.017964832 0.23815662 -0.118491136 -0.09144076 0.0076456284 0.104590446 -0.02624129
0.08137961 0.1146099 -0.13639894 0.02979515 -0.007360054 0.07885918 0.11376584 -0.16635756
-0.0057715876 0.016271558 0.0377814 0.0055634277 0.23790929 0.11408145 -0.081744395 0.16113567
-0.14871506 -0.10844312 -0.2099888 0.04484122 -0.29113415 -0.13437653 -0.020739775 0.058313157
0.012031181 0.070906915 0.116846494 0.07805324 -0.09998348 -0.038382627 0.17639333 0.053938344
-0.014040402 0.1361938 -0.033106916 -0.032962486 -0.06723752 0.052470967 -0.04376099 0.09220005
0.012593696 0.033507496 0.14060368 0.17245272 -0.28228024 0.12563682 -0.03535135 0.026675351
-0.14725563 -0.05409415 0.09070151 -0.014255141 0.042460013 0.03591936 0.0865209 -0.07679893
-0.11667477 0.029868025 0.3648376 0.17636846 0.08850316 -0.062327817 0.10782939 0.13427831
-0.084145285 0.070787616 0.00038696488 -0.009718067 -0.07028893 -0.04956324 0.10187836 0.048177708
0.028546687 -0.0945144 -0.06924923 0.050424695 -0.032749727 -0.09853989 0.01982672 -0.059659123
-0.08016343 0.081807196 0.0008870941 -0.11903252 0.06477748 0.021192461 0.0054987925 -0.10536505
0.022658942 -0.097053245 -0.07672542 0.059530124 -0.058474645 0.044566214 0.0025740345 -0.09582853
-0.07343407 -0.07190468 0.08778548 -0.023256378 -0.08820583 -0.045265425 0.0773164 0.11853894
0.07870427 0.06144314 -0.029896753 -0.030285448 -0.013554731 -0.027243778 0.067295656 -0.038500752
0.018773377 0.008130501 -0.1087752 -0.12432335 -0.08887124 -0.12155046 -0.082861826 0.0016315997
-0.014029428 0.09757134 -0.11733555 -0.054642662 -0.0556252 -0.09059775 -0.122970894 0.09657647
-0.06230378 -0.051135913 0.11672153 0.0053817574 -0.085495725 -0.11401029 0.027387276 0.08187366
-0.14129773 0.00069808826 0.044184443 -0.028983945 0.10937286 0.020071594 -0.09087969 -0.1916958
-0.20227584 0.0968483 0.07372369 -0.1591102 -0.087480485 -0.05604691 -0.103877604 0.12178517
-0.041265443 -0.1694029 0.23713069 0.110455744 -0.068810165 0.027351439 0.12037849 0.10016044
0.19344132 0.07278696 -0.049179193 0.03730756 0.13140367 -0.15425782 -0.038670246 0.094883494
-0.04759837 0.003996112 -0.009693196 -0.052185606 -0.103797965 -0.14560461 0.17389335 0.020143999
0.012909183 0.011501277 -0.1722425 0.16522029 -0.025970701 0.16179048 0.04616227 0.0017054597
-0.0062020286 0.08371005 0.051477633 -0.14653882 0.17325555 0.049089916 -0.029311873 -0.09257734
0.020260807 0.06188265 0.02741874 -0.08778659 0.13960773 0.20770489 0.14413849 -0.048631854
00000000: 5519 b0bc d16b 093e 6d73 36be 0997 5c3d
00000010: d5bf 803d 3c9e ef3c 8cba d73d b932 b5bd
00000020: 89c3 2cbe ecf8 be3c 8272 8a3d ab7d 7bbe
00000030: bb51 cfbd abc9 a93d 2c76 443c a8b0 73be
00000040: e76d be3d c838 cbbb b0d4 233d 2000 cc3d
00000050: b648 dd3d 83ce c3bd efe5 033c ea6e 1c3e
00000060: 7843 313e 47b2 ec3d a4f6 043e 5fc5 8b3c
00000070: 0cab a33d 0342 a3bd 40e1 16be 808c 613d
00000080: 6105 073d 2703 293e fe14 333c cbce 6fbd
00000090: 2d2d 2e3e 3455 f8bd e745 43bd 1366 4bbd
000000a0: 3221 123e cd77 f9bc 6e3b 97bd 4330 e63d
000000b0: a147 dd3d 59b0 293d d0af a83d 3034 1bbd
000000c0: e9f9 ab3b fc2a 93bc 54df 733e 7bab f2bd
000000d0: 4b45 bbbd 2e88 fa3b 8433 d63d f9f7 d6bc
000000e0: 5aaa a63d 98b8 ea3d 2aac 0bbe f514 f43c
000000f0: 9c2c f1bb ec80 a13d 11fe e83d a359 2abe
00000100: 961f bdbb ee4b 853c abc0 1a3d 6a4d b63b
00000110: 7e9e 733e 89a3 e93d 9b69 a7bd c000 253e
00000120: c348 18be 6d17 debd 4e07 57be 6dab 373d
00000130: 890f 95be 009a 09be 76e6 a9bc c7d9 6e3d
00000140: 6e1e 453c a537 913d 374d ef3d 61da 9f3d
00000150: 24c4 ccbd 1a37 1dbd 74a0 343e 74ee 5c3d
00000160: b709 66bc 6376 0b3e 1e9b 07bd ac03 07bd
00000170: d3b3 89bd cceb 563d b93e 33bd 61d3 bc3d
00000180: ca55 4e3c 283f 093d 69fa 0f3e 7297 303e
00000190: 0987 90be f0a6 003e 94cc 10bd 4486 da3c
000001a0: 2eca 16be d491 5dbd b7c1 b93d 658e 69bc
000001b0: 8dea 2d3d 2e20 133d df31 b13d c248 9dbd
000001c0: 2ff3 eebd caad f43c fecb ba3e ef99 343e
000001d0: 2541 b53d 744b 7fbd a8d5 dc3d 4180 093e
000001e0: 5d54 acbd 19f9 903d 8ce1 ca39 8738 1fbc
000001f0: a4f3 8fbd d302 4bbd 9aa5 d03d fd55 453d
00000200: beda e93c c490 c1bd 8ad2 8dbd 208a 4e3d
00000210: 9424 06bd 48cf c9bd a56b a23c 205d 74bd
00000220: b92c a4bd 888a a73d e18b 683a 52c7 f3bd
00000230: 0eaa 843d d09b ad3c 372f b43b a2c9 d7bd
00000240: 3f9f b93c dac3 c6bd 3822 9dbd dcd5 733d
00000250: 1c83 6fbd 108b 363d 22b1 283b c041 c4bd
00000260: 9a64 96bd c342 93bd e0c8 b33d 2984 bebc
00000270: 42a5 b4bd 3d68 39bd 1058 9e3d 8bc4 f23d
00000280: b42f a13d cdab 7b3d 09ea f4bc 3019 f8bc
00000290: aa14 5ebc 582e dfbc 4ed2 893d f7b2 1dbd
000002a0: a0ca 993c cb35 053c 88c5 debd 3e9d febd
000002b0: 2002 b6bd 73ef f8bd 76b3 a9bd 67db d53a
000002c0: b0db 65bc 7cd3 c73d 9f4d f0bd fcd0 5fbd
000002d0: 40d7 63bd 508b b9bd 2ad8 fbbd e2c9 c53d
000002e0: 4032 7fbd e473 51bd b30b ef3d 7459 b03b
000002f0: 6218 afbd 3a7e e9bd 485b e03c 61ad a73d
00000300: 5ab0 10be e9ff 363a bffa 343d bd6f edbc
00000310: e1fe df3d 2f6d a43c 221f babd e74b 44be
00000320: 6621 4fbe 6758 c63d 72fc 963d c9ed 22be
00000330: f828 b3bd 7291 65bd c8bd d4bd 816a f93d
00000340: f405 29bd f477 2dbe 63d2 723e 9f36 e23d
00000350: 58ec 8cbd 2010 e03c ff88 f63d eb20 cd3d
00000360: 7b15 463e 5411 953d 1f70 49bd d0cf 183d
00000370: af8e 063e c3f5 1dbe b164 1ebd 4752 c23d
00000380: 82f6 42bd d1f1 823b 36d0 1ebc 93c0 55bd
00000390: 0794 d4bd 6019 15be 1911 323e 0705 a53c
000003a0: 0a81 533c da6f 3c3c 5760 30be 822f 293e
000003b0: 82c0 d4bc 67ac 253e a614 3d3d bb89 df3a
000003c0: 633a cbbb 2d70 ab3d 36da 523d 460e 16be
000003d0: e769 313e 8212 493d 741f f0bc 3099 bdbd
000003e0: fef9 a53c a978 7d3d 449d e03c 75c9 b3bd
000003f0: 54f5 0e3e 97b0 543e 0a99 133e 3232 47bd

stack.2.0.bias f4 [32]
0.08931126 0.05892151 -0.034886003 0.23171702 0.11910057 0.09114614 -0.23422568 0.0757682
0.003139818 0.12849222 0.023435947 -0.17278497 0.05984266 0.08989025 0.28032398 0.03464462
0.19732058 0.04073304 0.01945087 0.011726979 -0.046967525 -0.084941655 0.19065645 0.074876584
0.09182407 0.27626032 0.24853116 0.0076408857 0.05110579 -0.03160274 4.514766e-06 0.118523985
00000000: d2e8 b63d ae57 713d a0e4 0ebd 3a47 6d3e
00000010: 00eb f33d d4aa ba3d dbd8 6fbe 5c2c 9b3d
00000020: 68c5 4d3b 7793 033e befc bf3c 8bee 30be
00000030: 941d 753d 6118 b83d a086 8f3e 84e7 0d3d
00000040: 680e 4a3e b0d7 263d 6e57 9f3c 8422 403c
00000050: 0561 40bd e4f5 adbd 723b 433e e558 993d
00000060: 420e bc3d fe71 8d3e f47e 7e3e 6560 fa3b
00000070: 4e54 513d e071 01bd 8b7d 9736 b4bc f23d

stack.3.0.weight f4 [10, 32]
-0.019852655 -0.15547517 -0.06669673 0.078446455 0.1771037 -0.096375085 -0.1843649 0.057620853
0.0315677 0.027229797 0.22644566 -0.120171905 0.20484792 0.15166849 0.10276887 0.12250112
-0.21062376 0.12911808 0.13743906 0.1471991 -0.12260628 0.16708848 0.22073793 -0.109734446
0.15131003 -0.03913597 0.061746847 0.15950036 -0.26711643 0.13171354 -0.14647374 0.13125335
0.15425976 0.03007073 -0.015026523 0.13617975 0.010254837 0.19904117 0.0005873481 0.07428538
-0.18738346 0.16728641 -0.2693498 0.07106073 -0.22586106 -0.06436999 -0.1438386 0.1375206
0.21128407 -0.13507882 0.10595001 0.046231143 -0.0833223 0.08499331 0.16915317 0.19143976
0.10437426 -0.14285924 -0.24678242 0.18015191 -0.19181043 -0.055293337 0.1116606 -0.28633013
0.24529658 0.21042347 0.15249428 0.17350993 0.11909845 0.16735819 -0.008164082 -0.10931142
0.12222944 0.12449241 -0.18907653 0.007090843 -0.15257369 -0.14106636 -0.09366198 -0.09013295
-0.26412907 -0.1365079 -0.16199479 0.14055793 -0.08402699 0.11424469 -0.1339377 0.07494776
0.0313799 0.1205203 0.11587779 -0.13679688 -0.16473421 0.064057015 -0.1559719 0.05281269
-0.23663895 -0.13829044 0.015641348 0.15322651 -0.007494417 0.19994701 0.09652454 -0.013842852
-0.060919486 -0.1709809 0.18865153 0.02974281 -0.034321032 -0.107843116 -0.27938965 -0.10577154
-0.06538957 -0.12433913 -0.071294434 0.16577862 -0.0094128195 0.05450033 0.08944203 0.18338057
-0.24555281 0.21067238 -0.13646615 0.1869959 0.013919417 0.0222768 0.12532632 0.16015217
-0.18202227 0.087873735 -0.07227145 -0.1738637 0.15386845 0.039821647 0.17414641 -0.042979963
-0.32839394 -0.11172517 -0.12658785 0.045717966 -0.14573847 -0.10644642 -0.058968168 -0.1461784
-0.27509642 0.15179726 -0.17335498 0.055734698 0.1514082 0.11740954 0.100462385 0.11809389
-0.15301155 -0.16053215 0.13078387 0.07459171 -0.004551309 -0.06980717 -0.16029716 0.012122311
-0.085409746 0.23548768 0.04148512 0.3659838 -0.35908133 0.02399909 -0.15453751 0.14488222
0.021256294 -0.20367007 -0.37052932 -0.117002375 0.19897202 0.242215 0.30551904 0.17146856
0.19555901 -0.012784056 -0.07771392 0.15260999 0.09448597 -0.094738826 0.06228569 0.032121554
0.12914962 0.024735235 0.16809 0.060320593 0.052794192 0.017638497 -0.16120262 -0.073011056
-0.03953883 -0.1407 -0.09205183 -0.023046628 0.23486166 -0.08426511 -0.20460632 0.14096421
-0.072610795 -0.1844841 0.14224362 0.21107017 0.008504006 -0.30413362 0.010159626 0.015202326
0.055653717 0.06815537 0.11408266 -0.026575591 0.163772 0.02984628 0.08340745 0.07219506
0.24770495 0.12757477 0.14678992 -0.15591319 0.0005209424 0.029068427 -0.101126485 -0.06373301
0.02391911 -0.2539552 0.03491374 -0.31215566 -0.046617948 -0.4359948 0.16771705 -0.056372758
0.05981909 0.18129767 -0.14361456 0.16676459 -0.19855049 0.06643585 0.20373361 -0.037314776
0.20259756 0.19401914 -0.17233743 0.00518784 -0.05701925 -0.076351784 0.33745983 -0.13689214
-0.28221574 -0.30237195 -0.252377 0.0037423212 -0.02433298 0.11664861 0.054215822 0.031760633
00000000: 09a2 a2bc e234 1fbe 4c98 88bd 89a8 a03d
00000010: ac5a 353e 4d60 c5bd 27ca 3cbe d803 6c3d
00000020: 224d 013d 0611 df3c 5fe1 673e b01c f6bd
00000030: a7c3 513e fc4e 1b3e 7c78 d23d dee1 fa3d
00000040: c1ad 57be 8837 043e d3bc 0c3e 5cbb 163e
00000050: 0019 fbbd 3e19 2b3e 2009 623e 74bc e0bd
00000060: 04f1 1a3e 0a4d 20bd 43ea 7c3d 1054 233e
00000070: 7cc3 88be eadf 063e 36fd 15be 4767 063e
00000080: 45f6 1d3e e456 f63c ce31 76bc b472 0b3e
00000090: e703 283c 73d1 4b3e 44f8 193a ef22 983d
000000a0: 73e1 3fbe 214d 2b3e 38e8 89be 4a88 913d
000000b0: 1f48 67be 6ad4 83bd 6d4a 13be 33d2 0c3e
000000c0: da5a 583e 1a52 0abe 52fc d83d de5c 3d3d
000000d0: e2a4 aabd f910 ae3d 7d36 2d3e c908 443e
000000e0: 2cc2 d53d b149 12be 88b4 7cbe be79 383e
000000f0: f469 44be 447b 62bd 50ae e43d dd99 92be
00000100: 072f 7b3e 4079 573e 7627 1c3e 96ac 313e
00000110: e3e9 f33d f25f 2b3e a4c2 05bc aade dfbd
00000120: 6e53 fa3d e0f5 fe3d 479d 41be 4d5a e83b
00000130: 473c 1cbe b373 10be dad1 bfbd a097 b8bd
00000140: ed3b 87be bac8 0bbe f6e1 25be 6bee 0f3e
00000150: 5816 acbd 1ff9 e93d f726 09be 367e 993d
00000160: 3688 003d 59d3 f63d 5651 ed3d 7b14 0cbe
00000170: 16b0 28be 5330 833d 19b7 1fbe 1f52 583d
00000180: 7b51 72be 029c 0dbe 4922 803c 69e7 1c3e
00000190: ba93 f5bb e9be 4c3e a8ae c53d 21cd 62bc
000001a0: b686 79bd 9e15 2fbe de2d 413e 32a7 f33c
000001b0: 3694 0cbd dadc dcbd 290c 8fbe c09e d8bd
000001c0: f8ea 85bd 84a5 febd d102 92bd dfc1 293e
000001d0: 3a38 1abc bd3b 5f3d 622d b73d 1ec8 3b3e
000001e0: 3272 7bbe 80ba 573e c8bd 0bbe da7b 3f3e
000001f0: 440e 643c d67d b63c 8b55 003e eefe 233e
00000200: 0c64 3abe 25f7 b33d 0e03 94bd 5309 32be
00000210: b18f 1d3e 061c 233d 7053 323e c20b 30bd
00000220: 4023 a8be 2ad0 e4bd 3fa0 01be c342 3b3d
00000230: 773c 15be 9500 dabd 9b88 71bd caaf 15be
00000240: 70d9 8cbe be70 1b3e f883 31be 114a 643d
00000250: c00a 1b3e 6a74 f03d 39bf cd3d 36db f13d
00000260: 0faf 1cbe 8a62 24be 35ec 053e 8ac3 983d
00000270: 2623 95bb 10f7 8ebd f024 24be a89c 463c
00000280: 4eeb aebd af23 713e 4dec 293d 3b62 bb3e
00000290: 82d9 b7be bd99 c43c 153f 1ebe 015c 143e
000002a0: ae21 ae3c e38e 50be 05b6 bdbe f19e efbd
000002b0: 52bf 4b3e 3507 783e fe6c 9c3e 7495 2f3e
000002c0: 9f40 483e 3874 51bc 7a28 9fbd cb45 1c3e
000002d0: dc81 c13d 6e06 c2bd 481f 7f3d e491 033d
000002e0: cc3f 043e 8ca1 ca3c c91f 2c3e ba12 773d
000002f0: b93e 583d 9c7e 903c 4d12 25be d286 95bd
00000300: 78f3 21bd a913 10be ab85 bcbd 48cc bcbc
00000310: 937f 703e 3093 acbd 5284 51be ec58 103e
00000320: f8b4 94bd 66e9 3cbe 50a8 113e c722 583e
00000330: 6354 0b3c 67b7 9bbe 8f74 263c 2d13 793c
00000340: 27f5 633d 0b95 8b3d 2ba4 e93d 0eb5 d9bc
00000350: d9b3 273e 3080 f43c 86d1 aa3d 01db 933d
00000360: 5ea6 7d3e f6a2 023e 1950 163e b5a7 1fbe
00000370: da8f 083a e920 ee3c 671b cfbd 7486 82bd
00000380: 02f2 c33c 6a06 82be b601 0f3d ded2 9fbe
00000390: 76f2 3ebd b63a dfbe 05be 2b3e 1fe7 66bd
000003a0: dd04 753d 19a6 393e b20f 13be 56c4 2a3e
000003b0: d250 4bbe 850f 883d 8b9f 503e 61d7 18bd
000003c0: bc75 4f3e f4ac 463e 3979 30be c2fe a93b
000003d0: 048d 69bd 535e 9cbd 89c7 ac3e 742d 0cbe
000003e0: 957e 90be 7fd0 9abe 8f37 81be bb41 753b
000003f0: f555 c7bc 77e5 ee3d 6911 5e3d 7017 023d

stack.3.0.bias f4 [10]
-0.09986958 -0.12502702 0.15544942 0.09574171 -0.13647775 0.25332516 0.099470936 0.06670127
-0.024810318 -0.10724633
00000000: 6c88 ccbd 1507 00be 222e 1f3e 3b14 c43d
00000010: d3c0 0bbe d6b3 813e 6bb7 cb3d ad9a 883d
00000020: 023f cbbc f7a3 dbbd
