src/fminst/models/teacher_5cl_0.pt (torch, 447183 bytes, 8 tensors)

stack.0.0.weight f4 [128, 784]
0	0xb98c3000	-0.00026738644
1	0x3c9cf2b5	0.0191587
2	0xbd822006	-0.06353764
3	0xbdb7a845	-0.08967642
4	0xbdad272b	-0.08454736
5	0x3d93ec16	0.07222764
6	0xbd5a4207	-0.053285625
7	0xbc590c40	-0.0132475495
8	0xbd024617	-0.031805124
9	0xbc9c7961	-0.019100847
10	0xbab71cb6	-0.0013970349
11	0xbd38dfdd	-0.045135368
12	0xbda3cf56	-0.079985306
13	0xbd816311	-0.063177235
14	0xbd67cd33	-0.056592178
15	0xbd3f1b54	-0.04665692
16	0xbd279e4b	-0.040922444
17	0x3c107466	0.008816814
18	0xbc07769b	-0.008268024
19	0xbcbc3834	-0.022976018
20	0xbc29baf0	-0.010359511
21	0xbc9e43b5	-0.019319395
22	0xbd4a8baf	-0.04944962
23	0xbd277bb3	-0.040889453
24	0xbd7256f8	-0.05916497
25	0x3d78b497	0.0607191
26	0x3d04754f	0.032338437
27	0xbd07b476	-0.033131085
28	0xbcb82f51	-0.0224835
29	0xbc7645ae	-0.015031261
30	0xbd89d283	-0.06729605
31	0xbd12399c	-0.03569947
32	0xbdce2078	-0.10064787
33	0xbda7f0d2	-0.0820023
34	0xbd9e2f2e	-0.077238426
35	0xbd9ddd9d	-0.07708285
36	0xbd5f04e3	-0.05444802
37	0xbc177be4	-0.009245846
38	0xbd007ffb	-0.03137205
39	0xbd1609ff	-0.036630627
40	0xbd60b552	-0.05486042
41	0xbd9845e2	-0.07435204
42	0xbd4bb5f9	-0.04973409
43	0xbdb63428	-0.08896667
44	0xbda71235	-0.081577696
45	0xbd912ed7	-0.07089012
46	0xbbc9f76c	-0.006163528
47	0xbbcbbd7d	-0.006217657
48	0xbd396c0c	-0.045269057
49	0xbd06512c	-0.032792255
50	0xbcfee7b3	-0.031116342
51	0xba184951	-0.0005809265
52	0x3b836396	0.0040096743
53	0xbd22b29a	-0.03972111
54	0x3c931910	0.017956287
55	0xbd8ba45b	-0.06818458
56	0x3bda1365	0.006655144
57	0xbd906b3b	-0.070517026
58	0xbd9f1218	-0.07767123
59	0xbdbec1ce	-0.09314309
60	0xbcebfda4	-0.028807469
61	0xbd16b9d6	-0.03679832
62	0xbd905bdf	-0.07048773
63	0xbd315463	-0.043293368
64	0xbd07a8f0	-0.033120096
65	0xbd71644e	-0.05893355
66	0xbd47b645	-0.04875781
67	0xbd40eaca	-0.047098912
68	0xbd10828b	-0.035280745
69	0xbcb2edaa	-0.021841843
70	0xbdabac88	-0.08382517
71	0xbd8d813b	-0.069094144
72	0xbd252189	-0.040315185
73	0xbcd35ff0	-0.025802583
74	0xbc950032	-0.01818857
75	0xbca40640	-0.020022511
76	0xbd30cd4c	-0.043164536
77	0xbd82360d	-0.063579656
78	0xbcecd971	-0.028912278
79	0xbd86d0b8	-0.06582779
80	0xbd859298	-0.06522101
81	0x3da8f69b	0.08250161
82	0xbd308789	-0.043098006
83	0xbda98993	-0.08278193
84	0x3bdb0b77	0.0066847163
85	0xbcc1d8f7	-0.023663027
86	0xbdac1398	-0.08402175
87	0xbd8e62c6	-0.06952433
88	0xbd039d3e	-0.03213238
89	0xbd9deccc	-0.07711181
90	0xbd3d37d6	-0.046195827
91	0xbd2fb840	-0.042900324
92	0xbd15c03b	-0.03656028
93	0xbd3874f4	-0.04503341
94	0xbdb558b2	-0.08854808
95	0xbd9e76db	-0.07737514
96	0xbd1fc311	-0.03900439
97	0xbd4a9e20	-0.049467206
98	0xbdaebd3e	-0.08532189
99	0xbd9ef3a8	-0.077613175
100	0xbcad6789	-0.021167533
101	0xbd0342f9	-0.032046292
102	0xbd91477f	-0.07093715
103	0xbd8c6d44	-0.06856778
104	0xbdc0bb2d	-0.09410701
105	0xbd6cb1b0	-0.057786644
106	0xbd808954	-0.06276193
107	0xbd7aedc3	-0.061261903
108	0xbd3c66d3	-0.0459965
109	0x3c8fc4d6	0.017549913
110	0xbd856bba	-0.06514688
111	0x3c791388	0.0152024105
112	0xbcb20a8a	-0.021733541
113	0x3c71d1b2	0.014759468
114	0xbd280549	-0.041020665
115	0xbd803fd7	-0.062621765
116	0xbd97d5c7	-0.07413822
117	0xbd74fcc4	-0.05981137
118	0xbd74e16c	-0.05978529
119	0xbd6c0e23	-0.05763067
120	0xbd4a8942	-0.049447306
121	0xbd626919	-0.05527601
122	0xbd8ecd1d	-0.06972716
123	0xbd17469d	-0.036932576
124	0xbdb2cc70	-0.087303996
125	0xbd99b95c	-0.075060576
126	0xbd814d29	-0.06313545
127	0xbd8f9138	-0.0701012
128	0xbd8491da	-0.064731315
129	0xbdab59b8	-0.08366722
130	0xbd81ec09	-0.06343848
131	0xbd5845ef	-0.05280107
132	0xbdb5bfbe	-0.088744625
133	0xbd8a5d9f	-0.06756138
134	0xbd086b22	-0.033305295
135	0xbd1e48f7	-0.038643803
136	0xbd29c7e4	-0.041450396
137	0xbd31a08f	-0.04336601
138	0x3d3c6f62	0.04600466
139	0xbcf77257	-0.030205889
140	0x3d0a918f	0.03383022
141	0x3b1a8a43	0.0023580946
142	0xbce59f55	-0.028030077
143	0xbd1be51f	-0.038060304
144	0xbdbf7c0a	-0.093498304
145	0xbda76950	-0.08174384
146	0xbd31095a	-0.04322181
147	0xbd89730c	-0.067113966
148	0xbda67b31	-0.08128966
149	0xbdabe325	-0.08392934
150	0xbdb23839	-0.0870213
151	0xbda9462e	-0.08265339
152	0xbd6f0d17	-0.058362093
153	0xbd0c0852	-0.034187622
154	0xbd09ab53	-0.033610653
155	0xbdaddc24	-0.08489254
156	0xbcefa8e9	-0.029255347
157	0xbda7b47b	-0.08188721
158	0xbd80a2c2	-0.062810436
159	0xbd993721	-0.07481218
160	0xbd958d32	-0.073023215
161	0xbd99147e	-0.07474612
162	0xbdc89f10	-0.09795964
163	0xbdaabbfa	-0.08336635
164	0xbd4bde74	-0.049772695
165	0xbd2c2188	-0.042024165
166	0xbd8dbfbf	-0.06921338
167	0xba8765a1	-0.001032997
168	0xbd03aa6b	-0.032144945
169	0xbda47320	-0.08029771
170	0xbcfbd6bf	-0.030742047
171	0xbda52b5b	-0.0806491
172	0xbd091aa9	-0.03347269
173	0xbd5f3ddf	-0.054502364
174	0xbdcdd97a	-0.10051246
175	0xbd35774b	-0.04430322
176	0xbd8b8652	-0.06812729
177	0xbd99478c	-0.074843496
178	0xbccbb84a	-0.02486815
179	0xbda7591b	-0.081712924
180	0xbd46319e	-0.048387162
181	0xbd7b908e	-0.061417155
182	0xbce2f560	-0.027704895
183	0xbd2a27fb	-0.041542035
184	0xbd1c778c	-0.038199946
185	0xbd304435	-0.043033797
186	0xbd851f17	-0.065000705
187	0xbd8ee478	-0.06977171
188	0xbdc495d1	-0.09598888
189	0xbd47a3d5	-0.048740227
190	0xbd2100af	-0.039307293
191	0xbd19e6b1	-0.03757352
192	0xbd9dcb61	-0.07704807
193	0xbd2d93b5	-0.042377193
194	0xbdaf78c6	-0.085679576
195	0xbca10e53	-0.01966015
196	0x3c4f6c56	0.012660107
197	0x3d79d90a	0.060998
198	0xbd453b20	-0.04815209
199	0xbd5c3117	-0.053757753
200	0xbd83cdc8	-0.06435734
201	0xbd3875b7	-0.045034137
202	0xbdc28d25	-0.094995774
203	0xbdbb6138	-0.091494024
204	0xbdaf898b	-0.08571156
205	0xbd12b6e1	-0.03581894
206	0xbd896252	-0.06708206
207	0xbcbf0dc1	-0.023321988
208	0xbd242303	-0.040072452
209	0xbd415d82	-0.047208317
210	0xbd5e175b	-0.054221492
211	0xbd679da8	-0.056546837
212	0xbd483cdb	-0.04888616
213	0xbd7eee7f	-0.062239166
214	0xbd698d26	-0.057019375
215	0xbd726903	-0.05918218
216	0xbdc67ac7	-0.09691387
217	0xbdb1ac84	-0.08675483
218	0xbd217698	-0.03941974
219	0xbdc1820d	-0.09448633
220	0xbd5c29e1	-0.053750876
221	0x3bbd7def	0.0057828347
222	0xbcbae981	-0.022816421
223	0xbd56927a	-0.052385785
224	0xbcfd8b9a	-0.030950356
225	0x3d9ebb43	0.07750561
226	0xbd612947	-0.054971006
227	0xbd8e1441	-0.06937457
228	0xbda1ef29	-0.07906944
229	0xbd95dea6	-0.073178574
230	0xbd890f43	-0.06692364
231	0xbd174a4b	-0.036936086
232	0xbd7b072f	-0.061286148
233	0xbce95b5b	-0.028485944
234	0xbd05a802	-0.032630928
235	0xbd9bc1b6	-0.07605307
236	0xbd115806	-0.035484336
237	0xbd9d1f5e	-0.076719984
238	0xbd8fe3ec	-0.070258945
239	0xbd180c5c	-0.03712116
240	0xbd2555f9	-0.040365193
241	0xbccf64c2	-0.0253166
242	0xbd8a58ca	-0.067552164
243	0xbd82c5f3	-0.06385412
244	0xbd4e221b	-0.050325494
245	0xbdd198c1	-0.102342136
246	0xbd2a07af	-0.041511234
247	0xbdc4fb4f	-0.09618246
248	0xbd51305b	-0.051071506
249	0xbd4f4139	-0.05059931
250	0xbd44376a	-0.04790441
251	0xbd0228f2	-0.03177733
252	0x3d8546a8	0.06507617
253	0x3d0048b3	0.03131933
254	0xbd555b2c	-0.0520889
255	0xbd9adbe8	-0.07561475

stack.0.0.bias f4 [128]
0	0xbdb2d08a	-0.08731182
1	0x3f233f14	0.63768125
2	0xbd638b6d	-0.05555289
3	0xbda6164e	-0.08109723
4	0x3f8e590d	1.1120926
5	0xbd40cf54	-0.047072724
6	0xbcc65376	-0.02420972
7	0xbd0666a7	-0.03281274
8	0xbdfa4913	-0.12220969
9	0x3f6de852	0.9293262
10	0x3f8ef028	1.116704
11	0x3ea64f02	0.32482153
12	0x3f03ce09	0.5148626
13	0xbe0f5d0f	-0.14000343
14	0xbd60792a	-0.05480305
15	0xbdae0e06	-0.084987685
16	0xbdbf5602	-0.093425766
17	0xbf08bf1b	-0.53416604
18	0xbd9441e4	-0.0723913
19	0xbd5c74a4	-0.053822175
20	0xbe675912	-0.22592571
21	0xbda1ed98	-0.079066455
22	0xbd856d9d	-0.06515048
23	0xbdc73a6e	-0.097279415
24	0xbce27231	-0.027642341
25	0x3f0fb575	0.56136256
26	0xbd6a4b7c	-0.057200894
27	0xbe8e4aed	-0.2779154
28	0xbd0d9519	-0.03456602
29	0x3fb25dec	1.3934913
30	0xbda4e10f	-0.08050739
31	0xbd64fad1	-0.05590326
32	0xbd1ce1e1	-0.038301352
33	0x3fe1c071	1.7636853
34	0xbd68fcb9	-0.05688164
35	0xbc872f0e	-0.01650193
36	0xbda19415	-0.078895725
37	0x3f5e93dd	0.8694437
38	0xbc7ec1f8	-0.015549175
39	0xbcf0c0f8	-0.02938889
40	0xbd9227d1	-0.071365006
41	0xbd171479	-0.03688476
42	0xbd85c42f	-0.0653156
43	0xbd9c849e	-0.07642482
44	0xbd8baa62	-0.06819607
45	0x3f398e23	0.7248251
46	0x3e46dd6f	0.19420408
47	0xbdacd7ae	-0.08439575
48	0xbd9a2bca	-0.07527883
49	0xbccf0123	-0.025269097
50	0xbd3eb9c6	-0.046563886
51	0xbd91d1e4	-0.071201116
52	0xbd98e32a	-0.07465203
53	0x3f956d24	1.1673932
54	0x3f662255	0.89896137
55	0x3dbceb8e	0.09224616
56	0xbd831fad	-0.06402526
57	0xbfd214bb	-1.6412576
58	0xbd9a9149	-0.07547242
59	0x3fac91e1	1.3482019
60	0xbd184452	-0.03717453
61	0xbdc37109	-0.09543044
62	0xbf60cc9a	-0.878122
63	0xbcc80993	-0.024418628
64	0xbf91e092	-1.1396658
65	0xbd1de85e	-0.03855168
66	0x3f9c517b	1.2212366
67	0x3dd0e2d0	0.10199511
68	0xbf9fd8ae	-1.2488
69	0x3f660dda	0.89864886
70	0xbd708238	-0.058717936
71	0xbd9458c4	-0.07243493
72	0xbc676555	-0.0141232805
73	0xbd42eaa3	-0.04758705
74	0x3b3adb71	0.0028512145
75	0xbd960797	-0.073256664
76	0xbd299d38	-0.0414097
77	0x3f76ba1b	0.96377724
78	0x3f0c5867	0.5482239
79	0xbd5f5475	-0.054523904
80	0xbc471ed8	-0.01215335
81	0xbdb32b73	-0.08748522
82	0xbd5b5d92	-0.053556032
83	0xbd0be395	-0.034152586
84	0xbd182d7a	-0.037152745
85	0xbdaf869c	-0.085705966
86	0xbdc9967b	-0.09843155
87	0x3f84c225	1.0371748
88	0xbe1a2e7d	-0.15056796
89	0xbd6bcce2	-0.05756844
90	0x3eb7d986	0.35908145
91	0xbd6f72bf	-0.05845904
92	0xbd8e7b86	-0.06957154
93	0x3f38dc4d	0.7221115
94	0xbd76fe07	-0.060300853
95	0xbd83a11f	-0.06427216
96	0xbda5d2d8	-0.08096856
97	0xbd387e04	-0.045042053
98	0xbd9e0155	-0.07715098
99	0xbd88bf55	-0.06677119
100	0xbe495713	-0.19662122
101	0xbcb895e3	-0.022532409
102	0xbd682adf	-0.05668151
103	0xbd49d1b4	-0.049272254
104	0xbe77d07b	-0.24200623
105	0x3f3aa5aa	0.72909033
106	0x3ef3bfc6	0.4760725
107	0xbd6f8f2c	-0.05848615
108	0xbd0760a8	-0.033051163
109	0xbd3249d4	-0.04352744
110	0xbdbdea7b	-0.09273239
111	0xbd068f8b	-0.032851737
112	0xbd95fd0d	-0.07323656
113	0xbc708e49	-0.014682361
114	0xbd16becf	-0.036803063
115	0x3f1c08bb	0.6095082
116	0xbda01a6b	-0.07817539
117	0xbda509ab	-0.08058485
118	0xbfb37c91	-1.402239
119	0xbd57ee2f	-0.052717384
120	0xbd618259	-0.05505595
121	0xbd9ffa17	-0.07811373
122	0xbd865a14	-0.0656015
123	0xbd11d029	-0.035598908
124	0xbd686926	-0.056740902
125	0xbc7a98bc	-0.015295204
126	0xbd51e684	-0.051245227
127	0xbcd948c5	-0.026523957

stack.1.0.weight f4 [64, 128]
0	0xbd36b891	-0.04460961
1	0xbd847772	-0.06468095
2	0x3c38bd77	0.011275641
3	0x3de48877	0.11158841
4	0x3cf5d754	0.030009903
5	0xbdccb74f	-0.09995901
6	0x3d4616c3	0.04836155
7	0x3ca3e814	0.020008124
8	0x3e13a9d4	0.14420253
9	0xbf043d31	-0.5165587
10	0xbe661e54	-0.22472507
11	0xbf142695	-0.5787137
12	0x3da626c8	0.08112866
13	0xbd7f4658	-0.062322944
14	0x3c9e3cdd	0.019316131
15	0x3dd253d4	0.10269895
16	0x3e0e999a	0.13925782
17	0x3eddb7e7	0.4330437
18	0xbd8e9380	-0.06961727
19	0x3ce783f0	0.028261155
20	0xbd2cbc89	-0.04217199
21	0xbd922327	-0.07135611
22	0x3dea6419	0.11444873
23	0xbe075770	-0.13216949
24	0x3de559ea	0.1119879
25	0xbce6cc76	-0.028173666
26	0x3dcf1f8f	0.10113441
27	0xbcc72446	-0.024309289
28	0x3d758e33	0.059950065
29	0xbea16ae8	-0.31526875
30	0x3ce3c529	0.027803974
31	0x3d467265	0.04844894
32	0x3da04b02	0.078268066
33	0x3ee68314	0.4502188
34	0x3cb6d178	0.02231668
35	0x3de49c48	0.11162621
36	0xbdcdd55c	-0.10050461
37	0xbec0b74e	-0.3763985
38	0xbe420268	-0.1894623
39	0xbd03d538	-0.032185763
40	0x3d96bab5	0.0735983
41	0x3dcf0adf	0.10109495
42	0x3da5f00f	0.08102428
43	0xbdf88c71	-0.12136162
44	0x3d7eef10	0.062239707
45	0x3ee4c304	0.44680035
46	0xbe7e4a22	-0.24832967
47	0x3c5cf120	0.013485223
48	0x3b9036b2	0.0044010514
49	0x3dbf9693	0.09354892
50	0x3d819a9b	0.06328317
51	0x3d8930d0	0.06698763
52	0x3d05bd60	0.032651305
53	0x3dc9ce39	0.09853787
54	0xbe62d417	-0.22151218
55	0xbc187dae	-0.009307308
56	0x3c9ff26f	0.019524781
57	0x3e0aeb68	0.13566363
58	0x3dd84c94	0.10561481
59	0x3ee8ef2e	0.4549498
60	0x3e0aa07e	0.13537785
61	0x3ce2ee22	0.027701441
62	0xbcb00086	-0.021484625
63	0xbc8574f0	-0.016291112
64	0x3ecf8271	0.40529206
65	0x3df2da82	0.11858083
66	0xbe082dbb	-0.13298695
67	0x3d370bb6	0.044688903
68	0xbe6a1316	-0.22858843
69	0xbdf9ea5b	-0.12202903
70	0x3d900331	0.07031859
71	0x3de2b19b	0.11069032
72	0x3dde949d	0.108681895
73	0x3dfc957e	0.12333201
74	0x3b6660d4	0.003515293
75	0x3dbaedc0	0.091273785
76	0x3de7a1ee	0.113101825
77	0x3e49ae1c	0.19695324
78	0x3c82384e	0.015895989
79	0x3ab2b90c	0.001363547
80	0xbdba5f7b	-0.09100243
81	0x3de0d977	0.10978978
82	0xbd3100d2	-0.043213673
83	0xbd1ee2d8	-0.038790554
84	0x3c586b76	0.013209214
85	0x3d69b1b8	0.05705425
86	0x3dd2a2a4	0.102849275
87	0xbdbc319d	-0.091891505
88	0x3d9456c7	0.07243114
89	0x3c544205	0.012955193
90	0x3efcf5cf	0.49406287
91	0x3df01aa2	0.1172383
92	0xbc03c7ca	-0.008043239
93	0xbe121bf0	-0.1426847
94	0x3c9b3966	0.018948268
95	0xbbdb464d	-0.00669173
96	0x3d5957a1	0.053062085
97	0x3de17f14	0.11010566
98	0x3c4a2420	0.012337714
99	0xbc9331f8	-0.017968163
100	0xbee0397e	-0.43793863
101	0xbd5ec5bc	-0.054387793
102	0x3c65b253	0.014019567
103	0xbe016769	-0.12637104
104	0x3ef4fc59	0.47848776
105	0xbd21b34f	-0.039477643
106	0x3e4e799a	0.20163575
107	0x3df2306d	0.11825643
108	0x3c84f10f	0.016228227
109	0x3e164387	0.14674197
110	0x3dbca3fe	0.092109665
111	0x3dd82e46	0.10555701
112	0x3df3675a	0.11884947
113	0xbc26273e	-0.010141192
114	0xbd19a56e	-0.03751128
115	0xbe0c10ef	-0.13678335
116	0x3dd22ec6	0.102628276
117	0x3c76c9d5	0.015062769
118	0xbdd243c8	-0.102668345
119	0x3d0ef5cb	0.034902375
120	0xbc901c67	-0.017591668
121	0x3db6978f	0.08915626
122	0xbcd1275c	-0.025531463
123	0xbcc4877f	-0.02399039
124	0x3df4edc9	0.119594164
125	0xbd2821a0	-0.041047692
126	0xbd3b2b29	-0.045695458
127	0xbb931d10	-0.0044895485
128	0x3ddee151	0.108828194
129	0x3c9c9a41	0.019116523
130	0x3e07fbce	0.1327965
131	0x3d9fffb1	0.07812441
132	0xbe80b8e1	-0.2514105
133	0x3da6482a	0.08119233
134	0x3dcab302	0.09897424
135	0x3c0a2e07	0.008433825
136	0xbe09ff49	-0.1347629
137	0xbeeea87e	-0.46612924
138	0x3e42206b	0.18957679
139	0xbf940f1c	-1.1567111
140	0xbf1e83ba	-0.6191975
141	0x3e019364	0.12653881
142	0xbbff61fb	-0.0077936626
143	0xbe036649	-0.12831987
144	0xbdca0bef	-0.098655574
145	0xbe8e40f1	-0.2778392
146	0xbd8bfc99	-0.068352886
147	0x3dbc9399	0.092078395
148	0x3bae7924	0.0053244997
149	0x3e046257	0.12928139
150	0xbd526ac9	-0.05137137
151	0x3d2062fe	0.039156906
152	0xbb1b843b	-0.0023729939
153	0xbf305852	-0.68884766
154	0xbdf5ad0d	-0.119958974
155	0xbdca5dc5	-0.09881166
156	0xbdd4a949	-0.10383851
157	0x3e404132	0.1877487
158	0xbe147067	-0.14496003
159	0x3e040055	0.12890752
160	0xbe0f092b	-0.13968341
161	0xbddfe19b	-0.10931703
162	0xbd9580cf	-0.07299959
163	0xbbf68462	-0.0075231055
164	0x3c54ec9d	0.012995866
165	0xbe693f63	-0.22778086
166	0xbe498d76	-0.1968287
167	0xbc8f771e	-0.017512854
168	0xbdb23113	-0.087007664
169	0xbde850ac	-0.11343512
170	0xbe05bcb7	-0.1306027
171	0x3ca8a7f7	0.020587904
172	0x3c80c882	0.01572061
173	0xbeac99c0	-0.33711052
174	0xbd5917ca	-0.053001203
175	0x3d0b18ab	0.033959072
176	0x3d82a49f	0.06379055
177	0xbdbc315c	-0.09189102
178	0xbd386381	-0.04501677
179	0x3c9d7f4b	0.019225737
180	0xbd22fa7c	-0.03978966
181	0xbed214c0	-0.41031456
182	0xbf02ff7d	-0.51171094
183	0x3e14bd47	0.14525329
184	0xbed9577e	-0.42449564
185	0x3dce47f3	0.10072317
186	0xbd84defa	-0.06487842
187	0xbea1a2b4	-0.31569445
188	0xbe117843	-0.14206032
189	0xbc42056a	-0.011842111
190	0xbdd7d846	-0.10539298
191	0x3b9aef6f	0.0047282497
192	0xbf33b35c	-0.70195556
193	0xbb078273	-0.002067712
194	0xbe131372	-0.14362887
195	0x3f1803df	0.59380907
196	0xbf37aa07	-0.71743816
197	0xbe4533de	-0.19258067
198	0xbd417e3b	-0.047239523
199	0xbe0f0687	-0.13967334
200	0x3c7a5f00	0.015281439
201	0x3dbf9616	0.093547985
202	0xbd8e7e2a	-0.06957658
203	0xbda86246	-0.08221869
204	0xbcfc21bb	-0.030777803
205	0xbeea5fcc	-0.45776212
206	0xbcb44d9f	-0.022009669
207	0xbd66f6ce	-0.056387715
208	0xbe0ab7ff	-0.13546751
209	0x3cf67e07	0.030089391
210	0x3dec7ed1	0.11547626
211	0xbc7f1f6b	-0.0155714555
212	0xbcf98682	-0.030459646
213	0x3be3582c	0.006938001
214	0x3e04482c	0.12918156
215	0xbe2cd181	-0.16876794
216	0x3bd91021	0.006624237
217	0xbd1ac52f	-0.037785705
218	0x3d7918a8	0.06081453
219	0xbe0b1bc3	-0.13584809
220	0xbbf14244	-0.007362636
221	0xbe91b96b	-0.28461775
222	0xbd12b175	-0.035813767
223	0xbdb385ee	-0.087657794
224	0xbf2a4b76	-0.66521394
225	0xbe032249	-0.12806047
226	0x3bd994a5	0.0066400343
227	0xbc89a86c	-0.016803943
228	0xbf1855f3	-0.5950615
229	0x3dbb1fe7	0.09136944
230	0xbdcc047f	-0.09961795
231	0xbcbf7f81	-0.023376228
232	0x3e09f2e1	0.13471557
233	0x3d0b2145	0.033967275
234	0xbf136866	-0.57581174
235	0xbdd9db27	-0.10637503
236	0x3c8569d3	0.016285812
237	0x3cc5b48e	0.024133947
238	0xbd20baf7	-0.039240804
239	0xbd00fa82	-0.031488903
240	0x3e16a621	0.1471181
241	0xbdea2c6e	-0.114342555
242	0xbdb4a432	-0.0882038
243	0xbe9b4c1d	-0.30331507
244	0xbd07f6d8	-0.033194393
245	0xbc5f3094	-0.013622422
246	0xbe2bf008	-0.16790783
247	0xbdae41ea	-0.08508666
248	0x3ce81ca5	0.028333971
249	0xbde87c48	-0.1135183
250	0x3c7b8792	0.015352147
251	0x3db871b2	0.09006061
252	0xbe047e9a	-0.1293892
253	0x3c7b3346	0.015332049
254	0x3d5dc896	0.05414637
255	0x3aa7e893	0.0012810401

stack.1.0.bias f4 [64]
0	0x3f618911	0.8809977
1	0xbf0c0760	-0.54698753
2	0xbdb63dc2	-0.08898498
3	0x3e118431	0.14210583
4	0xbda86cc6	-0.08223872
5	0xbf1872b5	-0.5955003
6	0x3ff0fc12	1.8826926
7	0x3e2a1b22	0.16611913
8	0xbe5cfdba	-0.21581164
9	0x3f91f5ec	1.1403174
10	0x3f55f1bf	0.83572
11	0xbf028bc0	-0.5099449
12	0x3f205c5c	0.6264093
13	0xbd84c467	-0.06482773
14	0x3f9a3d5e	1.2049978
15	0x3f5cf533	0.86311644
16	0xbdc45832	-0.095871344
17	0x3f01bf73	0.50682753
18	0xbe96bd05	-0.29441085
19	0xbeb7b2d1	-0.35878614
20	0x3f9482da	1.1602433
21	0x3f8ee2e2	1.1162989
22	0xbe20fafc	-0.15720743
23	0x3f2d6957	0.6773886
24	0xbe525bc5	-0.2054282
25	0x3e845d87	0.25852606
26	0xbda5fffb	-0.08105465
27	0xbcddb5da	-0.027064253
28	0x3f3a858c	0.72860026
29	0xbcfe5aed	-0.031049216
30	0xbf0186d4	-0.50596356
31	0xbb558ab2	-0.003258389
32	0xbec34619	-0.38139418
33	0xbe18c20f	-0.14917777
34	0x3f97e6b6	1.1867282
35	0x3fb3fc30	1.4061337
36	0xbe6c5df4	-0.23082715
37	0xbe82bb6b	-0.25533614
38	0x3e7b60a8	0.2454859
39	0x3f41e717	0.7574324
40	0x3f64abf1	0.8932486
41	0xbe4179c3	-0.18894105
42	0x3b9940e2	0.004676924
43	0x3fcdf33a	1.6089852
44	0xbe88ac08	-0.2669375
45	0xbd9db771	-0.07701004
46	0x3ebdc741	0.3706608
47	0xbe48cffb	-0.19610588
48	0xbf06b9ef	-0.5262746
49	0xbea9ff55	-0.33202615
50	0x3cbc0365	0.022950837
51	0x3f4f45f2	0.80966103
52	0x3f97e94d	1.1868073
53	0xbd38e913	-0.045144152
54	0xbeb9adc7	-0.36265394
55	0x3f5550b6	0.8332628
56	0xbd927673	-0.07151499
57	0x3e130967	0.14359055
58	0xbd18e72f	-0.03732985
59	0xbedead12	-0.43491417
60	0x3e0aa219	0.13538398
61	0x3fc81a4d	1.5633026
62	0xbe9655f2	-0.29362446
63	0x3fbfb00d	1.4975601

stack.2.0.weight f4 [32, 64]
0	0xbe7e4db0	-0.24834323
1	0xbe7cd874	-0.24691945
2	0xbe3001f4	-0.17188245
3	0xbe0fa706	-0.14028558
4	0x3c263172	0.010143625
5	0x3eadcdf0	0.3394618
6	0x3eaf3c17	0.34225532
7	0x3f459f35	0.77196056
8	0x3d5d82a2	0.05407966
9	0x3ed08d40	0.40732765
10	0x3ae5359e	0.0017487293
11	0xbe009c41	-0.12559606
12	0x3cedadf3	0.02901361
13	0x3d813225	0.063083924
14	0x3cf00e20	0.02930361
15	0xbe5f7ee7	-0.21825753
16	0x3d7b678b	0.061378043
17	0xbe3e1fe9	-0.1856686
18	0x3d70da77	0.058802094
19	0xbd8b5480	-0.068032265
20	0xbf19b39e	-0.600397
21	0x3d144018	0.036193937
22	0xbd8d6f68	-0.06906015
23	0xbef2cbf4	-0.4742123
24	0xbe07c9c8	-0.13260567
25	0xbe9cfc5d	-0.30661288
26	0xbdeecceb	-0.11660179
27	0xbd146d6d	-0.03623717
28	0xbe901ba1	-0.2814608
29	0xbd773957	-0.060357418
30	0xbf07cff3	-0.5305168
31	0xbe45416b	-0.19263236
32	0x3e216960	0.15762854
33	0x3b41562c	0.0029500825
34	0x3dd25863	0.10270765
35	0xbf2891d1	-0.658475
36	0xbd83a95d	-0.06428788
37	0xbccca66d	-0.024981702
38	0xbdcf0791	-0.10108865
39	0xbedd052a	-0.43168002
40	0x3e079c09	0.13243116
41	0x3cbe2298	0.023209855
42	0x3ed43056	0.41443127
43	0xbf0ec43e	-0.5576819
44	0x3d872df3	0.06600561
45	0x3daf8794	0.08570781
46	0x3f05c7ec	0.5225818
47	0x3e7c3e95	0.24633248
48	0x3cd84e74	0.026404597
49	0x3db0efc2	0.0863948
50	0xbe066895	-0.13125832
51	0xbbf8c577	-0.007591899
52	0x3e10217a	0.1407527
53	0x3ddfe757	0.109327964
54	0xbc878280	-0.01654172
55	0x3e8e59c9	0.27802876
56	0xbe18ad88	-0.14909947
57	0xbe87e3ba	-0.2654093
58	0xbf07c7b7	-0.53039116
59	0x3dde2045	0.10845999
60	0xbcf7ecd1	-0.03026429
61	0x3d2ba5b8	0.04190609
62	0x3d79ed9a	0.06101761
63	0x3e34f35f	0.17670964
64	0xbcf67a05	-0.03008748
65	0xbdd0709c	-0.101777285
66	0x3ddd857c	0.10816476
67	0xbdf9ceda	-0.12197657
68	0x3d275fa8	0.04086271
69	0xbdd246b0	-0.10267389
70	0xbe4a08c3	-0.19729905
71	0x3d08bfaa	0.03338591
72	0xbbe3ddc0	-0.006953925
73	0x3d7f9cf4	0.06240554
74	0xbcd32ef9	-0.025779234
75	0x3cc04760	0.023471534
76	0x3d44a2af	0.04800671
77	0xbd391290	-0.04518372
78	0xbe47022f	-0.19434427
79	0xbe244700	-0.1604271
80	0xbdc23f4c	-0.09484729
81	0xbe0ef6bb	-0.13961308
82	0x3dd922fc	0.10602376
83	0x3c328060	0.010894865
84	0xbd9f8a8d	-0.07790098
85	0xbddf6e19	-0.10909671
86	0xbc935877	-0.01798652
87	0xbe1db337	-0.15400396
88	0xbde3a5b8	-0.11115593
89	0xbce32cac	-0.027731262
90	0xbde756da	-0.112958625
91	0x3ace0c80	0.0015720278
92	0xbd6228d1	-0.055214707
93	0xbda2f2ed	-0.07956491
94	0x3b2a8faa	0.0026025572
95	0x3a0a3400	0.0005272031
96	0x3c9d6c70	0.019216746
97	0xbc9abe77	-0.018889649
98	0x3cb4e00f	0.022079496
99	0xbe31a3a4	-0.1734758
100	0xbdee6620	-0.116405725
101	0xbda3b844	-0.0799413
102	0x3d0120ec	0.031525537
103	0xbdb43479	-0.08799071
104	0xbe13249e	-0.14369437
105	0x3d503f2d	0.0508415
106	0x3d3027f9	0.04300687
107	0xbdf25e82	-0.11834432
108	0x3ddcc5de	0.10779928
109	0x3c9f8cb0	0.019476265
110	0xbc09b639	-0.008405262
111	0xbdcef542	-0.10105373
112	0x3b9e83da	0.0048374953
113	0xbc6ba560	-0.01438269
114	0x3deb799a	0.11497803
115	0x3d8aee8e	0.06783782
116	0xbdf7be8a	-0.12096889
117	0xbda58a51	-0.080830224
118	0xbc1e3650	-0.009656504
119	0xbd6fd2fb	-0.058550816
120	0xbcd10655	-0.025515715
121	0xbe2327d9	-0.1593317
122	0xbe3fee50	-0.18743253
123	0x3cfdec70	0.030996531
124	0xbc8fb4c8	-0.017542258
125	0xbe51a512	-0.20473126
126	0xbd069114	-0.0328532
127	0x3d4efa8c	0.05053191
128	0xbe3614ab	-0.17781322
129	0x3e70ad4f	0.23503612
130	0x3e1a4a57	0.15067421
131	0xbcdddbc4	-0.027082331
132	0xbd29645b	-0.041355472
133	0xbeeba3c5	-0.46023384
134	0x3cddac9b	0.027059844
135	0x3ea43108	0.32068658
136	0xbee30ef5	-0.4434735
137	0x3ea390ef	0.31946513
138	0xbd5971b9	-0.05308697
139	0xbdf0473e	-0.11732338
140	0xbcab31bd	-0.02089774
141	0x3c76115b	0.015018786
142	0xbdb24ce2	-0.087060705
143	0xbe145f2b	-0.14489429
144	0x3d6a7fe2	0.057250865
145	0x3eb4a4b9	0.35281923
146	0x3d333012	0.043747015
147	0x3d8a4e1d	0.0675318
148	0xbdb769b9	-0.08955712
149	0x3e8449bd	0.25837508
150	0xbc8cc728	-0.017184809
151	0xbde88975	-0.11354343
152	0xbd8e9d75	-0.06963626
153	0xbe02b158	-0.12762964
154	0x3cc83a63	0.024441903
155	0x3f16506e	0.58716476
156	0xbddf2a7c	-0.10896775
157	0x3d7c1b5e	0.061549537
158	0x3d0310d3	0.031998467
159	0x3cf8139a	0.030282784
160	0x3db9c624	0.090709955
161	0x3db72756	0.089430496
162	0xbd85b5c6	-0.06528811
163	0x3d024cb8	0.031811446
164	0xbdc661b4	-0.09686604
165	0x3cbe36f2	0.02321956
166	0x3df34bf6	0.11879723
167	0xbe39e1d5	-0.18152554
168	0xbe5ec34a	-0.21754184
169	0x3df40e59	0.11916799
170	0x3ed63424	0.41836655
171	0x3d3b551c	0.045735464
172	0xbd9e69ed	-0.077350475
173	0x3d9e3fc3	0.07727005
174	0xbd6eb12b	-0.05827443
175	0x3eb9cda6	0.3628971
176	0x3e84f2b0	0.25966406
177	0x3e84b177	0.25916645
178	0xbde2aad2	-0.11067738
179	0xbe5c2bb7	-0.21501051
180	0x3e0485f3	0.12941723
181	0x3d14d0c0	0.036331892
182	0xbd02a496	-0.031895243
183	0xbdb65936	-0.089037344
184	0x3e9f68b5	0.31134573
185	0xbe48e33e	-0.19617936
186	0x3eba05c7	0.36332533
187	0xbee6e069	-0.45093086
188	0xbe77d16f	-0.24200986
189	0x3ce0d807	0.02744676
190	0xbdb9b4e4	-0.09067705
191	0x3c843d5b	0.016142538
192	0xbd3d3c4d	-0.046200085
193	0x3e66e1de	0.22547099
194	0x3d63d6d2	0.05562479
195	0xbe16afc8	-0.14715493
196	0x3d9290f9	0.071565576
197	0x3da98f1c	0.08279249
198	0x3e0d5859	0.13803233
199	0xbe588bd5	-0.21147092
200	0xbf0a7e04	-0.54098535
201	0x3f27168e	0.6526879
202	0x3c9e30b2	0.01931033
203	0xbe0a1baf	-0.13487123
204	0x3dd44d9d	0.10366366
205	0x3e30973e	0.17245194
206	0xbd91f5ca	-0.07126959
207	0x3e75c848	0.24002182
208	0x3de1f4f0	0.11033046
209	0x3e034eb4	0.12822992
210	0x3ea476d7	0.32121918
211	0xbdbb8e64	-0.09158018
212	0xbea8f17c	-0.32996738
213	0x3eff3659	0.4984615
214	0x3edd5cbe	0.4323482
215	0x3e19b6a8	0.15011084
216	0x3e252e08	0.16130841
217	0xbddf126e	-0.10892187
218	0x3902f957	0.00012490652
219	0x3e2ff16c	0.17181939
220	0xbe0416d8	-0.12899339
221	0x3c172dd6	0.009227237
222	0xbeaa4ed2	-0.3326326
223	0x3c976f9c	0.018485837
224	0x3ef8a2b9	0.48561648
225	0x3e7350aa	0.2376124
226	0x3e77a545	0.24184139
227	0x3e632746	0.2218295
228	0x3e984520	0.29740238
229	0xbd5b12b8	-0.05348465
230	0xbd22f232	-0.039781757
231	0xbe5f1f6e	-0.21789333
232	0xbe8cf897	-0.2753341
233	0xbb1f7eeb	-0.0024337124
234	0x3ede0eb3	0.4337059
235	0xbe024142	-0.12720206
236	0x3e048179	0.12940015
237	0xbcb7ceb8	-0.022437438
238	0x3cf84c0d	0.030309701
239	0xbea68964	-0.32526696
240	0x3cd4e31f	0.025987206
241	0xbdca8e93	-0.09890475
242	0x3e1d3687	0.15352832
243	0xbce32eb3	-0.027732229
244	0x3ec3b4ec	0.3822397
245	0xbe30a530	-0.17250514
246	0xbe041f35	-0.1290253
247	0x3eadd7f0	0.3395381
248	0xbe60902d	-0.21929999
249	0x3db8bb9d	0.090201594
250	0xbf00f1c3	-0.503689
251	0xbcd914e8	-0.026499227
252	0x3e2fc108	0.1716348
253	0x3da2863d	0.0793576
254	0x3e8d5439	0.2760332
255	0x3edb3965	0.42817226

stack.2.0.bias f4 [32]
0	0x3f707530	0.93928814
1	0xbe26b082	-0.1627827
2	0x3e891099	0.26770476
3	0x3f14c2d9	0.58109814
4	0x3f498364	0.7871611
5	0xbe6a6368	-0.22889483
6	0xbd7057d1	-0.0586775
7	0xbeab22c9	-0.33424976
8	0xbf2f8e53	-0.68576545
9	0x3f81c0b8	1.0136938
10	0x3ecaf47d	0.39639655
11	0xbe79621b	-0.2435383
12	0xbe566abd	-0.20939155
13	0x3f740380	0.9531784
14	0xbbf6427e	-0.0075152507
15	0x3f171e6d	0.590308
16	0x3f97980d	1.1843277
17	0xbe068238	-0.13135612
18	0xbc3cdbb8	-0.011526994
19	0xbc82af07	-0.0159526
20	0x3eeb0562	0.45902544
21	0x3ed68d82	0.41904837
22	0xbeebfc14	-0.46090758
23	0x40196c01	2.397217
24	0x3cdb6a1e	0.026783999
25	0xbd8985e4	-0.06714991
26	0x3f7ac857	0.97961944
27	0x3f850482	1.0392001
28	0xbe960b6b	-0.29305586
29	0x3f5f6fc1	0.872799
30	0x3d075c59	0.033047054
31	0x3f801b66	1.0008361

stack.3.0.weight f4 [10, 32]
0	0xbe3f0a38	-0.18656242
1	0xbd2734e4	-0.040821925
2	0x3e4aa998	0.19791257
3	0x3e88cd8a	0.26719314
4	0xbe0c3d88	-0.13695347
5	0x3e097a1f	0.13425492
6	0xbd04c3a4	-0.03241314
7	0xbd4790c2	-0.048722036
8	0xbe99b353	-0.30019626
9	0xbed9ab5e	-0.42513555
10	0xbe9a134d	-0.3009285
11	0x3dff5039	0.12466473
12	0xbc900cf6	-0.017584305
13	0x3e4c7028	0.19964659
14	0xbe1312b7	-0.14362608
15	0x3eb9f5a8	0.36320233
16	0x3e54612c	0.20740193
17	0x3e85ab43	0.26107225
18	0xbe1ebff9	-0.1550292
19	0x3da12f33	0.07870331
20	0x3e8de82c	0.27716196
21	0x3e5efca9	0.2177607
22	0x3e5bc943	0.21463494
23	0x3e8b47bf	0.27203175
24	0x3ba281c0	0.004959315
25	0xbe6b588c	-0.22982997
26	0xbd49a854	-0.049232796
27	0x3e8f4637	0.27983257
28	0x3dd98817	0.1062166
29	0x3b386f3d	0.0028142475
30	0xbd4d5273	-0.050127458
31	0x3e7193fc	0.23591608
32	0xbeaee178	-0.34156394
33	0xbba5cea2	-0.005060033
34	0x3e89ca1b	0.26912007
35	0xbf0969c9	-0.5367704
36	0x3ca68dff	0.02033138
37	0xbde96c6d	-0.11397634
38	0xbe90f819	-0.28314283
39	0x3d9b4d96	0.07583158
40	0xbe8ba35d	-0.27273074
41	0x3ea9aff6	0.3314206
42	0x3d4a365e	0.049368255
43	0xbdaa555c	-0.08317062
44	0x3e10de92	0.14147404
45	0xbf0bfa9e	-0.54679286
46	0xbe2391c6	-0.15973577
47	0xbe72aa10	-0.23697686
48	0x3ebf1406	0.37319964
49	0xbdbb407b	-0.09143158
50	0xbe17a461	-0.148088
51	0xbdae9e5c	-0.085262984
52	0x3ee5a980	0.4485588
53	0x3edba53d	0.42899504
54	0x3d85a3f6	0.06525414
55	0x3e71c291	0.23609377
56	0xbdd91b40	-0.10600901
57	0x3e2d7370	0.16938567
58	0x3ebb812f	0.36621997
59	0xbd89e712	-0.06733526
60	0x3d7668ff	0.060158726
61	0x3f031a32	0.51211846
62	0xbdc0e952	-0.09419502
63	0x3e9a1a26	0.30098075
64	0x3e400ca2	0.18754819
65	0xbd56c3d3	-0.052432846
66	0x3d9970e8	0.07492238
67	0x3e8f117e	0.27943033
68	0xbd4eb7ec	-0.05046837
69	0x3e0b351a	0.13594475
70	0x3d899de0	0.067195654
71	0xbe5d7e4c	-0.2163021
72	0x3e0f9810	0.14022851
73	0x3dfe0c76	0.124047205
74	0x3e82f69b	0.2557877
75	0xbdd2504e	-0.10269223
76	0x3e1bddf1	0.15221383
77	0x3e9898b1	0.29803994
78	0xbe4c1196	-0.19928584
79	0x3d5aa895	0.05338343
80	0x3ed25a14	0.4108435
81	0xbe238a49	-0.1597072
82	0x3cf033ff	0.029321669
83	0xbed9c5b4	-0.42533648
84	0x3e80b81c	0.25140464
85	0xbe521fb2	-0.20519903
86	0xbe825ff6	-0.25463837
87	0x3e92672c	0.2859434
88	0x3e1b805e	0.15185687
89	0xbf09008d	-0.53516465
90	0xbedd908f	-0.43274352
91	0x3d5510fa	0.052018143
92	0xbdabeff8	-0.0839538
93	0xbe2c0d0c	-0.16801852
94	0xbdadd065	-0.08487014
95	0xbe723829	-0.23654236
96	0xbecb4282	-0.3969918
97	0xbde95a8d	-0.11394224
98	0xbd98d1e4	-0.074619085
99	0xbe8524ea	-0.26004726
100	0x3ea23773	0.3168293
101	0x3d4db7c6	0.050224088
102	0xbd95870d	-0.073011495
103	0x3e009cc6	0.12559804
104	0xbeb09243	-0.3448659
105	0x3e8957cb	0.26824793
106	0x3d23a18c	0.039948985
107	0xbe8414ed	-0.25797215
108	0xbdeaeb22	-0.11470629
109	0x3ea32ff7	0.31872532
110	0xbca39be3	-0.019971794
111	0x3ea9ba57	0.3314998
112	0x3e06a530	0.13148952
113	0x3e1f3479	0.1554736
114	0xbe19e25d	-0.15027757
115	0x3e51e851	0.20498778
116	0xbe99faff	-0.30074307
117	0x3e354492	0.17701939
118	0x3e901c4f	0.28146598
119	0x3e84f06f	0.25964686
120	0xbddb1f73	-0.10699358
121	0x3c4d741b	0.012539889
122	0x3e18f203	0.1493607
123	0x3ec18053	0.37793216
124	0xb9c0960b	-0.00036732884
125	0x3e2a7df1	0.16649605
126	0xbe137172	-0.14398745
127	0x3e904704	0.2817918
128	0x3e205375	0.15656836
129	0x3cee2294	0.029069223
130	0xbd74d945	-0.059777517
131	0x3e838108	0.2568438
132	0x3e832c2f	0.25619647
133	0xbe09f5dd	-0.13472696
134	0xbd2a8743	-0.041632902
135	0xbe239243	-0.15973763
136	0xbd66e16a	-0.056367315
137	0x3e60bbc1	0.21946622
138	0x3eb7ea96	0.35921162
139	0xbdd6f6f9	-0.10496325
140	0xbe2a98f8	-0.16659915
141	0x3e92b55e	0.28653997
142	0xbd9813e1	-0.074256666
143	0xbe41e1b3	-0.18933754
144	0xbd141ada	-0.03615842
145	0xbeca238f	-0.39480254
146	0x3e4ccbb9	0.19999589
147	0xbd88b15b	-0.06674453
148	0x3e3befa3	0.18353133
149	0xbef32b7b	-0.4749411
150	0xbd41e588	-0.04733804
151	0x3e8266c9	0.25469044
152	0xbc756ca4	-0.014979515
153	0x3e9a309b	0.30115208
154	0xbe60c16c	-0.21948785
155	0x3e8c529c	0.27406776
156	0xbd397073	-0.045273256
157	0x3dc8bbee	0.0980147
158	0xbdb186a8	-0.08668262
159	0x3ea388b2	0.31940228
160	0x3d6b9923	0.05751909
161	0x3e30e3de	0.17274424
162	0xbe2d46a4	-0.16921479
163	0x3db6a9ab	0.0891908
164	0x3e294333	0.1652954
165	0x3d4ba696	0.049719416
166	0xbdd36944	-0.10322812
167	0x3c85b589	0.016321914
168	0xbc272828	-0.010202445
169	0x3e322f83	0.17400937
170	0x3dedc14c	0.11609134
171	0x3d1fb977	0.038995232
172	0x3dbd2870	0.092362285
173	0x3ded7b59	0.11595792
174	0xbd9cebfc	-0.07662198
175	0x3d13f186	0.036119007
176	0x3da6ee49	0.08150918
177	0x3e2fc04c	0.17163199
178	0x3dbed58b	0.09318074
179	0x3dcb7505	0.09934429
180	0x3d71c73e	0.059027903
181	0xbc0458d8	-0.008077823
182	0x3d305acd	0.043055344
183	0x3dbb3da4	0.091426164
184	0x3e0f519f	0.1399598
185	0x3e11f66b	0.14254157
186	0xbbd69200	-0.0065481663
187	0x3d5d58dd	0.054039825
188	0xbdc8519b	-0.0978119
189	0xbd388749	-0.045050893
190	0xbdebf4d4	-0.11521307
191	0xbe3246f5	-0.1740988
192	0xbdd6045e	-0.10450052
193	0xbc9975ed	-0.01873299
194	0xbe34179b	-0.1758713
195	0x3db659c9	0.08903844
196	0xbc727ab2	-0.014799761
197	0xbc97799a	-0.018490601
198	0x3d81724e	0.0632063
199	0xbda7f338	-0.08200687
200	0x3d6223a6	0.05520978
201	0xbdd65dd9	-0.10467119
202	0x3dd08c7c	0.10183045
203	0xbda92762	-0.08259465
204	0x3dbda755	0.09260432
205	0xbe1406e4	-0.14455754
206	0x3e241d92	0.16026905
207	0x3e21543c	0.15754789
208	0xbe0ba82a	-0.13638368
209	0xbe207a79	-0.1567172
210	0x3d4cf161	0.050034884
211	0x3df4f4ac	0.1196073
212	0x3c8fa13e	0.017532941
213	0xbd273bbc	-0.04082845
214	0x3c466ac0	0.012110412
215	0xbd911d5b	-0.07085677
216	0x3d9d25fa	0.07673259
217	0x3d3a9318	0.045550436
218	0x3d4bd35a	0.049762107
219	0x3e2a8b95	0.16654809
220	0x3dc494c7	0.095986895
221	0x3d29630f	0.041354235
222	0xbde8f415	-0.1137468
223	0x3d831c83	0.064019226
224	0xbe13e107	-0.1444131
225	0x3e00b2df	0.12568234
226	0xbe1757b6	-0.14779553
227	0xbc9a77e3	-0.018855995
228	0x3c97683c	0.01848232
229	0x3b48a168	0.0030613784
230	0x3e09436f	0.1340463
231	0x3e2a0716	0.16604266
232	0x3daf4e8b	0.08559903
233	0x3dacb8f7	0.08433717
234	0x3cc7936d	0.02436229
235	0xbe2aa629	-0.16664948
236	0x3c6cec9d	0.01446071
237	0xbd8e6ddc	-0.06954548
238	0xbc5d30d8	-0.013500415
239	0xbdf0bbbf	-0.1175456
240	0x3dff0e5c	0.12453911
241	0x3e120eb2	0.14263418
242	0x3e190adc	0.14945549
243	0x3cc4ec12	0.024038348
244	0x3cbd36ab	0.023097357
245	0x3d87211f	0.06598114
246	0x3d84b52d	0.06479869
247	0x3dfa6f0d	0.122282125
248	0xbe218aea	-0.15775648
249	0x3daef48d	0.08542738
250	0x3e31a261	0.17347099
251	0x3d9e5488	0.07730967
252	0xbccca8ae	-0.024982776
253	0x3e088f58	0.13335931
254	0x3e0c8844	0.13723856
255	0x3dc1bb60	0.09459567

stack.3.0.bias f4 [10]
0	0x3d1f8bff	0.03895187
1	0xbdd09804	-0.10185245
2	0x3edf418a	0.4360469
3	0x3f1c8a2b	0.6114833
4	0x3becd8af	0.007227979
5	0x3debeac3	0.115193866
6	0xbc45573e	-0.012044726
7	0x3e306376	0.17225441
8	0xbd64d7f3	-0.055870008
9	0x3e302642	0.17202094
