src/fminst/models/teacher_5.pt (torch, 447183 bytes, 8 tensors)

stack.0.0.weight f4 [128, 784]
0.021680376 -0.09619096 -0.06426949 -0.09540135 -0.14811443 -0.16524549 -0.17541972 -0.2263944
-0.33946192 -0.25902697 -0.23882024 -0.25142354 -0.15539871 0.13700172 0.23437767 0.050025012
-0.04930213 -0.07333257 -0.13259594 -0.0030762 -0.08626605 -0.066300325 -0.07684303 -0.017336935
0.01890687 -0.0029824644 -0.0053983196 -0.046134703 -0.08870721 -0.07542871 -0.14256258 -0.18717645
-0.20696758 -0.18056531 -0.18044989 -0.24492554 -0.3099129 -0.34204772 -0.20786716 0.03150551
-0.038632166 -0.045212626 -0.062310684 0.028668972 0.021180987 0.0014502417 -0.02288635 -0.053541586
-0.010811497 -0.038251285 -0.032144997 -0.06492622 -0.08424697 -0.039715365 -0.011321904 -0.08355883
-0.03985961 -0.049921922 -0.13004774 -0.13704784 -0.19032069 -0.23508593 -0.24644704 -0.2927137
-0.32512683 -0.14491308 -0.038169473 0.010086734 0.0094966395 -0.036110535 -0.0582669 -0.048136916
-0.0072128586 0.056036387 0.05196261 0.04412679 -0.0011314193 0.004619129 -0.030395083 0.012188246
-0.07248588 -0.079850025 -0.072925635 -0.08892178 -0.03020854 -0.0341801 -0.114493355 -0.17047092
-0.19962472 -0.23991728 -0.25774825 -0.19169258 -0.15554763 -0.087771766 -0.11741191 -0.07946719
-0.024595723 -0.062040567 -0.058216587 0.032961927 0.0071182987 0.029811716 0.030457966 0.035005134
0.03965398 -0.020346362 -0.019228177 -0.0057036574 -0.029536763 -0.041014574 -0.027990947 0.04214555
-0.10276932 -0.042404342 -0.0767423 -0.12525974 -0.24486837 -0.2297943 -0.14623411 -0.09461063
-0.11366664 -0.13158889 -0.07251619 -0.04323066 -0.021764629 -0.018427525 -0.058281448 -0.02519867
0.0042359056 0.018711861 0.05247831 -0.004542639 0.0011148975 0.036838055 -0.027332112 0.021394001
-0.010764277 -0.06338911 0.0016322996 -0.01287439 -0.06917745 0.013867209 -0.11333628 -0.14700124
-0.1972579 -0.13214955 -0.13756147 -0.12077228 -0.09538371 -0.12585774 -0.061891455 -0.019230366
-0.027907401 -0.030780105 -0.10260259 -0.046092834 0.014304596 -0.018024735 0.025545463 0.018190347
0.01623226 0.03631434 0.006401252 0.005769598 0.028077802 0.0041863965 0.00072092976 -0.02649946
0.007550023 0.013988163 -0.13847901 -0.07472611 -0.12781465 -0.12737623 -0.14583403 -0.18412691
-0.10437575 -0.12320718 -0.10798759 -0.10751334 -0.06540565 -0.13172528 -0.07579498 -0.06666583
-0.023086328 0.020699706 0.049570438 0.051830273 0.03761827 -0.010127463 -0.017193204 -0.012953099
0.047527537 -0.0264544 -0.060338445 -0.05617991 0.02144832 0.020600373 -0.085998386 -0.11481975
-0.123195894 -0.104704 -0.12038763 -0.09878099 -0.055020757 -0.05629136 -0.056088515 -0.12809521
-0.047781743 -0.11319213 -0.01682121 -0.017169267 -0.058171995 0.018195547 0.010064982 0.06623152
0.013695242 -0.05215923 -0.053962763 -0.007854389 -0.008401664 -0.03554181 -0.07952993 -0.025335379
0.030917296 0.060433906 -0.08983224 -0.10093743 -0.06490283 -0.067226484 -0.12475411 -0.14423245
-0.071886405 -0.033380594 -0.10298906 -0.10423448 -0.07940104 -0.029446214 -0.051043637 0.0035459423
0.013971659 0.028171854 0.043717872 0.030443894 -0.014385797 0.006528548 -0.015022269 -0.010172434
0.01535574 -0.047507536 -0.0057568313 0.007098681 0.082920454 0.07322313 -0.06844629 -0.12721136
00000000: 0b9b b13c c4ff c4bd b99f 83bd c861 c3bd
00000010: 4fab 17be 1d36 29be 3aa1 33be efd3 67be
00000020: f4cd adbe 2f9f 84be 4b8d 74be 96ba 80be
00000030: d720 1fbe 2e4a 0c3e b300 703e 07e7 4c3d
00000040: 08f1 49bd 632f 96bd 3bc7 07be 129a 49bb
00000050: 41ac b0bd 77c8 87bd e15f 9dbd 3006 8ebc
00000060: 95e2 9a3c 7375 43bb 63e4 b0bb bef7 3cbd
00000070: 20ac b5bd 5e7a 9abd edfb 11be 2fab 3fbe
00000080: 4fef 53be 1de6 38be dbc7 38be c3cd 7abe
00000090: e7ac 9ebe e120 afbe 21db 54be ec0b 013d
000000a0: c33c 1ebd e030 39bd 7d39 7fbd 31db ea3c
000000b0: c083 ad3c 0916 be3a 287c bbbc 6c4e 5bbd
000000c0: b522 31bc 61ad 1cbd 79aa 03bd 0af8 84bd
000000d0: ad89 acbd 94ac 22bd 827f 39bc e420 abbd
000000e0: d543 23bd ee7a 4cbd 3c2b 05be 4556 0cbe
000000f0: 6de3 42be 5eba 70be 9d5c 7cbe 92de 95be
00000100: 0677 a6be 1864 14be 9857 1cbd d442 253c
00000110: cb97 1b3c a4e8 13bd 46a9 6ebd 372b 45bd
00000120: d859 ecbb 6986 653d bfd6 543d 4bbe 343d
00000130: 224c 94ba 105c 973b 1cff f8bc 35b1 473c
00000140: 7a73 94bd 6988 a3bd 095a 95bd 9f1c b6bd
00000150: e677 f7bc 6f00 0cbd 7e7b eabd ee8f 2ebe
00000160: 6c6a 4cbe e0ac 75be 94f7 83be 0f4b 44be
00000170: e147 1fbe afc1 b3bd a875 f0bd b2bf a2bd
00000180: f87c c9bc 401e 7ebd 8474 6ebd 1603 073d
00000190: 9e40 e93b b337 f43c fc82 f93c 8b61 0f3d
000001a0: 366c 223d 6aad a6bc 6984 9dbc bfe5 babb
000001b0: 15f7 f1bc e6fe 27bd 454d e5bc d0a0 2c3d
000001c0: b978 d2bd 2db0 2dbd 112b 9dbd 1744 00be
000001d0: c6be 7abe 324f 6bbe 65be 15be 38c3 c1bd
000001e0: 0eca e8bd 3dbf 06be 5e83 94bd a212 31bd
000001f0: bc4b b2bc 52f5 96bc 87b8 6ebd 716d cebc
00000200: 5acd 8a3b 9e49 993c 7ff3 563d 6bda 94bb
00000210: c121 923a 80e3 163d 98e7 dfbc 7942 af3c
00000220: a65c 30bc 26d2 81bd e3f2 d53a 1bef 52bc
00000230: e8ac 8dbd 4a33 633c da1c e8bd 7e87 16be
00000240: fafd 49be 3652 07be eadc 0cbe 7557 f7bd
00000250: 8958 c3bd dae0 00be e581 7dbd 0089 9dbc
00000260: 109e e4bc 8f26 fcbc 4f21 d2bd d7cb 3cbd
00000270: d35d 6a3c 9ca8 93bc b844 d13c ec03 953c
00000280: 84f9 843c 58be 143d 98c1 d13b e50e bd3b
00000290: 6b03 e63c 0a2e 893b c7fc 3c3a 6515 d9bc
000002a0: 2f66 f73b 9c2e 653c 71cd 0dbe 010a 99bd
000002b0: d8e1 02be ea6e 02be 8455 15be c48b 3cbe
000002c0: f4c2 d5bd 0c54 fcbd 9928 ddbd f42f dcbd
000002d0: 66f3 85bd fee2 06be 663a 9bbd 1888 88bd
000002e0: 8a1f bdbc 6e92 a93c 5f0a 4b3d fb4b 543d
000002f0: 9d15 1a3d a9ed 25bc c3d8 8cbc 3c39 54bc
00000300: 3cac 423d e6b6 d8bc 7225 77bd e81c 66bd
00000310: 63b4 af3c 1dc2 a83c ec1f b0bd 9e26 ebbd
00000320: 214e fcbd 0d6f d6bd ca8d f6bd b04d cabd
00000330: 725d 61bd c591 66bd 12bd 65bd 642b 03be
00000340: cab6 43bd 47d1 e7bd a2cc 89bc 90a6 8cbc
00000350: c245 6ebd d40e 953c 98e7 243c 64a4 873d
00000360: 0262 603c eba4 55bd 0f08 5dbd b2af 00bc
00000370: 22a7 09bc 4a94 11bd 97e0 a2bd 248c cfbc
00000380: 4546 fd3c 8b89 773d f7f9 b7bd 49b8 cebd
00000390: c6eb 84bd 0aae 89bd 157f ffbd acb1 13be
000003a0: 2e39 93bd 17ba 08bd eeeb d2bd e378 d5bd
000003b0: 039d a2bd 3039 f1bc 2213 51bd 0a63 683b
000003c0: 63e9 643c a9c8 e63c 8311 333d 7965 f93c
000003d0: 68b2 6bbc 6eed d53b f71f 76bc 48aa 26bc
000003e0: a496 7b3c 4397 42bd cda3 bcbb 0d9c e83b
000003f0: 33d2 a93d 02f6 953d 922d 8cbd b243 02be

stack.0.0.bias f4 [128]
0.22707883 0.19722301 0.016270822 -0.08756878 0.12783866 0.09701622 0.089097135 0.045427933
-0.08199674 0.042325817 -0.0077878116 0.12571849 0.116892405 0.1046781 0.047447916 -0.038616505
-0.062564045 0.119188875 0.14286752 -0.09820678 -0.02318949 0.0046305605 0.13033849 -0.0531117
0.023099039 0.14645474 0.023736294 0.08592455 -0.0033141607 0.055557903 -0.04014352 -0.1107987
-0.035234503 0.08126331 -0.061260723 0.0039696647 0.13939443 0.030425178 0.083584286 0.024826461
-0.14501339 -0.06792346 -0.11100355 -0.035543192 0.04731971 -0.03526619 -0.10420807 0.00758302
-0.15586522 0.10477063 -0.041758694 0.000543833 -0.011817648 -0.020143453 0.03140078 -0.0059023127
0.007882248 0.1682464 0.070093766 0.076956 0.09568697 -0.12308139 0.080698416 0.07927135
0.06636896 -0.032598447 -0.087473564 -0.048424583 0.14460045 0.10867735 0.07667943 0.17802498
-0.007017269 0.14584099 -0.01908144 -0.022560908 0.041577637 0.0399792 -0.040672697 0.17513008
0.064007334 0.038019087 -0.11906735 0.16941151 -0.022552231 0.068143465 -0.012597305 0.04774251
-0.09706084 0.120833 -0.040525157 0.070075445 0.065569 0.16069987 0.10203533 -0.09622594
0.1480302 0.09773958 -0.033285275 0.012024574 0.10377962 -0.02118243 0.08581164 -0.038785737
0.07429749 0.16335621 0.07952609 0.1381581 0.011237047 -0.18178394 -0.11356194 0.08773895
0.02304125 0.12203589 0.02306514 -0.17031403 0.07880227 0.20043874 0.080458626 0.15655483
0.036961347 0.033984873 0.10703351 0.1432112 0.1353642 0.10616242 -0.11985537 0.0528055
00000000: 5a87 683e d4f4 493e 634a 853c 4357 b3bd
00000010: 23e8 023e 71b0 c63d 8f78 b63d a412 3a3d
00000020: e8ed a7bd d65d 2d3d e630 ffbb 59bc 003e
00000030: 4965 ef3d 7961 d63d bf58 423d 572c 1ebd
00000040: 9421 80bd 4c19 f43d dd4b 123e a320 c9bd
00000050: e3f7 bdbc f5bb 973b 7477 053e a78b 59bd
00000060: 323a bd3c 3bf8 153e 9e72 c23c 36f9 af3d
00000070: 6432 59bb af90 633d 886d 24bd 6eea e2bd
00000080: 0e52 10bd 616d a63d 86ec 7abd f613 823b
00000090: 6abd 0e3e 393e f93c 3d2e ab3d dd60 cb3c
000000a0: 647e 14be 741b 8bbd d455 e3bd bd95 11bd
000000b0: 50d2 413d 4873 10bd 0a6b d5bd fb7a f83b
000000c0: 229b 1fbe fc91 d63d 2a0b 2bbd 0490 0e3a
000000d0: cf9e 41bc e203 a5bc 1b9e 003d 3068 c1bb
000000e0: 8b24 013c c948 2c3e 528d 8f3d 1b9b 9d3d
000000f0: 88f7 c33d 1912 fcbd 3645 a53d 0459 a23d
00000100: 73ec 873d f385 05bd 5725 b3bd db58 46bd
00000110: 2412 143e 3b92 de3d 1b0a 9d3d 2e4c 363e
00000120: 1ef1 e5bb 5757 153e ae50 9cbc a7d1 b8bc
00000130: 504d 2a3d 3bc1 233d 6a98 26bd 4d55 333e
00000140: 4716 833d e7b9 1b3d 95d9 f3bd 367a 2d3e
00000150: 75bf b8bc cd8e 8b3d ed64 4ebc a68d 433d
00000160: d5c7 c6bd 4b77 f73d b5fd 25bd b783 8f3d
00000170: 0a49 863d 828e 243e e6f7 d03d 1b12 c5bd
00000180: 3b95 173e b02b c83d 2456 08bd b802 453c
00000190: 698a d43d c786 adbc 03be af3d cbdd 1ebd
000001a0: 4829 983d da46 273e 93de a23d 5179 0d3e
000001b0: 971b 383c 9225 3abe 2a93 e8bd 7bb0 b33d
000001c0: 01c1 bc3c f4ed f93d 1bf3 bc3c cd66 2ebe
000001d0: 1663 a13d d03f 4d3e 7ec7 a43d e94f 203e
000001e0: c864 173d b933 0b3d 6334 db3d f5a5 123e
000001f0: ea9c 0a3e af6b d93d bb76 f5bd 944a 583d

stack.1.0.weight f4 [64, 128]
0.115762785 0.13852572 -0.24511786 0.08756345 0.041226026 -0.10024935 0.03903103 0.039605007
-0.07281762 0.21437486 -0.064342335 0.26335037 0.06752398 -0.012338477 0.109791204 -0.057951774
-0.054264653 0.10094807 0.2497899 -0.031729642 0.023163367 0.032246847 -0.09045877 0.06569629
0.066194944 0.011051793 0.06294555 0.0794252 0.120656975 -0.014209556 0.017787999 -0.06787787
-0.033018768 -0.13214035 0.116694085 -0.07095409 0.17177738 -0.074868634 -0.015092881 0.094025895
-0.045754123 0.068684846 0.023633176 0.08681711 0.19230787 0.0019216 0.004520356 0.11990261
-0.011414157 0.0783218 -0.07004303 0.052204486 0.13299654 0.012060998 0.025755085 0.10017052
0.03937208 0.07525708 -0.20429064 0.04689244 0.021601282 0.021359878 -0.11369954 0.11451146
-0.018172096 -0.02107789 -0.004450278 0.019149726 0.18915968 0.039913602 -0.02199351 0.12765573
-0.12858272 0.07784314 -0.052826498 0.08508094 0.08541013 0.07496028 0.08754733 0.09948187
0.034018014 0.008690552 -0.039599303 0.20683472 -0.022570247 -0.012921241 -0.01887347 0.071861506
0.02239283 -0.10076122 -0.055359714 0.022208314 0.0073793116 -0.008916946 -0.0113799665 0.040535264
-0.101587296 -0.07197577 0.08171226 -0.129842 -0.056129668 -0.1257191 0.066704445 -0.01373164
0.026481394 0.15151656 0.0947979 0.14156975 -0.013263024 -0.06227105 0.11901009 -0.031183016
0.06745022 0.3125695 0.00041247602 0.03949975 -0.14131713 -0.002218723 -0.05486572 0.02793478
0.0798338 -0.015826574 -0.07288888 -0.029800283 0.07523167 -0.25696272 0.023573663 0.101522446
0.005532765 -0.15318511 0.18743774 0.019352855 0.07144958 -0.1486794 0.046664044 -0.13475817
0.12321731 -0.04633889 -0.02178794 0.24536218 0.018758137 -0.02350735 0.025188647 0.09146172
-0.03217129 0.08918692 0.0566679 0.09686964 0.07193681 -0.020489542 0.06291197 0.13046382
-0.013007348 0.11282393 0.025592472 -0.21018776 -0.038126837 0.2156896 -0.034528803 0.0596272
0.038340393 -0.14818604 -0.10460628 0.06245523 -0.026291743 -0.017449535 -0.012801285 0.11049851
0.015178002 0.11489004 0.06444973 0.07905413 0.29731405 0.06555622 0.06354574 0.029590825
0.13227504 -0.0018519971 -0.023643335 0.06443855 -0.06269961 0.08233678 -0.014419231 -0.029191056
0.06279504 0.07941533 -0.24665019 -0.14223884 -0.090527855 0.052802473 0.039158255 -0.03246833
-0.007558283 0.12284325 0.03517821 0.048903506 0.04257856 -0.18348768 0.06050111 -0.040942896
0.0552531 -0.06517224 0.10080732 0.07915732 0.017293142 0.052171145 0.1057153 0.024142448
-0.006854686 0.025141194 0.09628817 0.04771376 0.06050249 0.06531258 0.061352957 0.10818338
-0.07684326 -0.3363778 0.14949498 -0.011928286 0.0038088914 -0.37332657 -0.14458707 0.08329566
0.0014574938 0.13250318 0.101059824 -0.07717424 -0.04363385 0.07886714 0.009845307 -0.037767034
-0.088706486 -0.048314404 0.005589557 -0.17020896 -0.060070857 -0.018788079 -0.036304586 0.04583315
-0.05064355 -0.14280926 0.042552833 0.11941705 0.02187146 -0.036190484 -0.034681 -0.15415129
-0.058222234 -0.092499174 0.10345441 -0.040442567 -0.22838524 -0.003862562 0.088075235 -0.05029189
00000000: 0a15 ed3d b0d9 0d3e 2d00 7bbe 7754 b33d
00000010: 9fdc 283d 884f cdbd 00df 1f3d dc38 223d
00000020: 6821 95bd 1585 5b3e eac5 83bd dcd5 863e
00000030: 034a 8a3d 5327 4abc 36da e03d d75e 6dbd
00000040: 9d44 5ebd ddbd ce3d ecc8 7f3e f1f6 01bd
00000050: 1ac1 bd3c 4515 043d 7342 b9bd c78b 863d
00000060: 3791 873d 9412 353c 99e9 803d aea9 a23d
00000070: 011b f73d 33cf 68bc 23b8 913c 8d03 8bbd
00000080: b03e 07bd cd4f 07be 4ffd ee3d 6150 91bd
00000090: 69e6 2f3e ba54 99bd 2248 77bc a690 c03d
000000a0: ad68 3bbd a4aa 8c3d 5d9a c13c 2bcd b13d
000000b0: 5bec 443e 32de fb3a 7f1f 943b 808f f53d
000000c0: 7202 3bbc 2e67 a03d b872 8fbd 5fd4 553d
000000d0: 3f30 083e 7e9b 453c 54fc d23c 3426 cd3d
000000e0: 9e44 213d 6220 9a3d 9131 51be 4a12 403d
000000f0: 2cf5 b03c e9fa ae3c 4edb e8bd fc84 ea3d
00000100: a6dd 94bc 8aab acbc a3d3 91bb e3df 9c3c
00000110: 13b3 413e 727c 233d bc2b b4bc 2fb8 023e
00000120: 30ab 03be 396c 9f3d 9960 58bd ea3e ae3d
00000130: 82eb ae3d c684 993d 044c b33d 27bd cb3d
00000140: 7956 0b3d d162 0e3c e132 22bd 7bcc 533e
00000150: 3de5 b8bc 9db3 53bc 899c 9abc 202c 933d
00000160: 2b71 b73c e65b cebd dec0 62bd 36ee b53c
00000170: 27ce f13b 6218 12bc 0a73 3abc 4e08 263d
00000180: 000d d0bd 0868 93bd c258 a73d 4df5 04be
00000190: 39e8 65bd 82bc 00be 579c 883d acfa 60bc
000001a0: 82ef d83c 2827 1b3e 6725 c23d a9f7 103e
000001b0: 284d 59bc ee0f 7fbd 90bb f33d 8673 ffbc
000001c0: 5723 8a3d 1c09 a03e 9841 d839 7dca 213d
000001d0: 70b5 10be ff67 11bb e1ba 60bd 7bd7 e43c
000001e0: e77f a33d bba6 81bc c446 95bd b91f f4bc
000001f0: 1013 9a3d 9e90 83be 8e1d c13c 00eb cf3d
00000200: 324c b53b 8fdc 1cbe aeef 3f3e e189 9e3c
00000210: 2854 923d 6a3f 18be cc22 3f3d 0cfe 09be
00000220: 5b59 fc3d d9cd 3dbd 9f7c b2bc 3940 7b3e
00000230: aaaa 993c 7c92 c0bc 6c58 ce3c 4850 bb3d
00000240: 0bc6 03bd a2a7 b63d 9a1c 683d 9763 c63d
00000250: 9b53 933d afd9 a7bc fed7 803d 4f98 053e
00000260: c61c 55bc 3c10 e73d 4ea7 d13c 763b 57be
00000270: e32a 1cbd bcdd 5c3e 136e 0dbd a73b 743d
00000280: d10a 1d3d 15be 17be d13b d6bd 0ed1 7f3d
00000290: c861 d7bc 54f2 8ebc 7bbc 51bc 0b4d e23d
000002a0: 28ad 783c 784b eb3d 38fe 833d 22e7 a13d
000002b0: 8c39 983e 5742 863d 4524 823d 7568 f23c
000002c0: 1c73 073e b6be f2ba abaf c1bc 5cf8 833d
000002d0: a768 80bd 30a0 a83d a33e 6cbc 1522 efbc
000002e0: b09a 803d 81a4 a23d de91 7cbe 0fa7 11be
000002f0: ab66 b9bd 6847 583d 6864 203d 83fd 04bd
00000300: 79ab f7bb 3e95 fb3d 0717 103d 0b4f 483d
00000310: db66 2e3d 32e4 3bbe 03d0 773d bdb3 27bd
00000320: 1351 623d 0679 85bd 1174 ce3d 3c1d a23d
00000330: 59aa 8d3c 69b1 553d 4381 d83d 62c6 c53c
00000340: 469d e0bb e8f4 cd3c bb32 c53d 816f 433d
00000350: 75d1 773d 9ac2 853d 3d4d 7b3d 3f8f dd3d
00000360: 0060 9dbd b639 acbe 3615 193e dc6e 43bc
00000370: 989e 793b a924 bfbe a20e 14be ea96 aa3d
00000380: 6009 bf3a eaae 073e 74f8 ce3d 870d 9ebd
00000390: 68b9 32bd 1885 a13d 364e 213c 9bb1 1abd
000003a0: bfab b5bd 53e5 45bd 9a28 b73b 424b 2ebe
000003b0: dc0c 76bd 75e9 99bc 1eb4 14bd 8bbb 3b3d
000003c0: 9c6f 4fbd 973c 12be e14b 2e3d ed90 f43d
000003d0: c72b b33c 793c 14bd aa0d 0ebd d6d9 1dbe
000003e0: 707a 6ebd 3570 bdbd e8df d33d 1ba7 25bd
000003f0: d2dd 69be 0923 7dbb ca60 b43d defe 4dbd

stack.1.0.bias f4 [64]
-0.0012391959 -0.08519783 -0.028138079 -0.009446915 -0.08804364 -0.042171676 -0.08396021 0.033299804
-0.033063512 0.047450002 -0.0029320922 0.10908742 -0.040894184 -0.051909793 0.041786276 0.043992624
0.024825249 -0.0020528678 0.019521482 -0.10453639 0.039584123 0.095324956 -0.063460596 0.053367965
0.17271435 0.015438898 0.0032428864 -0.028110495 -0.015775284 -0.030016651 0.2383132 -0.07425197
-0.006647951 0.113182895 -0.06550621 0.05559919 -0.093491055 0.11083652 -0.05672121 -0.18706022
0.04893947 -0.014406937 -0.050788548 0.061338022 0.17493583 0.07190782 -0.008075571 0.18446237
-0.008029569 0.022234138 -0.037370846 0.20511672 -0.06026025 -0.00443268 0.06276118 0.050529175
-0.045702863 0.069154635 -0.083286725 0.120116495 0.038860545 -0.05615065 0.019680362 0.1443951
00000000: 846c a2ba 337c aebd d481 e6bc 3cc7 1abc
00000010: 3950 b4bd 35bc 2cbd 55f3 abbd 6065 083d
00000020: 9b6d 07bd ef5a 423d 5828 40bb 3a69 df3d
00000030: a980 27bd 5d9f 54bd 1628 2b3d 9c31 343d
00000040: 525e cb3c 6889 06bb 84eb 9f3c 2d17 d6bd
00000050: f622 223d bb39 c33d a1f7 81bd 5e98 5a3d
00000060: 08dc 303e 6ef3 7c3c 9b86 543b fb47 e6bc
00000070: 2b3b 81bc 7be5 f5bc 6008 743e 6b11 98bd
00000080: 0ed7 d9bb 6fcc e73d 1f28 86bd fabb 633d
00000090: 3d78 bfbd 42fe e23d 8054 68bd b78c 3fbe
000000a0: c174 483d 130b 6cbc a707 50bd 943d 7b3d
000000b0: 6122 333e 6844 933d 664f 04bc b4e3 3c3e
000000c0: 748e 03bc 5e24 b63c 2c12 19bd 1e0a 523e
000000d0: 74d3 76bd 0440 91bb ef88 803d aef7 4e3d
000000e0: ed32 3bbd f2a0 8d3d 3b92 aabd a3ff f53d
000000f0: 3c2c 1f3d 39fe 65bd b638 a13c 4fdc 133e

stack.2.0.weight f4 [32, 64]
-0.110257715 0.09830251 0.026329607 0.046751216 0.057387173 0.043931097 -0.090965435 0.057171747
0.06452927 -0.06477833 -0.037919194 -0.111218244 -0.057356805 -0.03758654 -0.10806689 0.018808082
0.01985772 -0.11610317 0.039579943 -0.083174035 -0.07744987 -0.030371651 -0.11998437 0.10212906
0.08718139 -0.10932629 -0.050422534 0.006874457 -0.031721756 -0.0022583306 0.036456227 0.085565716
-0.09274876 -0.12285997 -0.06300984 -0.021693528 0.09230292 -0.07610838 0.0064840615 -0.029502809
0.10015771 -0.020004123 -0.009447157 -0.10386279 0.026455536 -0.036152393 -0.11347726 -0.074999616
-0.098059535 -0.025518298 0.10000792 0.053198725 -0.015321776 -0.040209904 0.096600965 0.056062654
-0.093689814 -0.018555522 -0.0043699145 -0.120308235 -0.12180175 0.04557468 0.08459593 -0.0670349
0.055888228 -0.059628434 -0.077873275 -0.010877386 -0.058185752 0.008448735 -0.023787498 -0.0908523
-0.02011111 0.055618502 0.035041213 -0.13416235 0.03122355 -0.053719234 -0.09747268 0.08631967
-0.14229462 -0.05611657 -0.14217813 -0.05610123 -0.029593796 -0.014053266 0.062927596 -0.09060741
0.07255846 -0.09108961 -0.111899406 0.001129516 0.0495441 0.04000261 0.029610982 -0.1204135
-0.108219385 0.08328574 0.076043144 -0.02509267 -0.12080643 -0.025341291 0.03563271 0.038152087
-0.016705362 -0.013445795 0.03987491 -0.09103562 0.038825195 -0.008440028 -0.02091787 0.08678336
-0.09944135 0.00041135002 0.045910716 0.06370672 -0.03652689 -0.005401932 0.02394748 -0.08604342
0.059787527 -0.12040079 -0.1381696 0.081125595 0.043733723 -0.11922313 0.018217519 -0.12060895
0.011689944 -0.004221341 0.053602606 0.16170463 0.036084265 0.05564941 -0.0032963117 0.13842547
0.110686965 -0.19047186 -0.1267001 0.084917195 -0.0807006 0.08228077 0.020081537 -0.05762477
-0.085886925 0.1537009 0.089590475 0.15882671 0.16094634 -0.023540046 -0.10447024 0.031795923
-0.0023075482 -0.007771474 0.0131175 0.18269606 -0.043532595 -0.1315983 -0.11059128 0.043275394
-0.082362145 0.032202307 0.13751675 -0.054402728 0.15148611 0.13559166 0.15173228 0.1497473
0.12936822 -0.14757414 -0.017751006 -0.05640507 0.053941496 -0.15801272 0.015814338 -0.13559242
0.011158401 -0.12920083 -0.0030316361 -0.16812891 0.054163575 0.11558685 -0.08497414 -0.091308445
-0.08345043 0.0051260022 0.06974619 0.07998688 0.041845392 -0.08735544 -0.13588 -0.15409817
-0.091457546 0.0825871 0.0071587116 0.10703506 -0.120153844 0.07274074 -0.0517799 -0.3599372
-0.042617816 0.18262969 0.055437613 0.25079572 -0.057388987 -0.10296219 -0.10435333 0.12821968
0.10723131 -0.025657078 0.05962172 -0.13834515 -0.009552252 0.23811485 0.12204504 -0.03219819
0.1500476 0.011933065 0.030376136 -0.057635438 -0.03805808 0.039715473 0.041795205 -0.056905292
-0.06968555 0.08184321 0.008231011 0.120998874 0.098899506 -0.08208276 0.08564863 -0.11630474
0.09138653 -0.0032209593 0.03824004 0.010091818 0.21425438 -0.021469817 0.08652873 0.052893296
0.10135857 0.057999276 0.010517599 0.15292515 -0.024778433 -0.11228823 0.090208545 0.2550992
-0.08442676 -0.029557455 -0.1253788 0.11713271 -0.079387486 -0.04982273 -0.024408568 0.07392631
00000000: ccce e1bd d452 c93d 30b1 d73c 347e 3f3d
00000010: d00e 6b3d 18f1 333d 164c babd ec2c 6a3d
00000020: ec27 843d 80aa 84bd 2851 1bbd 64c6 e3bd
00000030: f8ee 6abd 58f4 19bd 2c52 ddbd 6813 9a3c
00000040: a8ac a23c 80c7 edbd 941e 223d 2657 aabd
00000050: 0a9e 9ebd f8cd f8bc 5eba f5bd 0a29 d13d
00000060: 288c b23d 76e6 dfbd dc87 4ebd 2043 e13b
00000070: acee 01bd 8000 14bb 2053 153d 143d af3d
00000080: 10f3 bdbd 029e fbbd 4e0b 81bd a0b6 b1bc
00000090: 5009 bd3d b6de 9bbd 4078 d43b e0af f1bc
000000a0: 7c1f cd3d b0df a3bc 40c8 1abc 04b6 d4bd
000000b0: 48b9 d83c 8814 14bd c466 e8bd 6699 99bd
000000c0: 70d3 c8bd c00b d1bc f4d0 cc3d e8e6 593d
000000d0: 3008 7bbc 24b3 24bd bad6 c53d f4a1 653d
000000e0: 72e0 bfbd c001 98bc 8031 8fbb 2a64 f6bd
000000f0: 3273 f9bd 84ac 3a3d a240 ad3d 9849 89bd
00000100: 0eeb 643d f23c 74bd 067c 9fbd 1037 32bc
00000110: 2f54 6ebd 906c 0a3c 00de c2bc c510 babd
00000120: 0ec0 a4bc 3ad0 633d 6087 0f3d db61 09be
00000130: 88c8 ff3c b308 5cbd c29f c7bd 5ec8 b03d
00000140: aeb5 11be 7dda 65bd 2597 11be 67ca 65bd
00000150: b06e f2bc ab3f 66bc 2fe0 803d 6190 b9bd
00000160: 8899 943d 308d babd 842b e5bd 450c 943a
00000170: c1ee 4a3d c7d9 233d bb92 f23c 5a9b f6bd
00000180: 20a2 ddbd b791 aa3d 82bc 9b3d 258f cdbc
00000190: 5d69 f7bd 8a98 cfbc 9bf3 113d 5d45 1c3d
000001a0: afd9 88bc c04b 5cbc e053 233d e270 babd
000001b0: 2b07 1f3d 0b48 0abc f45b abbc 79bb b13d
000001c0: e8a7 cbbd 77aa d739 e00c 3c3d ab78 823d
000001d0: 389d 15bd b102 b1bb 812d c43c 8837 b0bd
000001e0: c4e3 743d b094 f6bd 557c 0dbe 2d25 a63d
000001f0: 2222 333d 422b f4bd e83c 953c d301 f7bd
00000200: 2e87 3f3c 2d53 8abb 688e 5b3d e695 253e
00000210: 18cd 133d a3f0 633d ef06 58bb 68bf 0d3e
00000220: d9af e23d 0e0b 43be acbd 01be 11e9 ad3d
00000230: 5b46 a5bd d282 a83d 0982 a43c f307 6cbd
00000240: 7ce5 afbd c563 1d3e 367b b73d 78a3 223e
00000250: 1ecf 243e 0ed7 c0bc 7ef4 d5bd 713c 023d
00000260: 3c3a 17bb d9a7 febb c8ea 563c ad14 3b3e
00000270: 3c4f 32bd b4c1 06be ae7d e2bd 8a41 313d
00000280: 7cad a8bd 91e6 033d 31d1 0c3e 65d5 5ebd
00000290: 2d1f 1b3e 8ad8 0a3e b55f 1b3e 5b57 193e
000002a0: 1a79 043e ad1d 17be 8f6a 91bc 0109 67bd
000002b0: c2f1 5c3d 16ce 21be 128d 813c bdd8 0abe
000002c0: bad1 363c 394d 04be 6aae 46bb fc29 2cbe
000002d0: a0da 5d3d ccb8 ec3d ec06 aebd ecff babd
000002e0: 0fe8 aabd 06f8 a73b 17d7 8e3d 29d0 a33d
000002f0: 1366 2b3d 69e7 b2bd 2024 0bbe e9cb 1dbe
00000300: 184e bbbd 6d23 a93d a093 ea3b 3335 db3d
00000310: 3813 f6bd 19f9 943d 2917 54bd b049 b8be
00000320: 0590 2ebd 4703 3b3e 8d12 633d 4c68 803e
00000330: b710 6bbd d7dd d2bd 33b7 d5bd 054c 033e
00000340: 179c db3d cb2e d2bc e835 743d 5aaa 0dbe
00000350: 0c81 1cbc 61d4 733e c0f2 f93d 40e2 03bd
00000360: 14a6 193e e782 433c 60d7 f83c 2313 6cbd
00000370: cae2 1bbd b1ac 223d 7331 2b3d 8615 69bd
00000380: 4cb7 8ebd 6a9d a73d 5ddb 063c 42ce f73d
00000390: d38b ca3d 021b a8bd 8d68 af3d 2e31 eebd
000003a0: dc28 bb3d bb16 53bb 97a1 1c3d 2758 253c
000003b0: 8065 5b3e 78e1 afbc fa35 b13d a4a6 583d
000003c0: 1595 cf3d a690 6d3d 0252 2c3c 6998 1c3e
000003d0: 24fc cabc 5ff7 e5bd 42bf b83d 5d9c 823e
000003e0: f0e7 acbd 7a22 f2bc 4d63 00be 46e3 ef3d
000003f0: e895 a2bd eb12 4cbd 7af4 c7bc ad66 973d

stack.2.0.bias f4 [32]
-0.043849185 -0.13857943 -0.098874286 0.15349637 -0.06626559 0.11481676 -0.022898043 0.01549334
0.08376661 0.121243775 -0.1570362 0.23528396 -0.017226562 -0.10874305 0.16783696 0.016513262
0.092936106 -0.116802245 0.1528095 0.037831847 -0.024132213 0.024423802 0.12974846 0.13541979
0.013629206 0.00716641 -0.10016144 0.15934515 0.10224943 -0.096808 0.039256815 0.106818944
00000000: 349b 33bd c4e7 0dbe 9a7e cabd 272e 1d3e
00000010: 41b6 87bd 0d25 eb3d ad94 bbbc c7d7 7d3c
00000020: d48d ab3d a84e f83d 19ce 20be 47ee 703e
00000030: b81e 8dbc adb4 debd 74dd 2b3e d246 873c
00000040: 4955 be3d 0436 efbd 187a 1c3e 91f5 1a3d
00000050: ebb0 c5bc 6d14 c83c c8dc 043e 7cab 0a3e
00000060: 094d 5f3c 34d4 ea3b 7121 cdbd 602b 233e
00000070: 2668 d13d 4643 c6bd c1cb 203d e4c3 da3d

stack.3.0.weight f4 [10, 32]
0.12090027 -0.102735795 -0.12202368 -0.12020464 0.094364226 0.11383978 0.022531802 0.0069475486
0.0016604485 -0.11832779 -0.1319922 -0.030723413 0.010109259 0.09628838 -0.034725208 0.014952118
-0.1249404 -0.10016338 -0.10820408 0.09100742 0.003119499 -0.11071438 0.07270627 0.01970674
-0.17282766 -0.009942743 -0.06653103 0.035442397 0.006364836 0.05845715 -0.059988357 -0.016925856
-0.013560896 -0.14682303 0.084414706 -0.10298454 0.124902345 0.019757142 -0.013959431 0.12133104
-0.16756982 -0.038800813 0.072198436 0.030983238 0.13703968 0.051996794 -0.008755317 -0.029765923
-0.12478284 0.035706002 -0.043570492 -0.090272926 -0.15128872 -0.082632914 0.0041684825 -0.17652191
-0.105729245 0.003244169 0.12630148 -0.053751104 -0.0058303187 0.0082706865 -0.15203029 0.15739416
-0.076028235 0.039748713 -0.118782334 -0.17050207 0.11509558 -0.10906985 -0.121882066 -0.17650023
-0.17377752 -0.17211993 -0.047510393 -0.09886209 0.061633147 -0.038092997 -0.14345236 -0.0041594515
0.056125924 -0.11780404 0.11529961 -0.09032727 0.07277269 -0.022694055 0.10937813 -0.0074093947
-0.062052425 -0.09455373 -0.14224464 -0.10453824 -0.17508565 0.16218919 -0.16870642 -0.17333359
0.1258106 0.0036808318 -0.07968674 -0.13747789 0.017043944 0.13788567 0.0079544205 0.07107811
-0.05480479 -0.1293272 -0.12027572 -0.06337657 -0.102121435 -0.054209173 0.04303861 -0.039988913
-0.0922361 0.09469305 -0.027211437 -0.001572961 -0.14864106 -0.14849842 -0.008841489 0.1686295
-0.14731506 -0.06561832 0.1763553 0.0015775684 -0.14514169 0.024871066 -0.113260664 0.1381478
0.10490776 -0.13663691 -0.21678486 -0.2777342 0.18204099 0.2106161 -0.040563896 -0.19670574
-0.13666329 0.065987326 0.10507725 -0.16495532 0.14399888 0.17749104 -0.23702316 0.24073876
-0.14962745 0.0154628465 -0.2542532 -0.27204293 0.14111994 0.061444867 -0.09324714 -0.13133381
-0.059014264 0.1260589 -0.062402442 -0.20517997 0.04759665 0.02112143 -0.09003356 0.21228233
0.16324602 -0.14255905 -0.08818622 0.23123182 0.14019945 0.2386446 0.19776955 -0.06902071
-0.18292339 0.15647186 -0.101679265 0.098436356 0.1127409 -0.21097189 -0.2381669 -0.41570136
-0.054748956 0.016803317 0.3645093 0.11496766 -0.12826845 -0.12548947 -0.28792337 0.2814239
-0.18075426 -0.34312436 -0.1370846 0.28230837 -0.08726498 -0.015165447 0.08089284 0.06076999
-0.16696867 -0.005491081 0.08403893 0.011033366 -0.0834476 -0.14617412 0.07767822 0.088487364
-0.025877194 -0.12997748 0.15388443 0.12033452 -0.068328746 -0.090984 -0.09219901 0.08022688
0.009768196 -0.06851033 -0.058311965 0.14258097 -0.12374639 0.038536448 -0.04862594 0.11991241
-0.010561739 -0.08069249 0.14722385 -0.11556966 -0.07056435 0.13131085 -0.06573063 -0.03653508
0.13858473 -0.12742518 -0.19124743 0.013632376 0.113663115 0.16350839 -0.31736833 0.07737456
0.19173826 0.03885351 -0.10119787 0.19598268 0.11484869 -0.15583251 -0.4637531 -0.017467648
0.14624171 -0.16825697 -0.34132847 -0.12783052 0.07752279 -0.28552216 0.114519596 -0.27465644
-0.14501302 -0.24526112 -0.17450853 0.04084252 0.21003304 -0.099822134 -0.07347416 0.21575233
00000000: 909a f73d 2567 d2bd 8de7 f9bd da2d f6bd
00000010: 0842 c13d d524 e93d 9d94 b83c 43a8 e33b
00000020: 68a3 d93a d755 f2bd f728 07be abaf fbbc
00000030: 4ea1 253c d832 c53d 053c 0ebd baf9 743c
00000040: c1e0 ffbd 7522 cdbd 1a9a ddbd 1962 ba3d
00000050: 8270 4c3b 39be e2bd 06e7 943d 0770 a13c
00000060: bcf9 30be e3e6 22bc 6c41 88bd 0c2c 113d
00000070: 1d90 d03b c470 6f3d 5ab6 75bd 18a8 8abc
00000080: 852e 5ebc c758 16be 9ee1 ac3d 8fe9 d2bd
00000090: cdcc ff3d bbd9 a13c 19b6 64bc 697c f83d
000000a0: 6c97 2bbe 9aed 1ebd c6dc 933d 8fd0 fd3c
000000b0: 2154 0c3e 97fa 543d 7672 0fbc aad7 f3bc
000000c0: 258e ffbd 7540 123d f976 32bd 03e1 b8bd
000000d0: 6eeb 1abe 723b a9bd c497 883b 29c2 34be
000000e0: 9388 d8bd 209c 543b 2d55 013e 1e2a 5cbd
000000f0: 420c bfbb c681 073c d4ad 1bbe ef2b 213e
00000100: b1b4 9bbd 8ccf 223d 2744 f3bd 1898 2ebe
00000110: 3bb7 eb3d 0360 dfbd 4e9d f9bd 7abc 34be
00000120: bcf2 31be 3540 30be 429a 42bd 3578 cabd
00000130: 0a73 7c3d 6707 1cbd 2de5 12be 024c 88bb
00000140: 4ce4 653d 3f43 f1bd 3422 ec3d 81fd b8bd
00000150: d909 953d e2e8 b9bc a401 e03d 82ca f2bb
00000160: af2a 7ebd 63a5 c1bd 94a8 11be 2518 d6bd
00000170: a749 33be ec14 263e 60c1 2cbe 5c7e 31be
00000180: 7ed4 003e 1c3a 713b cd32 a3bd 01c7 0cbe
00000190: be9f 8b3c e731 0d3e 4253 023c 6691 913d
000001a0: fd7a 60bd 596e 04be 1e53 f6bd 93cb 81bd
000001b0: 0b25 d1bd 700a 5ebd 4149 303d 6acb 23bd
000001c0: 48e6 bcbd 6eee c13d 85ea debc d02b ceba
000001d0: 5d35 18be f80f 18be e5db 10bc 36ad 2c3e
000001e0: c2d9 16be e662 86bd 7c96 343e 69c6 ce3a
000001f0: 06a0 14be 68be cb3c 35f5 e7bd 9e76 0d3e
00000200: e1d9 d63d 8cea 0bbe dafc 5dbe 2d33 8ebe
00000210: f468 3a3e bfab 573e 5426 26bd 3b6d 49be
00000220: 76f1 0bbe 5d24 873d be32 d73d 0cea 28be
00000230: 7174 133e 36c0 353e 33b6 72be 3984 763e
00000240: f037 19be e157 7d3c 7a2d 82be 3649 8bbe
00000250: bf81 103e 9dad 7b3d 5bf8 bebd 5f7c 06be
00000260: f1b8 71bd 9615 013e b499 7fbd b31a 52be
00000270: b4f4 423d d906 ad3c 8463 b8bd 8a60 593e
00000280: f729 273e 00fb 11be fa9a b4bd 09c8 6c3e
00000290: 7290 0f3e 405f 743e 1a84 4a3e bb5a 8dbd
000002a0: 4550 3bbe 293a 203e 383d d0bd 0099 c93d
000002b0: b3e4 e63d 0409 58be 06e2 73be cfd6 d4be
000002c0: 7140 60bd 1ca7 893c f7a0 ba3e 2a74 eb3d
000002d0: ce58 03be 5080 00be b16a 93be cb16 903e
000002e0: a517 39be ffad afbe e85f 0cbe b98a 903e
000002f0: fbb7 b2bd 7f78 78bc 25ab a53d f4e9 783d
00000300: d6f9 2abe 87ee b3bb 9a1c ac3d 4bc5 343c
00000310: 93e6 aabd abae 15be c215 9f3d dd38 b53d
00000320: 69fc d3bc d118 05be e193 1d3e f271 f63d
00000330: f1ef 8bbd d255 babd d6d2 bcbd fe4d a43d
00000340: c90a 203c 254f 8cbd 87d8 6ebd bf00 123e
00000350: bf6e fdbd 65d8 1d3d fe2b 47bd a394 f53d
00000360: 250b 2dbc 1b42 a5bd d9c1 163e c9af ecbd
00000370: 0b84 90bd 5a76 063e c89d 86bd cfa5 15bd
00000380: 28e9 0d3e bf7b 02be 5ed6 43be 545a 5f3c
00000390: 35c8 e83d be6e 273e 1a7e a2be 8e76 9e3d
000003a0: 0957 443e dc24 1f3d d440 cfbd afaf 483e
000003b0: ca35 eb3d 8f92 1fbe 0c71 edbe 5018 8fbc
000003c0: 63c0 153e 8e4b 2cbe 9bc2 aebe 01e6 02be
000003d0: 45c4 9e3d f62f 92be 4089 ea3d c59f 8cbe
000003e0: 4b7e 14be bb25 7bbe 5db2 32be 7c4a 273d
000003f0: e712 573e 8c6f ccbd 9f79 96bd 2eee 5c3e

stack.3.0.bias f4 [10]
-0.20242852 -0.08345997 0.04058811 -0.14998151 -0.046172373 0.18404393 -0.052332498 0.08478671
-0.06247269 0.03540801
00000000: 6c49 4fbe 10ed aabd b83f 263d c194 19be
00000010: 3e1f 3dbd 0376 3c3e 9a5a 56bd a8a4 ad3d
00000020: 5de3 7fbd fd07 113d
