src/fminst/models/teacher_5cl_9.pt (torch, 447183 bytes, 8 tensors)

stack.0.0.weight f4 [128, 784]
0	0x3d6427a7	0.055701878
1	0x3ce17ffa	0.027526844
2	0x3cf71174	0.03015969
3	0x3d664b4a	0.056224145
4	0xbb3e3cc0	-0.002902791
5	0x3d9f0be4	0.0776594
6	0x3dc53533	0.096292876
7	0x3de95f07	0.11395078
8	0xbcf4d453	-0.0298864
9	0x3d0f74ec	0.035023615
10	0x3db6085b	0.088883124
11	0x3d32ee77	0.04368445
12	0x3c2b959c	0.010472681
13	0xbd3adf2b	-0.045622986
14	0xbd3d0ee1	-0.046156768
15	0x3c67b59e	0.014142422
16	0x3d84b05a	0.06478949
17	0x3d81cf39	0.06338353
18	0x3c5fb8e5	0.013654922
19	0xbd2c87d4	-0.042121723
20	0x3b2be5ab	0.0026229422
21	0x3df9ed50	0.12203467
22	0x3d8bb9df	0.068225615
23	0xbc6df7e3	-0.014524433
24	0x3d45c065	0.048279185
25	0x3c2f5ead	0.010703725
26	0x3da10eee	0.07864176
27	0x3d83c39a	0.064337924
28	0x3da8207b	0.0820932
29	0x3d45bbbe	0.048274748
30	0x3c6c14d6	0.014409265
31	0x3d84a7e3	0.06477334
32	0x3d759c5f	0.05996358
33	0x3dc19294	0.09451786
34	0x3de5daf8	0.112234056
35	0xbb9a8983	-0.0047160997
36	0x3cc47a1c	0.023984008
37	0x3d95d8a5	0.07316712
38	0x3ce01dd2	0.02735797
39	0x3c0d7e29	0.008636036
40	0x3d8be13b	0.06830069
41	0x3ce7f400	0.02831459
42	0x3d8973ed	0.06711564
43	0x3cb47e84	0.022032984
44	0xbd194441	-0.037418608
45	0xbc871000	-0.016487122
46	0x3aee18b3	0.001816532
47	0x3d62b095	0.055344183
48	0xbbad2df2	-0.005285018
49	0x3ca89afe	0.020581719
50	0x3db6e555	0.0893046
51	0x3d3ccf21	0.04609597
52	0x3d638115	0.055543024
53	0x3d255435	0.04036351
54	0x3babf9b1	0.0052482714
55	0x3d065825	0.032798905
56	0x3d319d8c	0.04336314
57	0x3c67b294	0.014141697
58	0xbd046c47	-0.032329824
59	0x3d6d5ee4	0.057951823
60	0xba411fe0	-0.00073671155
61	0x3cce1d1b	0.025160363
62	0xbc449b7f	-0.011999964
63	0x3d04507f	0.03230333
64	0x3d55d097	0.05220088
65	0x3c8b702f	0.017021267
66	0x3ba1e21a	0.0049402835
67	0x3c272fde	0.0102042835
68	0xbd1e4aac	-0.03864543
69	0x3d18f556	0.037343346
70	0x3ca55091	0.020180019
71	0xbd14438b	-0.036197226
72	0xbd4f7226	-0.05064597
73	0x3d2ef1b7	0.042710986
74	0xbcbef1f6	-0.023308735
75	0x3cca945b	0.024728945
76	0x3ce02784	0.027362593
77	0xbd585c0a	-0.05282215
78	0xbcf63bab	-0.030057749
79	0x3d957181	0.0729704
80	0x3d84b38d	0.06479559
81	0x3d2521aa	0.040315308
82	0xbcc23a35	-0.023709396
83	0xbbba9db3	-0.0056950687
84	0x3d2db47e	0.04240846
85	0x3cdf08c5	0.027225861
86	0x3ce2fba8	0.02770789
87	0xba213523	-0.00061495806
88	0x3c99d6b0	0.018779129
89	0x3c202945	0.009775464
90	0xbb99d2eb	-0.004694333
91	0xbb2eb896	-0.0026660315
92	0x3c81b3b7	0.015832765
93	0x3c785809	0.015157708
94	0xbd0fed87	-0.035138633
95	0xbc6017f5	-0.013677587
96	0x3ca1e112	0.019760642
97	0xbc8001ed	-0.015625918
98	0xbc9bbcba	-0.01901089
99	0x3c87cfdb	0.016578605
100	0x3caa75d5	0.02080814
101	0x3d2a2f18	0.04154882
102	0xbce8d70b	-0.028422853
103	0x3c9302bf	0.017945645
104	0xbc9d5340	-0.019204736
105	0xbd19de5d	-0.037565578
106	0xbd198cb6	-0.037487708
107	0xbd6bb7a2	-0.057548173
108	0x3d8fa5c8	0.07014042
109	0x3d9f1174	0.07767001
110	0x3c927750	0.017879158
111	0xbc28771c	-0.010282304
112	0x3d4b4deb	0.049634855
113	0x3cb21957	0.021740599
114	0x3d45fb84	0.048335567
115	0x3d875f53	0.066099785
116	0xbad6475a	-0.0016348169
117	0xba31e546	-0.00067861786
118	0xbd00b9d7	-0.03142723
119	0x3d060106	0.03271582
120	0xbb2cf2cb	-0.0026389833
121	0xbb3f5222	-0.0029193242
122	0x3c813c0c	0.015775703
123	0x3d33cbdc	0.043895587
124	0xbcfb1c22	-0.030653063
125	0x3cc38631	0.023867698
126	0xbc9c5e49	-0.019087927
127	0x3c36b5d0	0.011151746
128	0x3d0cbd24	0.034360066
129	0xbc637610	-0.013883129
130	0x3bfe996e	0.007769755
131	0xbcf67982	-0.030087236
132	0xbc98ff9d	-0.018676573
133	0xbd2cc852	-0.042183228
134	0xbd9bdaec	-0.076101154
135	0x3c8df8e3	0.017330592
136	0x3d3ca8c5	0.04605939
137	0x3d8599e6	0.065234944
138	0x3d869657	0.06571644
139	0x3d96b465	0.07358626
140	0x3d5ced19	0.05393705
141	0x3d8d16c8	0.06889111
142	0xbc786a71	-0.015162096
143	0x3dadce96	0.08486669
144	0x3c8e5c7f	0.01737809
145	0xbc788ccf	-0.01517029
146	0xbc637cf3	-0.013884771
147	0xbbaaf93c	-0.0052176993
148	0x3ca6e84b	0.020374438
149	0xbc278c66	-0.010226345
150	0x3d30dfac	0.04318206
151	0x3cb98b19	0.022649335
152	0x3b63e392	0.0034773094
153	0x3cc0430a	0.023469467
154	0xbcaf2ec0	-0.021384597
155	0xbc6a1885	-0.0142880725
156	0x3c3ec107	0.011642701
157	0xbbe20cc5	-0.006898495
158	0xbcad5148	-0.021156922
159	0xbd03fdf2	-0.032224603
160	0xbd2ff794	-0.04296072
161	0xbd506859	-0.050880764
162	0xbb37491e	-0.0027967165
163	0xbc05a5ff	-0.008157252
164	0x3d05d95a	0.032677986
165	0x3d228aa2	0.03968299
166	0x3d9286ed	0.07154641
167	0x3db834e5	0.08994464
168	0x3d81f188	0.063448966
169	0x3d84707c	0.06466767
170	0x3c5dbbe7	0.013533569
171	0x3c73f167	0.014889098
172	0xbd3da365	-0.046298403
173	0xbd8cac0d	-0.068687536
174	0x3c44bbc1	0.012007655
175	0xbc64da0b	-0.013968001
176	0x3c86fabd	0.016476983
177	0x3d594ee0	0.053053737
178	0x3d8ccf00	0.068754196
179	0x3d159cc5	0.03652646
180	0xbc54077c	-0.012941238
181	0xbd0e2dd0	-0.03471166
182	0xbd622b58	-0.055217117
183	0xbd297b8b	-0.041377585
184	0x3bd85220	0.006601587
185	0xbc546d5f	-0.012965529
186	0x3cfff21b	0.031243375
187	0xbc779ddd	-0.015113321
188	0x3a870e0f	0.0010303872
189	0x3cc6a8e9	0.024250465
190	0x3c60db3a	0.013724143
191	0xbd282bb1	-0.041057292
192	0xbd35f641	-0.0444243
193	0xbcd98ffa	-0.026557911
194	0x3cd0d4f7	0.025492175
195	0x3db0e74d	0.08637867
196	0x3d85e339	0.0653748
197	0x3d6b7a9f	0.057489987
198	0xbc6dc92c	-0.014513295
199	0x3ca82c30	0.020528883
200	0xbda87420	-0.08225274
201	0xbcadce02	-0.021216396
202	0x3c91ca83	0.01779676
203	0xbcf3ddd7	-0.029768867
204	0xbb9d0106	-0.004791382
205	0x3d33dfca	0.043914594
206	0x3bd718f0	0.006564252
207	0xbc6b4031	-0.014358566
208	0xbb59fd71	-0.0033262635
209	0x3c600ddc	0.013675179
210	0x3c69fe86	0.0142818745
211	0x3c8b1a39	0.016980277
212	0x3c5cc095	0.0134736495
213	0xbca3faaa	-0.020016987
214	0x3cf3cd1f	0.029760895
215	0x3b9c463e	0.0047691157
216	0x3b96c7c0	0.004601449
217	0x3b4ce7c9	0.0031266084
218	0x3baf70a8	0.005354006
219	0xbc49d7ee	-0.012319548
220	0xbd656a3d	-0.05600952
221	0xbcebe491	-0.028795512
222	0x3d24e231	0.040254775
223	0x3cf0d635	0.029399017
224	0x3d038437	0.03210851
225	0x3c771642	0.01508099
226	0x3b769d65	0.0037630436
227	0xbd8474c8	-0.06467587
228	0xbdab5f0c	-0.08367738
229	0xbc8f6331	-0.017503353
230	0xbcb75c8b	-0.022382995
231	0xbc05cc01	-0.008166314
232	0xbb42a538	-0.0029700529
233	0xbc993f2d	-0.018706882
234	0xbd025c2c	-0.031826183
235	0x3cf21490	0.02955082
236	0x3c47e000	0.012199402
237	0xbcf33a63	-0.029690927
238	0xbcee0a2e	-0.029057588
239	0xbc4fc97b	-0.012682314
240	0x3c640bba	0.013918811
241	0xbc883bae	-0.01663002
242	0xbd8a35e6	-0.067485616
243	0xbd00b046	-0.031418107
244	0x3c859cba	0.016310085
245	0x3cfbe5bd	0.030749196
246	0xbcafa5d2	-0.021441374
247	0xbd0f2ff6	-0.03495785
248	0xbda9e3fc	-0.08295438
249	0xbb5935ea	-0.0033143708
250	0x3c14af46	0.009074992
251	0x3d221aca	0.03957633
252	0x3d9d5a71	0.07683266
253	0x3d8e2a62	0.06941678
254	0x3c8c55aa	0.017130692
255	0xbd1a6100	-0.037690163

stack.0.0.bias f4 [128]
0	0x3e0a8cae	0.13530228
1	0x3d888ed4	0.06667867
2	0xbb34e692	-0.002760325
3	0xbc58fdbb	-0.013244088
4	0xbd8353e9	-0.06412489
5	0x3d819dcc	0.063289255
6	0xbe029ab1	-0.12754323
7	0x3d62b254	0.05534585
8	0x3e0fe2a3	0.14051299
9	0x3e045b42	0.12925437
10	0x3b3821cd	0.0028096319
11	0x3db8b1da	0.090182975
12	0x3d0d46ce	0.034491353
13	0x3dc6fa59	0.09715719
14	0x3d316a28	0.04331413
15	0x3d3faec8	0.046797544
16	0x3d7d1fbc	0.061797842
17	0x3dab6fc1	0.08370925
18	0x3e000b65	0.12504347
19	0x3e22f0e3	0.15912203
20	0x3e491ef1	0.1964071
21	0x3d9ac8ce	0.07557832
22	0x3cb6d9ca	0.022320647
23	0x3da5d4e0	0.08097243
24	0x3dd56881	0.10420323
25	0x3d878b6c	0.066183895
26	0xbc09dc82	-0.00841439
27	0xbe0f53e8	-0.13996851
28	0x3dcb3bc1	0.099235065
29	0xbdadf392	-0.08493723
30	0x3e17d19a	0.1482605
31	0x3d894697	0.06702917
32	0xbd7e8d2c	-0.06214635
33	0xbd84b31e	-0.064794764
34	0x3dc39d80	0.09551525
35	0x3dfe34d6	0.124124214
36	0x3e52c959	0.2058462
37	0xbd1d93cf	-0.03847104
38	0x3df1ebc2	0.11812545
39	0xbd34d322	-0.044146664
40	0xbcf9be30	-0.030486196
41	0xbd2a9d2d	-0.0416538
42	0xbd190870	-0.037361562
43	0x3a0b87e7	0.000532268
44	0x3e2792b7	0.16364561
45	0xbd69b522	-0.057057507
46	0x3d17057c	0.036870465
47	0xbd0c6e5e	-0.03428494
48	0xbd50be53	-0.050962757
49	0x3d6eb4d0	0.058277905
50	0x3d74477c	0.059638485
51	0x3d5b1431	0.053486053
52	0xbdbbcbba	-0.09169717
53	0x3dd92edc	0.10604641
54	0xbdaf1635	-0.085491575
55	0xbd34dde2	-0.044156916
56	0xbce2c597	-0.027682109
57	0xbdc52e3b	-0.096279584
58	0xbd3af273	-0.045641374
59	0xbba240a2	-0.0049515525
60	0xbc9a8747	-0.018863333
61	0x3def9f06	0.11700253
62	0x3dad34ee	0.08457361
63	0xbb9079af	-0.004409037
64	0x3de2e7da	0.110793784
65	0xbbc093c9	-0.0058769924
66	0x3db77b41	0.08959056
67	0x3dbcb28a	0.09213741
68	0x3e1427ab	0.14468257
69	0x3e0d9cc8	0.13829339
70	0x3e2aa3e1	0.16664077
71	0x3d4a210a	0.049347915
72	0xbd673775	-0.056449372
73	0xbe01f690	-0.12691712
74	0x3e28d660	0.16488028
75	0x3cabfbd5	0.020994106
76	0xbd627dc2	-0.055295713
77	0x3dc3f233	0.0956768
78	0x3da93df0	0.08263767
79	0x3d09260b	0.033483546
80	0x3e07717e	0.13226888
81	0x3ccde004	0.025131233
82	0x3d9dc9ea	0.07704528
83	0x3d9ff905	0.078111686
84	0x3e22731f	0.15864228
85	0x3d4342bb	0.04767106
86	0xbd225176	-0.03962847
87	0xbd9e8b15	-0.077413715
88	0x3dd5bd2b	0.104364716
89	0xbb449ea2	-0.003000178
90	0xbe10cf3a	-0.1414155
91	0x3c068001	0.008209229
92	0x3d9e296b	0.077227436
93	0xbccfa7e4	-0.025348611
94	0x3e3712ad	0.17878218
95	0x3dbc4dce	0.091945276
96	0x3d893627	0.06699782
97	0x3d8238a7	0.06358462
98	0x3c562a0a	0.013071546
99	0x3df5e257	0.120060615
100	0x3e5134cc	0.20430297
101	0xbd921b26	-0.071340844
102	0x3de4cb50	0.11171591
103	0x3e4367b0	0.19082522
104	0x3d9df6c4	0.077130824
105	0x3d87ba5a	0.066273406
106	0x3e693d92	0.22777393
107	0x3da13f63	0.07873418
108	0x3da63153	0.081148766
109	0x3e149eb3	0.14513664
110	0xbdffd994	-0.124926716
111	0x3e34e520	0.17665529
112	0x3dfacac2	0.12245704
113	0x3d8ba6f5	0.06818954
114	0x3df9034c	0.12158832
115	0xbd836a8c	-0.064168066
116	0x3e44eeec	0.19231766
117	0xbc947e14	-0.018126525
118	0xbc47d649	-0.012197086
119	0xbc4889ac	-0.012239855
120	0x3e401648	0.187585
121	0x3d539acb	0.051661294
122	0xbdab05aa	-0.0835069
123	0xbd8a46fe	-0.06751822
124	0xbcf19c34	-0.029493429
125	0x3e0fa1e6	0.14026603
126	0x3d252334	0.040316775
127	0xbd09bea7	-0.033629086

stack.1.0.weight f4 [64, 128]
0	0xbd023e0d	-0.031797457
1	0xbd932abc	-0.07185885
2	0xbc4e3918	-0.012586854
3	0xbd18387c	-0.037163243
4	0xbda959d0	-0.082690835
5	0xbdb2c2d6	-0.08728568
6	0x3d1109a1	0.035409573
7	0x3d466f4d	0.04844599
8	0xbd0ac350	-0.03387767
9	0x3cfa97d8	0.030589983
10	0xbd8b50e7	-0.0680254
11	0xbd4e5049	-0.050369535
12	0x3da94583	0.082652114
13	0x3c880c9e	0.016607579
14	0x3c960167	0.018311216
15	0xbbd26cdf	-0.00642167
16	0x3cc45562	0.023966495
17	0xbd566fd8	-0.052352756
18	0xbd8ea3b9	-0.06964821
19	0x3bb65648	0.0055644847
20	0xbd74e7f4	-0.05979152
21	0x3c112888	0.008859761
22	0x3cc92bc7	0.024557007
23	0x3c07e921	0.008295328
24	0xbd855a9b	-0.06511422
25	0x3da02ea0	0.07821393
26	0xbd5f1916	-0.054467283
27	0xbc405cd0	-0.011740878
28	0xbd222a99	-0.039591406
29	0xbdb28b69	-0.087179966
30	0x3d689195	0.056779463
31	0xbd2539ac	-0.040338203
32	0xbd2113e3	-0.039325606
33	0xbcaf63c4	-0.021409877
34	0x3d72abac	0.05924575
35	0x3d5cefdd	0.05393969
36	0x3cf293a3	0.029611414
37	0xbd90df48	-0.070738375
38	0xbd8a2c91	-0.067467816
39	0x3aa1aa19	0.0012334018
40	0xbdac1423	-0.08402278
41	0x3d248c87	0.04017308
42	0xbca65d76	-0.020308238
43	0xbd364920	-0.04450333
44	0xbcad76b5	-0.021174768
45	0xbc73fe9e	-0.014892248
46	0x3cb477bd	0.022029752
47	0xbce76a47	-0.02824892
48	0xbce40597	-0.027834697
49	0x3d6d0e5c	0.057875022
50	0x3a98e350	0.0011664424
51	0xbd1febca	-0.039043225
52	0xbd45b383	-0.0482669
53	0x3d61dd22	0.05514253
54	0xbccd3210	-0.025048286
55	0x3da56c62	0.08077313
56	0xbd6b43a2	-0.057437547
57	0x3d1979fe	0.037469856
58	0x3d73e619	0.05954561
59	0x3bc1b5d7	0.0059115696
60	0x3d99a458	0.07502049
61	0xbc56fed7	-0.013122282
62	0x38d9d055	0.00010386171
63	0xbd49757f	-0.04918432
64	0x3d984451	0.07434905
65	0x3c742ce1	0.014903278
66	0x3d2929ef	0.041299757
67	0xbce75d74	-0.028242804
68	0x3d677699	0.056509588
69	0xbc5150e4	-0.0127756335
70	0x3c8690c3	0.01642645
71	0xbd118b80	-0.03553343
72	0xbd10ed9a	-0.035382845
73	0xbcf2e8be	-0.029651996
74	0xbdb08241	-0.08618594
75	0xbd83fa36	-0.06444208
76	0xbccd075a	-0.02502792
77	0xbda6f9a1	-0.08153082
78	0xbdae6cf8	-0.08516878
79	0xbdb39b9c	-0.087699145
80	0x3d03b7ce	0.03215771
81	0x3da75742	0.0817094
82	0xbd1fc669	-0.039007578
83	0xbd928cc9	-0.07155759
84	0xbd2a7fdd	-0.041625846
85	0xbdb95b7f	-0.090506546
86	0xbcd6ac88	-0.026205316
87	0x3d104a61	0.035227183
88	0x3b900d90	0.004396148
89	0xbd9a620e	-0.07538234
90	0x3d0a5911	0.033776347
91	0xbdb1f299	-0.0868885
92	0xbd142e91	-0.03617722
93	0x3d2a1075	0.0415196
94	0xbcfd4eda	-0.030921388
95	0x3d94f095	0.0727245
96	0xbc07b63c	-0.008283194
97	0xbc69feb4	-0.014281917
98	0xbd8c3465	-0.06845931
99	0xbc122ed7	-0.0089223
100	0xbd4ce7bf	-0.050025698
101	0x3d373825	0.044731278
102	0xbba6f9f3	-0.0050957142
103	0xbd60f833	-0.0549242
104	0xbd0c9422	-0.034320958
105	0xbda11904	-0.078660995
106	0x3d47ed79	0.048810456
107	0x3d03c06b	0.032165926
108	0x3d892fb2	0.0669855
109	0xbd840c3a	-0.064476445
110	0x3d8380b3	0.06421032
111	0x3c778426	0.01510719
112	0x3c1e9662	0.009679409
113	0x3d6a6dc9	0.057233606
114	0x3db0053a	0.08594747
115	0xbd09133d	-0.033465613
116	0xbc582179	-0.013191574
117	0xbd047d25	-0.03234591
118	0x3cadf52c	0.021235071
119	0x3d33d0f9	0.043900464
120	0x3d922e51	0.071377404
121	0x3d1ab9b4	0.037774757
122	0x3db0e650	0.086376786
123	0x3d24471d	0.04010688
124	0x3d7ec648	0.062200814
125	0xbdb49ec8	-0.088193476
126	0x3d8e5052	0.06948914
127	0x3d0ea0bd	0.03482126
128	0x3cc2e341	0.023790004
129	0x3d213c39	0.039364073
130	0xbcff180c	-0.031139396
131	0xbb3b7fb8	-0.0028610062
132	0xbc918073	-0.017761445
133	0xbd451728	-0.048117787
134	0xbd54c0f5	-0.05194183
135	0x3cdc14a4	0.026865311
136	0xbc8085e4	-0.015688844
137	0x3df12065	0.11773757
138	0x3d9427c7	0.072341494
139	0xbdfd2881	-0.12361241
140	0xbd1d3430	-0.038379848
141	0x3d860676	0.06544201
142	0xbd12ca99	-0.035837743
143	0x3d8d65d1	0.069041856
144	0xbcfd0c1a	-0.03088956
145	0x3d4a491c	0.04938613
146	0x3deb79b5	0.11497823
147	0xbcb49c01	-0.022047045
148	0x3d27985c	0.040916786
149	0x3dbbea70	0.09175575
150	0xbd4e564c	-0.050375268
151	0xbcd9753d	-0.026545161
152	0xbd3e8ad0	-0.0465191
153	0x3cfda9a7	0.030964686
154	0x3dc422ae	0.09576927
155	0x3d970ce4	0.073755056
156	0xbda4d635	-0.08048669
157	0xbd80ee5c	-0.062954634
158	0xbc4d45fb	-0.012528892
159	0x3d387012	0.045028754
160	0x3d993a49	0.0748182
161	0x3bcd0463	0.0062566265
162	0x3e0f0090	0.13965058
163	0x3b602ab6	0.0034205145
164	0x3d79a4fe	0.060948364
165	0x3d49271e	0.04910957
166	0x3d904dff	0.070461266
167	0xbd71170c	-0.05885987
168	0x3ddcb846	0.10777335
169	0xbd38a3a6	-0.045077942
170	0xbd9688d3	-0.07350316
171	0x3db1c15e	0.0867946
172	0x3d2bc286	0.04193356
173	0xbd5779a2	-0.052606232
174	0x3b265eb3	0.0025386035
175	0x3c1002a2	0.00878969
176	0xbc7e3329	-0.015515127
177	0x3e1e79e4	0.15476185
178	0xbcb4d793	-0.02207545
179	0xbdbae604	-0.09125903
180	0xbcc3b3a8	-0.023889378
181	0x3d1faa1c	0.03898059
182	0x3c1867c3	0.0093020825
183	0xbb4329a7	-0.0029779465
184	0xbbfcaa38	-0.0077107213
185	0xbce3c165	-0.027802179
186	0xbce03aab	-0.027371725
187	0x3dc36060	0.095398664
188	0x3d2ef451	0.042713467
189	0xbd2c414b	-0.042054456
190	0x3d087278	0.03331229
191	0x3db4931c	0.088171214
192	0x3d997025	0.07492093
193	0x3c5e2b63	0.013560149
194	0xbc8eb67c	-0.017421
195	0xbd66e890	-0.056374133
196	0xbd0f9d42	-0.035062082
197	0x3dc761c4	0.09735444
198	0xbcc9ddf9	-0.024641978
199	0x3d89b268	0.067234814
200	0xbddedef1	-0.108823664
201	0xbcc1e97c	-0.023670904
202	0x3d8d00aa	0.06884892
203	0x3e053d76	0.13011727
204	0xbd97f22f	-0.0741924
205	0xbca99cb4	-0.020704605
206	0x3d8e41bd	0.06946132
207	0x3dc270eb	0.09494194
208	0xbdb5a29a	-0.088689044
209	0x3cc59da8	0.024123028
210	0x3de6fd14	0.112787396
211	0x3d8ec4c5	0.069711246
212	0x3dad88ae	0.08473335
213	0xbdc54885	-0.09632973
214	0x3c2c38e9	0.010511615
215	0xbdfd1e7b	-0.12359329
216	0x3e8713e2	0.26382357
217	0x3db29f40	0.08721781
218	0xbc684cac	-0.014178436
219	0x3de2968d	0.110638715
220	0xbdcc0491	-0.099618085
221	0x3a5db273	0.0008457072
222	0x3dc856bc	0.09782168
223	0xbd4f7963	-0.050652873
224	0x3db83f6a	0.0899647
225	0x3d497463	0.04918326
226	0x3dc8e37f	0.098090164
227	0x3dda8c54	0.10671297
228	0xbd477ed2	-0.04870493
229	0x3d1e4f78	0.038650006
230	0xbbc22639	-0.0059249667
231	0x3c426ac2	0.011866273
232	0x3de80956	0.11329906
233	0x3bb949c0	0.0056545436
234	0x3da55f62	0.080748335
235	0x3baaeb19	0.005216014
236	0x3dd94eab	0.10610708
237	0xbcb74053	-0.02236954
238	0x3be2b899	0.0069189784
239	0x3da4663d	0.08027313
240	0x3d369f04	0.044585243
241	0x3dd23b5d	0.10265229
242	0xbad1840c	-0.0015984788
243	0x3db6c450	0.089241624
244	0xbd890895	-0.0669109
245	0xbc0ef918	-0.008726381
246	0x3d9e91fd	0.07742689
247	0xbd83279e	-0.06404041
248	0x3d3e0630	0.04639262
249	0xbbec7a8d	-0.0072167576
250	0x3d8ad586	0.067790076
251	0xbdab4b9d	-0.083640315
252	0xbdc3a520	-0.095529795
253	0xbd677b49	-0.05651406
254	0x3d7f2e31	0.06229991
255	0xbc5728bf	-0.013132273

stack.1.0.bias f4 [64]
0	0x3b4c1ab2	0.0031143841
1	0x3e29bd48	0.16576111
2	0xbdcc1af3	-0.09966078
3	0xbcd40b06	-0.025884163
4	0xbe152c97	-0.14567791
5	0x3c7fc165	0.015610074
6	0x3d9591ec	0.07303223
7	0x3dcb7039	0.09933514
8	0xbd1f1da3	-0.038846623
9	0xbdc2ad0e	-0.09505664
10	0x3dc112f7	0.094274454
11	0xbc486fb7	-0.012233666
12	0x3e0b3e2b	0.13597934
13	0xbc6ed943	-0.014578166
14	0x3e01c52a	0.12672868
15	0x3e147a0e	0.14499685
16	0x3e0067d3	0.12539606
17	0x3d20611a	0.039155103
18	0x3d89cf35	0.06728975
19	0x3c3d64ad	0.0115596475
20	0xbdbc5fb7	-0.09197944
21	0xbbba35cc	-0.0056826826
22	0xbce572c8	-0.028008834
23	0x3ddf688b	0.10908612
24	0xbccf4b0c	-0.02530434
25	0x3d7cfc24	0.061763898
26	0xbda20700	-0.079114914
27	0x3d2f6652	0.04282219
28	0x3c853482	0.01626039
29	0xbb305e4b	-0.0026911672
30	0x3cf6439e	0.03006154
31	0xbd177fb9	-0.03698704
32	0x3e586c9d	0.21135183
33	0xbb9b690c	-0.004742747
34	0x3dabcd4a	0.08388765
35	0xbceda81b	-0.029010823
36	0x3e623974	0.22092229
37	0x3d1295aa	0.035787262
38	0x3d124c54	0.035717323
39	0xbda2d9b5	-0.079516806
40	0x3db322ef	0.087468974
41	0xbb689a03	-0.0035492189
42	0x3e35cebd	0.17754646
43	0xbd764a45	-0.060129423
44	0x3daf3bc5	0.08556322
45	0xbe228644	-0.15871531
46	0x3d714752	0.058905907
47	0x3dd8323e	0.10556458
48	0x3e443c23	0.19163565
49	0x3e17b377	0.14814554
50	0xbe0ace82	-0.13555339
51	0xbb776014	-0.0037746476
52	0xbd38231c	-0.044955358
53	0x3d5a1d64	0.053250685
54	0xbd55e852	-0.05222351
55	0x3dd5ee1a	0.10445805
56	0x3e0b87a4	0.13625962
57	0x3da4eda6	0.0805314
58	0xbe1f08a3	-0.15530638
59	0x3d6146a1	0.054998998
60	0xbdb2d911	-0.087328084
61	0x3bd3f484	0.0064683575
62	0x3ca53b43	0.02016986
63	0x3e31a908	0.17349637

stack.2.0.weight f4 [32, 64]
0	0x3d1adc3f	0.0378077
1	0xbd6dad73	-0.058026742
2	0x3e2bd711	0.1678126
3	0x3c9378a6	0.018001866
4	0xbdcf5031	-0.10122717
5	0x3ca327d5	0.019916454
6	0x3d46caf8	0.04853341
7	0xbd685f7c	-0.056731686
8	0xbd26d65a	-0.040731765
9	0xbe41ea18	-0.18936956
10	0x3db93bfa	0.09044643
11	0x3da7894f	0.081804864
12	0xbc519f11	-0.012794272
13	0xbd7f5985	-0.06234123
14	0x3e33d6d8	0.17562425
15	0x3e556d87	0.20842563
16	0xbc4c9c4d	-0.012488437
17	0x3e45092c	0.1924178
18	0x3ca7ea3c	0.020497434
19	0x3e09a65f	0.13442372
20	0x3c1076e8	0.008817412
21	0x3d80a5e3	0.062816404
22	0x3e10f972	0.14157656
23	0xbd8e9549	-0.06962068
24	0xbc9023b5	-0.017595151
25	0x3dceedb0	0.10103929
26	0xbb8273de	-0.0039810976
27	0x3e29a52c	0.16566914
28	0xbd641ca9	-0.055691395
29	0xbe0952f7	-0.13410555
30	0x3d8bb578	0.06821722
31	0xbe10e3dd	-0.14149423
32	0x3c43a956	0.011942228
33	0xbd8dbda1	-0.069209345
34	0x3e11bf2d	0.14233084
35	0xbd72a34f	-0.059237774
36	0x3d7063ad	0.05868881
37	0x3da6933a	0.0813355
38	0xbda2210e	-0.07916461
39	0xbe080eb6	-0.13286862
40	0x3d257044	0.040390268
41	0x3d99766b	0.074932896
42	0xbccd49ec	-0.025059663
43	0x3d21c945	0.039498586
44	0x3dd9b28c	0.10629758
45	0xbe0e03da	-0.13868657
46	0xbda7ae70	-0.08187568
47	0x3cdef5bf	0.02721679
48	0xbd169f11	-0.03677279
49	0x3e09c9c4	0.13455874
50	0xbc925c13	-0.01786617
51	0xbd7a5706	-0.06111815
52	0x3a98ea17	0.0011666444
53	0xbcf3c46a	-0.029756743
54	0xbd049528	-0.03236881
55	0xbb174a92	-0.002308522
56	0xbdfdff01	-0.12402154
57	0xbd7da2d5	-0.061922867
58	0x3dbda9ad	0.09260879
59	0x3e048884	0.12942702
60	0xbc83f0c3	-0.016106015
61	0x3df46313	0.119329594
62	0x3d5089cd	0.050912667
63	0xbdc14df1	-0.09438694
64	0x3d27d8e0	0.040978312
65	0xbe2fa75a	-0.17153683
66	0xbcddbaa6	-0.02706654
67	0x3d8987c7	0.067153506
68	0x3d6901bc	0.05688642
69	0xbd8615be	-0.06547116
70	0xbdb0339d	-0.086035945
71	0x3da1a484	0.07892707
72	0x3e19f300	0.15034103
73	0x3e19cf65	0.15020521
74	0xbce35456	-0.027750175
75	0xbd60c97a	-0.054879643
76	0xbcd362c6	-0.025803935
77	0xbbe204cf	-0.006897546
78	0x3d1c3946	0.038140558
79	0x3c305c37	0.010764173
80	0xbdbce601	-0.09223557
81	0xbdd4f39b	-0.103980266
82	0x3d7daa5b	0.06193004
83	0xbdd5b3ee	-0.104347095
84	0x3e450d3f	0.19243334
85	0xbe44c84e	-0.19217035
86	0xbd994447	-0.07483726
87	0xbe0013f3	-0.1250761
88	0xbcab2430	-0.020891279
89	0x3c63b395	0.013897796
90	0xbbb4127f	-0.005495369
91	0x3db304bc	0.087411374
92	0x3d812c4d	0.06307278
93	0xbba419cf	-0.0050079594
94	0x3e015d5f	0.12633274
95	0x3e25628a	0.16150871
96	0x3c68124e	0.01416452
97	0xbd2aaf3b	-0.04167102
98	0x3c8e9143	0.01740325
99	0x3dfb9079	0.12283415
100	0x3d80b847	0.06285148
101	0xbdf4d219	-0.119541354
102	0x3c863da8	0.016386822
103	0x3ce03d13	0.027372872
104	0x3dd7c23b	0.105350934
105	0xbcd6a77a	-0.026202906
106	0xbd36f58e	-0.044667773
107	0x3c76a79a	0.015054608
108	0x3c2bfdeb	0.0104975505
109	0xbe220cc1	-0.15825178
110	0x3dad1c8a	0.08452709
111	0xbdeb1a17	-0.114795856
112	0xbe0a4760	-0.1350379
113	0x3dd83fde	0.10559057
114	0x3e23a975	0.15982611
115	0x3d978710	0.07398808
116	0xbc9ce8c1	-0.019153954
117	0xbdc0a5ff	-0.09406661
118	0xbd57f2b9	-0.052721713
119	0xbe51c2b6	-0.20484433
120	0x3dd3f16b	0.10348781
121	0x3ddc3fbf	0.10754346
122	0xbdceb93a	-0.10093923
123	0xbe069714	-0.13143569
124	0xbdfadcbd	-0.12249134
125	0xbcdb0951	-0.02673784
126	0x3de2e129	0.11078102
127	0xbe30efab	-0.17278926
128	0xbd8f3fc3	-0.069945835
129	0x3deb0e5b	0.114773475
130	0xbd550059	-0.052002285
131	0xbdafa25f	-0.08575892
132	0xbd887443	-0.066628
133	0x3d1ff15c	0.039048538
134	0x3cc40ece	0.02393284
135	0x3d6676dc	0.056265697
136	0xbde1eae3	-0.11031129
137	0xbc9b2714	-0.018939532
138	0xbd79dec5	-0.061003465
139	0x3d9ffa42	0.07811405
140	0x3dc97ce2	0.09838273
141	0x3dccff10	0.10009587
142	0x3cd58adb	0.026067188
143	0x3daa89d9	0.083270736
144	0x3e1b1c24	0.15147454
145	0x3da4eded	0.08053193
146	0xbd6e44e4	-0.058171168
147	0xbdaf51f0	-0.0856055
148	0xbe4bf0bd	-0.19916053
149	0xbe02878a	-0.12747017
150	0x3d22cfe6	0.03974905
151	0x3d6e4f13	0.05818088
152	0xbdcde67f	-0.10053729
153	0xbd2d21c3	-0.042268526
154	0xbc7d5f36	-0.015464595
155	0xbd88fda7	-0.06689005
156	0x3e15ae61	0.14617302
157	0xbdefac40	-0.11702776
158	0xbd111ec0	-0.035429716
159	0x3d8790e2	0.06619431
160	0xbd4449e6	-0.047922038
161	0x3db7a018	0.08966082
162	0x3d8ba829	0.068191834
163	0x3d55f11a	0.052231885
164	0x3d17cde4	0.037061587
165	0x3d137197	0.035997
166	0xbdb29398	-0.087195575
167	0xbdb1497f	-0.086565964
168	0x3bc3a65c	0.0059707593
169	0x3dcd9d00	0.10039711
170	0x3d3eeb06	0.046610855
171	0xbd3f0320	-0.04663384
172	0x3db58887	0.08863931
173	0x3e09d3ee	0.13459751
174	0x3ded6641	0.11591769
175	0x3d9eeab7	0.07759612
176	0xbcc8a78e	-0.024493959
177	0x3c8a7ffe	0.016906735
178	0xbe913d77	-0.28367206
179	0xbdd20c12	-0.102562085
180	0xbd53eb95	-0.05173834
181	0xbdbe297b	-0.092852555
182	0xbdfd31ac	-0.1236299
183	0x3e482c2b	0.19548099
184	0x3de3e13e	0.11126946
185	0xbdf359f7	-0.11882394
186	0xbd811cab	-0.06304296
187	0x3e50e676	0.20400414
188	0x3d41769d	0.04723226
189	0xbdb7ca2e	-0.089741096
190	0xbb8b8db7	-0.004258837
191	0xbd42d696	-0.047567926
192	0xbd1d93c2	-0.03847099
193	0x3db8a9ab	0.090167366
194	0x3e5ede3e	0.21764466
195	0xbc617a61	-0.013762088
196	0x3d54973b	0.051902037
197	0xbcfeb927	-0.031094147
198	0x3df0063d	0.1171994
199	0xbe0440b1	-0.12915303
200	0x3d775b05	0.060389537
201	0x3de78f47	0.11306625
202	0xbc18888b	-0.009309898
203	0xbd3e1bf8	-0.04641339
204	0x3d157170	0.036485136
205	0x3deb765a	0.11497183
206	0x3d2b8b47	0.041880872
207	0x3d6dfc6c	0.058102056
208	0xbdc90069	-0.09814531
209	0xbd1e29cb	-0.038614076
210	0x3de4c8b6	0.11171095
211	0xbd4ffa06	-0.05077555
212	0x3df032b4	0.11728421
213	0x3e4462e8	0.19178355
214	0x3c8f2aae	0.017476406
215	0x3d877319	0.0661375
216	0x3d14ce32	0.036329456
217	0xbd977f0b	-0.073972784
218	0x3cba7b99	0.022764014
219	0x3cb77926	0.022396635
220	0xbdd0f74b	-0.102034174
221	0x3cfd8d6c	0.030951224
222	0x3e17eb4a	0.1483585
223	0x3d9769ed	0.073932506
224	0x3b5edaf5	0.003400502
225	0xbdef02c2	-0.11670448
226	0xbdd11cd9	-0.102105804
227	0xbd4c1a2d	-0.04982965
228	0x3c48bae4	0.012251589
229	0x3b105aaa	0.0022026696
230	0x3db13150	0.08651984
231	0x3d4d7373	0.05015893
232	0x3dd3b61e	0.103374705
233	0xbd4b5f2b	-0.049651306
234	0x3d09f914	0.033684805
235	0xbdd833ea	-0.10556777
236	0x3d860c28	0.06545287
237	0x3d290f92	0.041274615
238	0x3da75acd	0.08171616
239	0x3d164a96	0.036692224
240	0xbdae7868	-0.085190594
241	0x3d962478	0.073311746
242	0x3e7d5bd2	0.24742058
243	0x3c175cf2	0.0092384685
244	0x3dd3cf6d	0.10342298
245	0x3e15ae2f	0.14617227
246	0xbd887555	-0.06663004
247	0x3d1bf6a2	0.038077004
248	0x3dba1efd	0.09087942
249	0xbd0ee418	-0.034885496
250	0x3d700621	0.058599595
251	0xbdeea163	-0.11651876
252	0xbba30e04	-0.004976036
253	0x3c9b91b4	0.018990375
254	0x3d9c5e30	0.07635152
255	0x3d279784	0.04091598

stack.2.0.bias f4 [32]
0	0x3dcc08ff	0.09962653
1	0x3c162e12	0.009166257
2	0xbd1f33ed	-0.03886788
3	0x3ce6873b	0.028140655
4	0x3caa05ef	0.020754782
5	0xbd8d1bb9	-0.06890053
6	0xbda80704	-0.08204463
7	0x3e1a5b94	0.15073997
8	0xbca19deb	-0.019728621
9	0x3d2841cc	0.041078374
10	0x3e345371	0.17609955
11	0xbb0171ff	-0.0019751785
12	0x3e0bf593	0.13667898
13	0x3ddcb454	0.10776582
14	0xbd6fcbed	-0.05854409
15	0x3e1932bb	0.14960758
16	0x3ce0ce32	0.027442072
17	0xbe656f4a	-0.22405735
18	0xbd31fa84	-0.0434518
19	0xbb8b7eef	-0.004257075
20	0x3e45ddeb	0.19322936
21	0xbd4134ae	-0.04716938
22	0xbe1585df	-0.14601849
23	0x3cd08757	0.02545516
24	0x3d82ea06	0.06392293
25	0xbd9b275e	-0.07575868
26	0x3de169d2	0.11006512
27	0xbcf4d75c	-0.029887848
28	0x3cfe76fb	0.031062594
29	0x3db41c1d	0.08794425
30	0x3deabd49	0.114618845
31	0xbd84511a	-0.064607814

stack.3.0.weight f4 [10, 32]
0	0xbe6411f8	-0.2227248
1	0xbe634f31	-0.22198178
2	0x3e0316e0	0.12801695
3	0xbd26c29f	-0.04071295
4	0xbe15cc38	-0.14628685
5	0x3e403bcc	0.1877281
6	0xbd56d111	-0.052445475
7	0x3e15aa59	0.14615764
8	0x3e7278dc	0.23678917
9	0x3e5cc63c	0.21559995
10	0xbdbfec10	-0.09371197
11	0x3d7445ac	0.059636757
12	0xbe3cb8a2	-0.18429807
13	0xbe208f2d	-0.15679617
14	0x3d283882	0.041069515
15	0x3c914cc9	0.01773681
16	0xbd59055d	-0.05298363
17	0xbe70f97c	-0.2353267
18	0xbcf21b13	-0.029553926
19	0x3dce3b40	0.10069895
20	0x3e33fb42	0.17576316
21	0x3deda8c6	0.116044566
22	0xbdda7aea	-0.10667975
23	0xbe419ccf	-0.18907474
24	0xbe20a2af	-0.15687059
25	0xbe26d6e9	-0.16292919
26	0xbc6d1786	-0.01447094
27	0x3d8e2fca	0.06942709
28	0xbe2e23e2	-0.17005876
29	0x3e0571ba	0.13031664
30	0x3e83610f	0.25659987
31	0x3b1e7af5	0.0024182175
32	0x3de77336	0.113012716
33	0xbd86d133	-0.0658287
34	0xbe73af8f	-0.23797439
35	0x3e21a067	0.15783845
36	0x3e091443	0.13386635
37	0xbe16e4f5	-0.14735778
38	0xbde09297	-0.1096546
39	0xbe68b739	-0.22726144
40	0xbe22dce8	-0.15904582
41	0xbd61456c	-0.054997846
42	0xbe45f621	-0.19332172
43	0x3d77cf9d	0.06050073
44	0x3be56435	0.007000471
45	0x3dfe90e6	0.12429981
46	0x3e5b5664	0.21419674
47	0x3e2d9d28	0.16954482
48	0x3e4b27bf	0.1983938
49	0x3d554979	0.052072022
50	0x3e064129	0.13110794
51	0xbe02f5bc	-0.12789053
52	0xbd82bee4	-0.06384066
53	0xbe044402	-0.12916568
54	0xbe20cd83	-0.15703396
55	0x3e365f60	0.1780982
56	0xbbb54098	-0.005531382
57	0xbe108b13	-0.14115553
58	0xbe24e211	-0.16101862
59	0x3e549872	0.20761278
60	0xbe782ea5	-0.24236543
61	0x3e614604	0.21999365
62	0xbdd600ff	-0.10449409
63	0x3b687676	0.0035471
64	0xbe26a285	-0.16272934
65	0x3bf433d7	0.007452469
66	0x3d386d96	0.045026384
67	0x3dfea2f2	0.12433423
68	0xbdd672f7	-0.104711466
69	0x3df0b72f	0.117536895
70	0x3e2e8c34	0.17045671
71	0xbde10775	-0.109877504
72	0xbdf79573	-0.12089052
73	0x3d45b5bb	0.048269015
74	0x3d402c12	0.04691703
75	0x3d871b69	0.06597025
76	0xbdb2a50f	-0.08722889
77	0xbc993019	-0.018699693
78	0xbd244da6	-0.040113114
79	0x3d12a2f3	0.03579993
80	0xbd0e5f77	-0.03475901
81	0x3d172dca	0.036908902
82	0xbe2c254b	-0.16811101
83	0xbe2fe309	-0.17176451
84	0x3d88d9c5	0.06682161
85	0xbd740060	-0.05957067
86	0x3db7bce6	0.089715764
87	0x3d80d2ff	0.06290244
88	0xbe0c7fb4	-0.1372059
89	0xbe2becae	-0.16789505
90	0xbcba5e16	-0.022749942
91	0xbe1d8485	-0.15382583
92	0xbdbc17ac	-0.091842026
93	0xbe1e5ea7	-0.15465795
94	0xbe1a172d	-0.15047903
95	0x3c91b541	0.017786624
96	0x3e3ac579	0.18239392
97	0x3b7d1ba4	0.0038621211
98	0x3d8c683d	0.068558194
99	0xbda93054	-0.08261171
100	0x3dcd1a71	0.10014809
101	0xbe36fd91	-0.17870165
102	0x3c3306ff	0.010926961
103	0xbc1bba72	-0.009504901
104	0xbdabb986	-0.08384995
105	0x3e4894f9	0.19588079
106	0x3e40f340	0.18842793
107	0x3e2f2dd0	0.1710732
108	0x3e2c17cc	0.16805953
109	0x3da44a71	0.08022011
110	0x3df7c178	0.12097448
111	0x3e1517dd	0.14559884
112	0xbe84a1a7	-0.2590458
113	0xbe681365	-0.22663648
114	0xbe712fe0	-0.23553419
115	0xbd9d8781	-0.07691861
116	0x3e431e7f	0.19054602
117	0x3e49e979	0.19717969
118	0xbdf06979	-0.11738867
119	0xbcb5a004	-0.022171028
120	0x3e4535d6	0.19258818
121	0xbcf1a2e4	-0.029496618
122	0x3e3882dd	0.1801867
123	0xbd67baac	-0.05657451
124	0xbe041fac	-0.12902707
125	0x3d206b8c	0.039165065
126	0xbdb620cf	-0.088929765
127	0xbdfcc24d	-0.123417474
128	0xbdb2c316	-0.08728616
129	0x3e76dab0	0.2410686
130	0xbe4305f6	-0.19045243
131	0x3dc28384	0.09497741
132	0xbe698e74	-0.22808248
133	0xbd9299de	-0.07158254
134	0xbe213279	-0.1574191
135	0xbe78d9ee	-0.24301884
136	0x3dfb4524	0.12269047
137	0x3d40f904	0.04711248
138	0x3d9c0262	0.07617642
139	0x3d8f06aa	0.06983693
140	0xbcccffca	-0.025024313
141	0xbd3d90a5	-0.046280522
142	0x3c5ee07e	0.013603328
143	0xbd08c80d	-0.03339391
144	0x3deb0415	0.11475388
145	0xbd960c09	-0.07326514
146	0xbe476ff0	-0.19476295
147	0x3e3170fd	0.17328258
148	0x3dea9a34	0.11455193
149	0xbe23ab02	-0.15983203
150	0x3dfee1f6	0.124454424
151	0x3e44fa72	0.19236162
152	0x3e85cb8e	0.26131862
153	0x3dce0ae0	0.10060668
154	0x3e0a9c5a	0.13536206
155	0xbddbd34a	-0.107336596
156	0x3cd9de47	0.026595248
157	0x3daa0e4e	0.0830351
158	0xbe81282c	-0.2522596
159	0x3cab1fd4	0.0208892
160	0x3d5c4fc4	0.053787008
161	0x3e33563e	0.17513368
162	0x3c306212	0.010765569
163	0xbe20bdbc	-0.15697378
164	0x3e0e260c	0.13881701
165	0xbe113ef0	-0.14184165
166	0x3cc898b3	0.024486875
167	0xbdbbca4a	-0.09169443
168	0x3c72a809	0.0148105705
169	0x3de2541c	0.11051199
170	0xbd9b97ef	-0.075973384
171	0x3cbb926d	0.02289697
172	0x3d108cee	0.03529065
173	0x3e31285d	0.17300554
174	0x3d8bbf89	0.06823642
175	0x3c7321d6	0.01483961
176	0xbde3fcc8	-0.111321986
177	0xbcf70a37	-0.030156238
178	0x3bf288bf	0.0074015553
179	0x3e1229d8	0.14273775
180	0x3dee6b7d	0.116415955
181	0xbd12003a	-0.035644747
182	0xbcc5f8a4	-0.024166413
183	0x3e072dbc	0.1320104
184	0xbcfe306e	-0.031028952
185	0x3e2ac2fd	0.16675945
186	0x3de02e8e	0.109463796
187	0xbab0fbde	-0.0013502797
188	0x3daf7287	0.08566766
189	0xbc176d2f	-0.00924234
190	0xbda811d3	-0.08206525
191	0xbdbed49a	-0.09317894
192	0x3dd39fe4	0.10333231
193	0x3ccc0b20	0.024907649
194	0x3e2cb336	0.16865239
195	0x3e13a436	0.1441811
196	0xbce4bd75	-0.027922371
197	0x3d3df476	0.046375714
198	0x3dce48cd	0.100724794
199	0xbda6bbdc	-0.081413
200	0x3e3096cd	0.17245026
201	0xbd6c21a1	-0.05764926
202	0x3d8cf91e	0.06883453
203	0x3e2def90	0.16985917
204	0xbe2bc302	-0.16773608
205	0xbdf9dde5	-0.12200526
206	0xbd2fe9c0	-0.04294753
207	0xbdfc42ea	-0.1231745
208	0xbe148175	-0.14502509
209	0x3cc879a2	0.024472062
210	0x3d80f95e	0.06297563
211	0x3dd99566	0.106241986
212	0xbd1db109	-0.038498912
213	0x3cfd13bb	0.030893197
214	0x3e1f80b1	0.15576436
215	0x3db90f2c	0.09036097
216	0xbbe97aad	-0.00712522
217	0xbc397c9b	-0.011321212
218	0x3e169ac5	0.14707477
219	0xbd98d85a	-0.07463141
220	0x3de41bb2	0.11138095
221	0xbd4e0794	-0.050300196
222	0xbc9dd595	-0.019266883
223	0x3d70d8a9	0.058800373
224	0xbdf2f821	-0.11863733
225	0x3da8524a	0.082188204
226	0x3d7a9a0d	0.06118207
227	0xbe11ab2e	-0.14225456
228	0x3dbbc392	0.091681615
229	0xbe28a17f	-0.16467856
230	0x3d6541cc	0.055970952
231	0x3bed1e4a	0.0072362768
232	0xbdc2900a	-0.095001295
233	0x3de24a8a	0.110493734
234	0xbdb55c30	-0.08855474
235	0xbcfc5d13	-0.0308061
236	0xbde2364c	-0.110455126
237	0x3d0da848	0.034584314
238	0xbd3d6d29	-0.04624668
239	0x3d629233	0.055315208
240	0xbc27d16c	-0.010242801
241	0xbe069954	-0.13144428
242	0xbd64c2d9	-0.055849884
243	0x3c9cb570	0.019129485
244	0x3cf438d5	0.029812256
245	0xbbe93ffc	-0.0071182232
246	0xbcf44645	-0.029818663
247	0xbdf8e5e1	-0.12153221
248	0x3d266318	0.040621847
249	0x3dccde46	0.10003333
250	0x3e146b92	0.1449416
251	0x3d751fed	0.0598449
252	0x3e1d1d33	0.1534317
253	0xbcc58f5f	-0.024116216
254	0x3e090b08	0.13383114
255	0x3e14d1ff	0.14533232

stack.3.0.bias f4 [10]
0	0x3cb0fb93	0.021604335
1	0x3ba78a5b	0.005112929
2	0xbda4573b	-0.080244504
3	0x3de48571	0.111582644
4	0x3e21989c	0.15780872
5	0xbde5b656	-0.112164184
6	0xbd956f5f	-0.07296633
7	0x3e33d53e	0.17561814
8	0xbd190fdc	-0.03736864
9	0x3d375844	0.04476191
