src/fminst/models/teacher_5cl_6.pt (torch, 447183 bytes, 8 tensors)

stack.0.0.weight f4 [128, 784]
00000000: ecdc 0bbd 1364 05bd ff9e 583c af43 1ebd
00000010: 109e 30bd e3f5 96bc 5193 f1bc e5b1 f7bc
00000020: 9386 fabc 6c72 86bc 81f8 ab3d 07ac 963d
00000030: 2949 913c 97f8 383d 471e 4f3b 223f 053d
00000040: c5cf a43d 56f3 c83d eafb c6bb 5ba8 9bbd
00000050: 41bc c3bd 6101 8bbd b064 27bd bdf0 8dbc
00000060: be9f 5dbd fda7 8abd 8a96 28bd bbb9 b9bc
00000070: b358 adbd 7418 c13c 641d 73bd bc43 afbd
00000080: 674e abbc 8c33 f4bc a3ce 2c3d 5ad7 143b
00000090: 2d42 c53a 7c75 983d df8f cc3d 3a43 3e3d
000000a0: db41 dc3d 810d b33d 1683 003e d98b bd3d
000000b0: 6fe8 993d 8489 993d 8417 763d 25fd 803d
000000c0: 434a 07bd 3686 62bc 23fe 953b 1019 71bd
000000d0: dd82 85bd d7ee 9cbd 3c71 c3bd 16c0 9fbd
000000e0: e15e 3cbd b3e3 6d3d 2c5d ebbc 517b 9fbd
000000f0: b768 14ba 3e13 813d 2900 923d 89cf 6e3d
00000100: d9be bf3c 76d6 4e3d d492 773d f1a9 0e3d
00000110: fea4 223d 9316 243d 282c 833d b195 1f3c
00000120: 650b a13d ebe0 3a3d d52a 35bb 80d4 193c
00000130: 9dc7 9d3d ffa2 b53c 2380 af3c 97e4 453c
00000140: 49b1 f1bd 6cc6 afbd 6e70 9dbd 3e74 98bd
00000150: 1892 1e3d abb9 a83c 8d9e 65bd e19b 4abd
00000160: 4900 263d 3ea2 4b3d 385f 703d 14fd d63c
00000170: 1d01 b83c cf46 a03c ef61 033d 2fe1 ba3d
00000180: d765 9d3d c732 b73b be62 b93c 904f b8b9
00000190: 1643 373d 7e8e 843d 097f 2d3d fef6 9dbc
000001a0: cfc3 983c 1808 133d 7a32 843d 39fb 983d
000001b0: 6432 04bd f950 c1bd 7b55 d0bd 0c5c 15bd
000001c0: 67ca b7bb 29e3 3abd 97bd b9bc 740f 7f3a
000001d0: 002c db3c 206e d13a 02bb ae3c 4d41 5d3d
000001e0: 6e01 3a3d 05fb d53c 9cc8 ae3d c69f 4a3d
000001f0: 5b9a 92bc dc02 a1bc a044 9cb8 6955 b03c
00000200: 2207 69bb 0403 4d3d 659d 823d 80ea 0a3b
00000210: 68d3 2c3d 78be 153c 3e8e 1c3d 02ae 7a3d
00000220: 878f 47bc 034d 94bd c37c 3bbd d6f3 77bc
00000230: c4ad 3d3d 507f 67bc 6037 923c 21c5 553d
00000240: 6628 1dbc a11b 5d3c 2f93 d63c 6ac2 f13d
00000250: 4566 ac3d 3877 9e3c 2cf2 443d b0de cc3b
00000260: 4b1e 643d 716e 80bc 1d5d a13c 56b0 2a3d
00000270: 5f67 303d 3c35 9e3c dc3c 803d 100c f03c
00000280: 4b7f 553d 4a45 923c f4da 873c 4f93 d63c
00000290: f988 d8bb 3561 94bc dc15 46bd 107a 2fbd
000002a0: 984c 9bbd 0b4c cabd e5a2 34bc 31d4 803a
000002b0: 28be 803d 9944 433d 549d c43c a775 513d
000002c0: ebe7 3f3d ee31 1e3d c006 083c d19d f0bc
000002d0: aaa7 613d a058 47bc b41b 1b3d 4a85 1f3b
000002e0: 29ba d63a 1062 1d3d 73b8 2f3c 1f84 c2bb
000002f0: 26b0 313d 26ea 983d d550 103d bf17 af3b
00000300: 4c92 473d b798 833b e0f9 3dbc 003d c1bd
00000310: 752a b5bd 63dc 32bc 9215 0fbd 00ec 94b9
00000320: a1b3 24bd e8e6 8c3c f444 9e3d 43b7 dd3d
00000330: ee50 a23c 53ef 903c ba79 f3bb b88d 063d
00000340: 7d3e 743c 756c 9bbc 8b2c 8d3c 1c7d 193d
00000350: 6e64 403d 62ed aebb 620c 193c be0e d0bc
00000360: de99 683d 8bb1 8a3d de48 0f3d 8a0b 413c
00000370: 1698 5c3c e093 123c c4ad 41bd 0f41 e8bc
00000380: 38de 12bd b854 5bbb 4989 08bd eb5d 1abc
00000390: d955 4cbd 13af 953c 4d64 9a3c fa58 353d
000003a0: da37 993d a2cf b23c 022f 80bb 2e94 ce3a
000003b0: cc23 f33c 9985 8cbc 907a 1e3d 951a 223d
000003c0: f921 f1bb 714d 033d 47ba 0b3d de07 34bc
000003d0: b71b a53c b924 3b3d 5d0c 57bc 0097 0bbc
000003e0: 59a6 ffbc 0924 09bc 73a5 3abc 9008 6f3d
000003f0: 4188 abbd 5980 093d b859 c8bc 6f98 0abd
-0.034146234 -0.03256614 0.013221501 -0.038638767 -0.04311949 -0.018427795 -0.029489191 -0.030236194
-0.030581748 -0.016411982 0.08397008 0.0735703 0.01773508 0.04515895 0.003160374 0.03253091
0.080474414 0.09812038 -0.006072511 -0.07600471 -0.09557391 -0.067873724 -0.040867507 -0.017326707
-0.05410742 -0.067703225 -0.04115919 -0.022671571 -0.08464184 0.02357123 -0.0593542 -0.08557841
-0.020911409 -0.029809736 0.04218925 0.0022711367 0.0015049629 0.07444283 0.09988379 0.04645083
0.107547484 0.0874281 0.12550005 0.092551894 0.07515036 0.07496932 0.06008102 0.062982835
-0.033029806 -0.013825944 0.0045774146 -0.058861792 -0.06519101 -0.076627426 -0.09543082 -0.07800309
-0.04598892 0.05807848 -0.028730951 -0.077871926 -0.00056613557 0.06302498 0.07128937 0.05830339
0.023406433 0.050497495 0.06044276 0.034830038 0.03970813 0.04006059 0.064049065 0.009740279
0.078635015 0.045624655 -0.0027643938 0.009389043 0.07704089 0.02217245 0.021423405 0.012078426
-0.118013926 -0.08582768 -0.0768746 -0.074440464 0.038713545 0.020596346 -0.05605941 -0.049465064
0.040527616 0.049715273 0.058684558 0.026243724 0.022461468 0.019565014 0.03207582 0.091249816
0.0768544 0.00559077 0.022630092 -0.00035154494 0.044741713 0.06472491 0.04235748 -0.019282814
0.018648056 0.03589639 0.0645494 0.07469792 -0.03227462 -0.094392724 -0.10172554 -0.036464736
-0.005608845 -0.045626793 -0.022673411 0.0009729781 0.02675438 0.0015978254 0.021329407 0.054017354
0.04541152 0.026120672 0.08534357 0.049468778 -0.017895868 -0.019654684 -7.451442e-05 0.021525102
-0.003555723 0.050051704 0.06377677 0.0021196902 0.0421938 0.00913965 0.03822159 0.061201103
-0.012180216 -0.07241251 -0.04577328 -0.015133819 0.046308294 -0.014129475 0.01784867 0.05218995
-0.009592151 0.013495357 0.02619323 0.1180466 0.08417944 0.019343957 0.048082516 0.0062521324
0.055692952 -0.015677663 0.01969772 0.041672073 0.043067332 0.019312494 0.06261608 0.029302627
0.05212335 0.017855305 0.016583897 0.02619329 -0.0066081253 -0.018112758 -0.04836069 -0.042841017
-0.075829685 -0.09877785 -0.011025165 0.0009828863 0.062862694 0.04767284 0.024000801 0.051137593
0.046852034 0.038621835 0.008302391 -0.029372128 0.055091538 -0.012167126 0.037868217 0.002434092
0.0016382384 0.038423598 0.010725128 -0.00593616 0.04338088 0.07466535 0.035233337 0.005343407
0.048723504 0.0040160078 -0.011595219 -0.09435463 -0.08845989 -0.010916802 -0.03493268 -0.00028404593
-0.04021037 0.017199948 0.077279955 0.1082597 0.01981398 0.017692244 -0.0074302824 0.032849997
0.0149074765 -0.018972615 0.017233154 0.03747283 0.046970777 -0.005338357 0.009341331 -0.025397655
0.056787364 0.06772145 0.0349816 0.011782536 0.0134639945 0.008946389 -0.047284856 -0.028351335
-0.035856456 -0.0033467244 -0.03333405 -0.009421806 -0.04988656 0.018271958 0.018846655 0.044274308
0.07481356 0.021827523 -0.003911854 0.0015760714 0.029680155 -0.017153548 0.038691103 0.03957613
-0.007358786 0.032056276 0.034113195 -0.010988204 0.020154817 0.04568932 -0.013125506 -0.008519888
-0.03120725 -0.008370408 -0.011391985 0.058357775 -0.08375598 0.033569667 -0.024456844 -0.03383678

stack.0.0.bias f4 [128]
00000000: fc97 213e 8367 683c 9095 883d 91c1 823d
00000010: 8235 2fbd 69d5 713d e371 473d 3560 95bd
00000020: 60f7 c63d aad4 febd 871d 823d 2c8b 10bd
00000030: 5870 2c3e c8b5 d0bc 7499 e53d 8833 313b
00000040: a1d2 be3d 26ed f53d 8cb3 f63b c7ae ff3c
00000050: 1c6b ec3d b1ca a5bc 38e1 bbbd 41b6 95bd
00000060: d93c e03d c317 183e a664 65bd 3aa9 013d
00000070: 7eec 9d3d 6e94 013e 3539 883d 21f8 e23b
00000080: 4c51 7abd 9455 c9bd 708a 983d 3e73 8dbd
00000090: d642 cd3c ecd3 aa3d ecc6 66bb 20db 953d
000000a0: 4823 a63d 70f6 2ebd 18c9 aa3d e805 c1bc
000000b0: a802 373d 85f6 debb 6a9d b43d 8318 10bd
000000c0: 2f25 03bd adb8 103e 4ceb f4bb 01a1 06bd
000000d0: 1c3d d23d 0d95 033e d176 7e3d 5862 3abd
000000e0: 0f43 f3bd b83e e13d ed0d a13d 2f42 ec3d
000000f0: a1d2 923d 0af2 603d 4726 863d c5be 893c
00000100: bade 113e b4a4 aebd c094 64bd eeed b9bc
00000110: 0c2d 86bc acc1 253e adaf 9c3c 51a3 8cbd
00000120: 9e72 443e 4dfc dd3d 0e29 0d3e b38a af3d
00000130: 808b c43d 7470 18bd ee50 163d 7d73 e83d
00000140: ff7f 1d3a 19c5 b53d 2cef 9e3c ff15 8a3d
00000150: a305 55bd 76d6 1e3e 0293 aa3d 450f e2bc
00000160: 7eab a23d 4894 8d3c c311 983d fe3b 033e
00000170: 8659 ed3d 9a43 7cbd a31d 7d3d 09bb ce3d
00000180: e0fd a43c 3ae3 183d a13f e4bd f536 423d
00000190: a0bd 203e c1e5 d93d bb63 3ebd a57e bc3d
000001a0: 1ed9 563d c01f dabd 25e9 0fbd 15cf 053b
000001b0: 93de 79bd d4f4 f23d e63e 163e 7794 513c
000001c0: b277 2dbd 5b3b 983d 14fa 013c f471 e7bd
000001d0: 9a60 9a3d 6893 89bd 96e5 8d3d 7410 523d
000001e0: 5c57 dd3d cf6d f43d 0b7b 0ebd f945 28bd
000001f0: 56eb 013e c7ad 143e a1b7 5bbd fba1 f63d
0.15780634 0.014184835 0.06669152 0.06384576 -0.04277564 0.059041414 0.048692595 -0.07293741
0.09715152 -0.12442906 0.06353288 -0.035288975 0.1683973 -0.025477305 0.112109095 0.0027038772
0.09317518 0.12008123 0.007528728 0.03121127 0.11543867 -0.020238252 -0.091738164 -0.07310153
0.10949106 0.14852814 -0.05600419 0.031655528 0.07711123 0.12654278 0.066515364 0.006926552
-0.061112687 -0.09830776 0.0744828 -0.06906746 0.025056284 0.08341202 -0.0035213782 0.073171854
0.08112198 -0.04271549 0.08339137 -0.023562387 0.044680268 -0.0068042898 0.08819087 -0.035179626
-0.032017883 0.14132948 -0.0074743386 -0.03286839 0.10265562 0.12849827 0.06212503 -0.045503944
-0.11878025 0.10998291 0.07863984 0.11536061 0.071690805 0.054918326 0.065502696 0.016814599
0.1424512 -0.085275084 -0.05580592 -0.022696462 -0.016378902 0.16187161 0.019126737 -0.06867088
0.19184348 0.10839138 0.13785192 0.08571377 0.0959692 -0.03721662 0.036698274 0.11350153
0.00060081476 0.08875484 0.019401155 0.06742477 -0.05200733 0.15511498 0.08328821 -0.027595172
0.07942866 0.01728262 0.07425263 0.12815854 0.11589341 -0.061587907 0.061795842 0.10094268
0.020140588 0.037326075 -0.11144949 0.047415692 0.15697336 0.10639525 -0.04648183 0.09203843
0.052453153 -0.10650587 -0.035134453 0.002041762 -0.06100328 0.118631035 0.14672431 0.012791744
-0.04235048 0.07433196 0.007933158 -0.11301032 0.075379565 -0.06717569 0.06928556 0.051285222
0.10807678 0.11935007 -0.03478531 -0.041082356 0.1268743 0.14519416 -0.05364192 0.12042614

stack.1.0.weight f4 [64, 128]
00000000: 0ac8 553c 752d 8aba e93a 913d 473b a4bc
00000010: c0cd dfba 3a72 63bc 3ad9 77bd d1cc 65bc
00000020: 4b56 723d d9a7 a6bd 03b8 003e fb62 09bd
00000030: 5a27 d5bc 6f19 a73d 2b82 b0bb ab9d 87bd
00000040: fed1 bd3d 0444 883d a843 f43c e6a5 afbc
00000050: f9c6 48bd 1a45 49bd 0e52 f1bd c51a 883d
00000060: 2e1a 093e d5fa 613c 787c 553c d3e4 6a3d
00000070: 136c 09bd 2a43 51bd d43a b13d cb1d 143d
00000080: 14c3 f2bc 4550 3fbd 4e61 003e dfd7 e53b
00000090: 8706 b6bc 0d85 003c d2ee a53c c163 873e
000000a0: 03fb 603e 8089 7bbd c650 98bd e518 b1bd
000000b0: 6218 1d3e c938 593c 38f3 2ebd 3fad 8ebd
000000c0: 829d 01bd 8052 fe3c ff8b 3fbd 613e 0dbd
000000d0: fd40 c03c ca6b 973d 354e ca3c 0d67 07bc
000000e0: 5fd2 013d 0b9e b03d e914 78bc b63b 813e
000000f0: 6d6c 3b3d d2a1 bd3d 5f8b 6cbd 5150 26bd
00000100: e316 b03d 1ea2 ba3b 4abd be3c 5aad 03bc
00000110: e91e 783d b402 c33d 4abd 7439 6cfe e53c
00000120: 2feb 6ebd 9151 53bd 0d72 693d 564a e83d
00000130: 1771 a63d 9466 6b3b 2d4f 7e3c 34ca 49bc
00000140: f80a bebc 5128 8e3d 4ade 83bc 58d1 d53c
00000150: 72ff 12bd 9c93 f03d 241d 14bd 655e 1b3d
00000160: fb57 d0bd 4e85 c43d 2166 fc3b a881 a1bd
00000170: f77a 0b3e 356c 74bd 98a8 a23d 5ddf c63c
00000180: 80d4 9abc 1eec d43c a204 ebbd 8dea 033d
00000190: 9e62 c73d 9c18 003e 011b 1a3c 85c8 bb3d
000001a0: efba d73d 1e1d 7fbd 19a5 3f3d cfa6 9c3d
000001b0: 09ca b6bc ce29 063e 6646 a93b 9534 d5bc
000001c0: 990b 91bd ab76 c23d fc07 013d 514a d9bd
000001d0: fac8 b9bd e59b ddbd b0be e53d 0732 0fbd
000001e0: 33e6 a03c db64 46bd 37a2 1abd 434d 0f3d
000001f0: 28b9 993b 918d f93c 659f e03c 2236 5b3c
00000200: 8068 443d a378 e93d 4d9f 233c dbf0 ae3d
00000210: fa12 823d 0c8f 5cbc 7527 5b3c 04ff 9b3d
00000220: 9546 afbd 4957 8bbc a658 ecbd e5fb be3c
00000230: 7dd7 c53d 72c6 863d 60f1 e33d 5045 d0bd
00000240: fc57 36bd 47c0 febd b584 813c f70b 143e
00000250: d526 6abd 3c02 153d 0c51 b13c 6756 90bd
00000260: 34a8 e5bd 8403 963d 9aab 653d 4ac0 833b
00000270: 1eb3 d0bd 2488 e3bd 7260 71bc ca17 3c3d
00000280: 90b8 a23d 0c65 03be 8e00 acbd c9e5 52bd
00000290: 8dcb d83c 7a7f d1bd ffee 883c ca7b 96be
000002a0: bd6b 56be 303d 4c3d 22dd a83c 43e9 743c
000002b0: eda4 02be d0ea 913d c7c5 b4bd 68b3 02bd
000002c0: bc8b de3d d6e7 85bd e589 dbbb bc7b 9e3d
000002d0: 660f 1c3d 4c70 1ebe e851 7bbd 2155 c43b
000002e0: c258 52ba d1ca 61bd 39d0 09bd a1bd 0cbe
000002f0: b2a4 053d 91c7 dfbd b01c b9bd 5647 be3d
00000300: e02f 60bb 474b be3b 3f0d 3fbd c91b 673c
00000310: 44a2 1bbc afce b33d c7d6 2dbd d323 82bd
00000320: 0a3f e33d a8ee 17bd 513b f4bc fb74 68bd
00000330: de5f ca3b 4424 9b3d 1130 8e3d 8f4f 8c3c
00000340: e395 4c3d 77e4 0bbe 6b54 233d c154 1d3d
00000350: 5dd2 b43d 4f76 a8bd 87cc 74bd 79e7 c43b
00000360: 18fb a13d 1a43 f7bd 5182 33bd b23e 783d
00000370: 40bf 75bd 36c2 98bc 2480 d63d b973 083d
00000380: c0e8 6b3d 4639 df3d 7239 d2bc 8433 813d
00000390: 6222 883b 8846 8dbd 6c4f 62bc a1b1 32bb
000003a0: 35b5 bc3c 251c dc3d a156 483c 86e7 033d
000003b0: dd4b 33be 1cbb a33d a581 b83d 6426 973d
000003c0: 3ab7 b2bc 0f71 1dbc 7fb0 be3c f506 74bd
000003d0: deb0 183b b270 2b3d 82fe 73bd e12d 5abc
000003e0: b0db a1bd 876c aabd fa79 a13d a660 e23c
000003f0: b9bb e93c c97e 803d 09e0 db3b 7315 10bd
0.013048181 -0.0010542112 0.07091314 -0.020047797 -0.0017074868 -0.013882214 -0.060509898 -0.014025883
0.059164327 -0.08137483 0.12570195 -0.03354166 -0.02601974 0.08159148 -0.005386611 -0.0662187
0.092685685 0.06653598 0.029817417 -0.021441411 -0.04901788 -0.049138166 -0.11783229 0.06645731
0.13388893 0.013792713 0.013030164 0.05734713 -0.033550333 -0.051089443 0.08653799 0.036161225
-0.029634036 -0.04670741 0.12537119 0.007014259 -0.02221991 0.007844222 0.02025548 0.26443294
0.21970753 -0.061410427 -0.07437281 -0.086473264 0.15341333 0.013258168 -0.04271242 -0.06966638
-0.03164435 0.031045198 -0.04676437 -0.034483317 0.023468489 0.07393606 0.024695495 -0.008264315
0.031694766 0.08623894 -0.015141704 0.25240868 0.0457577 0.092593804 -0.057750102 -0.04060394
0.08598115 0.0056955954 0.02328362 -0.008036936 0.060576353 0.09522 0.00023340169 0.02807542
-0.058329757 -0.05159146 0.056993533 0.113423035 0.08127039 0.0035919296 0.015521807 -0.012316275
-0.02319859 0.069412835 -0.016097207 0.0261008 -0.035888143 0.11746904 -0.036160603 0.03793182
-0.10173031 0.09595738 0.0077026044 -0.07886058 0.13621126 -0.059673507 0.07942313 0.02427643
-0.018900156 0.025991496 -0.11475493 0.032206107 0.097356066 0.12509388 0.009405852 0.091691054
0.10533702 -0.062283628 0.04678831 0.07649004 -0.022313135 0.13101885 0.005165863 -0.02602605
-0.0708229 0.0949529 0.031501755 -0.10609878 -0.09071536 -0.1082075 0.112180114 -0.03495982
0.019641018 -0.048436027 -0.037752356 0.034985792 0.004691262 0.030463012 0.027419755 0.0133796055
0.04795122 0.11399963 0.009986711 0.08542033 0.06351276 -0.013461839 0.0133761065 0.07617
-0.08558384 -0.017009394 -0.11540346 0.023313472 0.09660242 0.06580819 0.11130023 -0.1016947
-0.044517502 -0.12439018 0.01581035 0.14457689 -0.05716594 0.036379084 0.021645091 -0.0704773
-0.11213723 0.07324889 0.056071855 0.0040207254 -0.10190414 -0.11109951 -0.014732467 0.045921125
0.07945359 -0.12831515 -0.08398543 -0.05148867 0.026464248 -0.10229392 0.016715525 -0.2939132
-0.20939536 0.04986304 0.020613257 0.014948192 -0.12758227 0.07124865 -0.088267855 -0.031909376
0.10866496 -0.0653836 -0.006699788 0.07738444 0.038100623 -0.15472525 -0.06135741 0.0059915935
-0.000802409 -0.05512506 -0.033645842 -0.13744213 0.03262777 -0.10926736 -0.09038675 0.0929095
-0.0034208223 0.0058073136 -0.04664349 0.014105746 -0.009499136 0.08779656 -0.042441156 -0.06354489
0.11096008 -0.037092835 -0.02981344 -0.056752186 0.006175979 0.075752765 0.06942762 0.01712778
0.04994763 -0.13661371 0.03987543 0.038410906 0.08829186 -0.082256906 -0.059765365 0.006009039
0.079092205 -0.120733455 -0.04382545 0.060606666 -0.059996843 -0.018647294 0.1047366 0.033313487
0.057595015 0.10899596 -0.025662158 0.06308654 0.0041544894 -0.068982184 -0.013812881 -0.002726652
0.023035625 0.10747556 0.012227685 0.03220322 -0.17509408 0.07994673 0.09009103 0.07380369
-0.021815885 -0.009609475 0.02327752 -0.059576947 0.002329878 0.04185552 -0.05956889 -0.013316602
-0.0790323 -0.08321481 0.07884593 0.027633976 0.028531896 0.06274182 0.0067100567 -0.035176706

stack.1.0.bias f4 [64]
00000000: 405e fe3d 3fdb 60bd 3b70 95bd 3966 22be
00000010: ce8f 12bd 0c58 523d 0cdd d33c 3a55 e33b
00000020: ef9a f73d 63ca a4bd 0540 be3d 2554 273d
00000030: fc1d 42bc 1d89 c1bc 963e e2bc cf26 4bbd
00000040: ec8d 713d 62b2 c33d 58b5 1d3e 9016 72bd
00000050: 973f e1bc 72f2 c0bd e9db 9fbd 3c01 be3b
00000060: a6da 2a3e 9343 c2bd fc63 5cbd 1d9c a5bc
00000070: 3691 a43d ad09 173d d966 89bc 93b6 adbd
00000080: e40b 1b3d 51cc 653c 1b74 063e 604e b43d
00000090: 6a5e 1e3d 1327 443e 4171 373e 5ff3 1d3e
000000a0: 4f23 b0bd f270 773d feca 343d 7a47 b0bd
000000b0: 2aba eebc 2320 2a3e 7f99 05bd 719f ebbd
000000c0: 01c7 bd3c c22f 9abc 0bc7 6b3d 91ea 7abd
000000d0: 49ec 2cbd 84a5 073d 0307 ae3d e494 8c3d
000000e0: c1eb a1bb 46b0 9b3c d12e c5bc d7ea 393d
000000f0: afd2 d03d 5163 923d 8ce1 a8bc 1d0f 9fbd
0.124203205 -0.05489659 -0.07296797 -0.15859307 -0.035781674 0.0513535 0.02586224 0.00693765
0.12090098 -0.08046415 0.092895545 0.04085173 -0.011847969 -0.023624951 -0.027617734 -0.049597558
0.058973238 0.09555508 0.15401208 -0.05910355 -0.027496142 -0.09421243 -0.078056164 0.005798487
0.1668497 -0.09485545 -0.05380629 -0.020216042 0.08035509 0.036874462 -0.016772674 -0.08482089
0.037853137 0.014025764 0.13130228 0.08804011 0.03866426 0.1915553 0.17914297 0.1542487
-0.086004846 0.060410447 0.0441389 -0.08607383 -0.029141504 0.16613822 -0.03261709 -0.115050204
0.023166182 -0.0188216 0.05756287 -0.061258856 -0.042217527 0.033116832 0.08497431 0.06864336
-0.004941434 0.019004952 -0.024070175 0.045389976 0.10196435 0.07147849 -0.020615362 -0.077665545

stack.2.0.weight f4 [32, 64]
00000000: bb79 2bbd 7c57 203c f850 153d ac28 8dbd
00000010: d473 153e 1c14 863c 6b1e 9b3d b09a 64bd
00000020: 8df6 eebc efc0 ae3d fec3 8f3d ac54 0ebe
00000030: cc22 133e bec7 623e a2a5 05be 15f5 65bc
00000040: c1bc d03d 23e5 323c 7c45 233e 3d40 b53d
00000050: d50e 9cbd 412c aebd 5051 ec39 8c34 b43c
00000060: b9f9 c5bd ad43 ea3d b59b d4bd f2d8 d5bd
00000070: 67dc f8bd 18e6 a73c 2028 a33d db1c 08be
00000080: e7d3 a83d 9a68 20be eb4a df3c 76d5 da3d
00000090: 7953 953d 7df2 87bd eff7 80bd 7020 c43d
000000a0: 98b0 2e3d 68dd 193e 28ba 133e c56c edbd
000000b0: 26fe ee3d afdc ac3d 095a bf3d 616c 80bc
000000c0: 4839 f6bd a661 a6bc 327d 263d 6f9a b6bd
000000d0: ce75 ebbd 50b6 313d fcfd 193e 89b9 f9bd
000000e0: 5f33 893c 677b bcbd 0569 1f3d a2fc 053e
000000f0: e7d7 92bd 8a01 87bd 16cd fc3d a0fe dfbd
00000100: 6a18 8a3d 3b5f d63d 7e05 883d 8575 f43c
00000110: 3b6d c8bc 88f7 6b3d 435a f33d 9946 5a3c
00000120: 4835 afbc 7714 c63d 8147 6b3c 186a 6fbd
00000130: e8d5 183e 85a2 ebbd 65cc fc3d d20b e73d
00000140: 0c78 15bc 25a5 c2bd 19af e3bc 5f7e 213e
00000150: 6aa4 133e 23f3 1b3e 4994 e13d 853a dc3d
00000160: 7749 12be f1ac 243e 56a6 323e 9aa5 b6bd
00000170: 0eeb 90bd 3357 2b3e 8730 133e 4b01 033e
00000180: 1fc4 9f3d 9367 123e 1e7e c1bd a979 2ebd
00000190: 1195 aebd 2464 abbc fe28 1cbd 9263 5c3d
000001a0: 16b4 da3d bcff 29bd bfc6 883d 1e5a 253e
000001b0: 1a8e a6bd c8cb 0cbe ca43 0a3e cef4 1d3d
000001c0: 532a 77bd 0efb 9c3b 082e d1bd a55e 333d
000001d0: eec2 b33d b327 34bd 4db9 1b3e cf28 d03d
000001e0: 1910 823d d72e 9cbc e1c2 803d 547d dd3d
000001f0: df69 a4bc aad1 ca3d cdb9 1a3e 2c34 bebd
00000200: 14bd 15bd 4cb6 fdbd f052 70bc ba40 dbbd
00000210: 7a17 f2bd e6df 953d a448 73bd 80dd 3dbd
00000220: 8e94 e83d d80b 533d 283f 563d 4095 393d
00000230: eea7 8f3d 00a2 3b3b 003a b7ba 18d5 bd3c
00000240: 88c7 edbc 80a4 54bd e018 e7bd 5edf dc3d
00000250: fcfb 40bd 6af9 ea3d cadd a2bd dc57 3ebd
00000260: 6024 efbd 2490 2fbd d2bd bfbd 6a9c 87bd
00000270: 94c4 f13d 8c1e 9fbd 7059 cfbc 4829 403d
00000280: 8065 5cbc da35 a6bd 8cb3 d7bd 6029 14bc
00000290: 642a 723d 887a a7bd 58ac d8bd 12e9 983d
000002a0: 98b4 acbc 8876 8cbd 9cf0 abbd 2cc5 09bd
000002b0: 56de 9d3d 08fa 4f3d 70d6 7e3d 7000 733c
000002c0: fe71 8bbd 88ab 1c3d 22cf e9bd 40df 023d
000002d0: aaa7 f6bd 8a4b a23d 4ca9 94bd 889d bcbd
000002e0: 0c4a 10bd 1652 8d3d b048 a43d 266d aabd
000002f0: 0a96 acbd f071 493c 4cd2 423d 3668 c8bd
00000300: 32a3 8ebd f75d 9f3d 604c d3bd 8651 ec3d
00000310: 2857 c9bc 3d81 80bc 30f4 c63d 66c0 673c
00000320: 8643 933d 79f6 5dbc bb76 cdbc 1987 3f3c
00000330: c177 0d3e 6df3 aabd 9739 143e a518 943d
00000340: 61a1 bc3c 3e37 0a3e 8007 c43c 2cdc 333e
00000350: ab25 533d 24a9 e13d 7d53 cabb b6b0 a13d
00000360: 48f4 10be ec49 023e 99ec 613d 2651 1d3d
00000370: 0ee1 08bd cdcc 073d fa5d 98bc 8f82 94bd
00000380: 955b b53b 58b3 2dbc def0 93bd 1700 7dbd
00000390: 2764 e9bd 3a82 c4bc 016c 7c3d 4619 d43d
000003a0: 43ff 143e f995 dbbd 0856 b53d 1c92 1abd
000003b0: 32aa e93d 87e4 4abd f96a db3d 9d7c 8b3d
000003c0: 709c dc3b 76dd 7bbc 89fc 2e3b f22c 3c3d
000003d0: f37f e73d 92ff 25bd 153d 8f3d 5f93 26bd
000003e0: 146a a03d 8538 c23c f8df f23d fe71 9fbd
000003f0: ed64 f93d 48e2 b13d 72f4 3b3c 4e36 dbbd
-0.041864138 0.009786483 0.03645417 -0.06892523 0.14594966 0.01636701 0.07574161 -0.055811584
-0.029170299 0.08532893 0.070198044 -0.13899487 0.14368743 0.22146508 -0.13051465 -0.014035483
0.10192252 0.010918888 0.15944475 0.08850143 -0.076200165 -0.085045345 0.0004507401 0.021997713
-0.096667714 0.114386894 -0.10381261 -0.1044177 -0.121514134 0.02049546 0.079666376 -0.13292257
0.08243542 -0.15664902 0.027257403 0.10685246 0.07291312 -0.06638048 -0.062972896 0.095764995
0.04264888 0.15025866 0.14426482 -0.11593012 0.11669569 0.084405296 0.09343345 -0.01567668
-0.12022644 -0.020310234 0.04064674 -0.089161746 -0.11497079 0.043386757 0.15038294 -0.12193591
0.016748128 -0.09203225 0.038918514 0.13084653 -0.07170086 -0.065920904 0.123438045 -0.10937238
0.06742938 0.104673825 0.066416726 0.029841194 -0.024466148 0.05760911 0.118824504 0.013322496
-0.021387711 0.09671872 0.01436031 -0.05845079 0.14925349 -0.115056075 0.12343673 0.112815514
-0.00912286 -0.09504155 -0.027793454 0.15770863 0.14418188 0.15229468 0.11014611 0.10753349
-0.14285837 0.16081597 0.17446265 -0.08918305 -0.07076083 0.16732483 0.1437398 0.12793462
0.07801079 0.14297323 -0.09447883 -0.042596493 -0.08524526 -0.020921774 -0.03812503 0.053805895
0.1067888 -0.041503653 0.06678533 0.16147658 -0.081325725 -0.13749611 0.13502422 0.038563542
-0.060343098 0.0047906702 -0.10213858 0.043791432 0.08777414 -0.043983173 0.15207405 0.101640336
0.06350727 -0.019065304 0.0628717 0.1081492 -0.020070015 0.099032715 0.1510994 -0.09287295
-0.036557272 -0.12388286 -0.014668211 -0.10705705 -0.11820884 0.07318096 -0.059395447 -0.046353817
0.113564596 0.051524967 0.052306324 0.04530835 0.07014452 0.0028630495 -0.0013979077 0.0231729
-0.029025808 -0.051914692 -0.112840414 0.107847914 -0.04711531 0.11473353 -0.07952459 -0.046470508
-0.1167686 -0.042862073 -0.09362377 -0.066216305 0.118050724 -0.07769498 -0.025311202 0.04691437
-0.013451934 -0.0811574 -0.10532293 -0.009043068 0.059122458 -0.08177668 -0.10579747 0.0746633
-0.021082208 -0.068585455 -0.08395502 -0.033635303 0.07708423 0.050775558 0.062216222 0.014831647
-0.06808852 0.038249522 -0.114164606 0.03195119 -0.12043698 0.07924564 -0.07258853 -0.09209734
-0.035226867 0.06900422 0.080216765 -0.083216 -0.08427055 0.012295231 0.047563836 -0.09785502
-0.06964721 0.07781594 -0.10317302 0.11538987 -0.024577692 -0.015686626 0.09714544 0.014144992
0.071906134 -0.013547533 -0.02508103 0.011689925 0.13815214 -0.08347211 0.14475094 0.07231263
0.02302617 0.13497636 0.023929358 0.17564458 0.051549595 0.11018589 -0.0061745034 0.07895033
-0.14155686 0.12723511 0.055157278 0.038407467 -0.033417754 0.033154298 -0.018599499 -0.072514646
0.005534599 -0.010601841 -0.07223676 -0.061767664 -0.11396056 -0.023987878 0.061626438 0.10356383
0.145505 -0.107219644 0.088543 -0.037736997 0.11409415 -0.049534347 0.10713763 0.068108775
0.006732516 -0.015372625 0.0026700816 0.0459413 0.11303701 -0.040526934 0.06994072 -0.040667888
0.07832733 0.023708591 0.11859125 -0.07785414 0.12177453 0.08685738 0.0114718545 -0.10703717

stack.2.0.bias f4 [32]
00000000: bce5 a83d 25fa 16bd 1693 cebd 76f3 aabd
00000010: b6a6 c4bc 714c a1bc cc8e 07be f1a6 45b7
00000020: f8ed 513e f121 c03c a5a3 d23c c2b1 1c3d
00000030: b4df 1cbe e179 043e 0662 b2bd aa3c b83d
00000040: 8be5 db3d c98a 3abd 46bf a93d 2b92 fe3d
00000050: 40eb 8ebd 29d6 b33d 17f6 133e 0a1c 243d
00000060: d775 ce3d 4c80 373e 8c7a 81bd 4564 713b
00000070: 2036 e63b ddae 7d3b d134 2939 434a 663d
0.08246943 -0.03685965 -0.10086648 -0.08347218 -0.024005275 -0.01968977 -0.13238066 -1.1780984e-05
0.20500934 0.023453685 0.025712797 0.03825546 -0.15319711 0.12937118 -0.08710103 0.08995946
0.10737141 -0.045542512 0.08288436 0.12430223 -0.06978464 0.08781082 0.14449345 0.040065803
0.1008107 0.17920035 -0.06322202 0.0036833447 0.007025495 0.0038708963 0.00016136772 0.056223165

stack.3.0.weight f4 [10, 32]
00000000: 0eea d93d d1fc d0bc b6dd ca3d e00f 263d
00000010: 28af 883d 7dbf 543e ffab a73d 7949 37be
00000020: 94a3 153e ba01 f13d 0151 e93d 27d8 ecbd
00000030: 1259 2e3e 68f3 f5bd 8462 813d 03c5 2cbe
00000040: 3632 57be adb6 4cbd 9e32 45bc 12e4 03be
00000050: 3b0a 35bd ba7d d5bd c3b2 063e cdb0 a2bd
00000060: 8ba1 573e 9a45 573e 5613 27be b734 9cb9
00000070: ac1a 4b3d dfb8 b0bd 0df7 df3d 3521 143e
00000080: b5e4 443e 5b5e 183e daa8 09be ae0e 533d
00000090: 3475 f3bd 95f7 c4bd 351e 11be e90c d73c
000000a0: ba43 0d3e d124 5b3e 0849 01be ae01 863d
000000b0: 032f 123d 4dad 84bd 6b17 423d d205 103e
000000c0: 864f 3c3e 566c a23d 5c65 6bbd 09ef 163e
000000d0: 3499 a13d 9684 12be ddfb 5ebe 90fd 58be
000000e0: ea0d 3c3d c520 8e3c 8ec6 21be 2c41 a9bd
000000f0: 3c89 323e e721 fb3d cbe9 53bd 7431 9e3d
00000100: 381a 4cbe 20f4 663d 2f79 edbd 67ad 6b3d
00000110: b457 553e 3d0d cc3d cff3 963b 62ec 523e
00000120: 812b 4c3e 4147 13be fda1 e53c e21d 3f3d
00000130: 05a7 3cbe a9e6 81be ea4e 24be 55f6 b33c
00000140: d332 f6bd b146 17be 2126 663d 3a36 3e3e
00000150: 1e2e 703c 89a1 be3c d580 19bd 1caf 253e
00000160: 2375 973d 522c 173e 890b 5b3d 918a dd3d
00000170: e034 a9bc af74 8dbe 7c92 3bbd 042e 2ebe
00000180: 33ef 2d3e f4ea 23be 13cc 383d 596f 0bbe
00000190: af4b e63d 05da 683d d7d7 4dbe 842b ae3c
000001a0: feb2 ff3c ad51 46be e968 f83d 42b1 6b3c
000001b0: b0ab 11be 1c31 453e eff9 1ebe 5a6e 4e3e
000001c0: 832e 793e 9984 53be 7dc7 14bd 562f d9bc
000001d0: a3cf 11bd 3601 6a3d 6711 503e 9503 153d
000001e0: 6a07 43be b47d 383e e6f8 793d a1ec c8bd
000001f0: fbf8 abbd 22b4 50be 87aa 4a3e 5e8b 96bd
00000200: 7ba1 92bc 065b 4c3e c7f8 9abd 6720 4e3e
00000210: c726 88bd dca6 063e 71b0 593d 05b3 04be
00000220: be8d 3abe 977b 01be 268f 953d 670a 583e
00000230: 7cca 0e3e 369c e83d db08 493e 20d4 ca3d
00000240: 595a 41bd 020e aa3d eecf b43d 0f6f 4cbd
00000250: 6849 e1bd 5f83 3b3e e170 143d b8ae 773d
00000260: 68fe c9bd 7e73 06be 70f1 0e3e 7514 2ebe
00000270: 229d 0ebe 9c3c 25be 19ba 28be 6519 9e3c
00000280: da3b d83b a23f 2d3e 3985 233e 8ff9 c5bd
00000290: dca9 1a3e 30e0 953d 096b c2bd 71d0 bb3d
000002a0: 76f5 3cbd aa8a 09be d16a 323e 28b3 323e
000002b0: 575a 283e f0fd c6bd 6bba a5bd 6772 34be
000002c0: 2621 343e e1fc 8f3d 3f29 d83d 9d69 20be
000002d0: a331 2c3e d5fc 15be 227d 2d3d b4b1 df3c
000002e0: 1f2f 72bb 6b2f abbd fb73 aebb 5520 2c3d
000002f0: 8088 16bd e2ee 7ebd 5923 d43c 6edd 1ebe
00000300: 4065 a4bd 6185 cc3d 7d36 093e b86e 183e
00000310: 59a7 e43d f396 9fbd e7e1 dcbd 862e 833d
00000320: 9207 69bd eeb4 31bd f071 12bd ab0e a5bd
00000330: 3c88 733d 637f 683d c6c7 1c3e e1ab 01bd
00000340: bc3e 0ebe e847 fc3c 93bd 09be b48c 28be
00000350: ce52 1a3e b11a 043e 88c8 ee3d a15a 0dbc
00000360: 88bf 0c3d 24ff c0bb 9620 60bd c51b 19be
00000370: 144b d8bd 6440 a03c 4fdc 10be b99e b9bc
00000380: 26bb 483d 6fc6 fcbc d2cf 893d 0dce 253e
00000390: a5b1 f5bd 03cb 21be 35ad eabd 9474 22be
000003a0: cbd9 19be a888 c6bd faee 9cbc d2dc b4bd
000003b0: f2b4 653d 99ff 333e cc79 033d 0138 20be
000003c0: 90ed 14bd 9173 093e 0cea 333e 4127 553c
000003d0: 1828 fd3d 4348 b83d df43 1c3e 8cf7 2cbe
000003e0: 4bd9 2dbe d595 843c 72a2 ca3d 743a a7bd
000003f0: 1267 2f3d 49c2 273e 82a3 b53d 220e 50bd
0.106403455 -0.025511177 0.09905569 0.040542483 0.066740334 0.20776172 0.081871025 -0.17899121
0.14613181 0.117679074 0.113924034 -0.11564665 0.17026165 -0.12009317 0.063176185 -0.16872029
-0.21015248 -0.0499789 -0.012035994 -0.1287997 -0.04419921 -0.10424371 0.1315413 -0.07943878
0.21057718 0.21022645 -0.1631597 -0.00029793914 0.049585983 -0.08629011 0.10935793 0.14465792
0.1922787 0.14879744 -0.13443318 0.05152767 -0.11887589 -0.09617535 -0.1417168 0.026251273
0.13795367 0.21400763 -0.12625515 0.06543289 0.035689365 -0.06478367 0.047385614 0.1406472
0.18389711 0.0793082 -0.05746971 0.14739622 0.07890549 -0.1430839 -0.21775766 -0.21190476
0.045911707 0.01734961 -0.15798399 -0.08264384 0.17435163 0.12262326 -0.051736634 0.07724276
-0.19931877 0.05638516 -0.115953796 0.057538416 0.20834237 0.099634625 0.004606701 0.20597985
0.1993847 -0.1438265 0.028031344 0.046659358 -0.18423088 -0.25371292 -0.16045728 0.021968046
-0.12021413 -0.1477306 0.056188706 0.18575373 0.014659433 0.023270385 -0.03747638 0.1618008
0.07395389 0.14763 0.053477798 0.10817445 -0.020655096 -0.27628085 -0.045793995 -0.17009741
0.16985779 -0.16007596 0.045116495 -0.13616695 0.11244904 0.056848545 -0.20101868 0.021260984
0.03121328 -0.19367094 0.12129385 0.014385523 -0.1422565 0.19257015 -0.1552503 0.20159283
0.24334149 -0.2065605 -0.03632306 -0.02651183 -0.03559841 0.05713006 0.20319138 0.03638037
-0.19045797 0.18016702 0.061028384 -0.098107584 -0.08397099 -0.20381215 0.19791614 -0.07350801
-0.017899266 0.19956598 -0.07566982 0.20129548 -0.06648021 0.1314959 0.053146783 -0.12958916
-0.18218133 -0.12644802 0.07302694 0.21097718 0.13944429 0.1135792 0.19632284 0.09903741
-0.047205303 0.08303453 0.08828722 -0.0499106 -0.11000329 0.18311833 0.036240462 0.06046936
-0.09862977 -0.13129994 0.13959289 -0.16999991 -0.13927129 -0.16136402 -0.1647724 0.019299218
0.0065989317 0.16918805 0.15968789 -0.0966674 0.15103859 0.07318151 -0.094930716 0.091706164
-0.046132527 -0.13431802 0.1742356 0.17451155 0.16440712 -0.097164035 -0.08092197 -0.17621766
0.1759077 0.07030655 0.10554742 -0.15665288 0.1681581 -0.14647229 0.042355664 0.027306415
-0.0036954356 -0.08358654 -0.0053238845 0.04202302 -0.03675127 -0.062239535 0.025895761 -0.15514156
-0.080271244 0.099863775 0.13399692 0.14885986 0.111647315 -0.07792463 -0.10785275 0.06405358
-0.056891985 -0.04338544 -0.03575319 -0.08059438 0.059456095 0.05676211 0.15310583 -0.031658057
-0.13891119 0.030796006 -0.13451223 -0.16459924 0.1507065 0.12900807 0.11659342 -0.008627565
0.034362346 -0.00588979 -0.054718576 -0.14952 -0.10561195 0.019561954 -0.14146541 -0.022658693
0.049006604 -0.03085634 0.06729092 0.16191883 -0.11996774 -0.15800099 -0.11458818 -0.15864784
-0.15024488 -0.09694034 -0.019156922 -0.08831181 0.056080766 0.17577972 0.032098576 -0.15646364
-0.03635937 0.13422991 0.1756975 0.013009847 0.12361163 0.08998158 0.15260266 -0.16891307
-0.16977422 0.016184727 0.09894265 -0.08165446 0.042822905 0.16382708 0.08869077 -0.050794728

stack.3.0.bias f4 [10]
00000000: 6222 523e dbbe 09bd ee40 48bc c216 3a3e
00000010: 4c10 65bd 5d3b 08be 3f2f 00be c258 9b3d
00000020: 4179 9a3d 34d2 1d3d
0.20520929 -0.03362928 -0.012222512 0.18172744 -0.055923745 -0.13303895 -0.12518023 0.075852886
0.075426586 0.038530543
