src/fminst/models/teacher_5cl_4.pt (torch, 447183 bytes, 8 tensors)

stack.0.0.weight f4 [128, 784]
-0.041360088 -0.042384513 -0.07092899 -0.018432561 -0.012070968 -0.11603673 -0.11091153 -0.04784553
0.03578525 -0.014153192 -0.09968082 -0.05580825 0.06193451 0.0605685 0.077088684 0.056508813
-0.0017476256 -0.09668293 -0.03223082 0.013799523 0.0025413053 -0.14815152 -0.0823827 0.013883532
0.010710802 -0.018538563 -0.014598129 -0.037668966 0.0037747025 -0.044813097 0.029477444 -0.026284894
-0.060185198 -0.052512933 -0.036429886 -0.008161446 -0.05372478 -0.06427758 0.0054354407 0.029002264
0.025195472 0.02318665 0.030326573 0.012650383 0.026610449 0.048482172 -0.017242314 -0.058972035
0.032813318 0.015420681 -0.10748762 -0.04977357 -0.022810208 -0.024083508 -0.024454424 -0.01405487
-0.030569158 0.018611923 0.016405864 -0.018470094 -0.051219698 0.028435968 -0.056335848 -0.017707992
-0.04852747 -0.014399274 0.022289736 -0.015230251 0.045819532 0.050506003 0.05102953 0.039898083
0.014619557 -0.012084579 -0.01858887 0.0074035493 -0.00088637037 0.026183354 0.042680837 -0.052891564
-0.08465817 -0.0002662149 0.01485653 -0.048888233 -0.041574493 0.01034948 0.033616904 0.009535514
0.0025263696 -0.056071028 0.0074972957 0.0019510504 -0.002251525 0.041374847 0.030951759 -0.02283358
-0.00976484 0.05622356 0.07932273 0.009474353 -0.0057759457 0.027408922 0.04751511 0.008264693
0.006524912 0.044444356 -0.012914185 0.03477787 0.004932904 -0.06872326 0.008743688 0.0077435216
-0.076465786 0.01566265 0.011784786 0.050218508 0.029703122 -0.0011685451 0.040012095 -0.006224412
-0.009128087 0.010021187 0.00401559 -0.008901445 0.049262874 0.032902148 0.042657472 0.038915716
0.0074813413 0.005724883 0.0109443255 0.052509412 -0.004707338 0.02184048 0.07482101 -0.0036321885
0.06652489 -0.04531369 0.0031871342 -0.04650542 -0.037465643 -0.009193737 0.01495878 0.008822547
0.043461036 0.027150322 0.0175359 -0.017685147 -0.0010080707 0.01459562 -0.0321056 0.018354064
-0.024643138 0.045355525 0.036231715 -0.009184895 -0.01779345 0.028992444 0.008864643 0.0273047
0.0047336402 0.009047006 0.0027077224 0.0318503 -0.012091669 -0.0056984425 -0.027002065 -0.0044163754
-0.04394014 -0.03370823 0.11778558 0.10733841 0.07613841 0.052237306 0.012756017 0.015599553
0.03418704 -0.012381286 -0.03524013 0.050731402 0.01946686 0.031710748 0.021087492 -0.0020864948
-0.007418766 0.0025669406 0.010549988 0.013345907 0.036069576 -0.0022914072 0.023436312 0.09455976
0.088609524 0.06863374 0.021159397 0.03856864 -0.027302863 -0.014528855 0.1328439 0.06534895
0.10210794 0.01918384 0.021100607 0.05562428 0.02208643 -0.004156372 -0.031300742 -0.00077925425
0.01693246 0.025814272 0.039727204 -0.0009985612 -0.0149481855 0.049019624 0.021564329 0.03490694
0.041487146 0.0061143846 0.022260377 0.111111484 0.14778443 0.07096878 0.012964952 0.014690324
-0.023124194 -0.034699246 0.09147482 0.10590359 0.09100483 0.07324894 0.0127196 0.041185997
0.051179294 0.055018462 0.045574762 -0.003184661 -0.0069470163 -0.02079717 0.01835652 0.05143839
-0.0068528447 0.045113817 0.03980489 0.033368684 0.034471985 0.030021338 0.006044186 0.0831917
0.11872987 0.083234735 0.030822426 0.029028893 -0.073559724 -0.05642222 0.026764635 0.055606898
00000000: 3269 29bd 629b 2dbd 3843 91bd e2ff 96bc
00000010: 4fc5 45bc aaa4 edbd 9625 e3bd adf9 43bd
00000020: 8e93 123d cae2 67bc 7525 ccbd 3197 64bd
00000030: 0aaf 7d3d ad16 783d ace0 9d3d c975 673d
00000040: 9610 e5ba b301 c6bd 7704 04bd 6517 623c
00000050: 078c 263b 08b5 17be 43b8 a8bd c177 633c
00000060: 5c7c 2f3c 2fde 97bc fe2c 6fbc c64a 1abd
00000070: 0061 773b f08d 37bd ae7a f13c 6b53 d7bc
00000080: c184 76bd cd17 57bd 8137 15bd 96b7 05bc
00000090: 840e 5cbd f7a3 83bd c81b b23b 2896 ed3c
000000a0: bc66 ce3c eef1 bd3c 6f6f f83c 8d43 4f3c
000000b0: 28fe d93c 3e95 463d c13f 8dbc a98c 71bd
000000c0: 4267 063d 06a7 7c3c 7822 dcbd 5fdf 4bbd
000000d0: 79dc babc c74a c5bc a554 c8bc 6646 66bc
000000e0: 2c6c fabc 0878 983c 9765 863c 984e 97bc
000000f0: bfcb 51bd 8cf2 e83c 6bc0 66bd 5a10 91bc
00000100: bec4 46bd efea 6bbc f798 b63c 4d88 79bc
00000110: 43ad 3b3d 62df 4e3d 5704 513d 2c6c 233d
00000120: de86 6f3c 66fe 45bc b047 98bc 7999 f23b
00000130: 4f5b 68ba 797e d63c 1ad2 2e3d d3a4 58bd
00000140: 4361 adbd c292 8bb9 ce68 733c 073f 48bd
00000150: 044a 2abd de90 293c e1b1 093d d83a 1c3c
00000160: 7391 253b bcaa 65bd e0ab f53b 63ba ff3a
00000170: 528e 13bb ac78 293d 8b8e fd3c 7d0d bbbc
00000180: b5fc 1fbc ad4a 663d f573 a23d 513a 1b3c
00000190: 2544 bdbb ad88 e03c 349f 423d a368 073c
000001a0: eece d53b 490b 363d 0596 53bc 3d73 0e3d
000001b0: 33a4 a13b c8be 8cbd b041 0f3c 5ebd fd3b
000001c0: 189a 9cbd f54e 803c fa14 413c ecb1 4d3d
000001d0: f653 f33c de29 99ba b9e3 233d 27f6 cbbb
000001e0: f98d 15bc e82f 243c 3695 833b 5ed7 11bc
000001f0: dec7 493d 67c4 063d 9ab9 2e3d 1666 1f3d
00000200: 0a26 f53b cd97 bb3b d44f 333c 1c14 573d
00000210: 0340 9abb ceea b23c c23b 993d 030a 6ebb
00000220: 343e 883d d99a 39bd 3ddf 503b 787c 3ebd
00000230: 9375 19bd 54a1 16bc ac15 753c 728c 103c
00000240: 3304 323d 5a6a de3c 73a7 8f3c 71e0 90bc
00000250: 3d21 84ba 7822 6f3c 2981 03bd 435b 963c
00000260: 68e0 c9bc b7c6 393d b567 143d 3e7c 16bc
00000270: 92c3 91bc 9081 ed3c 023d 113c 1bae df3c
00000280: a71c 9b3b e539 143c 0b74 313b 7675 023d
00000290: 231c 46bc 00ba babb 6f33 ddbc 3eb7 90bb
000002a0: 94fa 33bd a411 0abd 9139 f13d 3ed4 db3d
000002b0: 74ee 9b3d c9f6 553d 9dfe 503c 4495 7f3c
000002c0: b607 0c3d e1da 4abc f457 10bd bbcb 4f3d
000002d0: f778 9f3c 21e3 013d adbf ac3c 93bd 08bb
000002e0: 1f19 f3bb 1e3a 283b dbd9 2c3c cba8 5a3c
000002f0: b1bd 133d 6f2b 16bb 82fd bf3c 8ca8 c13d
00000300: e978 b53d d98f 8c3d 7956 ad3c 26fa 1d3d
00000310: 41aa dfbc 6f0a 6ebc 3b08 083e acd5 853d
00000320: f81d d13d 6e27 9d3c 2edb ac3c 49d6 633d
00000330: 9aee b43c 2d32 88bb 3535 00bd de46 4cba
00000340: f1b5 8a3c 7478 d33c feb8 223d 27e2 82ba
00000350: 3ce9 74bc cdc8 483d ada7 b03c 94fa 0e3d
00000360: 6dee 293d 2d5b c83b 655b b63c 6b8e e33d
00000370: cd54 173e 1458 913d f36a 543c afaf 703c
00000380: f36e bdbc cc20 0ebd 2757 bb3d fbe3 d83d
00000390: be60 ba3d 8a03 963d df65 503c a6b2 283d
000003a0: 61a1 513d 0a5b 613d 9aac 3a3d bfb5 50bb
000003b0: cca3 e3bb d45e aabc 6a60 963c 10b1 523d
000003c0: d48d e0bb 44c9 383d 740a 233d 9aad 083d
000003d0: 7f32 0d3d 4fef f53c 4f0e c63b 6960 aa3d
000003e0: a528 f33d f976 aa3d 507f fc3c 00ce ed3c
000003f0: 7ba6 96bd fc1a 67bd 8241 db3c 0fc4 633d

stack.0.0.bias f4 [128]
-0.06385708 -0.11696541 -0.008612775 0.064259805 0.06898253 0.017700452 0.032311276 0.10542678
0.18704288 0.086080045 -0.086160466 -0.043677043 0.007692276 0.16856897 0.004469033 -0.058599774
0.06324319 -0.018597443 0.034424197 0.11203199 0.039602686 0.065148875 -0.0818727 -0.08768948
-0.08413575 -0.0508287 0.03169676 -0.03217177 0.03257637 0.15987964 0.07439312 0.08882496
-0.1242016 0.04411148 0.028094225 0.028300136 0.13945583 0.065390706 -0.028825738 0.10074374
0.06963748 0.09456426 0.014303061 0.027242519 -0.06990855 -0.018455772 0.2319868 -0.04719448
0.079447486 -0.05361369 -0.10718003 -0.12514971 0.017947169 0.055318512 0.08071011 0.043663103
0.023283921 -0.025399502 0.1180898 0.10116914 -0.030718405 -0.13822265 0.063632384 0.12231198
0.027791394 -0.17091961 -0.035384554 -0.006387625 0.068022065 0.078113556 0.08158408 0.041815616
0.0004265673 0.08522106 0.17837283 0.17653601 0.19652037 0.021863673 -0.09213749 0.0059181876
0.10029962 0.021658048 -0.019980166 0.03013562 -0.01693381 0.06211566 0.018124387 0.0015944629
-0.015005651 -0.073663495 0.052375972 0.093462504 0.16011892 0.07181933 -0.0075939614 0.042347703
0.0807066 0.014686024 0.05105819 0.058602087 0.056517813 -0.0742331 0.08922435 0.07407997
0.12186212 -0.08396703 -0.06505707 0.09298912 0.10782103 -0.05214258 0.015432049 0.07066544
-0.0041571273 -0.0685162 0.06601858 0.0206428 0.049564634 0.1439423 -0.015388261 0.15961632
0.12606436 0.13956188 0.09733216 0.10131125 0.1762423 -0.031036455 0.08176444 -0.011773764
00000000: 80c7 82bd 908b efbd 991c 0dbc a59a 833d
00000010: b646 8d3d 8a00 913c d458 043d ffe9 d73d
00000020: 2b88 3f3e bc4a b03d e674 b0bd b3e6 32bd
00000030: 7d0f fc3b 589d 2c3e f770 923b 5106 70bd
00000040: a585 813d aa59 98bc 6300 0d3d 0771 e53d
00000050: 6d36 223d c66c 853d e0ac a7bd 8b96 b3bd
00000060: 5d4f acbd c131 50bd 76d4 013d 8cc6 03bd
00000070: cd6e 053d 7db7 233e 6c5b 983d dce9 b53d
00000080: 695d febd 3dae 343d dc25 e63c b0d5 e73c
00000090: 82cd 0e3e 90eb 853d f423 ecbc bc52 ce3d
000000a0: 189e 8e3d e8aa c13d 6357 6a3c b42b df3c
000000b0: 372c 8fbd 8f30 97bc f38d 6d3e 004f 41bd
000000c0: 5db5 a23d 079a 5bbd 3481 dbbd 3f27 00be
000000d0: f105 933c aa95 623d 584b a53d 15d8 323d
000000e0: ecbd be3c 9e12 d0bc 11d9 f13d c431 cf3d
000000f0: 2aa5 fbbc 3d8a 0dbe b251 823d b47e fa3d
00000100: c7aa e33c 8d05 2fbe 65ef 10bd 484f d1bb
00000110: 274f 8b3d 00fa 9f3d 8e15 a73d da46 2b3d
00000120: e5a4 df39 6188 ae3d 5ea7 363e dbc5 343e
00000130: a33c 493e 721b b33c 95b2 bcbd 5bed c13b
00000140: e369 cd3d 386c b13c 72ad a3bc fade f63c
00000150: c6b8 8abc fe6c 7e3d 9879 943c 4cfd d03a
00000160: 43da 75bc e3dc 96bd 3088 563d 4569 bf3d
00000170: 37f6 233e 0316 933d c4d6 f8bb c974 2d3d
00000180: 8049 a53d a69d 703c 6522 513d be08 703d
00000190: 397f 673d 8607 98bd 42bb b63d 3db7 973d
000001a0: d992 f93d e8f6 abbd a43c 85bd 1471 be3d
000001b0: 46d1 dc3d 7593 55bd b4d6 7c3c 0bb9 903d
000001c0: 8338 88bb 3952 8cbd c034 873d 171b a93c
000001d0: 4904 4b3d 9c65 133e 0b1f 7cbc 7672 233e
000001e0: 0417 013e 4fe9 0e3e 1556 c73d 467c cf3d
000001f0: dd78 343e 2a40 febc 1d74 a73d bfe6 40bc

stack.1.0.weight f4 [64, 128]
-0.010046998 0.09738267 0.005525885 -0.095924966 0.05509463 0.11287275 0.058246743 -0.04396412
0.03574166 -0.08318534 -0.0014473075 0.039542027 -0.053183477 -0.03908773 0.01188088 -0.077951565
0.04713411 -0.0056097372 -0.06131332 -0.06373533 -0.06384263 -0.047474284 0.0696757 0.11062858
0.072552234 -0.10818064 0.050489612 0.018981531 -0.055152483 -0.05344051 0.09243783 0.040049717
0.08506037 -0.058541156 -0.029458225 -0.07727953 0.09698737 0.08856005 -0.01132684 -0.0036924197
-0.016669927 -0.00052036816 -0.102681294 -0.07021129 -0.11195851 0.09491913 0.07996479 -0.00653143
0.04875669 -0.14612111 0.1271567 -0.051489267 -0.01143321 0.016835894 0.044315573 0.06858618
0.0333951 0.023328153 0.122555844 0.088590026 -0.07231731 -0.05114651 -0.04620691 0.011267193
0.01499918 0.04271615 -0.11384835 0.061569873 -0.007483965 0.042127047 -0.027400626 -0.016247848
-0.10052152 0.1130441 0.021430794 0.08414978 -0.008870226 -0.048196875 0.114921905 -0.07827132
0.016615378 -0.08388725 -0.026341422 -0.03868761 -0.033669688 0.058638193 0.02266212 0.046046443
0.07262065 0.14029518 0.059893265 0.052589398 0.07943524 -0.061022647 -0.047521915 0.013021163
0.038412753 0.086216524 -0.02287358 0.004785322 0.012204712 0.03989741 -0.04960904 -0.14222464
-0.037909567 0.065133356 0.095283076 0.045321304 0.05991713 -0.014230611 -0.052443746 -0.058454975
-0.015958536 0.00582198 0.02384822 -0.15062095 -0.032952733 -0.029708663 -0.03950526 0.05807552
0.0657779 -0.019013692 0.079121806 -0.047151443 -0.0651976 0.012387538 -0.021172617 0.029706744
-0.07469304 -0.025760861 -0.06866506 0.090217315 -0.033611707 0.09129501 0.053134214 0.06128908
-0.029496161 -0.030400123 -0.010884886 0.104394965 -0.020852458 0.07821701 -0.072754055 0.02638444
0.052203972 0.03993679 0.06146562 -0.05123581 0.06080308 0.011028414 -0.008773133 0.11712445
0.0657748 -0.09577476 0.1061252 -0.025111098 -0.115094535 0.11039264 -0.01844994 -0.10547235
-0.054852337 0.11246005 -0.030935453 0.0027738505 0.03216213 -0.053634863 0.07219016 -0.00298631
-0.0575265 0.06298923 0.13941364 -0.024564303 0.004339686 -0.06480086 0.084381744 -0.00800781
-0.06456491 0.09083447 0.01919143 0.017039837 0.05260381 0.052744564 -0.024839882 0.05236469
0.004120811 0.016508106 0.096248165 0.052596472 1.9763149e-05 0.055860598 0.001158387 0.10864895
0.12022242 -0.045761608 -0.08167422 0.06677172 -0.058153756 0.024794664 0.104723275 -0.008340729
0.06850069 0.033687748 -0.01614465 -0.16009602 -0.071636505 0.04654329 0.065963425 0.069902025
0.07299159 -0.06784167 0.074769646 -0.06903482 0.07367854 0.028677233 0.12721336 0.038262516
-0.026733149 -0.038928065 -0.022222154 -0.013656341 -0.027352208 -0.10139595 0.014202806 -0.075848825
-0.023845397 0.07581158 -0.04162104 -0.096906625 -0.0027738595 0.03019962 -0.040591776 0.13603137
0.056759074 -0.0396623 0.015377622 0.06633628 0.09325213 0.0770654 -0.052641403 -0.047507133
0.08651312 0.040899158 -0.05239452 0.15283377 -0.050036546 0.031606235 0.05940355 0.0042416397
-0.12720951 -0.0035420996 -0.07243966 -0.060444884 0.07681629 -0.044469066 0.045921993 0.06217526
00000000: 2a9c 24bc 9170 c73d 7c12 b53b 4f74 c4bd
00000010: e8aa 613d d429 e73d 2394 6e3d b913 34bd
00000020: d965 123d 135d aabd 95b3 bdba d2f6 213d
00000030: ebd6 59bd 751a 20bd 06a8 423c 12a5 9fbd
00000040: b20f 413d e3d1 b7bb ad23 7bbd ab87 82bd
00000050: edbf 82bd 6574 42bd 22b2 8e3d 3d91 e23d
00000060: 4496 943d d08d ddbd 32ce 4e3d 287f 9b3c
00000070: 92e7 61bd 70e4 5abd 0c50 bd3d 2c0b 243d
00000080: 2234 ae3d dac8 6fbd 6052 f1bc bb44 9ebd
00000090: 50a1 c63d f95e b53d 3694 39bc 86fc 71bb
000000a0: 5f8f 88bc 5169 08ba 924a d2bd f0ca 8fbd
000000b0: 814a e5bd f664 c23d 94c4 a33d 9b05 d6bb
000000c0: 18b5 473d c6a0 15be 5e35 023e 69e6 52bd
000000d0: 5c52 3bbc 6eeb 893c 3f84 353d e976 8c3d
000000e0: 4dc9 083d af1a bf3c 8ffe fa3d b06e b53d
000000f0: 191b 94bd 017f 51bd 7543 3dbd 089a 383c
00000100: 1fbf 753c 21f7 2e3d 5329 e9bd b130 7c3d
00000110: 0c3c f5bb 698d 2c3d 4777 e0bc 351a 85bc
00000120: 3ade cdbd aa83 e73d a28f af3c b856 ac3d
00000130: 6d54 11bc 166a 45bd 2d5c eb3d b74c a0bd
00000140: f91c 883c 14cd abbd f7c9 d7bc e676 1ebd
00000150: 3ae9 09bd 9a2e 703d e9a5 b93c 329b 3c3d
00000160: 23ba 943d 8aa9 0f3e a452 753d fb67 573d
00000170: f1ae a23d e2f2 79bd 57a6 42bd b756 553c
00000180: b156 1d3d 4a92 b03d 6061 bbbc 31ce 9c3b
00000190: 46f6 473c 776b 233d d932 4bbd 56a3 11be
000001a0: 1047 1bbd a364 853d c623 c33d d5a2 393d
000001b0: aa6b 753d 8227 69bc 41cf 56bd 7c6e 6fbd
000001c0: 7abb 82bc 4fc6 be3b 585d c33c 613c 1abe
000001d0: 72f9 06bd 955f f3bc 44d0 21bd 99e0 6d3d
000001e0: 90b6 863d 9ac2 9bbc 9d0a a23d df21 41bd
000001f0: 5286 85bd 1af5 4a3c 3272 adbc 8f5b f33c
00000200: aaf8 98bd 7108 d3bc 44a0 8cbd dbc3 b83d
00000210: 6eac 09bd e1f8 ba3d 43a3 593d 420a 7b3d
00000220: efa1 f1bc ae09 f9bc 8556 32bc 07cd d53d
00000230: c6d2 aabc 3d30 a03d 1400 95bd 2e24 d83c
00000240: d5d3 553d c294 233d 60c3 7b3d a4dc 51bd
00000250: a70c 793d 85b0 343c 30bd 0fbc f2de ef3d
00000260: f0b4 863d 8f25 c4bd 2b58 d93d cab5 cdbc
00000270: afb6 ebbd 8915 e23d 5424 97bc e301 d8bd
00000280: d8ac 60bd 7451 e63d 596c fdbc 7dc9 353b
00000290: 70bc 033d 3bb0 5bbd 6fd8 933d f8b5 43bb
000002a0: e8a0 6bbd 7f00 813d 73c2 0e3e 143b c9bc
000002b0: ed33 8e3b 50b6 84bd 56d0 ac3d 3133 03bc
000002c0: 9c3a 84bd 6c07 ba3d 5937 9d3c 2197 8b3c
000002d0: 1877 573d af0a 583d 027d cbbc 5b7c 563d
000002e0: de07 873b 023c 873c c21d c53d 666f 573d
000002f0: 0ac9 a537 15ce 643d 05d5 973a 5783 de3d
00000300: 2c37 f63d 8670 3bbd d044 a7bd 9dbf 883d
00000310: a232 6ebd 2e1e cb3c 2879 d63d 8ea7 08bc
00000320: 174a 8c3d 2afc 093d c941 84bc 36f0 23be
00000330: 29b6 92bd 2da4 3e3d d517 873d cb28 8f3d
00000340: 9d7c 953d 93f0 8abd d420 993d 2162 8dbd
00000350: c6e4 963d 84ec ea3c 3844 023e 28b9 1c3d
00000360: 7aff dabc 0973 1fbd 3c0b b6bc d8be 5fbc
00000370: bd11 e0bc aea8 cfbd e3b2 683c a156 9bbd
00000380: 6c57 c3bc 1a43 9b3d d37a 2abd fb76 c6bd
00000390: a4c9 35bb 3265 f73c 9043 26bd cf4b 0b3e
000003a0: 347c 683d f074 22bd 6cf2 7b3c 51db 873d
000003b0: f9fa be3d 77d4 9d3d 839e 57bd d796 42bd
000003c0: ca2d b13d e085 273d a39b 56bd 7580 1c3e
000003d0: 1ff3 4cbd 8a75 013d 2351 733d 74fd 8a3b
000003e0: 3643 02be 9222 68bb 3f5b 94bd 0e95 77bd
000003f0: dc51 9d3d 3225 36bd b318 3c3d 7cab 7e3d

stack.1.0.bias f4 [64]
0.022294484 0.04591018 0.12980838 -0.00920747 -0.06223237 -0.010880579 0.025703378 0.003100438
0.069952525 0.07124125 0.03968358 0.10794788 -0.00993043 -0.0326252 0.16188356 -0.10841114
0.032664377 0.09943815 -0.11062767 -0.06875695 -0.04043147 0.06770245 0.13582693 0.13599904
0.1059547 0.0049687526 -0.087721944 0.17046152 -0.055615723 0.18780635 0.20449519 -0.05149308
0.015773632 -0.13505591 0.2237147 0.08450282 0.100293756 0.13787064 -0.09569441 0.082475334
-0.017174758 0.104885 0.06467414 -0.024695558 -0.055793792 0.054151326 0.027560148 -0.002032014
-0.034197878 0.075430594 -0.027139112 0.11697754 0.05487044 0.12084694 0.03148327 0.11700763
0.02601912 -0.051147375 -0.0068098493 0.034477443 -0.04046505 0.13619271 -0.08025641 -0.007538014
00000000: eca2 b63c 500c 3c3d 7dec 043e eeda 16bc
00000010: 5fe7 7ebd 7544 32bc e48f d23c b830 4b3b
00000020: 4543 8f3d efe6 913d 408b 223d c713 dd3d
00000030: 3eb3 22bc 00a2 05bd cec4 253e a906 debd
00000040: 15cb 053d 3ba6 cb3d c390 e2bd 72d0 8cbd
00000050: 789b 25bd 95a7 8a3d 3716 0b3e 5543 0b3e
00000060: c7fe d83d ebd0 a23b 90a7 b3bd 778d 2e3e
00000070: 50cd 63bd 4f50 403e 3067 513e 68ea 52bd
00000080: b437 813c 194c 0abe 7715 653e d10f ad3d
00000090: d066 cd3d f62d 0d3e 6efb c3bd d4e8 a83d
000000a0: 14b2 8cbc f2cd d63d e073 843d 574e cabc
000000b0: 0888 64bd c8cd 5d3d d2c5 e13c 8a2b 05bb
000000c0: 1313 0cbd 5b7b 9a3d d852 debc ec91 ef3d
000000d0: d4bf 603d 9a7e f73d 9af4 003d b2a1 ef3d
000000e0: 0d26 d53c e97f 51bd 2825 dfbb 3838 0d3d
000000f0: aebe 25bd 1a76 0b3e 795d a4bd 7201 f7bb

stack.2.0.weight f4 [32, 64]
-0.038834166 0.015766453 -0.006433098 0.12991011 -0.041089505 0.13103047 -0.025282122 0.09852369
-0.12119964 -0.086514056 -0.2123397 0.039794184 -0.114887916 -0.012064742 -0.23300764 0.08302636
0.08412422 -0.028704965 -0.02160856 0.22042811 -0.010494367 -0.09089109 0.15709414 -0.08715904
-0.032754816 0.03753502 0.024460638 -0.0026152288 -0.106415406 -0.11189393 0.058493465 -0.08595125
-0.14570476 -0.008106023 -0.024923595 -0.055005588 0.048401885 0.0012429715 0.06853278 -0.08835212
0.10436352 0.12388583 -0.056185868 0.108217254 -0.018943882 0.077017926 -0.100194514 0.060160935
-0.06003356 0.05020484 0.004272508 0.06233024 0.15137736 0.00585874 0.0062209205 0.12539776
0.13800503 0.14112619 -0.14686207 0.022009147 0.19854297 -0.07254721 -0.06918637 0.026789265
-0.13660876 -0.010645745 -0.040751345 -0.036133986 0.08988416 0.1600149 0.09105089 0.045652166
-0.059271164 0.06917317 -0.17219988 -0.055530928 0.023480572 -0.20122504 0.0023390981 0.14334427
0.08686242 -0.08997533 -0.122713156 0.07611216 0.060535062 -0.09280607 0.13546595 0.07713349
0.0774659 0.11932548 0.026817087 0.006251866 -0.025567358 -0.0043684803 -0.10040883 0.06913063
0.027912818 0.14411087 -0.10223701 -0.09683024 0.010761607 -0.054890573 -0.1399978 0.08669981
-0.086607836 0.03796354 0.043961633 0.118255265 -0.05516679 0.14519668 0.11388466 0.12520862
-0.08769857 0.13463067 -0.08730635 0.14016806 0.11783466 -0.06664299 -0.029895527 0.08053651
0.19471093 0.09465152 -0.06114592 -0.028136678 0.07266774 0.008006758 -0.10351477 -0.017598476
-0.03691321 0.08327313 0.018864334 0.16218378 -0.00782235 0.0907247 -0.019679472 0.12506658
0.12930416 0.17838752 0.22661051 -0.063535966 -0.10201983 0.052418087 0.17123486 -0.027766433
-0.09780368 0.0029529503 0.10172525 0.003121564 0.0329645 0.13076292 -0.025384067 0.014040863
0.04553959 0.03592924 0.044683177 0.016023567 0.10119729 0.13708892 0.16365369 0.09134426
0.06188376 -0.095737554 0.07000254 -0.044896293 0.12936361 0.024732098 -0.034467332 0.12773882
0.11584162 -0.048009835 0.093982324 -0.02199009 0.045807295 0.13242769 -0.043787893 -0.0048153824
0.116753615 -0.198243 -0.11339212 -0.058762364 -0.04120796 0.023393242 -0.04201459 -0.075648375
-0.12748566 -0.2839705 0.087264374 0.17356108 -0.1552451 0.02086366 -0.037860204 0.0184459
-0.022794189 0.09655664 -0.019021953 0.047320876 0.04669568 -0.089212656 0.10947813 0.020469595
0.08968672 0.09017044 -0.045756802 -0.09103567 -0.120277874 -0.09081956 -0.004518463 -0.10509104
-0.032647148 -0.097724184 -0.109731324 -0.09721332 -0.06731517 -0.06840377 0.023813931 0.015986137
0.06667628 0.020237248 -0.0609741 -0.08431818 0.00068838894 0.025614403 0.08405774 0.040413413
-0.05616708 -0.10829896 0.028680652 -0.007170957 -0.066699244 -0.0040776315 0.068275265 0.12230381
0.04166249 0.042870585 -0.0034346788 -0.07310428 0.000646919 0.058108542 -0.10415603 -0.06535587
0.03323235 -0.045398023 -0.033530485 0.08873788 -0.11514841 -0.11571332 0.11869696 -0.050918486
0.016010346 0.005128354 -0.11155301 0.10492194 -0.07078162 0.0097615 0.036389865 -0.071365245
00000000: 9310 1fbd a628 813c bdcc d2bb 2807 053e
00000010: 784d 28bd da2c 063e 741c cfbc cac6 c93d
00000020: 8437 f8bd 482e b1bd 946f 59be 3aff 223d
00000030: 5b4a ebbd 32ab 45bc 8e99 6ebe b909 aa3d
00000040: 5249 ac3d ad26 ebbc 6f04 b1bc e8b7 613e
00000050: 91f0 2bbc 1c25 babd 49dd 203e 7080 b2bd
00000060: ea29 06bd 52be 193d ad61 c83c 4264 2bbb
00000070: 52f0 d9bd a528 e5bd d896 6f3d 3507 b0bd
00000080: a133 15be 20cf 04bc 912c ccbc 8a4d 61bd
00000090: 0e41 463d 34eb a23a ea5a 8c3d f5f1 b4bd
000000a0: 8bbc d53d dbb7 fd3d 2723 66bd 02a1 dd3d
000000b0: 3330 9bbc 93bb 9d3d c832 cdbd 506b 763d
000000c0: c0e5 75bd 97a3 4d3d 6500 8c3b fe4d 7f3d
000000d0: ab02 1b3e acfa bf3b ddd8 cb3b 4568 003e
000000e0: 3151 0d3e 6283 103e 0363 16be 874c b43c
000000f0: d94e 4b3e a293 94bd 95b1 8dbd 2975 db3c
00000100: 2be3 0bbe 7e6b 2ebc e2ea 26bd 3b01 14bd
00000110: 3015 b83d f2da 233e e478 ba3d c4fd 3a3d
00000120: 52c6 72bd aaaa 8d3d 2a55 30be 6674 63bd
00000130: 545a c03c f00d 4ebe 8e4b 193b d7c8 123e
00000140: ede4 b13d fc44 b8bd 0951 fbbd b1e0 9b3d
00000150: 9df3 773d 1c11 bebd 96b7 0a3e 2af8 9d3d
00000160: 71a6 9e3d eb60 f43d 82af db3c 74dc cc3b
00000170: a372 d1bc 7825 8fbb 25a3 cdbd 5c94 8d3d
00000180: 6ca9 e43c cd91 133e a361 d1bd ef4e c6bd
00000190: 7451 303c f0d4 60bd 955b 0fbe ac8f b13d
000001a0: 735f b1bd a87f 1b3d 1d11 343d d12f f23d
000001b0: 92f6 61bd 70ae 143e 5c3c e93d b036 003e
000001c0: 4f9b b3bd 9fdc 093e accd b2bd 3788 0f3e
000001d0: 4c53 f13d 1f7c 88bd 77e7 f4bc 53f0 a43d
000001e0: 4d62 473e a8d8 c13d 2574 7abd e47e e6bc
000001f0: d3d2 943d c72e 033c 8dff d3bd ae2a 90bc
00000200: 4e32 17bd 1a8b aa3d 6089 9a3c 8113 263e
00000210: 5029 00bc dfcd b93d d836 a1bc 7411 003e
00000220: 4f68 043e 38ab 363e 960c 683e 251f 82bd
00000230: c6ef d0bd 59b4 563d 3158 2f3e 6e76 e3bc
00000240: 4c4d c8bd 4986 413b 5455 d03d 2793 4c3b
00000250: c905 073d b7e6 053e 3ff2 cfbc a60b 663c
00000260: b987 3a3d 8a2a 133d b505 373d db43 833c
00000270: 8640 cf3d 0a61 0c3e d594 273e b312 bb3d
00000280: d379 7d3d 0d12 c4bd 7e5d 8f3d 2de5 37bd
00000290: e577 043e f89a ca3c 9e2d 0dbd f7cd 023e
000002a0: 5f3e ed3d f6a5 44bd ce79 c03d 9024 b4bc
000002b0: 6ea0 3b3d 209b 073e ef5a 33bd 5bca 9dbb
000002c0: 851c ef3d 3700 4bbe 213a e8bd ceb0 70bd
000002d0: aec9 28bd 2fa3 bf3c 7e17 2cbd 89ed 9abd
000002e0: 9a8b 02be 9564 91be aab7 b23d ffb9 313e
000002f0: 92f8 1ebe 44ea aa3c 4d13 1bbd db1b 973c
00000300: e1ba babc 7dbf c53d edd3 9bbc 89d3 413d
00000310: f843 3f3d 20b5 b6bd 1236 e03d daaf a73c
00000320: acad b73d 48ab b83d 7c6b 3bbd e970 babd
00000330: 3f54 f6bd 9bff b9bd 9d0f 94bb f939 d7bd
00000340: 04b9 05bd 9e23 c8bd d1ba e0bd c717 c7bd
00000350: 89dc 89bd 4717 8cbd 6f15 c33c 5cf5 823c
00000360: 938d 883d 96c8 a53c fabf 79bd 03af acbd
00000370: 0075 343a 4cd5 d13c 7726 ac3d 8988 253d
00000380: 740f 66bd d8cb ddbd b0f3 ea3c 59fa eabb
00000390: 9d99 88bd a79d 85bb e7d3 8b3d 6c7a fa3d
000003a0: 4aa6 2a3d 1199 2f3d 5918 61bb b2b7 95bd
000003b0: 0096 293a 3903 6e3d c24f d5bd 4cd9 85bd
000003c0: a51e 083d 47f3 39bd 4357 09bd 35bc b53d
000003d0: eed2 ebbd 1bfb ecbd 6417 f33d e78f 50bd
000003e0: 2128 833c c00b a83b e875 e4bd 50e1 d63d
000003f0: f4f5 90bd b3ee 1f3c 8a0d 153d f127 92bd

stack.2.0.bias f4 [32]
0.016025465 0.061915293 0.018475035 -0.020227065 -0.059198223 -0.099179186 0.012247039 0.07018401
0.17624743 0.13719419 -0.088439964 0.089322984 -0.13803503 0.11686405 -0.043126557 0.005992088
-0.082051106 -0.06581114 0.10874376 -0.11227429 0.016043935 -0.1444668 0.0064573423 -0.07694769
0.17494081 -0.1021307 0.085693695 0.12584962 0.05217327 -0.019261926 -0.046829447 -0.034464385
00000000: d647 833c e49a 7d3d f558 973c 3bb3 a5bc
00000010: d679 72bd 751e cbbd cea7 483c a2bc 8f3d
00000020: 357a 343e a27c 0c3e 0320 b5bd f8ee b63d
00000030: 0e59 0dbe 6b56 ef3d 79a5 30bd 4759 c43b
00000040: 690a a8bd fec7 86bd 0cb5 de3d 10f0 e5bd
00000050: 926e 833c 1bef 13be 1d98 d33b c096 9dbd
00000060: af23 333e e729 d1bd 2d80 af3d b9de 003e
00000070: a4b3 553d 30cb 9dbc 3cd0 3fbd 872a 0dbd

stack.3.0.weight f4 [10, 32]
-0.01522715 0.08756833 -0.044636153 0.11942177 -0.1526129 -0.032764927 0.09633625 -0.13157031
0.13300249 0.06603427 0.07809842 0.15063445 0.006830584 0.07092909 -0.084942445 0.03385617
0.077852786 -0.12525694 -0.25501627 0.16180176 0.23008105 -0.2157799 -0.025202725 -0.17399797
0.15435475 -0.095617294 0.05903657 0.24890243 -0.21846913 -0.27160442 0.08915778 0.17520288
0.25415465 0.24106833 -0.15708287 -0.031338427 0.011472915 0.17422526 -0.24539776 0.20057848
-0.14927958 -0.26547286 -0.007975841 0.12914415 0.29237816 -0.098322146 -0.062159657 -0.030911649
0.062116545 0.08151508 0.15131925 -0.16782165 0.058340676 0.089201756 -0.0010827872 -0.111146756
0.13874876 -0.037634432 -0.034488354 0.2908117 0.14151587 -0.004029047 0.16580895 0.15538047
-0.0019035646 0.14949037 -0.1561375 0.13870694 0.10066682 0.046349823 0.092670396 0.04402649
0.16799216 -0.025309732 0.005907808 -0.107227355 -0.11783356 -0.16384564 -0.13148598 0.0052348073
0.04005632 0.10394637 -0.119620435 -0.0926798 0.00025403016 0.13639289 -0.14643893 -0.14592952
0.1493346 -0.15014455 -0.16427094 -0.08189497 -0.15048912 0.13784944 0.13810457 -0.0023264703
-0.23931274 0.032450322 0.07361192 -0.13812636 0.0012674488 -0.02876151 -0.094291784 0.06453356
0.14733845 -0.049887497 -0.16066371 0.1128775 -0.26753592 0.19698997 0.07151531 0.061362907
-0.015148521 -0.09957037 0.052888453 -0.17698517 0.001103236 -0.22544557 -0.17955007 0.02089586
0.08441845 -0.060018156 -0.14785306 -0.14508332 0.0026094476 0.08604574 0.11455785 0.008730828
-0.14396104 -0.17045149 0.09291213 -0.07481723 -0.13024381 0.16505007 0.20290881 0.18881501
-0.11718133 0.026507791 -0.1005095 -0.14711331 -0.054299586 -0.11860393 0.16292757 -0.11269442
-0.040442836 -0.14608274 -0.032271422 0.19873142 -0.16365364 0.1889677 -0.25794157 0.011459918
0.022410441 -0.08721481 0.07578664 -0.24036922 0.010234013 -0.15479806 -0.12302005 0.22117338
-0.14310601 -0.10802983 0.1767507 0.07090063 0.047284484 0.10566272 0.02648668 0.091525294
-0.038201038 0.044696543 -0.0444963 -0.088015385 -0.02170687 -0.03932973 0.16843651 0.061973672
0.023954857 0.13663605 -0.014230398 0.014540136 0.12804863 -0.08020397 -0.0025860674 -0.10585326
0.021279206 -0.16009927 0.044789393 -0.11416913 0.10512941 -0.11752031 -0.045554653 -0.040976346
-0.02268023 -0.053243227 -0.076961786 0.11185988 -0.102885574 0.04887323 0.107055455 0.02945797
0.10024076 -0.1692958 -0.08259503 0.11152625 -0.010113684 0.012363146 -0.14875509 0.07801091
0.13416877 0.16961607 -0.06929121 -0.07320962 -0.17115453 -0.12611519 0.056996256 0.13240512
-0.11295461 0.067483276 -0.010765211 -0.031006804 -0.046275552 -0.15216672 -0.11936145 -0.11988896
-0.025916602 -0.05810744 -0.076827906 0.031049563 0.07273966 0.15834981 -0.106908195 -0.15484074
0.070814036 0.04739257 0.14801948 0.12951441 0.0693158 -0.08189588 -0.13064449 -0.040838126
0.0988223 -0.113823846 0.13382366 -0.16976383 -0.017591357 0.033039525 0.15616147 0.015059259
-0.17550397 0.15142678 -0.056773048 0.04527973 -0.07063106 0.15064482 0.033330612 -0.10944968
00000000: 4c7b 79bc 0657 b33d 66d4 36bd 6793 f43d
00000010: 8e46 1cbe 8434 06bd f14b c53d 5eba 06be
00000020: ce31 083e fa3c 873d 10f2 9f3d eb3f 1a3e
00000030: 17d3 df3b 4543 913d 4ef6 adbd c4ac 0a3d
00000040: 4871 9f3d 5b43 00be 7e91 82be 5caf 253e
00000050: 5e9a 6b3e 68f5 5cbe f275 cebc 862c 32be
00000060: 2c0f 1e3e 00d3 c3bd 55d0 713d 47e0 7e3e
00000070: 5fb6 5fbe bc0f 8bbe 5b98 b63d 6268 333e
00000080: 8f20 823e 9eda 763e 55da 20be b95c 00bd
00000090: e5f8 3b3c 1b68 323e 8d49 7bbe 7264 4d3e
000000a0: bfdc 18be 0fec 87be 1aad 02bc 5d3e 043e
000000b0: 97b2 953e 1f5d c9bd 209b 7ebd 6d3a fdbc
000000c0: eb6d 7e3d 61f1 a63d 6ff3 1a3e 70d9 2bbe
000000d0: a2f6 6e3d 69af b63d 4fec 8dba e9a0 e3bd
000000e0: 2814 0e3e 9026 1abd a943 0dbd 45e5 943e
000000f0: 89e9 103e 1906 84bb d2c9 293e 0f1c 1f3e
00000100: 0781 f9ba 0114 193e 82e2 1fbe 3109 0e3e
00000110: 682a ce3d 50d9 3d3d fac9 bd3d 1f55 343d
00000120: 2306 2c3e 5b56 cfbc 4996 c13b 049a dbbd
00000130: b952 f1bd 27c7 27be 43a4 06be bf88 ab3b
00000140: 1912 243d d6e1 d43d 8ffb f4bd e8ce bdbd
00000150: 5a2f 8539 94aa 0b3e 16f4 15be 8c6e 15be
00000160: 2beb 183e 7ebf 19be a436 28be 8db8 a7bd
00000170: d219 1abe 6728 0d3e 496b 0d3e b277 18bb
00000180: 660e 75be a1ea 043d d9c1 963d ff70 0dbe
00000190: 8620 a63a 429d ebbc 0d1c c1bd 2c2a 843d
000001a0: e4df 163e d556 4cbd 0785 24be 522c e73d
000001b0: 78fa 88be bdb7 493e 9e76 923d ac57 7b3d
000001c0: 8131 78bc 8deb cbbd 90a1 583d 9a3b 35be
000001d0: 759a 903a 34db 66be f9db 37be cb2d ab3c
000001e0: 95e3 ac3d 99d5 75bd cb66 17be b990 14be
000001f0: 4403 2b3b c038 b03d 4e9d ea3d bf0b 0f3c
00000200: 866a 13be d68a 2ebe b748 be3d c739 99bd
00000210: a25e 05be e302 293e 54c7 4f3e b958 413e
00000220: c4fc efbd de26 d93c edd7 cdbd dfa4 16be
00000230: 3e69 5ebd 9ee6 f2bd 7cd6 263e 55cc e6bd
00000240: 63a7 25bd b796 15be 0a2f 04bd 4080 4b3e
00000250: d294 27be c080 413e eb10 84be 61c2 3b3c
00000260: 1a96 b73c ae9d b2bd 0736 9b3d 5923 76be
00000270: 90ac 273c 6283 1ebe f0f1 fbbd 467b 623e
00000280: 628a 12be be3e ddbd 23fe 343e 5934 913d
00000290: 60ad 413d b265 d83d 98fa d83c 9d71 bb3d
000002a0: b178 1cbd b913 373d c141 36bd 6941 b4bd
000002b0: 9bd2 b1bc 3618 21bd 9f7a 2c3e 1bd8 7d3d
000002c0: fa3c c43c 52ea 0b3e 9e26 69bc c039 6e3c
000002d0: 2e1f 033e fb41 a4bd 037b 29bb 98c9 d8bd
000002e0: bb51 ae3c 10f1 23be 1575 373d 81d1 e9bd
000002f0: 174e d73d 7dae f0bd 8497 3abd d0d6 27bd
00000300: e4cb b9bc 9215 5abd 249e 9dbd cb16 e53d
00000310: acb5 d2bd 4c2f 483d e43f db3d d751 f13c
00000320: 074b cd3d e15b 2dbe 9527 a9bd e067 e43d
00000330: deb3 25bc cb8e 4a3c 4153 18be 2fc4 9f3d
00000340: 8a63 093e d6af 2d3e 8de8 8dbd edee 95bd
00000350: 2243 2fbe 5724 01be e874 693d 3595 073e
00000360: bf54 e7bd ac34 8a3d 9160 30bc fb01 febc
00000370: 6f8b 3dbd 98d1 1bbe c773 f4bd 5888 f5bd
00000380: 0e4f d4bc 1102 6ebd f357 9dbd a75b fe3c
00000390: 88f8 943d 7426 223e aff2 dabd 928e 1ebe
000003a0: f306 913d b61e 423d 6b92 173e 6d9f 043e
000003b0: 71f5 8d3d 07b9 a7bd abc7 05be e145 27bd
000003c0: 5963 ca3d 7a1c e9bd 1209 093e 92d6 2dbe
000003d0: c01b 90bc 7454 073d cbe8 1f3e 1cbb 763c
000003e0: 50b7 33be 9f0f 1b3e db8a 68bd 3d77 393d
000003f0: 04a7 90bd a342 1a3e ae85 083d 2727 e0bd

stack.3.0.bias f4 [10]
0.15262023 0.029367415 -0.18202911 0.21555114 0.14150833 -0.11465852 0.012892678 -0.16883188
-0.14833876 0.002996072
00000000: 7a48 1c3e ef93 f03c d765 3abe 70b9 5c3e
00000010: 8fe7 103e 16d2 eabd d03b 533c 44e2 2cbe
00000020: 1ee6 17be bf59 443b
