src/fminst/models/teacher_5cl_1.pt (torch, 447183 bytes, 8 tensors)

stack.0.0.weight f4 [128, 784]
0	0x3d7d28a8	0.06180635
1	0x3cff1128	0.03113611
2	0x3d01dff7	0.03170773
3	0x3dad3d4a	0.084589556
4	0xbd23b03c	-0.039962992
5	0xbb211136	-0.002457691
6	0xbc2363ac	-0.009972494
7	0x3d974175	0.07385532
8	0x3dad4785	0.08460907
9	0x3d95f263	0.07321622
10	0x3d113823	0.035453927
11	0x3caa8bcd	0.020818615
12	0x3d1629d7	0.036660995
13	0xbd2a0a3c	-0.041513667
14	0xbcc54e71	-0.024085255
15	0xbbc3dcb7	-0.005977239
16	0x3d3f851d	0.046757806
17	0x3d15e79c	0.036597833
18	0x3dc45586	0.09586625
19	0x3db278be	0.08714436
20	0x3d6b468e	0.057440333
21	0xbca72ebc	-0.020408027
22	0xbd16c757	-0.0368112
23	0xbb8535ce	-0.004065252
24	0x3d915c97	0.07097738
25	0x3da7d485	0.08194832
26	0x3d232fad	0.03984039
27	0x3d89ee16	0.067348644
28	0x3d328764	0.04358615
29	0xbbe0c540	-0.0068594515
30	0x3d96831e	0.07349227
31	0x3dcd0ba6	0.100119874
32	0x3d926163	0.07147481
33	0xbd03446a	-0.032047667
34	0xbd3f3478	-0.046680897
35	0x3d3abb76	0.045588933
36	0x3dcbe997	0.09956663
37	0x3c991a66	0.018689346
38	0x3d232019	0.039825533
39	0x3b946ac0	0.004529327
40	0x3d79a869	0.060951624
41	0x3c97a1e3	0.01850981
42	0x3d52c1a1	0.05145419
43	0x3d08145e	0.03322255
44	0xbb301bec	-0.0026872111
45	0x3d08ae8c	0.033369586
46	0x3d164f82	0.03669692
47	0x3d8a000a	0.06738289
48	0x3d9d7c94	0.07689777
49	0x3d30cad7	0.043162193
50	0xbcda2304	-0.026628025
51	0x3d260154	0.04052861
52	0x3e0dc558	0.13844812
53	0x3dc38680	0.09547138
54	0x3dcd68d7	0.10029762
55	0x3dac9fec	0.0842894
56	0x3d21974d	0.039450932
57	0xbd749ccc	-0.059719846
58	0x3d8448a9	0.06459171
59	0x3dc97302	0.09836389
60	0x3c1c262b	0.009530584
61	0x3c892414	0.016740836
62	0x3caea854	0.0213205
63	0x3db84111	0.089967854
64	0x3c9725c6	0.018450629
65	0x3c976689	0.01848151
66	0x3c915dec	0.01774498
67	0x3d0ffc56	0.035152756
68	0x3c467071	0.012111769
69	0x3c498610	0.012300029
70	0x3d3e5a86	0.04647305
71	0x3cdad24e	0.02671161
72	0x3d1af77d	0.03783368
73	0x3d2c6669	0.042089853
74	0x3d1595f2	0.036519952
75	0x3d473e43	0.04864336
76	0x3d739721	0.0594703
77	0x3d825b92	0.06365122
78	0xbc4f9cb0	-0.012671635
79	0x3d901db2	0.07036914
80	0x3dc621a7	0.096743874
81	0x3d933348	0.071875155
82	0x3d92ce6f	0.0716828
83	0x3d576f9f	0.052596685
84	0x3ce82bf4	0.028341271
85	0xbbfe61f5	-0.007763142
86	0x3d18b0dc	0.03727804
87	0x3dcd46c5	0.10023264
88	0xbc322b1c	-0.010874536
89	0x3caa82c2	0.020814303
90	0x3cf83d70	0.030302733
91	0xbcde0017	-0.027099652
92	0x3d40c79c	0.047065362
93	0x3d49e89e	0.049294107
94	0xbc95c0c8	-0.018280402
95	0xbc661968	-0.014044143
96	0x3d3f15b9	0.046651576
97	0x3cfab8ee	0.03060576
98	0xbc2c0b03	-0.010500672
99	0x3c2ce0f5	0.010551681
100	0x3d6c5a54	0.05770333
101	0x3c985a06	0.018597614
102	0x3d5b5231	0.05354518
103	0x3d8c2d02	0.06844522
104	0xbc7c278f	-0.015390291
105	0xba91e323	-0.0011130314
106	0x3d5fe38c	0.054660365
107	0x3d1fa917	0.038979616
108	0x3e05126b	0.12995307
109	0x3de34fef	0.110992305
110	0x3dc722fc	0.097234696
111	0x3dc2c960	0.095110655
112	0x3d530718	0.051520437
113	0x3cb6b01e	0.022300776
114	0x3d86f036	0.06588785
115	0x3d81c358	0.06336087
116	0x3ce2e886	0.027698766
117	0x3d18df75	0.03732248
118	0xbc383d23	-0.011245045
119	0xbd1b170d	-0.03786378
120	0x3a60bbca	0.00085729046
121	0x3d1499a7	0.036279347
122	0x3d4bcafa	0.04975412
123	0xbc6e8de8	-0.0145602
124	0x3d327e6b	0.043577593
125	0x3c342b94	0.010996718
126	0xbcb17a5b	-0.021664789
127	0x3cdb2168	0.026749328
128	0x3d00c7e8	0.031440645
129	0x3d47ed2c	0.04881017
130	0x3c831daa	0.016005356
131	0x3d6fa9b7	0.058511462
132	0x3d2f8d15	0.042859156
133	0x3d2eb3a8	0.042651802
134	0x3d3d4242	0.046205766
135	0x3d8236d7	0.06358116
136	0x3dafdc6a	0.085869625
137	0x3ddbce74	0.10732737
138	0x3d8b572b	0.06803735
139	0x3c99099e	0.018681344
140	0xbd09ce64	-0.033644095
141	0x3d7bbd70	0.06145996
142	0x3c8c899e	0.017155465
143	0x3c6fc514	0.014634389
144	0x3d328fbd	0.04359411
145	0x3b69cca8	0.0035674963
146	0x3ced9e2d	0.029006088
147	0xbc9b99c2	-0.018994216
148	0x3cae1d1f	0.02125412
149	0x3d06e0f3	0.032929372
150	0x3baf876d	0.00535672
151	0x3d4060d5	0.046967346
152	0x3c6dbceb	0.014510374
153	0x3d09a3e7	0.033603575
154	0xbc7bed36	-0.01537638
155	0x3c01d4eb	0.007924299
156	0xbb07bf69	-0.0020713455
157	0x3cc03276	0.023461562
158	0x3d7f66cc	0.062353894
159	0x3cdecd28	0.027197435
160	0xbcb80472	-0.022463057
161	0x3c9d240b	0.019182226
162	0x3d1f70c9	0.03892592
163	0x3d72cf76	0.05927988
164	0x3d1371c9	0.035997186
165	0x3d8a8f2c	0.06765589
166	0x3dc5f7c0	0.09666395
167	0x3d27d935	0.04097863
168	0x3d319a62	0.04336012
169	0x3daa533c	0.08316657
170	0x3bc20285	0.0059207105
171	0x3d067dc0	0.03283477
172	0x3c0e903d	0.008701381
173	0x3d1d827d	0.03845452
174	0x3d346e52	0.044050522
175	0x3ca5ad65	0.020224283
176	0x3d3719b1	0.044702236
177	0x3cbab1e0	0.022789896
178	0x3a4d3aaf	0.0007828874
179	0x3d482bdf	0.048869964
180	0x3ba16ff4	0.004926676
181	0x3d17f682	0.037100323
182	0xbc4075f8	-0.011746876
183	0x3cf747d9	0.030185627
184	0x3c7c924f	0.015415742
185	0x3d763493	0.060108732
186	0x3cbd10f9	0.023079382
187	0x3cd3e337	0.02586518
188	0x3b96af83	0.0045985593
189	0xbc989e12	-0.018630061
190	0x3d66c883	0.056343567
191	0x3c84c5da	0.016207624
192	0x3c2e542f	0.010640188
193	0x3d663589	0.0562034
194	0x3dd466c8	0.103711665
195	0x3d821705	0.06352047
196	0x3e132f74	0.1437357
197	0x3d85ca48	0.06532723
198	0x3d81a10a	0.06329544
199	0xbc0a133e	-0.008427439
200	0x3cab50ab	0.020912489
201	0x3c19af6b	0.009380202
202	0x3d02abca	0.031902112
203	0xbc6dd0a7	-0.014515079
204	0x3d53e299	0.051729772
205	0x3cdf847e	0.027284857
206	0x3c53a47d	0.012917635
207	0x3cb2cc84	0.021826036
208	0x3d042c93	0.03226907
209	0x3d655f68	0.05599919
210	0x3c877b87	0.016538395
211	0x3d20d8bd	0.039269198
212	0x39d24293	0.00040103923
213	0x3d6f4423	0.05841459
214	0x3d9d63eb	0.076850735
215	0x3dc436ff	0.09580802
216	0x3d4cfda6	0.050046586
217	0xbd29ae5e	-0.041426055
218	0x3c8944ba	0.016756404
219	0x3d6dcc8e	0.058056407
220	0x3b1a5e1a	0.0023554624
221	0x3d7796ac	0.060446426
222	0x3ccdff5a	0.025146175
223	0x3c69563a	0.014241749
224	0x3d94a78d	0.0725852
225	0x3ba9c744	0.005181225
226	0x3ccc87bf	0.024967073
227	0x3d6fb890	0.058525622
228	0x3d85ebc6	0.06539111
229	0x3d8e0d39	0.06936116
230	0x3c043959	0.008070313
231	0xbbbad881	-0.005702079
232	0x3da2e0f1	0.079530604
233	0x3d115c95	0.035488684
234	0x3b3b8692	0.0028614146
235	0x3cc0dbb9	0.023542272
236	0x3b9b9cd8	0.004748922
237	0x3d39c14f	0.04535037
238	0x3d203d11	0.039120737
239	0x3bdf01b0	0.006805621
240	0x3c00f97f	0.0078719845
241	0x3d1030f8	0.03520295
242	0x3d683fd5	0.0567015
243	0x3d9844a8	0.0743497
244	0x3ca7db1d	0.020490224
245	0x3bfa88c4	0.0076456983
246	0xbacb6606	-0.0015518076
247	0x3b1376de	0.002250127
248	0x3c443561	0.011975617
249	0x3d2a6e08	0.04160884
250	0x3d7d676b	0.061866205
251	0xbc541498	-0.012944363
252	0x3d8b2e4a	0.06795938
253	0x3cc68325	0.024232456
254	0x3cf4bd40	0.029875398
255	0x3ca82120	0.020523608

stack.0.0.bias f4 [128]
0	0x3ddb66ea	0.10712989
1	0x3e030c8e	0.12797758
2	0x3b1ea752	0.0024208617
3	0x3d947207	0.072483115
4	0x3d658509	0.056035075
5	0x3de87812	0.113510266
6	0x3c7e817d	0.015533802
7	0x3e055789	0.13021673
8	0x3d9f8223	0.077884935
9	0x3c268f3e	0.010165988
10	0x3b1055b3	0.0022023737
11	0xbe09249a	-0.13392869
12	0xbc1672f1	-0.009182678
13	0x3d674e10	0.05647093
14	0xbdad79c0	-0.084704876
15	0xbd322773	-0.043494653
16	0x3dac0c8b	0.0840083
17	0x3d9960cc	0.07489166
18	0x3db540a1	0.088502176
19	0xbe19206a	-0.14953771
20	0x3dbcff66	0.09228401
21	0xbdaeac4c	-0.08528957
22	0x3df5af32	0.119963065
23	0x3de23a42	0.11046268
24	0xbd52643f	-0.051365133
25	0x3e256379	0.16151227
26	0x3d0fc1a9	0.035096798
27	0x3b19bffc	0.002346038
28	0x3ca258db	0.01981776
29	0x3e1b508e	0.15167448
30	0x3bed9d8b	0.0072514466
31	0xbd124e0a	-0.035718955
32	0xbcee70d3	-0.029106533
33	0x3daba6a8	0.083813965
34	0x3de1ea28	0.1103099
35	0xbd0cfe9b	-0.0344225
36	0x3d9f2d1d	0.077722766
37	0x3c534a2c	0.012896102
38	0x3ddf8c08	0.10915381
39	0xbc648107	-0.013946778
40	0x3ddb8311	0.10718358
41	0xbd748a18	-0.05970201
42	0x3daa36da	0.08311243
43	0x3dbbc729	0.09168846
44	0x3e0a0686	0.13479051
45	0x3e20c0f4	0.15698606
46	0xbd0fe2a5	-0.035128254
47	0x3cd94f73	0.026527142
48	0x3c75aa7f	0.014994263
49	0x3d9b6d23	0.075891756
50	0xbd13a640	-0.03604722
51	0x3cbb9fad	0.022903288
52	0xbde0dabc	-0.1097922
53	0x3d03b049	0.03215054
54	0xbe007554	-0.12544757
55	0xbdcf0c67	-0.101097874
56	0x3d333abe	0.043757193
57	0x3d6f4b82	0.05842162
58	0x3d7a024c	0.061037347
59	0x3c53ee35	0.012935211
60	0x3e255069	0.16143955
61	0x3dd0ff26	0.10204916
62	0x3db7eeb5	0.08981077
63	0xbde06d16	-0.109583065
64	0x3de94b13	0.113912724
65	0xbbf09563	-0.007342027
66	0x3e09e9f1	0.13468148
67	0x3de34c02	0.11098482
68	0x3d770747	0.060309675
69	0x3d15cdb4	0.036573127
70	0xbddabb09	-0.106802054
71	0xbcc59279	-0.024117695
72	0xbb23c4d7	-0.0024989152
73	0x3de0143f	0.10941362
74	0x3d7ec9e2	0.06220425
75	0x3c6c292c	0.014414113
76	0x3e22b656	0.15889868
77	0xbd09e03a	-0.033661105
78	0x3e080b78	0.13285625
79	0xbd1a6500	-0.037693977
80	0x3cbde4b5	0.023180345
81	0x3c8f3e7a	0.017485846
82	0x3dc2c692	0.095105305
83	0xbc60e459	-0.013726317
84	0xbcc4b382	-0.024011377
85	0x3d8e6b5e	0.069540724
86	0x3daa820b	0.08325585
87	0x3d2d4734	0.042304233
88	0xbd387846	-0.045036577
89	0x3e1c9931	0.15292813
90	0x3dd8b5cb	0.10581549
91	0x3d858317	0.06519144
92	0x3df503a7	0.11963587
93	0x3dd48172	0.10376252
94	0x3dc61220	0.09671426
95	0xbcc19d5a	-0.023634601
96	0x3d4065a0	0.046971917
97	0x3e2d1c86	0.16905412
98	0x3d84f7e9	0.064925976
99	0x3df48637	0.11939662
100	0x3c825535	0.01590977
101	0x3da63349	0.081152506
102	0xbc5d9483	-0.0135241775
103	0x3d457ec3	0.048216593
104	0x3e1f7dd7	0.15575348
105	0x3e1c9c28	0.15293944
106	0x3ddd6baf	0.10811555
107	0x3dadae7e	0.08480547
108	0x3dc08e88	0.09402186
109	0x3debe6f2	0.11518659
110	0xbdcb7972	-0.09935273
111	0xbccf9410	-0.025339156
112	0x3d895030	0.06704748
113	0xbdd17f7f	-0.10229396
114	0x3db19016	0.0867006
115	0xbd89d243	-0.06729557
116	0xbc5b314d	-0.013378453
117	0xbcc72f0e	-0.02431443
118	0xbca2308e	-0.019798543
119	0x3e18f70c	0.14937991
120	0x3bcf77d2	0.0063314224
121	0x3e055bfd	0.13023372
122	0x3db1ffc6	0.08691363
123	0x3e169b73	0.14707737
124	0xbc62d0d3	-0.013843733
125	0x3dddcd4d	0.10830174
126	0x3d50d0b5	0.05098029
127	0x3e03afef	0.12860082

stack.1.0.weight f4 [64, 128]
0	0x3d84c70c	0.06483278
1	0x3e29624c	0.16541404
2	0xbd31d413	-0.04341514
3	0x3ad241a8	0.0016041296
4	0xbdcf9104	-0.101350814
5	0x3d2e78d7	0.04259571
6	0xbd5fb613	-0.054617
7	0x3daed5d9	0.08536882
8	0xbd7f3c41	-0.062313322
9	0xbc41ba43	-0.011824193
10	0x3d66d5cd	0.05635624
11	0xbaee32cb	-0.0018173096
12	0xbd839596	-0.06425016
13	0x3d52a319	0.051425073
14	0x3cbc694c	0.022999428
15	0x3cd51dcb	0.026015183
16	0x3db422e5	0.08795718
17	0xbc043581	-0.008069397
18	0xbdcb2d89	-0.099207945
19	0x3e8d6144	0.2761327
20	0xbd972493	-0.07380023
21	0x3b3a7a40	0.0028454214
22	0xbd0ffcdf	-0.035153266
23	0x3d78764d	0.060659695
24	0x3e0455a6	0.12923297
25	0xbbbcc70a	-0.005761032
26	0xbde0345f	-0.10947489
27	0x3d72c671	0.05927128
28	0xbd3eb940	-0.046563387
29	0xbd909b6f	-0.070608966
30	0x3d8192e2	0.06326844
31	0xbd8bd545	-0.06827787
32	0xbd9f9e32	-0.07793845
33	0x3c3574d0	0.011075214
34	0x3d7b77a7	0.061393406
35	0x3caf99ea	0.021435697
36	0x3dba6278	0.09100813
37	0x3b43fb04	0.0029904256
38	0x3dfe8f9b	0.12429734
39	0x3d62c58a	0.05536417
40	0xbda6b795	-0.08140484
41	0x3d23dac2	0.040003546
42	0xbcd63a75	-0.026150921
43	0xbb142113	-0.0022602722
44	0x3d842843	0.06452992
45	0xbc9eb53d	-0.01937353
46	0x3d806612	0.06269468
47	0x3e4802cd	0.19532318
48	0xbdb1b16e	-0.0867642
49	0xbd17642d	-0.03696077
50	0xbdb3c4cd	-0.08777771
51	0xbcf74740	-0.030185342
52	0xbd0e9c18	-0.03481683
53	0xbdacb74b	-0.08433398
54	0xbdbbb7e3	-0.09165933
55	0x3ac42a99	0.0014966308
56	0x3d7dbb10	0.061945975
57	0xbda48bd3	-0.08034482
58	0x3df50f93	0.11965861
59	0xbce26cba	-0.027639735
60	0x3d73e48c	0.05954413
61	0x3daf878c	0.085707754
62	0x3cf04ffb	0.029335013
63	0xbdcc17b6	-0.0996546
64	0xbde956a3	-0.11393478
65	0x3d8a2062	0.06744458
66	0x3be63c94	0.0070262644
67	0xbd96ee69	-0.07369692
68	0xbc1b574b	-0.0094812615
69	0x3ca646e5	0.020297477
70	0x3d1cb49c	0.03825818
71	0x3dc45a7e	0.095875725
72	0x3d5fd3b9	0.054645274
73	0xbdcb9e59	-0.09942312
74	0xbc4ed01d	-0.01262286
75	0x3e0a570c	0.13509768
76	0x3d104efe	0.035231583
77	0x3d6952cc	0.056963727
78	0x3da546bd	0.08070133
79	0xbca6b28c	-0.02034881
80	0x3db5670f	0.088575475
81	0x3cff9dc3	0.031203156
82	0x3d1fdebd	0.03903078
83	0xbd65fb82	-0.05614806
84	0x3cf9ee5b	0.030509165
85	0x3b1fe280	0.002439648
86	0x3e144777	0.14480387
87	0xbd8a9aa3	-0.06767776
88	0x3d1628f2	0.036660142
89	0x3db52009	0.08844001
90	0x3deed479	0.1166162
91	0x3e249911	0.16074015
92	0xbcb13ddd	-0.021635944
93	0xbb908f22	-0.004411594
94	0x3e1f09a8	0.15531027
95	0xbdad3b10	-0.08458531
96	0x3dcd7b05	0.1003323
97	0x3dc702fc	0.09717366
98	0xbd20e567	-0.039281275
99	0x3e37cc55	0.1794904
100	0x3c962dda	0.01833241
101	0xbdbd45ed	-0.09241853
102	0xbd0dcbb6	-0.034618102
103	0x3d33a8ef	0.04386228
104	0xbd5cb87d	-0.05388688
105	0xbd101c92	-0.035183497
106	0x3b4ee36f	0.0031568666
107	0x3dd9022e	0.10596119
108	0xbce63c48	-0.028104916
109	0x3e0148c6	0.12625417
110	0x3c84ce06	0.01621152
111	0x3d825c84	0.06365302
112	0xbdafbdff	-0.08581161
113	0xbdd37810	-0.103256345
114	0x3e3298c3	0.17441086
115	0x3e066d4a	0.13127628
116	0x3dbaf001	0.09127808
117	0x3d2e8329	0.042605553
118	0xbd66e489	-0.05637029
119	0xbe116b2e	-0.14201042
120	0x3d19fb24	0.037593022
121	0x3dbbbc31	0.09166754
122	0x3d86d9a6	0.06584482
123	0x3e05f6a2	0.13082364
124	0x3d3bd7f2	0.04586024
125	0x3ce99754	0.028514542
126	0x3e11e833	0.14248733
127	0xbd9ac7fd	-0.07557676
128	0x3db2bb4c	0.0872713
129	0xbd5f54e9	-0.054524336
130	0x3d5ca153	0.05386479
131	0xbd1792a7	-0.037005093
132	0xbce999e9	-0.028515773
133	0xbd47bb50	-0.04876262
134	0x3d7c646b	0.061619204
135	0xbb6c149d	-0.0036023029
136	0x3c3e7469	0.011624434
137	0xb9cee64b	-0.00039462963
138	0xbd317051	-0.043320004
139	0x3d93c9a7	0.072161965
140	0x3c341a6c	0.010992628
141	0x3d99ac1e	0.07503532
142	0x3d29307f	0.041306015
143	0x3d01819d	0.03161775
144	0xbda45810	-0.08024609
145	0x3d8a478e	0.06751929
146	0xbd9f5803	-0.07780459
147	0xbd96b732	-0.073591605
148	0x3d826e89	0.06368739
149	0xbc99bb2a	-0.018766005
150	0x3d037a6a	0.032099165
151	0xbd829051	-0.063751824
152	0xbd8eb8fd	-0.069688775
153	0xbc630f07	-0.013858563
154	0x3d0ffab4	0.0351512
155	0xbd42c24c	-0.047548577
156	0xbda7ff64	-0.08203009
157	0xb9fa616e	-0.00047756307
158	0xbd9e89bd	-0.07741115
159	0x3d5f2062	0.054474242
160	0x3ca219ac	0.019787632
161	0xbd6e2691	-0.05814225
162	0x3c8caa05	0.017170915
163	0xbdb5ffd9	-0.0888669
164	0xbd9401fb	-0.0722694
165	0xbd40d4b0	-0.047077835
166	0xbd2a9621	-0.04164708
167	0x3d16f0b2	0.03685064
168	0x3d99b64a	0.07505472
169	0xbd0af681	-0.03392649
170	0xbd64a6c5	-0.055823106
171	0xbcd94e5b	-0.02652662
172	0xbd44032f	-0.0478546
173	0x3d86abba	0.06575723
174	0xbbd90585	-0.0066229724
175	0xbd275d7e	-0.040860645
176	0x3d96dc88	0.07366282
177	0xbd1a7328	-0.037707478
178	0xbda112ba	-0.078649
179	0x3d06c942	0.03290678
180	0x3c8e3a5d	0.017361814
181	0x3d1be38a	0.038058795
182	0x3ccfaa4e	0.025349762
183	0x3d2ab4d4	0.041676357
184	0x3c68f3db	0.014218296
185	0x3cf081d1	0.029358776
186	0x3d01b416	0.031665884
187	0xbd67439f	-0.056460973
188	0xbd86d06c	-0.06582722
189	0xbd91a874	-0.07112208
190	0x3c0608cb	0.008180807
191	0xbd951ae9	-0.07280523
192	0xbd4a0ca1	-0.04932845
193	0x3d423296	0.047411524
194	0x3c6df91a	0.0145247225
195	0xbcbe172f	-0.023204414
196	0xbd82a0aa	-0.063783005
197	0xbce47a12	-0.027890239
198	0x3d71e7e0	0.059059024
199	0xbc82e91a	-0.015980292
200	0x3d0b665d	0.034033168
201	0x3d97f8ab	0.074204765
202	0x39823038	0.00024831458
203	0x3d3aac87	0.04557469
204	0xbd3c7376	-0.04600855
205	0x3d54ab53	0.0519212
206	0x3d91653d	0.07099388
207	0xbd85f616	-0.06541078
208	0x3d4cece7	0.050030615
209	0xbd5083a8	-0.050906807
210	0x3d6c5c4a	0.0577052
211	0xbd79a868	-0.06095162
212	0xbd8e6690	-0.06953156
213	0xb983e979	-0.00025160218
214	0x3c9249b0	0.017857403
215	0xbda19953	-0.078905724
216	0x3d0df1b6	0.03465434
217	0xbd9fde64	-0.078060895
218	0xbd24baad	-0.04021709
219	0xbdaa34ec	-0.08310875
220	0x3d780504	0.06055166
221	0xbd734274	-0.059389547
222	0x3cceff42	0.0252682
223	0xbd799efa	-0.060942627
224	0xbd862a25	-0.06551007
225	0x3d4d5d11	0.050137583
226	0x3d53c1ba	0.051698424
227	0xbcf45a85	-0.02982832
228	0xbce033a7	-0.02736838
229	0x3b26ac16	0.002543216
230	0xbd92c4d3	-0.071664475
231	0xbccf05b7	-0.02527128
232	0x3d01d8fa	0.031701066
233	0x3c62f058	0.013851248
234	0x3c08ef1d	0.00835779
235	0xbae8ef15	-0.0017771447
236	0xbd61c120	-0.05511582
237	0x3d0497e8	0.03237143
238	0x3d8a1af7	0.067434244
239	0xbcde9e9b	-0.027175238
240	0x3d9a0c1d	0.07521842
241	0x3d0e717f	0.034776207
242	0x3d7dd84c	0.061973855
243	0xbd93c475	-0.072152056
244	0xbcbffbbf	-0.023435472
245	0x3da8bff5	0.08239738
246	0x3d9ac2bb	0.07556673
247	0x3c0892ca	0.0083357785
248	0x3a84b2c1	0.0010124074
249	0x3d9201c8	0.07129246
250	0xbc108c54	-0.008822519
251	0x3d45691f	0.048195954
252	0x39a896f8	0.00032155938
253	0xbdad2ef0	-0.08456218
254	0xbc49d592	-0.012318986
255	0x3d3bddbf	0.04586577

stack.1.0.bias f4 [64]
0	0xbd299a03	-0.041406643
1	0xbcca6164	-0.024704643
2	0xbd166891	-0.036720816
3	0x3c86cbdd	0.016454631
4	0x3dd9f212	0.106418744
5	0x3cf47748	0.029842034
6	0x3acc6e31	0.0015596804
7	0x3cca7129	0.024712162
8	0xbd206c94	-0.03916605
9	0xbcf2c16e	-0.02963325
10	0x3d74b12d	0.05973928
11	0xbd5993fe	-0.053119652
12	0x3aa0cb61	0.0012267643
13	0x3be3854c	0.0069433805
14	0xbd2d121e	-0.042253606
15	0xba734053	-0.00092792994
16	0xbe1b9eaf	-0.15197252
17	0xbd0b835b	-0.034060817
18	0xbc0c0b78	-0.008547656
19	0x3e233770	0.15939116
20	0xbdebc6fc	-0.11512563
21	0xbd0f370d	-0.03496461
22	0x3d72e68c	0.059301898
23	0x3de164ed	0.11005578
24	0xbd2722d2	-0.04080469
25	0x3dd33947	0.10313659
26	0xbd628f22	-0.055312283
27	0xbd9060b1	-0.070496924
28	0x3e1abc29	0.1511084
29	0x3c32fe60	0.010924906
30	0xbdc2825c	-0.0949752
31	0x3db14f83	0.08657744
32	0x3d556ede	0.052107684
33	0x3dd0f467	0.10202866
34	0xbcebffe0	-0.028808534
35	0xbcd8f284	-0.026482828
36	0x3d35711b	0.04429732
37	0xbc5d4bcc	-0.013506841
38	0x3dfe00e4	0.124025136
39	0x3d92e5c9	0.07172734
40	0xbd951eca	-0.07281263
41	0x3db13f39	0.08654637
42	0x3d1fc732	0.039008327
43	0x3ca065ce	0.019579794
44	0x3d9fca10	0.07802212
45	0x3bc193e2	0.0059075216
46	0x3e0dafc4	0.1383658
47	0xbde5eadc	-0.112264365
48	0xbdad4357	-0.0846011
49	0x3baf0993	0.0053417175
50	0x3d6606ff	0.056159016
51	0x3df53516	0.11973016
52	0x3dd4bc77	0.10387509
53	0x3c7ec471	0.015549765
54	0xbc29dc93	-0.01036753
55	0xbd003f84	-0.031310573
56	0x3e0de72a	0.13857713
57	0xbe1cfa98	-0.15329969
58	0x3e098166	0.13428268
59	0x3d761811	0.060081545
60	0xbc856163	-0.01628179
61	0xbd4e7fa3	-0.050414693
62	0x3d92c89c	0.071671695
63	0x3d32a83e	0.04361748

stack.2.0.weight f4 [32, 64]
0	0x3d522d2c	0.05131261
1	0x3d63695c	0.0555204
2	0xbd9cc3a1	-0.07654501
3	0x3c4e55a3	0.01259366
4	0x3cac8ac9	0.021062272
5	0x3cd80d3f	0.026373504
6	0x3d7f3fd9	0.06231675
7	0xbc8df490	-0.01732853
8	0x3db5d7e6	0.0887907
9	0xbd8accc4	-0.06777337
10	0x3d843e1d	0.0645716
11	0x3ced4292	0.028962407
12	0x3c8d0f59	0.017219232
13	0xbdaaf15e	-0.083468184
14	0x3dd47cb6	0.10375349
15	0x3dbe72fc	0.09299275
16	0x3c2e98d0	0.0106565505
17	0xbda50139	-0.08056874
18	0xbdc76cd0	-0.09737551
19	0xbe009d0a	-0.12559906
20	0xbdcc818e	-0.09985648
21	0x3d6472b8	0.055773467
22	0x3dc99de2	0.09844567
23	0xbdf08fc2	-0.117461696
24	0xbd54f20c	-0.051988646
25	0xbd3283d1	-0.04358274
26	0x3c15af7f	0.00913608
27	0xbc1069b0	-0.00881426
28	0xbde775cc	-0.11301765
29	0x3ceea05b	0.029129198
30	0xbd818b9a	-0.06325455
31	0xbdcc9b6f	-0.09990584
32	0xbca15c89	-0.019697445
33	0xbce732f5	-0.02822254
34	0x3c9b132d	0.018930042
35	0xbd0cad01	-0.034344677
36	0x3d80a3d5	0.062812485
37	0x3de331e9	0.11093504
38	0xbdd08b17	-0.10182779
39	0x3dcc6fa4	0.09982231
40	0x3d269b40	0.0406754
41	0x3d85fbb4	0.06542149
42	0x3c2d9380	0.010594249
43	0x3a1e7fdb	0.00060462736
44	0x3dc5d8b9	0.09660477
45	0xbd0f66bc	-0.035010085
46	0x3d5f650c	0.054539725
47	0xbd93799e	-0.07200931
48	0xbdfb045e	-0.12256692
49	0x3d674f7f	0.056472298
50	0xbc3b0285	-0.011414175
51	0x3c1696f3	0.009191263
52	0x3d9f41c5	0.077762164
53	0x3d823073	0.06356897
54	0x3dbf991a	0.09355374
55	0x3df847fa	0.121231034
56	0x3cd81051	0.026374968
57	0x3dd588ec	0.104265064
58	0xbd038ce4	-0.032116786
59	0x3d5babb5	0.05363055
60	0x3c809023	0.01569373
61	0x3d8e1311	0.069372304
62	0xbdb314ee	-0.087442264
63	0xbdef0e09	-0.11672599
64	0x3dcf3f3b	0.10119482
65	0x3d6ef150	0.058335602
66	0xbc78aacb	-0.015177439
67	0xbd21677e	-0.03940534
68	0x3c819860	0.015819728
69	0xbdf2535b	-0.11832305
70	0xbd0ff818	-0.03514871
71	0x3daf1d2b	0.08550485
72	0xbdf1945e	-0.11795877
73	0xbdf2d34c	-0.11856708
74	0x3b0f1334	0.0021831514
75	0xbd20256c	-0.03909819
76	0x3dab150a	0.08353622
77	0xbe00dee7	-0.1258503
78	0x3caaa098	0.02082853
79	0x3d91423b	0.070927106
80	0xbd403c9c	-0.0469328
81	0x3d837e53	0.06420579
82	0x3cfd3540	0.03090918
83	0x3d457a1c	0.048212156
84	0xbd0f0c2c	-0.034923717
85	0x3dcae04a	0.09906061
86	0x3d891ce4	0.066949636
87	0x3cc64a39	0.024205314
88	0x3de89bd4	0.11357847
89	0x3dd10d3a	0.10207601
90	0x3da1a8c8	0.078935206
91	0xbdaaa328	-0.08331901
92	0xbddfea74	-0.1093339
93	0x3d25795d	0.040398944
94	0xbdf2b033	-0.118500136
95	0x3c0e2b65	0.008677338
96	0xbd3addfc	-0.045621857
97	0xbdc35aa6	-0.09538774
98	0xbd644883	-0.055733215
99	0xbdbd29f8	-0.092365205
100	0x3d2f6eb0	0.04283017
101	0x3dc309ca	0.095233515
102	0xbdace6ef	-0.084424846
103	0xbc7f1a90	-0.015570298
104	0x3de1f5b4	0.11033192
105	0x3c485dc0	0.012229383
106	0xbd7eade0	-0.06217754
107	0x3c73c5b4	0.014878679
108	0xbd61e4fa	-0.05515001
109	0xbc87fb80	-0.016599417
110	0xbd59b3a7	-0.053149845
111	0xbc95ca98	-0.01828508
112	0x3d591f18	0.05300817
113	0x3d928ac9	0.071553774
114	0xbdd85cdb	-0.10564586
115	0x3dd33ace	0.103139505
116	0x3df89299	0.12137336
117	0x3d3d2598	0.04617843
118	0xbd042ab8	-0.032267302
119	0x3d71dc1c	0.059047803
120	0xbdbd05bd	-0.0922961
121	0x3b9b0529	0.0047308397
122	0x3dc9aa28	0.09846908
123	0x3dc271de	0.09494375
124	0x3d5c4e04	0.05378534
125	0xbcb5e878	-0.022205576
126	0x3dc3cf4c	0.09561023
127	0x3dec7243	0.11545231
128	0xbe0d6f27	-0.13811933
129	0xbdcbebab	-0.099570595
130	0xbddaa427	-0.10675841
131	0x3d7f82c5	0.06238057
132	0xbe145397	-0.14485012
133	0x3e1dc145	0.15405758
134	0x3e0dfcbd	0.13865943
135	0x3e1ff57a	0.15620986
136	0x3d35029f	0.044191953
137	0x3deb1021	0.11477686
138	0x3da6108a	0.08108623
139	0x3c9fe913	0.019520318
140	0xbd9ed748	-0.077559054
141	0x3dde8d78	0.10866827
142	0xbdc37c0c	-0.095451444
143	0xbd91628a	-0.07098873
144	0xbd819406	-0.06327061
145	0xbcdb4cf8	-0.0267701
146	0xbd16ca41	-0.036813978
147	0x3cca359d	0.024683768
148	0x3d8b0521	0.06788088
149	0xbb5e49e7	-0.003391856
150	0xbce7d7d4	-0.028301157
151	0x3e01d148	0.1267749
152	0x3dc4978f	0.0959922
153	0x3df3249d	0.11872218
154	0x3cee1f6d	0.02906772
155	0x3debccab	0.11513647
156	0x3e035f86	0.12829408
157	0xbe0505ad	-0.12990446
158	0x3d9ee112	0.077577725
159	0x3dce3c01	0.100700386
160	0xbda4e053	-0.08050599
161	0x3d886db6	0.06661551
162	0xbdcaf75f	-0.099104635
163	0x3de9a92d	0.11409221
164	0xbdf5a41f	-0.11994194
165	0xbddbed21	-0.10738588
166	0x3d2a8d95	0.04163893
167	0xbdda0828	-0.10646087
168	0x3d83f1d2	0.06442608
169	0xbdda4a46	-0.10658698
170	0x3e1a524b	0.15070455
171	0x3ddc77fa	0.10765071
172	0xb9a5d296	-0.0003162815
173	0xbc265e6e	-0.01015435
174	0xbd84ba10	-0.06480801
175	0xbe4d848e	-0.20070097
176	0xbd3f90eb	-0.046769064
177	0x3c4bcae0	0.012438506
178	0x3c87a1b5	0.0165566
179	0xbe090bea	-0.13383451
180	0x3dddb9b4	0.10826436
181	0x3e1d81c7	0.15381537
182	0x3c81330c	0.015771411
183	0xbd9f81a5	-0.077883996
184	0x3e2fb03e	0.17157075
185	0xbde749de	-0.11293386
186	0xbda5680e	-0.080764875
187	0x3daeed24	0.08541325
188	0xbce69dd2	-0.028151426
189	0xbdd2f535	-0.10300676
190	0xbdd37594	-0.103251606
191	0x3e0c352e	0.13692161
192	0x3df03d80	0.1173048
193	0xbe037901	-0.12839128
194	0xbdcdbd0f	-0.10045826
195	0xbdfb906d	-0.122834064
196	0x3e076293	0.13221197
197	0x3e4e831e	0.20167205
198	0x3d8d1bec	0.06890091
199	0xbc7288f5	-0.014803161
200	0xbd53d551	-0.051717106
201	0xbcd14304	-0.02554465
202	0x3de16897	0.11006277
203	0xbd0bea53	-0.034159016
204	0x3dee2b33	0.11629333
205	0x3db24e17	0.08706301
206	0xbd316f59	-0.04331908
207	0xbd1b95b5	-0.03798457
208	0xbe3c193c	-0.18369001
209	0x3c93242c	0.017961584
210	0xbde40357	-0.111334495
211	0x3d3413db	0.04396425
212	0xbd9db2a8	-0.077000916
213	0x3db745d8	0.089488685
214	0x3d89168e	0.06693755
215	0x3cfc69a6	0.030812096
216	0xbd960d63	-0.07326772
217	0x3d9ace21	0.07558847
218	0xbdd749c4	-0.105121166
219	0xbd9443b7	-0.07239478
220	0x3dde26da	0.10847254
221	0xbd14bed4	-0.0363148
222	0x3ccaa61f	0.024737416
223	0x3df50aca	0.119649485
224	0x3d125bef	0.035732206
225	0x3e17fa68	0.14841616
226	0x3d330c13	0.043712687
227	0xbd993e1b	-0.07482549
228	0x3de1c9a2	0.110247865
229	0xbc082304	-0.00830913
230	0x3d922165	0.07135276
231	0xbdc0534e	-0.09390889
232	0x3b7ffb53	0.0039059713
233	0x3d387312	0.045031615
234	0x3e18add9	0.14910068
235	0x3cdba1ae	0.026810493
236	0x3d3c96bf	0.0460422
237	0xbe17c7ff	-0.14822386
238	0x3e04336e	0.12910244
239	0xbe1a1fb4	-0.15051156
240	0x3db2aa27	0.0872386
241	0x3df62b0d	0.1201993
242	0x3d2c8fcf	0.042129334
243	0xbba1bf13	-0.004936108
244	0x3e6dcd98	0.23222959
245	0xbbaf3704	-0.0053471345
246	0xbd59a2ad	-0.053133655
247	0xbdd0ac3f	-0.10189103
248	0xbdbc4e4d	-0.09194622
249	0xbda48181	-0.080325134
250	0xbda4d431	-0.08048285
251	0xbdf1e707	-0.11811643
252	0xbdbd0bf7	-0.09230798
253	0x3cf30401	0.029664995
254	0xbca291d1	-0.019844921
255	0xbd847765	-0.06468085

stack.2.0.bias f4 [32]
0	0x3dc8ab93	0.0979835
1	0xbdcfd245	-0.101475276
2	0x3e3c9ea3	0.1841989
3	0x3e3bb90a	0.18332306
4	0x3da77462	0.08176495
5	0x3dbf91fd	0.09354017
6	0xbdc11538	-0.09427875
7	0xbd04f5f6	-0.03246113
8	0x3dbad92f	0.09123456
9	0xbc7ad5da	-0.015309775
10	0x3d2a64fc	0.041600212
11	0x3d825474	0.063637644
12	0xbd6f2b5f	-0.05839097
13	0x3ca5228a	0.020158071
14	0x3d5e98fa	0.05434511
15	0xbc768bc1	-0.015047968
16	0xbd4d0302	-0.050051697
17	0xbe2ea3ee	-0.17054722
18	0xbcbbbb2d	-0.0229164
19	0xbd009583	-0.031392585
20	0x3d7eaac0	0.06217456
21	0xbd0a0b00	-0.033701897
22	0x3d9f8e68	0.07790834
23	0x3ddebad8	0.10875481
24	0x3d06704a	0.03282193
25	0xbe027ffe	-0.12744138
26	0x3d252c62	0.04032553
27	0xbd3fb20a	-0.04680065
28	0xbcaca470	-0.021074504
29	0x3e020587	0.12697421
30	0x3d0cc501	0.034367565
31	0xbb8c48f0	-0.0042811558

stack.3.0.weight f4 [10, 32]
0	0xbe330ec0	-0.17486095
1	0xbde72c15	-0.11287705
2	0x3e2d3b57	0.16917168
3	0x3e02eea5	0.12786348
4	0x3e058a20	0.13040972
5	0x3e4eb2fa	0.20185462
6	0xbd662448	-0.056186944
7	0x3e25e90b	0.1620218
8	0x3e069d2a	0.13145891
9	0x3dbb4501	0.09144021
10	0xbe4e6284	-0.20154768
11	0x3c896fe3	0.016776985
12	0xbe1a3b5f	-0.15061711
13	0x3e357fe4	0.17724568
14	0xbe0b5a45	-0.13608654
15	0x3e03d328	0.12873518
16	0xbe2ceea8	-0.16887915
17	0xbe53ac0a	-0.20671096
18	0x3e46bb4c	0.19407386
19	0x3e1f1b63	0.15537791
20	0xbe47f369	-0.19526447
21	0xbd649592	-0.055806704
22	0x3d58e0c3	0.052948724
23	0xbbf8b572	-0.0075899893
24	0xbe1a58e7	-0.15072976
25	0xbe02fa32	-0.12790754
26	0xbe3d639e	-0.18495032
27	0x3e53887a	0.2065753
28	0x3e269581	0.16267969
29	0x3da36065	0.0797737
30	0xbde5a7f6	-0.11213677
31	0xbd0f4269	-0.034975443
32	0xbde45e22	-0.11150767
33	0xbe1da7c9	-0.15396036
34	0xbe1b4305	-0.15162285
35	0xbd936b9a	-0.07198258
36	0xbcda277d	-0.026630158
37	0x3e417c6c	0.1889512
38	0x3e88a193	0.2668577
39	0x3e31fa6d	0.17380686
40	0x3e1f84e0	0.15578032
41	0xbe05f6c0	-0.13082409
42	0xbe92e5e3	-0.28691015
43	0x3d2576c5	0.04039647
44	0xbe87f90e	-0.265572
45	0xbc9e4611	-0.01932052
46	0xbcf004dc	-0.029299192
47	0x3c562621	0.013070614
48	0x3e4d313c	0.20038313
49	0xbe038416	-0.12843356
50	0x3d814893	0.063126706
51	0xbdbb7d32	-0.091547385
52	0x3e4f8655	0.20266087
53	0x3d3cd166	0.046098135
54	0x3e38fba4	0.18064743
55	0xbe0f4d11	-0.13994242
56	0x3e72a7c1	0.23696806
57	0x3e28fa14	0.16501647
58	0x3cd8a4b7	0.02644573
59	0xbe1d4de4	-0.15361744
60	0x3db34680	0.08753681
61	0xbedf9128	-0.43665433
62	0xbcdc2f89	-0.026878135
63	0xbd1c220e	-0.038118415
64	0xbe23b7d5	-0.15988095
65	0xbe1ea7c6	-0.15493688
66	0x3e560fce	0.20904467
67	0x3c2e5e4a	0.010642597
68	0x3dc74b3a	0.09731145
69	0x3e3eeeea	0.18645826
70	0xbe58fffa	-0.21191397
71	0x3d1570d7	0.036484566
72	0xbe42f3bd	-0.19038291
73	0x3e1c0fde	0.15240428
74	0x3c2bbc41	0.010481895
75	0x3d275b3e	0.0408585
76	0xbe8f1590	-0.27946138
77	0x3d2bc746	0.04193809
78	0xbdc89958	-0.09794873
79	0x3d903725	0.07041768
80	0x3dc1dc17	0.09465807
81	0x3c19ed02	0.009394886
82	0x3e4bcb88	0.1990186
83	0x3e174e8c	0.14776057
84	0x3c13bc18	0.009017013
85	0x3d4c26a9	0.049841557
86	0xbe4ed937	-0.20200048
87	0xbd4293d8	-0.047504276
88	0x3df5edd2	0.12008251
89	0xbd38baf8	-0.045100182
90	0x3e3c7875	0.18405326
91	0xbe6e93a2	-0.23298505
92	0x3de2cb47	0.11073928
93	0xbe98636f	-0.29763362
94	0xbd843392	-0.06455149
95	0xbe7efb1a	-0.24900475
96	0x3d5d5998	0.05404052
97	0x3d522cbf	0.051312204
98	0x3da48125	0.08032445
99	0x3e54a50b	0.20766084
100	0xbe13bda6	-0.14427814
101	0xbd117055	-0.03550752
102	0xbe25ae40	-0.16179752
103	0x3da6d6b3	0.081464194
104	0x3e05d8c0	0.13070965
105	0xbe305a90	-0.17222047
106	0x3e9cf934	0.30658877
107	0x3e3763a1	0.17909099
108	0xbd3bbab4	-0.04583235
109	0xbd428277	-0.047487702
110	0xbcd5bfd1	-0.026092442
111	0x3e41e43b	0.1893472
112	0x3e49104a	0.1963512
113	0xbe24d1fb	-0.16095726
114	0xbd494099	-0.04913387
115	0x3c8f22d1	0.017472656
116	0xbc66b244	-0.014080588
117	0xbdd8c311	-0.10584081
118	0x3e283589	0.16426672
119	0xbe079bb9	-0.13242997
120	0x3d377eb5	0.04479857
121	0x3d984b6f	0.07436263
122	0x3de3ef80	0.111296654
123	0x3d77529b	0.060381513
124	0x3e2e6c06	0.17033395
125	0xbe27dccb	-0.1639282
126	0x3e2bdd34	0.16783601
127	0x3cc7a133	0.024368858
128	0x3d5b8660	0.053594947
129	0x3e2b091b	0.16702692
130	0xbcd53a35	-0.026028732
131	0xbe13f813	-0.14450102
132	0xbe907685	-0.28215423
133	0xbe55124b	-0.2080776
134	0x3d834a9b	0.06410714
135	0x398d5205	0.00026954725
136	0x3e1e45eb	0.15456359
137	0x3e1b9327	0.15192853
138	0xbe142920	-0.14468813
139	0x3e21ca26	0.1579977
140	0x3db6b1d9	0.089206405
141	0x3e2850f7	0.16437136
142	0xbd13b2ae	-0.036059074
143	0x3e299fd1	0.16564871
144	0xbc7c6da7	-0.0154070025
145	0x3dc36869	0.09541399
146	0x3d69ce0e	0.057081275
147	0x3e2eb504	0.1706124
148	0x3baa3b5c	0.0051950645
149	0x3d56c549	0.05243424
150	0xbdbbb687	-0.09165674
151	0xbc84dff4	-0.01622007
152	0x3e2f2654	0.17104465
153	0x3dc9bd57	0.09850567
154	0x3e37e93e	0.17960069
155	0x3dfdc783	0.123915695
156	0x3d08eb59	0.03342757
157	0x3da4b32d	0.080419876
158	0x3e316cb0	0.17326617
159	0xbe11e789	-0.1424848
160	0x3dae4867	0.085099034
161	0xbdcfc5b8	-0.10145134
162	0xbdfd2d16	-0.12362115
163	0x3d4d6859	0.05014834
164	0x3dad866a	0.08472903
165	0xbad97ac2	-0.0016592371
166	0x3e3280a4	0.17431885
167	0x3e021c3f	0.12706088
168	0xbe0f8831	-0.14016797
169	0xbdee7b58	-0.1164462
170	0x3e074e5e	0.13213488
171	0x3e0a7c85	0.13524063
172	0x3e29f419	0.16597022
173	0x3e08d63e	0.13362977
174	0x3cdc9877	0.02692817
175	0xbd491a96	-0.04909762
176	0xbd68ace8	-0.05680552
177	0x3e346372	0.1761606
178	0xbd8340da	-0.06408854
179	0xbe32d81f	-0.17465256
180	0xbdbbcf6d	-0.09170423
181	0xbe2566f9	-0.16152562
182	0x3e0d0d0c	0.13774508
183	0xbdf40a93	-0.11916079
184	0xbdba89c8	-0.09108311
185	0x3dedacbf	0.11605214
186	0xbd14296e	-0.036172323
187	0xbd40c9bb	-0.047067385
188	0x3d258eb8	0.04041931
189	0x3dcd50ce	0.10025178
190	0xbdf02a86	-0.11726861
191	0x3d7af5d2	0.06126959
192	0xbc766d26	-0.015040671
193	0xbe0a3eab	-0.13500468
194	0x3daeec7a	0.08541198
195	0x3a8c6369	0.0010710779
196	0x3e1dd1a9	0.1541201
197	0x3cce6677	0.025195343
198	0xbd05737d	-0.03258084
199	0xbe1d0af3	-0.15336208
200	0xbe0a69a5	-0.13516863
201	0xbe0acb18	-0.13554037
202	0xbdba0826	-0.090835854
203	0xbe2eff27	-0.1708952
204	0xbe25349f	-0.16133355
205	0x3e0c673a	0.13711253
206	0xbcbe5c9b	-0.023237517
207	0xbdf9faf7	-0.12206071
208	0xbdc0d46b	-0.094155155
209	0xbd7e0453	-0.062015843
210	0x3d5e6b8d	0.054301787
211	0x3de66fda	0.11251803
212	0x3e134fc4	0.14385897
213	0xbdc37d78	-0.09545416
214	0xbe16cc75	-0.14726432
215	0x3d87a1ed	0.06622682
216	0x3db28083	0.08715918
217	0x3e112cad	0.14177199
218	0x3e102b4d	0.14079018
219	0xbe060192	-0.13086537
220	0xbc9389d8	-0.018010065
221	0xbca0658f	-0.019579677
222	0xbc9cbb23	-0.019132202
223	0xbe25c1a6	-0.16187152
224	0x3e286bd4	0.16447383
225	0xbc3d97b8	-0.011571817
226	0xbe0aa912	-0.13541058
227	0xbe070450	-0.13185239
228	0x3c91afc6	0.01778401
229	0x3d2bdf69	0.041961107
230	0x3da00416	0.07813279
231	0x3e34ca89	0.17655386
232	0xbdef6018	-0.1168825
233	0x3e0cd83c	0.13754362
234	0xbcf23d87	-0.029570354
235	0xbdab34b3	-0.08359661
236	0x3da10e8c	0.07864103
237	0x3d012724	0.031531468
238	0x3e141b1b	0.14463465
239	0x3b826765	0.0039796107
240	0xbd9ef911	-0.077623494
241	0x3e3384ab	0.17531078
242	0x3c61345c	0.013745394
243	0x3d1b3d2b	0.03790013
244	0x3dd7a55c	0.10529587
245	0x3d1a09dd	0.037607063
246	0xbe244ac7	-0.1604415
247	0x3d54b618	0.05193147
248	0xbdd805a6	-0.10547952
249	0xbbb5854a	-0.005539571
250	0xbdb32b44	-0.08748487
251	0xbe170108	-0.14746487
252	0xbcb8ccfa	-0.022558678
253	0x3dcec52f	0.100962035
254	0x3e103570	0.14082885
255	0x3de23c2a	0.11046632

stack.3.0.bias f4 [10]
0	0xbdb971fe	-0.090549454
1	0x3d973542	0.07383205
2	0x3e5e42f0	0.21705222
3	0xbc427ff9	-0.011871331
4	0xbc8c55b2	-0.017130706
5	0xbe18695d	-0.14883943
6	0xbc1a6443	-0.009423318
7	0x3e05db10	0.13071847
8	0xbdb8ce6d	-0.090237476
9	0x3dc42e9f	0.09579205
