src/fminst/models/teacher_5cl_8.pt (torch, 447183 bytes, 8 tensors)

stack.0.0.weight f4 [128, 784]
00000000: b367 423d 314a 533c 1042 223d 8285 c03c
00000010: 298a 6f3a 4417 afbc 0cf6 6e3b 21e6 5a3d
00000020: e364 293e 1f27 bb3d bd9f 5c3d 602e a63c
00000030: 28b6 803b 3908 3cbb 8ba6 683c 505c bb3c
00000040: b429 ab3c 5b0f eabb 5bab 073e 431a 683e
00000050: f411 353e d650 533d e08b b6bc 4575 a63c
00000060: 1430 693d 35be fdba 9a5e f03a 60b7 1a3d
00000070: 8baa 7e3d 3361 b3bc 587a 3abc de2c 78bc
00000080: 1b29 7cbd 95dd f3bc a9d5 f2bc 6f13 db3d
00000090: bcc3 ff3c 7162 20bd f84b 11bd 0582 8f3c
000000a0: ab3e d73c 32d9 4a3c 8f1f 82bb d3d3 9abc
000000b0: e878 423d d1e2 983d d96c fa3c 6558 b43d
000000c0: a481 073e 5a0a db3d 478f 803c 8dd4 2f3d
000000d0: 4ab2 8c3d 742d b03d 5539 3b3d b17a ea3c
000000e0: d9b3 0e3d f288 5dbc 6311 71bc 4ac4 c33c
000000f0: 0e04 f0bc 274a 4dbd 6a7f 48bd f41c a3bc
00000100: eda7 ecbc 3570 80bd f3b1 a6ba 31f9 133d
00000110: a47d 763c 541f babb 2a7b e93c 4de7 373d
00000120: 34cf 1b3d 3fd3 cabb 5a5d 94ba 457b 823c
00000130: 8bda 49ba 2acd 443d 8e03 453d 358c 353d
00000140: ed70 153d d6cf ca3c b5d8 693d 0d20 163d
00000150: 818a d03c dd90 353d 3bad b13c a3a2 7c3d
00000160: 84d5 68bb c640 d83a 0df3 b1bc 17ca 16bc
00000170: c2be 11bd ed25 523d d0eb f5bc f3ff 9ebc
00000180: bbb1 323d 50a0 723a da64 96bc 35c7 ec3c
00000190: 8754 d9bc f6dd 29bb 76b7 113d 5ea9 f43c
000001a0: d1c6 02bc 3d95 993d c720 533d a589 5c3d
000001b0: a5fd 943d 23d4 ac3c d45e ac3d 563b ef3c
000001c0: ab1e e03b cc2e 0c3d d620 953d b7e6 483d
000001d0: d583 b3ba 7127 043d d96f 0c3d 354e 20bd
000001e0: 41d1 a8bc bc52 623d 8b79 09bd 91c2 a1bc
000001f0: eaf3 c33c 3ff9 9d3c 4a08 603c 16e8 a43c
00000200: 4e51 ffbc 2835 20bd dfc5 9e3c 46e2 753d
00000210: 08a8 debc 449e 453c 34ba 6e3d 63c7 103d
00000220: 8990 bf3d b9a9 9b3d 2ec0 a13d ddd3 6a3c
00000230: 3ad9 52b8 4b36 c33d 8435 a93d 027f e93b
00000240: 3a83 cd3b bf5a ffbc 2556 aa3b 4b26 40bd
00000250: c861 c4bc d36a cabc c78d 33bd 04c1 24bd
00000260: 2da0 843c 2be4 053d 1f56 213d a218 93bc
00000270: e398 c3bb ca7b 24bd 2f88 453c a133 273c
00000280: ec7e b83a dcbb 22bd a4c3 1f3b 3399 413d
00000290: 8a85 703d 380f e53d 0bfa f03d 76db a73d
000002a0: de09 903d 849b 103e dbad b23d e641 963d
000002b0: 7783 a03a c6b0 873b dd7e fcbc c7b8 f8bc
000002c0: ea23 c63c 6c75 1f3d 0165 39bd 223d ff3b
000002d0: db7c e4b9 bcec 783d 5c36 3c3d 1cd2 12bc
000002e0: d990 293d 5c76 cc3b f863 9b3c fb19 aa3d
000002f0: dee6 96bb 54d9 8dbc 037c 1b3d f1e8 983d
00000300: b426 3a3d 772f ff3d e473 be3d 7154 0b3e
00000310: 243a da3d c2dc aa3d cf3b 013e ff2a 983c
00000320: 6a51 203c 16d5 0b3d 2efb dabc bed3 c2bc
00000330: 17d6 a23d b9ae 5c3b 53f1 27bd 8e09 cebc
00000340: 889b ebbb da42 423d a7c8 28bc 9732 f7ba
00000350: 0b88 d5bb e474 903c b1ab 073c 89a9 343d
00000360: 829c 67bc 73fd 93bb 888e 5a3c 547a 963d
00000370: b95c 423d 98c2 c73d 9b8a f43c edeb 8b3d
00000380: 33cc 1a3d c4fb 393d a8f7 cc3c 7d03 fb3c
00000390: fd76 a33c 7cdb 3c3c bdd1 1f3c 010b f53b
000003a0: 39e5 a43d 6e14 a73d 049f 4d3d 5597 d33b
000003b0: a188 1f3c 3c82 6a3b c141 053d 4ead 0e3d
000003c0: 0172 953b ff9f bc3c c06b 893d 5adb 803d
000003d0: c868 19bb 6143 adbc ecb5 93bb 44f9 723d
000003e0: 7617 0d3d f493 763d 0ce0 773d 86ce 043d
000003f0: 1631 103d 1b13 5abc ef11 3d3b 3032 a4bc
0.047462177 0.012896107 0.039613783 0.023501161 0.0009137714 -0.021373399 0.0036462573 0.053442124
0.16542391 0.09138321 0.053863276 0.020285785 0.0039279647 -0.0028691425 0.014199863 0.022871166
0.020893909 -0.007142944 0.1324896 0.22666268 0.1768263 0.051590763 -0.022283494 0.02031959
0.056930616 -0.0019359054 0.001833874 0.037772536 0.06217436 -0.021896934 -0.011381708 -0.015147416
-0.06156264 -0.029768744 -0.029642897 0.10697066 0.031221263 -0.03915638 -0.03547284 0.017518053
0.026275 0.012380885 -0.0039710472 -0.018899834 0.047478586 0.07465137 0.03056948 0.088059224
0.13233048 0.10695334 0.01569332 0.042927314 0.068699434 0.086024195 0.045708973 0.028622957
0.034839485 -0.01352142 -0.014713618 0.023897309 -0.029298808 -0.050119545 -0.048949637 -0.019911267
-0.028888667 -0.06271402 -0.0012717828 0.03612632 0.0150446035 -0.005680004 0.028501112 0.04489832
0.0380394 -0.0061897333 -0.0011319325 0.01592792 -0.0007700107 0.048047222 0.048099093 0.044323165
0.036484648 0.024757307 0.057091434 0.03665166 0.025456669 0.044327606 0.021689048 0.06167854
-0.0035527656 0.0016498796 -0.021722341 -0.009203455 -0.03558231 0.0513057 -0.03001967 -0.019409155
0.04362653 0.0009255456 -0.018358637 0.028903583 -0.026529564 -0.0025919653 0.035575353 0.029865917
-0.007981972 0.07499168 0.05154493 0.053842206 0.07274941 0.021097248 0.084165245 0.029203098
0.0068395934 0.034224316 0.072816536 0.04904815 -0.0013695905 0.032264177 0.034286354 -0.039137084
-0.020607593 0.055254683 -0.033563178 -0.019746097 0.023920018 0.019283889 0.013673851 0.020130198
-0.031166699 -0.039113194 0.019381462 0.060030244 -0.027179733 0.012061659 0.058283046 0.0353464
0.0935374 0.076007314 0.078979835 0.014332739 -5.027021e-05 0.0953184 0.082621604 0.007125736
0.006271747 -0.0311712 0.0051982575 -0.04691152 -0.023972407 -0.02470914 -0.04383638 -0.040223137
0.016189659 0.0326883 0.039388772 -0.017956082 -0.0059691533 -0.040157117 0.0120563945 0.01020518
0.0014075912 -0.039729938 0.0024378086 0.047265243 0.058721103 0.11184543 0.11766442 0.08196156
0.07033132 0.14121825 0.087245665 0.07336788 0.0012246211 0.004140946 -0.030822212 -0.030361546
0.024187047 0.03893034 -0.04526234 0.00778927 -0.00043580573 0.060772642 0.04595028 -0.008961227
0.041397903 0.0062396955 0.018968567 0.08305737 -0.004605158 -0.017315544 0.037960064 0.07466305
0.045447066 0.12460225 0.09299448 0.1360643 0.10655621 0.083428875 0.12620471 0.01857519
0.009785036 0.03413876 -0.0267311 -0.023782607 0.07950991 0.0033673479 -0.04100163 -0.02515104
-0.0071901716 0.047427036 -0.0103017455 -0.0018859681 -0.0065164617 0.017633863 0.0082806805 0.044106994
-0.014136435 -0.0045162975 0.013339646 0.07347551 0.04745171 0.09753913 0.029851248 0.06832109
0.037792396 0.045406118 0.025020435 0.030641312 0.019954199 0.0115269385 0.009754595 0.0074781184
0.08051533 0.081581935 0.050200477 0.006457249 0.009737165 0.0035783192 0.03253341 0.034833245
0.0045607095 0.02302551 0.06710005 0.06291838 -0.0023408402 -0.021150293 -0.0045077708 0.05931975
0.034446202 0.060199693 0.060516402 0.03242352 0.035203062 -0.013310219 0.00288498 -0.020043463

stack.0.0.bias f4 [128]
00000000: 774b edbc e03e e53d fb7b e03d 8ed9 e03d
00000010: b7d0 6ebc 6653 193e 0cb0 c83b b55f ddbd
00000020: 0787 f43d b504 ecbd d608 8abc 938f 0f3e
00000030: df80 f63d d065 2ebc 6d55 753d 15bd 5d3d
00000040: f8d4 10be 4230 193e 9c77 053d 1eb6 2b3e
00000050: f4d2 063e 516f 7abc 6ccc ce3d f75d 2b3d
00000060: 6c0c 7e3d fda3 253e 6042 69bd a50d 983d
00000070: c79b 7dbd ce1d fc3d 3faa e83d f825 423d
00000080: fd4d 2e3e a7f2 133e a60b a1bd ddd4 2d3e
00000090: 959c 1abd f9d1 55bd 43ae 35bc d3c1 14be
000000a0: d018 353e 7a2c f3bc 9c40 18bd fc52 d43d
000000b0: 59e1 ac3d 5a0a ce3d a487 d83d 8140 61bd
000000c0: 1a17 e63d 2d78 57bc 6f29 173e 6342 123e
000000d0: 60a0 d23d da64 bb3d a9eb 133d de80 1f3e
000000e0: 9cc6 543c 269e b33d 3f20 bc3d e4df 47bd
000000f0: 3867 d73d 53d2 d3bc 6bb4 d73d 983e a73d
00000100: bb2e d0bc ddc3 02be b34b 9c3d 858e d53d
00000110: 9b45 26bd 950b 293e 77a9 bbbd cc79 843c
00000120: 3eb2 093e 7ad5 7d3c 850e 193e 57bc 3dbc
00000130: d80e d8bd 04c0 463c 9e1e 82bd 7052 c63d
00000140: 597d e63d f955 c53d 6571 0e3e e55a c0bd
00000150: ec82 273e 1339 343e 2f69 7dbd 14ea d2bd
00000160: b796 043e 05a2 5e3a fb0c 713d ca18 143d
00000170: 933a 133e bcc6 8f3d d20f f03d b70e 49bd
00000180: a63d 0a3e 5ff1 d33d d6bc ea3d d21e ebb9
00000190: decd 9d3d 6b67 79bd d0cb 27bd 42d0 7c3d
000001a0: 1e48 fa3d bcd2 cf3d 483a 98bd 8c05 633d
000001b0: 1d35 513d 3db3 1ebe 4816 9ebd e902 b63d
000001c0: d07d e83d ae00 a53d 06a6 f0bd e4c5 84ba
000001d0: 092d 2a3d 1b20 803d 08cb 003e 6079 133e
000001e0: dbad 883c edb3 25bd 8156 acbd 38cc 9d3d
000001f0: c3aa 223d 5d5d 57bd 4123 983c fa84 a43d
-0.028966649 0.11193633 0.109611474 0.10978995 -0.014576129 0.1497322 0.006124502 -0.1080927
0.11939817 -0.11524335 -0.016849916 0.14019613 0.12036299 -0.010644391 0.05989592 0.0541354
-0.14143741 0.14959815 0.03258477 0.16768691 0.1316641 -0.015285329 0.10097584 0.04183766
0.062023565 0.16175838 -0.056948066 0.074244775 -0.06191614 0.12310372 0.11360597 0.04739949
0.17021938 0.14448033 -0.0786355 0.16975732 -0.037746985 -0.0522022 -0.0110889105 -0.14527063
0.17685246 -0.029684294 -0.03717099 0.103673905 0.08441419 0.10060568 0.105727464 -0.054993156
0.11234875 -0.013151211 0.147619 0.14283137 0.10284495 0.09150095 0.036113415 0.15576503
0.012986805 0.08770399 0.09185838 -0.048797503 0.10517734 -0.025857126 0.10532459 0.08166236
-0.025412908 -0.12770028 0.07631626 0.10427574 -0.040593725 0.16508324 -0.09163182 0.016171359
0.134469 0.015492791 0.14946945 -0.011580548 -0.10549706 0.012130741 -0.06353496 0.096836925
0.11254377 0.096355386 0.13910444 -0.09392337 0.16358536 0.17599897 -0.06186789 -0.10298553
0.12948118 0.0008492771 0.05885027 0.036156453 0.14377813 0.070203274 0.117217675 -0.0490863
0.1350008 0.10348772 0.11461799 -0.00044845656 0.07705282 -0.060889643 -0.040965855 0.061722048
0.122207865 0.10147616 -0.07432991 0.05542521 0.051076043 -0.15498061 -0.077190936 0.08887274
0.11352122 0.0805677 -0.117504165 -0.0010129777 0.041546855 0.06256124 0.1257745 0.1440177
0.016684463 -0.040454794 -0.08414937 0.07704967 0.039713632 -0.052579273 0.018571498 0.08033176

stack.1.0.weight f4 [64, 128]
00000000: 0ace 1d3e 009a 0e3e d952 013e e18c bf3d
00000010: fad2 a8bc 2663 d3bc a82f 07be 0480 a4bc
00000020: cd46 35bc 6eb9 723d c523 403d 4193 a83d
00000030: 17b2 213e 5d8d b13c 6ed2 8c3d 9830 193d
00000040: b5ac 1e3e d914 903a f588 3ebc 3d59 f23d
00000050: 4a95 d0bb 6a7c 503c 287f fa3d 7eb4 9b3d
00000060: b922 503d 0cf6 843d 477e cd3c 66d4 133e
00000070: 3c40 e23d 7e03 073e eb6a 073e b12d 913c
00000080: 5da9 b53d 8205 f63b 70a4 853d 8b50 d83d
00000090: 3884 013e 4caa a73d f9a7 f93d 0de2 df3d
000000a0: a512 8e3d ed57 f53d 844c 30bc fb5e b93d
000000b0: b653 9f3d a5d8 c53c f845 a83d 5de8 7c3c
000000c0: 3219 d4bc 6821 653d 0df0 403d e71b 933d
000000d0: ddd5 c13c 4f0a 213e 97c5 c73d ebc2 023e
000000e0: bcd0 243c 622c 053e 0a96 0cbd d384 b63b
000000f0: 4e9d 853d 8516 f73d f98f 0c3e 3ef3 2a3e
00000100: 2333 8bbc a8b0 353d c7ea a93b 0773 163c
00000110: a828 293d a803 163e 5caf f73b f56f 873c
00000120: 1849 713b ddb2 013e f081 ea3c c25d 2a3c
00000130: 62b3 e93d a322 873d 4221 ea3d 2f86 463d
00000140: b7da 843d 9f11 81bd 8140 41bd b8c9 3c3c
00000150: a14f d63c eeb4 b83d 675e bd3d 55fa ee3d
00000160: 3736 a3bd 3725 c2bc 15be eabd 109d d93d
00000170: eaf5 d03d cad5 b13c 3e92 fa3d 5988 7b3d
00000180: c89e d33d ee71 9d3d cdb2 0d3c c067 9f3d
00000190: 3390 8bbc bf24 f13d 7c88 0b3d 5f99 c53d
000001a0: 8ee9 0d3e a0a6 b73d 9ae5 2fbd 4480 6f3e
000001b0: 7d8e 1b3e ee5a c7bc 076d 8c3d 50b0 8c3d
000001c0: 1023 c23c 9ab2 a4bd af4a 113d 6b6a 95bb
000001d0: f94c 4d3c 28d6 8b39 1f4f 993c a985 d23d
000001e0: b718 313e 8cd8 933d 7240 253d 8edf 1d3e
000001f0: 8044 07be 301b fc3b e172 0a3e 7fd3 c6bd
00000200: db9e 2e3e 9859 a53d 817d 973d 4bf4 c3bc
00000210: 3a35 a5bd 17fc 873d 8236 d9bd 92c5 4abd
00000220: 9412 63bd 20f6 853d d24a a13d 6663 f53d
00000230: 093b c43d f76d bbbb 7d54 513e aac4 7abd
00000240: b9ac 183d 21e9 ae3d 2465 8b3c 1115 df3d
00000250: 79a6 e73d 1353 d1bc ec93 07bd d373 cc3b
00000260: 77e8 ba3d 2419 0f3e fa6e 193d a44c 6abb
00000270: cf58 eebb 47b7 a5bc 2f2d 0a3e e89c 39bd
00000280: d050 8d3c 5bf9 15bd 9d1f 06bc f2b0 bc3d
00000290: 9924 873a cae5 8cbc 0eb6 babd cff6 1b3d
000002a0: 457e ff3d 60d4 4d3c 9f53 8bbd de4a 793d
000002b0: e84f 53bd 80f6 433e 8f3b 21bd 7e42 95bd
000002c0: 50a5 e03d b479 043e 2f81 213d dc06 723d
000002d0: 30c6 c93d 286c ad3d 5ef0 ac3d 22fd 9a3c
000002e0: 0bdf 0fbd caf0 d03b 9f3e b53d 1b0f f7bd
000002f0: 233b 003e 7328 1b3d cec9 de3d e8db cf3d
00000300: 96a5 93bc 8f8f 1fbd ecd6 623c 5834 88bd
00000310: e11c a3bd e946 983d 5636 59bd ccbb d33a
00000320: 51f0 bcbc 606e 82bc 6098 153c ef1b 0e3d
00000330: e1dc e0bb 64dd 023e 06d8 863d 7e83 e13d
00000340: b63b d33d acd3 3fbd 5c3c d03d 2a16 d83c
00000350: a1cf 5d3d 8b5c b73d ddb8 9b3d 91bf d93d
00000360: d165 af3b 6440 67bd 21ec e1bc ac6d d03d
00000370: 3e99 b83c 8527 d33d 5adf 4b3b af42 5fbd
00000380: bd05 943c b03c 9abd c952 babb f7d9 683d
00000390: 5d83 1c3d 7af2 3f3b 18fc aabd 306d 493d
000003a0: 84d7 23bc 9640 af3d a6b5 d0bd 8711 823e
000003b0: e297 0ebe 68ff 023c 5b5c 1cbc dd1a 82bb
000003c0: 9cb9 07bd 9071 02bd 199c dbbc 857c 213d
000003d0: 7e95 d73d 3bad 023e c2f4 ac3d 07f2 283e
000003e0: b43b 3a3d 0346 423d ea5f 003d 4dcc 5e3a
000003f0: e8c3 dcbd 2b22 d4bd 4ddb b33d 71e7 11be
0.15410629 0.13925934 0.1262926 0.093530424 -0.020608414 -0.025804114 -0.13201773 -0.020080574
-0.0110642435 0.05925887 0.046909112 0.082312115 0.15790592 0.021673853 0.06876074 0.03739986
0.1549557 0.0010992541 -0.011629333 0.11833427 -0.006365453 0.012724975 0.122312844 0.076027855
0.050814364 0.06492242 0.025084628 0.14436492 0.11047408 0.13184926 0.1322438 0.017721983
0.08870194 0.007507981 0.065255046 0.10562237 0.12648094 0.081867784 0.12190241 0.10931788
0.0693715 0.11979661 -0.01076043 0.09051319 0.077796385 0.024151156 0.082164705 0.015436259
-0.02589092 0.05594006 0.04710393 0.07183056 0.023661548 0.15726589 0.09754484 0.12769668
0.010059532 0.13005212 -0.034322776 0.005570033 0.06524144 0.12064842 0.13726796 0.16694352
-0.016992157 0.044357926 0.0051854583 0.009182698 0.04129854 0.14649832 0.0075587463 0.016532877
0.003681725 0.12665887 0.028626412 0.01039833 0.11411168 0.06598403 0.11432125 0.04846781
0.06487029 -0.06302189 -0.047180656 0.011522703 0.026161017 0.090188846 0.092465214 0.11668841
-0.07969325 -0.023699386 -0.114620365 0.106256604 0.102031544 0.021708388 0.12234925 0.061409328
0.103330195 0.07687746 0.008648586 0.077834606 -0.017036533 0.11774587 0.03406571 0.09648394
0.13858625 0.08967328 -0.042943574 0.23388773 0.15191074 -0.02433535 0.06856733 0.068695664
0.02369836 -0.08041878 0.035471614 -0.004559805 0.012530559 0.00026671705 0.018714486 0.102794
0.17294584 0.072190374 0.040344663 0.1541731 -0.13209724 0.0076936707 0.13520385 -0.097083084
0.17052786 0.08073729 0.07396985 -0.023920199 -0.08066793 0.06639879 -0.106061 -0.049504824
-0.05543764 0.06541085 0.07875599 0.11981849 0.095815726 -0.005719896 0.20442386 -0.06122271
0.037274096 0.085405596 0.017016001 0.1089269 0.11311049 -0.025552308 -0.033100054 0.0062393933
0.091263704 0.13974434 0.03745935 -0.0035751248 -0.0072737704 -0.020228995 0.13493799 -0.045315653
0.017250448 -0.036614757 -0.008186248 0.09213437 0.001031059 -0.017199416 -0.091167554 0.038077172
0.12475256 0.012562841 -0.06803059 0.060862415 -0.051589876 0.19137001 -0.03936344 -0.07288073
0.10969031 0.12937051 0.03942984 0.059088573 0.098522544 0.08467895 0.08444284 0.018919531
-0.03512482 0.0063763605 0.08849835 -0.12063428 0.12522559 0.037880372 0.10878335 0.10149366
-0.018023293 -0.038955268 0.013845187 -0.06650609 -0.079644926 0.074354 -0.053030334 0.001615399
-0.02306381 -0.015921772 0.009130567 0.03469461 -0.0068622683 0.12779766 0.06584172 0.11011408
0.10314123 -0.046832725 0.10167763 0.026377756 0.05415309 0.08953198 0.07603619 0.106322415
0.0053527136 -0.056457892 -0.027578415 0.10177168 0.02253401 0.10310272 0.003110847 -0.054506954
0.018069142 -0.075311065 -0.0056861383 0.056848492 0.038211215 0.0029288814 -0.08348864 0.049176395
-0.010000113 0.08557241 -0.10190897 0.25403997 -0.13925126 0.007995464 -0.009543504 -0.0039704875
-0.033135995 -0.031846583 -0.026807832 0.03942539 0.1052656 0.12761395 0.08445121 0.16498576
0.045467094 0.04743005 0.03134147 0.0008499071 -0.10779554 -0.103580795 0.08782063 -0.14248444

stack.1.0.bias f4 [64]
00000000: 60c9 2c3d 009c aabc b00b 393d adaa 433d
00000010: e2d7 7f3d 5836 98bd 6ee7 1d3e 693c d73c
00000020: 41bf 0d3c cb77 123e 1789 e8bc be9a 2b3d
00000030: 80df 99bd bc8e 73bd 6b48 0fbd 2a26 313d
00000040: 2ac0 05bd 9d3b f73c aaef 6cbc 2d25 cbbd
00000050: 250f 30bb 0d19 68bd 7708 40bd 7ec7 243e
00000060: 7d3c c9bc 407a a93d ac12 cf3d 4daa 253e
00000070: 06e3 1dbd b743 cb3d 759d 5cbd 76f3 943d
00000080: c239 e33d dc2e 553d 22ee 113e 362b 193e
00000090: 0015 383e 75e9 04bd a943 c03d 8bde 11bc
000000a0: ec01 b2bd 781b 0c3e e86f e1bd acfe 1a3d
000000b0: cdb0 10bd 6297 363e 9b73 42bd cd35 83bd
000000c0: 8a32 fb3c c95d aebd f4c6 4f3b 0485 583d
000000d0: 6bbb e0bc fc6c 1d3e b7ba 8fbd 9531 d7bd
000000e0: 6377 a5bd 469c a6bb 5c6a 083e 8818 67bd
000000f0: 1978 8b3c be81 353e d305 f03d a5c5 793d
0.042184234 -0.02082634 0.04517716 0.04777019 0.06246174 -0.0743224 0.15420315 0.026273923
0.0086515555 0.1430351 -0.028385682 0.04189562 -0.07513332 -0.059462294 -0.034981173 0.043249287
-0.032653965 0.030179793 -0.014461437 -0.099192 -0.0026864496 -0.056664515 -0.046883073 0.16091725
-0.024564976 0.082752705 0.10110983 0.16178246 -0.038546585 0.09925025 -0.0538611 0.07272999
0.11095001 0.05204664 0.14250997 0.1495789 0.17976761 -0.032449204 0.09387905 -0.008903156
-0.08691773 0.13682353 -0.110076725 0.03784053 -0.03532486 0.17831185 -0.04747353 -0.06406746
0.030663747 -0.08513982 0.0031704279 0.05286123 -0.027433118 0.15373605 -0.07018035 -0.10507504
-0.08079412 -0.005084547 0.13321823 -0.05641988 0.01702504 0.17725274 0.11719861 0.060979504

stack.2.0.weight f4 [32, 64]
00000000: 34df d13d b783 cf3d 7ac7 f53d 9f51 043e
00000010: 9566 83bc e903 a8bd 2fed 31bd 0256 12be
00000020: 0485 a9bd 4f2c b53d 057a c83d 7220 17be
00000030: f7bb 19be 26fe 8b3d f09b b9bd 5997 633d
00000040: 9053 8abd e001 cf3d a0fb e339 5160 08be
00000050: c3f0 fc3d 12df 5e3d 728d e5bd 63fd 593d
00000060: eb9f febd 4387 f83d eb3a debd 6cad 28bd
00000070: 0456 e6bc 28d7 163e 063d b83d d696 6ebd
00000080: d5bd 283e 5a1a 23bd f627 e9bb 34bc 023d
00000090: 2ab0 65bc 17ee a9bd 8377 edbd 46ee 9d3d
000000a0: f8cf 55bd a37f 913c 4a90 9c3c 573c 19be
000000b0: 6e89 9fbd 915e d03c 5447 093e 8144 79bd
000000c0: eb03 9cbd acaf 81bc 97ac f4bd 627d 053c
000000d0: 0707 883d 8cfc 243e ad6c 113c d146 57bd
000000e0: 789e 803d fb54 003d f896 0e3d d8b2 5abc
000000f0: 5c2f 833d 2c8a bebd bf02 43bd 207e 303e
00000100: 8202 123d cecf d4bc c8bc e8bc c1f0 7fbd
00000110: 7ac2 c23d cb2b 56bd d278 1e3c 44e5 5f3d
00000120: a0db f13d 6f7d bc3b 0900 33bd 3801 3f3d
00000130: 368a 8dbd e570 e03c 7c84 07bd 0413 a2bd
00000140: f0ff b2bd da39 d4bc 07d5 593d 4468 05be
00000150: 342a 963d d5aa a03d 6b4f eb3d 47e6 9fbd
00000160: a73c be3d 091e 99bd a070 423d 0e64 bfbd
00000170: abca 87bc fa38 b73d 90b5 933c 19ed 08be
00000180: a3d4 8ebd 9c99 963c 1122 69bd d87f b43c
00000190: 4996 37bc ae88 003d 58e2 e3bb 662d 723c
000001a0: 7ac7 d8bd 6f3d 09bd e654 b73d 6546 b1bd
000001b0: 8f0c 66bd 1590 48bc fbd2 efbd 7842 dabd
000001c0: 7809 d5bd c073 2abb 4dd8 02be 7fbd 2d3c
000001d0: 5411 1e3d d079 87bc 482f a93c 251c 913c
000001e0: 100b ccbc 7b01 c8bc 121c 1dbc c470 b6bc
000001f0: 7ca3 a1bd af5c a33d c5a0 d93d 19b9 60bd
00000200: cf4f ac3d 54c4 7e3c 4775 193e 63c9 b43d
00000210: cca9 18bd 6b31 b73a 3355 f43d 5aec afbd
00000220: 33d3 26bd 3a31 0e3e 4d02 a7bd def8 fcbd
00000230: ce96 acbd 6e6e ca3d 5b69 82bd bbd6 3fbc
00000240: 39d6 843d 6122 be3d fa90 fe3c 4389 97bd
00000250: 09f3 e53d 2592 b0bd 0daf 893d 113b ed3d
00000260: c105 0abe 738e 113e 35f6 d9bd 1bde bd3d
00000270: 536f e1bd f651 45bd ab6e 03bd 1848 283e
00000280: 87b5 4a3d 0015 04bd 8b00 d83d 377d febc
00000290: e02e 703d d3c1 17be 2fc0 b03d f3ee 35be
000002a0: c41d 4abd 570b 97bc 36ee 2fbe 3e75 843d
000002b0: b447 59bd d812 7f3d 7095 44bd 37e6 7d3d
000002c0: 753f 8abc 2a36 a83d 4afa 7c3d 4d12 143e
000002d0: 9aa2 1c3c a520 2b3d 7706 d8bd f2cd 1bbc
000002e0: d838 cabd 2cf9 743d ddea 083e 2ee4 aa3d
000002f0: b875 923c 30d3 1c3e 28a3 653c f537 1d3e
00000300: bbc8 d33d 4eff a03d 16e2 5d3e 611f 1dbd
00000310: 05d5 5fbd b12e b83b 840a 883d cce6 293d
00000320: 1113 7d3d b815 693d cffe 24bd c0f3 f1b9
00000330: fc97 b63d ff1f 8a3d f8d4 023d 4646 e23d
00000340: caf6 7d3d ddac 46ba 7a4f c4bd 04c7 743e
00000350: 9c25 34bb 8bd0 823c a565 b7bd eab7 073e
00000360: 3bf4 d2bd 8eeb c2bc e037 dbbd 7c8d 153e
00000370: 945c 443d 10d1 b3bd 0ef2 f5bd 72dd fcbd
00000380: a666 0ebd f54d 333b b531 0e3e f637 c13d
00000390: 5354 33bd 93c7 613a a9d8 063e 7fee 203e
000003a0: 087c a8bc ba88 c83c e807 d1bd 56f7 133e
000003b0: a976 86bc 9fea 0a3e 851f b43d 9f24 e53b
000003c0: dfe0 adbd 773b 8fbd 1c19 043e f5f4 033e
000003d0: 22f1 6abd 91c9 f1bd 6b20 cd3d ae9b a5bc
000003e0: d0de 8d3d ee06 87bd 0042 943d 7c21 e23d
000003f0: c47d dd3d c746 a13d 6d22 e73d 1ab7 dfbc
0.10247651 0.101325445 0.12000938 0.12921761 -0.016040126 -0.08203871 -0.043439087 -0.14290622
-0.08277324 0.08846342 0.097888984 -0.1475847 -0.15013109 0.06835584 -0.09062946 0.05556426
-0.067542195 0.101077795 0.0004348429 -0.13317992 0.12350609 0.054411955 -0.11208619 0.053220164
-0.12432846 0.12135174 -0.108510815 -0.041181013 -0.028117187 0.14730513 0.08996014 -0.058249317
0.16478665 -0.039820053 -0.0071153594 0.031917766 -0.014019052 -0.08297365 -0.11595061 0.07711463
-0.052200288 0.017761057 0.019111771 -0.14964424 -0.077898845 0.025435718 0.13406116 -0.060856346
-0.07617935 -0.015830837 -0.119469814 0.008147569 0.06641965 0.16111964 0.008876008 -0.05255777
0.062802255 0.031331044 0.034811944 -0.013348304 0.064055175 -0.09303698 -0.04761004 0.17235613
0.035646923 -0.025977995 -0.02841033 -0.06248546 0.0950975 -0.052287858 0.0096723605 0.054662004
0.11809468 0.0057522575 -0.043701205 0.04663202 -0.06911127 0.027397582 -0.03308533 -0.07913783
-0.087402225 -0.025906492 0.053181674 -0.13028055 0.07332268 0.078450836 0.11489757 -0.07807594
0.09288912 -0.07476432 0.04747069 -0.09345256 -0.016576132 0.08946414 0.018030912 -0.13371696
-0.06974151 0.018383794 -0.056917254 0.022033617 -0.011205264 0.031380348 -0.0069544725 0.014781332
-0.10584922 -0.033505853 0.0895174 -0.08656005 -0.05616432 -0.012241383 -0.11710163 -0.10657209
-0.10402197 -0.0026008934 -0.12777825 0.010604261 0.038590744 -0.016537577 0.020652428 0.017713616
-0.024907619 -0.024414768 -0.009589212 -0.022270568 -0.0789251 0.07976662 0.106263675 -0.054864023
0.0841366 0.015549738 0.14986144 0.08827474 -0.037271306 0.001397652 0.11930313 -0.08590002
-0.04072876 0.13885966 -0.08154736 -0.12352155 -0.08427201 0.09884344 -0.06367751 -0.011708911
0.06486172 0.09283901 0.03107499 -0.073992275 0.11227996 -0.08621625 0.067228414 0.11583532
-0.13478757 0.14214496 -0.106426634 0.09270879 -0.110075615 -0.048173867 -0.032087963 0.16433752
0.049489524 -0.03224659 0.105469786 -0.031065566 0.058638453 -0.14820032 0.08630406 -0.17766933
-0.049344793 -0.018438024 -0.17180714 0.06467675 -0.053046897 0.06227383 -0.047994077 0.061987128
-0.016875962 0.08213456 0.06176213 0.14460106 0.009560252 0.04177918 -0.10548108 -0.00950955
-0.09874123 0.05980794 0.13370843 0.08344303 0.017878398 0.15314937 0.01401595 0.15353377
0.10341021 0.078611955 0.21668276 -0.038360003 -0.05464651 0.0056208004 0.06642631 0.04147987
0.06178576 0.05690548 -0.040282067 -0.0004614871 0.089157075 0.06744384 0.031941384 0.1104856
0.062002935 -0.0007578859 -0.095854715 0.23904043 -0.0027488237 0.015968582 -0.08954934 0.13253751
-0.103004895 -0.023793962 -0.10704017 0.14604753 0.047939852 -0.0878011 -0.12009059 -0.12346925
-0.034765862 0.0027359698 0.13886149 0.09434502 -0.04378159 0.0008612808 0.13168587 0.15715979
-0.020566955 0.024479259 -0.10206586 0.1444982 -0.016414003 0.13566063 0.087950744 0.006992891
-0.084901564 -0.06993764 0.12900203 0.12886412 -0.05735887 -0.11806024 0.10015949 -0.020215835
0.06927264 -0.065931186 0.07239151 0.11041543 0.108150035 0.07874828 0.11285863 -0.02730899

stack.2.0.bias f4 [32]
00000000: 936f b53d 4a34 1ebd 54b7 1b3d c0f5 0ebd
00000010: ad1b 393e 9460 183e a974 a2bb a810 713d
00000020: e5ce d3bb 0732 143c f4c7 07be e22a 4e3c
00000030: bbc3 fd3d fee0 fabd c091 9dba 84df 803d
00000040: ba84 c23c e644 83bd 5710 2c3d 0874 c8bd
00000050: 8088 c33d b886 3e3e 1a6c bdbd 19da 91bd
00000060: d10e c23d f56c 01be 8782 6a3d 663a b7bd
00000070: 4b87 0abe 55fb 06be 01b3 94bd e3b6 9e3d
0.08859172 -0.038624085 0.038016632 -0.034902334 0.18076964 0.14880592 -0.0049577546 0.058853775
-0.0064638727 0.009045131 -0.1325987 0.012583466 0.12390848 -0.12249945 -0.0012021586 0.06292632
0.02374493 -0.06409626 0.04200777 -0.09787756 0.0954752 0.18606079 -0.09249134 -0.07121677
0.09475482 -0.1263922 0.057253387 -0.089466855 -0.13528173 -0.13181813 -0.07260705 0.077497266

stack.3.0.weight f4 [10, 32]
00000000: c2d9 2e3e 9196 c03d 1589 2a3e aa5e 653e
00000010: 72a9 523e 1f96 b7bd 68a6 46be 8c2a afbc
00000020: c8b2 2c3e 1663 303e af1f f2bd 5239 3abe
00000030: f019 853d e994 203e 5944 d53d 87b7 2e3d
00000040: dd38 eebd 97e8 24be dd05 7cbd c44a 323e
00000050: 10f1 c5bd 8c03 4c3e 9539 aa3d 0701 6b3e
00000060: d32d 063e 470c 19bd b7d8 363e 92bc aebc
00000070: cdd7 9f3e 2db6 05be 9877 acbd 7ba1 f1bd
00000080: 8427 36be 8187 f3bd 8df7 d4bd 2d27 423e
00000090: b78a 203e 2e84 c9bd ea8a c4bd 2c19 f6bd
000000a0: f63a 833e 2783 8ebd e7f7 bc3d 13dd 583e
000000b0: 751e 2bbe 8289 fd3d 4a83 8cbe e0d3 04be
000000c0: 4f0f 73bd 8126 c83d ed18 35be 317b 0f3e
000000d0: 2efb 653e 1439 56bd 7859 15be 4607 ea3d
000000e0: 4a63 253e 84f6 583d 5a4f c9bd c81e c4bd
000000f0: d802 673e 63b7 a73d cde2 623e 9ff5 133e
00000100: 6151 fdbd 46cd ab3d dcc4 cb3d 8735 133e
00000110: 21a5 293e 12e6 dd3d 31ef 3e3e 4f94 97bd
00000120: b3a3 34be ae6b 1bbe bece 23be 21bc 3a3e
00000130: 9b7f 2e3e 9742 1dbe 7e95 62bc 3273 2b3e
00000140: 5af1 3b3c d0cd 5fbd b0ca 203d a15c bebd
00000150: 8cee 25be 6b0a 40be 3928 f83d bc06 2fbe
00000160: 85cc 2cbe 0ea8 94bd e9d9 f53d 8c76 2c3e
00000170: 9340 0ebe c481 34be 78b6 4fbb 169f 00be
00000180: dd61 b13d d2ca c13d a1d6 903c 65d3 54bc
00000190: a02f 1b3e 631a e1bc ba5b 5abe 6569 d43d
000001a0: 559f 0ebc bc68 32bc d7ec 913d ce96 363e
000001b0: 1028 773e a381 edbb 7643 cbbc dff8 1c3e
000001c0: 2b44 af3c 752d a1bd aaca 133e 82f7 34be
000001d0: d085 ca3d b974 633e 2f6f 1fbe 28f9 c1bd
000001e0: 9cbb a1bd 7225 99bc 46cb e53b bd10 15be
000001f0: e517 a4be 10b1 4abd 58f4 66bd d745 f4bd
00000200: 435c ca3d 35a5 b7bd d093 68bd 6a56 2a3e
00000210: e441 1cbe 1985 bc3d 185a f7bd b6b5 3bbe
00000220: bdbe e5bd 5235 143e 4c52 3a3d d9bf 6fbc
00000230: efd1 04be 1b7a 26be 7f8f 283e d5a9 c73d
00000240: b172 bc3d a149 95bd eabe 0fbd 1e5c 1f3e
00000250: 5e58 2a3e 8f71 19bb cb54 1bbd 4edf 4a3e
00000260: e1cd a43c 0714 f5bd 7eae 1ebe 0e9d df3d
00000270: 2753 a13c 47a3 633d 25d2 26bd 4ae2 f3bd
00000280: b33e cabd 0d57 9abc 0495 eb3d a963 31be
00000290: 74c8 223d 15fa 09bd 5b47 c9bd 0aa0 2bbe
000002a0: 989d 06be a032 dbbc 08c3 e93d 6753 51bd
000002b0: 3b38 1d3d 96a4 813d 748a a33d 4cb6 f93d
000002c0: 8279 a33d 71f8 223e 5ee7 eebd 72a3 8cbc
000002d0: e633 20be bdec 373c 489d f93c 840c 1e3e
000002e0: c08c 3f3d c05d 1d3d 1b05 22be bb3a 27be
000002f0: 4e1c 5bbc b496 ca3d be5f a73d 10c3 fcbd
00000300: 72f3 143e f3c7 99bd 48cc 75bc 5468 7fbd
00000310: 5e81 593d 5caa 2cbe ce9b af3d c4f6 e6bc
00000320: 1324 0a3e d348 803d 64ac df3d 8d85 153e
00000330: 58a5 503c 5411 41bd ccaf 58bd 4ed6 4dbb
00000340: cb73 413d 531f e7bd d4b4 17be 8f55 8bbd
00000350: df1b 8ebd 5a3d b1bd 8b39 b0bc 314c 703d
00000360: aefe 14be c94d f33d 2843 5e3d fe21 103e
00000370: f2e5 783d 55c3 0b3e 79d5 15bd 8785 f7bd
00000380: aa90 0a3e 6068 1fbe aca9 133e ce59 e53d
00000390: b361 a9bd 39bf 31be cd07 1fbe 4b26 dfbd
000003a0: 725b 12bd 5e29 d0bd d908 7fbc 08a7 c63d
000003b0: 1f49 e3bc 8e5b debc 736c 793b 9aa2 a63d
000003c0: 7330 113d c2a7 153e 6e47 2bbe d0e5 0a3e
000003d0: ba5b 63bc 4e9f 153e eb7c dc3d 6750 283e
000003e0: e9f5 1dbe c030 563d 54ed 6fbc 3438 073e
000003f0: e04c cebd 70e4 ab3d c885 4d3c 7e9b 27be
0.17075256 0.09403718 0.16653855 0.22399393 0.20572451 -0.0896418 -0.19399416 -0.021382593
0.16865075 0.17225298 -0.118224494 -0.18185928 0.06499088 0.15681805 0.10413427 0.042655494
-0.116319396 -0.16104351 -0.06152903 0.17411333 -0.0966512 0.19923228 0.08311764 0.2294961
0.13103418 -0.037365224 0.17856108 -0.021330152 0.3121933 -0.13057776 -0.08421248 -0.11798378
-0.17788512 -0.1189108 -0.10398779 0.18960257 0.15677916 -0.098396644 -0.09596808 -0.1201652
0.2563092 -0.06958609 0.09226971 0.21178083 -0.16710837 0.12379743 -0.27443916 -0.12971449
-0.05934077 0.09772969 -0.1768529 0.14011838 0.22459099 -0.052300528 -0.14584911 0.114271685
0.16151157 0.05296947 -0.09829588 -0.095761836 0.22559679 0.08189275 0.2215683 0.14449166
-0.123690374 0.08388762 0.09949657 0.14375888 0.16566898 0.10834898 0.18645932 -0.074013345
-0.17640571 -0.15177795 -0.15996835 0.18235828 0.17040865 -0.15357433 -0.013829587 0.16743162
0.011471117 -0.054639637 0.039255798 -0.09295011 -0.1620428 -0.18753974 0.12117047 -0.17092413
-0.16874893 -0.072586164 0.12004454 0.16842097 -0.1389182 -0.17627627 -0.0031694453 -0.12560686
0.08661244 0.09462513 0.017680468 -0.0129898535 0.15154886 -0.027478402 -0.21324053 0.10371665
-0.00870498 -0.010889228 0.07125252 0.17830965 0.24136376 -0.00724812 -0.024812441 0.15329312
0.02139481 -0.07869998 0.14432779 -0.17672542 0.09888804 0.22212495 -0.15569757 -0.09471351
-0.07897112 -0.018694613 0.0070127575 -0.14557166 -0.3204948 -0.049485266 -0.056385368 -0.119273834
0.09880879 -0.089670576 -0.05678159 0.16634527 -0.1525951 0.09205074 -0.12077731 -0.18331036
-0.11218021 0.14473465 0.04548864 -0.014633142 -0.12970708 -0.16257517 0.1646099 0.0974919
0.09201563 -0.07289434 -0.03509418 0.15562484 0.16635272 -0.0023413633 -0.03792266 0.19811746
0.020117702 -0.119667105 -0.15496251 0.10918628 0.01969297 0.055575635 -0.040727753 -0.119083956
-0.0987524 -0.018840337 0.11503032 -0.17323174 0.03974195 -0.033685762 -0.09828063 -0.16760269
-0.13146055 -0.026757538 0.114141524 -0.05110493 0.038383704 0.063302204 0.07985392 0.121929735
0.0798216 0.15915085 -0.116652235 -0.01716778 -0.15644798 0.011225876 0.030470505 0.15434462
0.04676509 0.038419485 -0.1582226 -0.16330998 -0.013373448 0.098920256 0.08172558 -0.12341893
0.14545992 -0.075088404 -0.015002318 -0.062355354 0.05310189 -0.16861862 0.08574639 -0.028193839
0.13490324 0.0626389 0.10921553 0.14601727 0.0127347335 -0.047135666 -0.052902028 -0.0031408253
0.04722957 -0.112852715 -0.14815074 -0.068034284 -0.0693891 -0.0865428 -0.021511814 0.05866641
-0.14550278 0.11880071 0.054263264 0.14075467 0.060766168 0.13648732 -0.036580537 -0.12086015
0.13531747 -0.1556716 0.14420193 0.111987695 -0.08270588 -0.17358102 -0.1553032 -0.10895976
-0.03573174 -0.1016414 -0.015566074 0.096998274 -0.027744828 -0.027143266 0.0038059026 0.081364825
0.035446595 0.14614776 -0.16726467 0.13564229 -0.01387685 0.14611551 0.10766014 0.16436921
-0.15425839 0.052292585 -0.014643986 0.13205034 -0.100732565 0.0839318 0.012544103 -0.1636791

stack.3.0.bias f4 [10]
00000000: 9e39 013e 275c 39be e7d0 083e 31f6 76bd
00000010: 6626 c1bd cf01 12be f3d8 5f3d 9b30 303e
00000020: f429 99bb 058d 2f3e
0.12619635 -0.1810156 0.1336094 -0.06029338 -0.09431152 -0.14258502 0.05465026 0.17206042
-0.0046741907 0.17143638
