src/fminst/models/teacher_7.pt (torch, 447183 bytes, 8 tensors)

stack.0.0.weight f4 [128, 784]
000000 9b ef a8 bc b7 e9 b6 3b b6 dc cc bd 33 46 01 3c
       -0.020622065 0.00558206 -0.10003035 0.007890272
000010 b3 6a 28 bd 55 b9 73 bd bf bf 74 bd 05 98 96 bd
       -0.04111738 -0.05950292 -0.059753176 -0.07353214
000020 f9 f1 06 be 52 c7 cc bd a0 89 fc bc e1 5c 05 be
       -0.13178243 -0.09998955 -0.030827343 -0.13023712
000030 de 6a 00 be 5b 18 ea bc 03 16 89 3b 3d 29 c7 bd
       -0.12540767 -0.028576067 0.004183532 -0.097246625
000040 46 88 1b be 05 66 12 be ad 1f 26 bd 03 6e e4 bd
       -0.15188703 -0.1429673 -0.040557552 -0.111537956
000050 37 66 61 bd 03 95 56 bd ad ae a5 3c 41 97 1a 3d
       -0.05502912 -0.052388202 0.020224893 0.037741903
000060 f5 d0 c3 3d a0 23 b9 3d 47 0a a0 3d b1 02 95 3d
       0.0956134 0.09039998 0.0781446 0.07275904
000070 a2 62 99 bc ff 2c 77 3d d7 20 87 bd 9d 70 f1 bb
       -0.01872379 0.060345646 -0.065980606 -0.007368161
000080 44 a0 2f bd b0 b8 f5 bc 41 19 a5 bc 03 44 d3 bd
       -0.04287745 -0.029995292 -0.020153644 -0.103157066
000090 23 8f 35 be 4f d9 f3 bd a8 c0 d9 bd 4a 52 1c be
       -0.17730384 -0.11906683 -0.106324494 -0.15265766
0000a0 e5 46 f0 bd df c1 2c be df 71 21 be e5 00 10 be
       -0.11732272 -0.16870831 -0.15766095 -0.14062841
0000b0 b2 81 ef bd 97 99 ae bd f4 ce af bd e7 4c d2 bd
       -0.11694659 -0.08525389 -0.08584395 -0.10268574
0000c0 fc e7 25 bd f3 a6 25 bb 16 2c 94 3d f5 b1 a8 3d
       -0.04050444 -0.0025276511 0.07234971 0.082370676
0000d0 74 60 6b 3d ed 09 9e 3d 2b ad b6 3c 65 02 9b bd
       0.05746503 0.07716737 0.02229937 -0.07568816
0000e0 04 a3 fa 3c 73 3f 39 bd 70 06 e2 bc 52 d1 28 bd
       0.03059531 -0.045226526 -0.02759096 -0.04121525
0000f0 c0 0d 85 bd 37 4c 35 bc df bd f3 bd e9 db 29 be
       -0.06496763 -0.011065534 -0.119014494 -0.16587795
000100 b6 7c e9 bd df 0a 5d bd df 92 8d bd 4d 5e 4f bd
       -0.1140074 -0.053965446 -0.06912779 -0.05062704
000110 b3 ad 87 bd 0d 61 be bd 1d ea 00 be c1 cc c4 bd
       -0.06624927 -0.09295855 -0.12589307 -0.09609366
000120 ff 61 dc bc 0d 4f 40 bc 22 e9 9f 3b fb 93 24 bc
       -0.026902197 -0.011737597 0.0048800865 -0.010045047
000130 72 a4 9a bc a0 09 ef bb 09 2d 29 3d 41 37 e2 3d
       -0.018877242 -0.0072948486 0.041302714 0.11045695
000140 54 3a 9c 3d 1d 64 0e bd 39 67 c8 bb 9a c5 85 bd
       0.07628313 -0.034763444 -0.0061158207 -0.0653183
000150 9a 5c cd bc 29 95 0f bd b0 55 b7 3b bf 29 c2 bc
       -0.02506857 -0.03505436 0.0055949315 -0.023701547
000160 eb fe 5f bc 06 f5 1a bd 0e d3 b6 bd df 6f b5 bd
       -0.013671617 -0.03783133 -0.08926974 -0.08859228
000170 03 2e 88 bd bb c5 fa bc 59 a0 dd bc 1a c9 25 bd
       -0.06649401 -0.030611863 -0.027053999 -0.04047499
000180 9b d8 2f bd 68 ae 07 bc bb 83 02 bd 0e c2 50 3c
       -0.04293118 -0.008281328 -0.03186391 0.012741579
000190 94 c3 18 bd f8 04 c4 bc 8f fb 90 3c f5 b5 f9 3c
       -0.037295893 -0.02392815 0.017698077 0.030482272
0001a0 cc 08 c9 bc 12 0b 0d 3d 75 63 a2 3d 73 b3 b9 3d
       -0.024540327 0.034434386 0.07929126 0.0906743
0001b0 20 53 39 3d 74 68 99 3d cf ac ae 3c 93 ec c9 3d
       0.04524529 0.07490626 0.021322636 0.09859576
0001c0 c8 07 35 3c df 6a 17 3c 51 e5 32 bd 8d b8 08 bb
       0.0110492185 0.009241789 -0.043675724 -0.0020861954
0001d0 90 28 0a bd 83 3d 84 bd 40 57 b1 bd 53 70 5c bd
       -0.03373009 -0.06457045 -0.0865922 -0.05381806
0001e0 37 f5 43 bc 1a 04 0a bd 57 b2 d5 3b 82 0b 09 bd
       -0.011960319 -0.033695318 0.006521504 -0.03345824
0001f0 0f c9 96 bc 68 8d 21 bd 82 6d 9a bd 1c 51 09 bd
       -0.01840642 -0.039441496 -0.07540418 -0.033524618
000200 cc b4 c9 3b ba e0 bf 3c ed 33 7b 3c f7 e9 b0 bb
       0.006155586 0.023422588 0.015332204 -0.0053989845
000210 79 6f 24 bd b0 4f 51 3d 96 1c 93 3d 7d dc c4 3d
       -0.04014537 0.051101387 0.07183187 0.09612367
000220 22 13 87 3c 23 10 6f 3d 1c 96 7c 3d f0 c1 c1 3c
       0.016488615 0.058365 0.061666593 0.023652047
000230 66 cd f3 3d ca 56 0b 3d db 3e f5 bb 19 d6 17 3d
       0.11904411 0.034018315 -0.0074842996 0.037069414
000240 70 a6 8e bd bd 8a b8 bd 7b d4 93 bd b7 b9 29 bd
       -0.06965339 -0.09010837 -0.07218262 -0.041436877
000250 42 b5 82 3b 8a 57 be bc c4 14 0a bd f9 ac 9c bd
       0.003988893 -0.023235101 -0.03371121 -0.076501794
000260 c5 c0 93 bd 16 53 51 bc bd a2 5e bc 54 a1 8b bc
       -0.07214502 -0.012776157 -0.0135886045 -0.0170447
000270 fa 12 48 bd eb e5 03 3d 3d b7 31 3d d9 36 e2 bc
       -0.048846222 0.03220169 0.04338764 -0.027614044
000280 c7 7b f2 bb 05 7e 32 bc f9 fa 99 ba 3c 6c 42 bb
       -0.0074000093 -0.010894303 -0.0011747769 -0.0029666563
000290 65 11 ab 3d 25 3e 26 3d 03 44 72 3d b0 3d 59 bc
       0.08352927 0.04058661 0.059146892 -0.013259336
0002a0 05 47 c4 3d 35 07 87 3d f9 d9 6a 3d 9a f9 d5 bc
       0.095838584 0.065931715 0.05733678 -0.026119996
0002b0 b2 52 f1 bc 32 6d ad bd 93 d6 d0 bd 50 4f 0b bd
       -0.029458378 -0.08468093 -0.10197177 -0.034011185
0002c0 88 e5 8f bd e0 c9 ef bc af 5f 5b 3c eb d6 5a bd
       -0.070262015 -0.029271066 0.013389512 -0.053427618
0002d0 18 54 8e bc 1f 7c 84 bc 25 89 31 bd 2e cb a5 3b
       -0.017374083 -0.016172467 -0.04334368 0.0050596213
0002e0 eb c3 c1 bb ef c3 94 3c dc 61 65 3c 1d 62 28 3d
       -0.005913248 0.018159835 0.014000382 0.041109193
0002f0 d0 38 0f 3d de 8c a1 3b cb 36 97 3c 06 8e 69 3d
       0.03496629 0.0049301228 0.018458745 0.05702021
000300 98 df f6 3d 69 19 a9 3c 2d 7a 1a 3d 33 e2 28 3d
       0.12054366 0.020642 0.037714172 0.041231345
000310 e6 64 e8 3d 89 1f b4 3d 04 48 5b 3d 77 98 85 bd
       0.1134737 0.08795077 0.053535476 -0.06523221
000320 14 96 f9 bc d0 fc 94 bd e0 d7 d2 bd a5 a0 a6 bd
       -0.03046707 -0.07274783 -0.10295081 -0.08136109
000330 00 40 b6 bd 4e 67 1e bd 16 a5 14 bd 6e 92 ec bc
       -0.08898926 -0.038672738 -0.03629025 -0.028878417
000340 62 c9 c3 bc ca 71 d1 3c 3c 3e 05 bc 86 c4 d7 3c
       -0.023899738 0.025566954 -0.008132514 0.026338827
000350 a2 ee f4 b9 5d 81 80 3d 99 d2 4f 3d 4b ee 81 3c
       -0.00046717102 0.06274674 0.05073795 0.015860697
000360 f4 b7 c8 3c 88 5f 87 bc d3 5a 19 bd dd 3a b8 3b
       0.024501778 -0.016525045 -0.037440132 0.0056222514
000370 8a 4c a1 3d 47 98 0a 3d 79 f7 71 3c 52 50 5e 3d
       0.07875927 0.03383663 0.014768475 0.05427582
000380 16 05 16 3e f2 37 d9 3c 8e a8 0b 3d 3e 0a c8 ba
       0.14650378 0.026515935 0.034096293 -0.0015261841
000390 75 a3 bc bd ed dd 1a be 84 e0 1b be 26 94 a4 bd
       -0.092108645 -0.1512372 -0.15222365 -0.080360696
0003a0 bd 23 18 bd ba 68 d3 bc 22 eb 3b bd 76 0c 39 bd
       -0.037143458 -0.025806773 -0.045878537 -0.0451779
0003b0 7b e2 85 bc 9f 1a 96 bb e9 79 18 3d fb 98 b5 bb
       -0.016343346 -0.00458081 0.037225638 -0.0055419183
0003c0 ff ee fa bc e8 83 00 bc 14 db e7 3b 9b e4 a8 bb
       -0.03063154 -0.007843949 0.0070756767 -0.005154205
0003d0 d7 d9 fa bb d1 0c 12 3a 41 f4 8f bd 93 0e e3 bc
       -0.007655363 0.0005571368 -0.070290096 -0.02771691
0003e0 4f 20 5c 3d f8 fa ab 3d 46 79 a5 3d b1 ef ad 3d
       0.05374175 0.08397478 0.08079772 0.08492983
0003f0 25 46 1e 3e 74 5d b3 3d e9 b8 c3 bb 6b ce 70 3d
       0.15456446 0.08758059 -0.0059729707 0.058790606

stack.0.0.bias f4 [128]
000000 24 24 2d 3e 07 8b 23 3d 91 59 4c 3e 63 00 6f 3d
       0.16908318 0.03992751 0.19956042 0.05834998
000010 61 9a fa bd 9e 54 bc 3c 60 b7 1c 3b 7a b7 9b 3a
       -0.12236477 0.022989567 0.002391301 0.0011880242
000020 1f e4 39 3d e4 39 41 3e 91 29 67 3e 16 3a a8 3d
       0.04538357 0.1886974 0.2257445 0.08214204
000030 97 de cd bd d6 67 84 3d 2c 1a 61 3e 2b b4 bc 3d
       -0.10052221 0.06465118 0.2198264 0.09214052
000040 ed 55 22 3e c9 d8 bb 3d 4c 0c 6a bd 19 01 80 3d
       0.1585309 0.09172208 -0.057140633 0.06250209
000050 2f a3 cc bd cd ac 9b 3d 6d 65 96 bc 88 2a 6a 3d
       -0.09992062 0.076013185 -0.01835891 0.057169467
000060 6f 0e af bc 2f b3 0c bd 52 23 90 3d af 43 b3 bc
       -0.021369187 -0.03435057 0.07037987 -0.02188286
000070 70 67 9c 3d c2 8e b0 3d e7 cd 22 be 28 cd cf 3d
       0.07636917 0.08620979 -0.15898858 0.10146552
000080 ff 99 74 3d 13 24 15 3e ab 57 7b 3b 4d 9a 05 be
       0.059717175 0.14564542 0.0038351815 -0.13047142
000090 16 6d 13 3d 3e 58 11 be 47 dc 46 3e a5 4a 31 3e
       0.035992704 -0.14193818 0.19419967 0.17313631
0000a0 8b a3 42 bd 96 93 3b 3e 12 5c 0a 3d 08 c1 9f bd
       -0.047519248 0.18318018 0.03377921 -0.0780049
0000b0 55 3e ae 3d ef e6 b8 bd 3c 1d bd 3b 5e 8a 0d 3e
       0.08507983 -0.09028422 0.0057713073 0.13822314
0000c0 79 89 ee bc 72 88 31 bc 4c c8 81 3c 9b c8 30 3c
       -0.029118286 -0.010835754 0.01584258 0.010790016
0000d0 1b a1 98 3d 6e 16 3e 3c 13 a9 94 3d 47 ba ac 3c
       0.074526034 0.011602027 0.07258811 0.021084918
0000e0 59 5f 16 3e b8 0e 8c 3d 16 00 12 3e 62 99 e1 bd
       0.1468481 0.06838745 0.14257845 -0.110155836
0000f0 6c d3 f7 3d f8 55 01 bd 31 12 ca 3d ce 0e 6c 3e
       0.121008724 -0.031576127 0.09866751 0.23052523
000100 37 43 ca 3d 98 1f 04 3e b4 7f f6 bd d3 b1 24 3d
       0.098761015 0.12902677 -0.12036076 0.04020865
000110 88 b2 05 3e 1f ef a6 3d 99 12 de 3d b2 47 b8 bc
       0.13056386 0.081510775 0.10843391 -0.022495124
000120 03 dd df 3d 23 e6 0f 3e 8d 85 ae 3d cf 13 e8 3d
       0.109308265 0.14052634 0.085215665 0.11331903
000130 84 2c 8a 3d f1 25 84 3b a0 e3 a8 3d bb 29 db bd
       0.06746772 0.0040328433 0.08246541 -0.10701319
000140 f3 53 19 be ea 3d 4e be ed c8 43 3e 5f f8 3d bc
       -0.1497343 -0.20140806 0.19119616 -0.011594861
000150 8e e0 69 be 0e 60 d7 3d f6 2c aa bd 53 7a 11 3d
       -0.22839567 0.10516368 -0.08309357 0.035517048
000160 90 a1 04 3e f6 66 1b bd ea 4f 35 3e 5a ff 33 be
       0.12952256 -0.037939988 0.17706266 -0.17577878
000170 e6 b7 5e be 58 d2 97 3d 0f 6b e6 3d f7 4f bb 3d
       -0.21749839 0.07413167 0.112508886 0.091461115
000180 69 a6 0b 3e c8 3f 05 be f7 87 54 3e 7c 66 b2 3d
       0.13637699 -0.13012612 0.20754991 0.087109536
000190 e5 40 4e 3e 05 7f 1d 3e 95 9c ef 3d 78 61 52 3e
       0.20141943 0.15380485 0.116997875 0.20544994
0001a0 35 60 14 bc 3c 12 d6 3d 11 4f 6f bb b5 e2 a3 3c
       -0.009056141 0.10452697 -0.0036515633 0.020005563
0001b0 3d 6e 33 ba bc 04 bb 3d 13 97 34 3e ae 9b 4c 3d
       -0.0006844735 0.091317624 0.17635755 0.049953155
0001c0 37 25 27 bc 96 c0 72 3d fb bf 51 3c 0f e5 61 3e
       -0.010201744 0.059265696 0.012802119 0.22060035
0001d0 72 10 55 3c bd a5 c7 bd db 47 3f 3d ce 75 eb 3c
       0.013004409 -0.09748409 0.046699386 0.028742697
0001e0 b6 90 95 3d f2 cb 9c 3e 8e 0c 11 be ee 11 60 3d
       0.07302992 0.30624348 -0.14164945 0.0547046
0001f0 3e 4e 10 3d 28 48 58 bc aa 15 7e bb 98 51 b9 bd
       0.035230868 -0.013200797 -0.0038770237 -0.09048766

stack.1.0.weight f4 [64, 128]
000000 93 aa e2 bc f7 76 3b bc 1e 0e 20 bd fa 3d 2f 3c
       -0.027669227 -0.011441938 -0.039075963 0.010695929
000010 52 14 d3 bc a7 fa c1 bb 90 5d c1 bb 2a 2e 7c bd
       -0.025766525 -0.0059197727 -0.005901046 -0.061567463
000020 cf 4f 2b 3c d2 81 6d bd 0b 22 27 bc a0 b2 81 bd
       0.01045604 -0.057985134 -0.010200988 -0.06332898
000030 28 df 48 3c 81 74 66 bb e1 d4 af bd 29 38 86 bd
       0.012260236 -0.0035164657 -0.08585525 -0.065536804
000040 20 17 69 3d f3 e2 4a bc 01 a3 a7 3c 01 73 3a 3d
       0.05690682 -0.0123832105 0.020463469 0.045519833
000050 51 8c f6 bc 85 c3 c3 3c eb 76 73 bd dc 8a 42 3d
       -0.030096205 0.023896942 -0.05943958 0.047495708
000060 cd b6 32 3d d8 f4 30 bd aa 7f 89 3d cb 35 26 bd
       0.043631364 -0.04320225 0.06713803 -0.040578645
000070 6d 64 9e 3c 35 ee 73 bd 05 29 31 bd bb fe 3f bd
       0.019334996 -0.059553344 -0.04325201 -0.04687379
000080 1e 5f 43 bd fd be 57 3a 53 76 58 bd ec 16 2b 3c
       -0.047698133 0.00082300586 -0.052847218 0.010442477
000090 9a 53 a6 3d c6 a2 01 3c 0c ed 03 bd 40 29 57 bd
       0.081214145 0.007912343 -0.032208487 -0.052529573
0000a0 e8 9a 2c bc 00 24 bb 3c b2 3b 9b bc b4 3c 83 bd
       -0.010534979 0.022844315 -0.018949363 -0.064080626
0000b0 8b 46 e7 3b 99 28 39 3d 95 57 07 bc c0 ad 38 bd
       0.00705797 0.045204733 -0.008260627 -0.045087576
0000c0 d0 73 b6 bd a5 25 74 bd ee ff 8c bd 94 6a cd bc
       -0.08908808 -0.059606213 -0.06884752 -0.025075234
0000d0 6e 4c 86 bb 8e be a3 bd ad 86 b0 3d 0c e5 89 bc
       -0.0040984666 -0.0799533 0.08619437 -0.01683285
0000e0 b6 8f 80 bd 21 79 45 3d 16 6d a3 3d b5 d6 9c 3d
       -0.06277411 0.04821122 0.07979791 0.076581396
0000f0 5f 5e 63 bd 79 79 4f 3d 9b e2 ab bc a9 24 7a bd
       -0.05550992 0.050652955 -0.020982077 -0.061070118
000100 78 8f 5c 3d c6 90 8c 3d ca 8d 95 3d 5b f3 b2 bc
       0.05384776 0.06863551 0.07302435 -0.021844557
000110 dd 19 83 bd 2a 3a 8a 3d 32 4b aa bd 06 33 88 bd
       -0.064014174 0.06749375 -0.083151236 -0.06650357
000120 54 e3 0b bb d3 9f 34 bc 61 c3 b0 3d dc 98 ac 3c
       -0.0021345215 -0.011024433 0.086310156 0.021068983
000130 58 c4 24 b8 7f 03 5a 3c 46 6e 04 bd a2 7c a5 bd
       -3.9283506e-05 0.013306498 -0.032331727 -0.080804124
000140 2d cb a5 bd fe d1 db 3b 67 91 f8 bb 13 05 4f bd
       -0.08095393 0.0067083826 -0.0075856927 -0.05054195
000150 bc 28 ce 3a cb 2e 38 3c 8e 77 9f 3d 93 6e 22 bd
       0.0015728693 0.011241625 0.07786475 -0.039656233
000160 fb 87 4d bd b8 39 42 3c 8f a2 1c bd bc 97 72 3d
       -0.05017851 0.011854582 -0.038240965 0.059226736
000170 40 0c e9 3c cb b0 a1 3d e1 e5 1b 3d c1 94 51 3d
       0.028448224 0.07895049 0.038061026 0.051167253
000180 e9 0f bf 3b e9 7d a9 3d 81 a4 6a 3d 2b 21 9c 3c
       0.005830754 0.082759686 0.05728579 0.019058784
000190 2a 11 aa bd d0 f1 e4 bc eb 5c 31 bd 81 54 b8 bc
       -0.08304055 -0.027947336 -0.043301504 -0.022501232
0001a0 a3 59 2d bd 39 38 58 3c 58 81 81 3d c0 7e 95 3d
       -0.042321812 0.013196998 0.063234985 0.07299566
0001b0 4b 42 2f bc 3d a1 fb 39 3a 3c 3f bd 14 2e 4c bd
       -0.010696958 0.00047994583 -0.046688296 -0.04984863
0001c0 2f fa 93 bd d8 9e a3 bd ad 57 00 3d 3f 7a 96 3d
       -0.07225453 -0.079892814 0.031333614 0.07347535
0001d0 eb 19 84 3d 9e 40 9e bd eb 22 b2 bd 33 53 a6 bd
       0.06450256 -0.077271685 -0.08698066 -0.08121338
0001e0 a2 92 84 3d 21 4a 87 3c 29 72 0f 3d 84 b6 9d bd
       0.064732805 0.01651484 0.03502098 -0.07700828
0001f0 fa 8b 9a bc a0 a0 9b 3d 26 47 01 ba b6 8f 77 3c
       -0.018865574 0.07598996 -0.00049315614 0.015109947
000200 0a 5a 8f 3d 47 4a 7c bc 30 1f 1a 3d 7e 68 14 be
       0.069995955 -0.0153985685 0.0376274 -0.14492986
000210 06 ce 01 be 04 35 eb bb aa 09 2b bd 02 75 9a bd
       -0.12676248 -0.007177951 -0.041757263 -0.07541849
000220 e1 7c 78 bd 92 1a 08 be 02 28 91 3c e8 83 58 bb
       -0.06066597 -0.13291386 0.017719273 -0.0033037607
000230 f1 87 b6 3b 4f 5f ab 3d 42 a2 44 3d 24 45 e3 bd
       0.0055704047 0.08367788 0.048006304 -0.11097172
000240 04 2e b9 3b 68 81 1d be ed c5 2c 3d b1 9e db bc
       0.0056512374 -0.15381396 0.042180944 -0.026809068
000250 f6 6c ef 3d d7 4b d6 bc 05 fb b4 3d d1 59 29 be
       0.116907045 -0.02615921 0.08836941 -0.16538168
000260 05 e5 cf 3d a9 2f 3b 3e 36 86 27 3e 4a f3 11 3c
       0.10151104 0.182799 0.16359791 0.008908102
000270 31 53 94 bc d5 fd 17 be 4f 03 bd bd 15 6a 14 be
       -0.018106075 -0.14842923 -0.09229147 -0.14493592
000280 a1 ba cf bd a4 c5 46 3c 8f 72 9e bd 1f 79 c0 bd
       -0.101430185 0.012132082 -0.07736694 -0.09398102
000290 d0 59 02 bd 21 e8 03 3e e4 81 60 be 89 54 69 3d
       -0.031823933 0.12881519 -0.2192455 0.056965385
0002a0 d3 e1 86 bd d0 27 c3 bd a1 0d 9b bb e7 bd 5b bc
       -0.06586041 -0.09529078 -0.0047318493 -0.0134119755
0002b0 78 ae f4 bd fa d0 a4 bc c1 22 a7 bd 92 72 90 bc
       -0.1194734 -0.020119179 -0.08160926 -0.017632756
0002c0 bf 9e a4 bd c2 b8 f1 3c 41 d6 9e 3d 56 46 7e bd
       -0.08038091 0.029507045 0.077557094 -0.062078796
0002d0 15 ce b9 3d 01 d5 2e 3c 8a 24 8d 3d 3b 02 ec 3c
       0.0907251 0.010670901 0.06891735 0.028809657
0002e0 af e0 c7 bd df 17 01 3e 57 a9 bb bd df fe 2f 3d
       -0.09759652 0.12606762 -0.091631584 0.042967673
0002f0 1f 3e e1 3d 09 2e 2f 3d c3 56 9b 3d 8b b0 81 bd
       0.10998177 0.042768512 0.07584908 -0.06332501
000300 1a b6 b7 be 19 f7 51 bd df bb 80 be 96 c0 e3 bd
       -0.3588112 -0.05126104 -0.25143334 -0.11120717
000310 f8 b3 de bc 43 0b 0f 3d 85 d7 a0 3d 21 a1 e1 bd
       -0.027185425 0.03492285 0.07853607 -0.11017061
000320 53 5f 05 3d f2 f2 83 3d 1c 48 2c 3d f5 ae 0a be
       0.03256161 0.064428225 0.042060956 -0.13543303
000330 fa 13 bd 3d f6 96 05 bd 87 e2 1a be 8f 4d 4b bd
       0.09232326 -0.03261467 -0.15125476 -0.049634513
000340 d0 11 e9 3d 6b 83 7e 3b b6 13 34 be f9 d0 9f 3c
       0.113803506 0.0038835655 -0.17585644 0.019508826
000350 77 76 96 3d 3a 5b 9d 3d 39 61 9c bd be a5 8c bd
       0.07346814 0.07683416 -0.07635731 -0.0686755
000360 d1 1c 4c 3a bc 48 6a bd 37 43 24 be 92 a5 2c 3c
       0.00077862764 -0.05719827 -0.16041265 0.010537522
000370 3f ef c9 bd 1a 83 d3 3b 7c 67 26 3b 98 eb 19 bd
       -0.09860086 0.0064548375 0.0025391271 -0.037578195
000380 a1 49 ba 3d 17 b0 d0 bd 08 e2 3c 3d 49 e9 ba bc
       0.09096075 -0.101898365 0.046113998 -0.022816317
000390 fa 34 1c be 46 36 89 be ff db 6d bd 58 e4 a5 3d
       -0.15254584 -0.2679922 -0.058071133 0.08100194
0003a0 96 8f cd 3d b0 45 e9 bc 75 36 f4 3d f2 f5 c2 bc
       0.100371525 -0.028475612 0.11924449 -0.023798916
0003b0 4a cb 9e 3d 73 3c aa bb 8c 9a 1a be be 4f 7e 3d
       0.07753618 -0.0051951944 -0.15098017 0.062087767
0003c0 3b 2e c5 3c 2e 2d 97 bd 1f a4 1c 3c f5 23 15 bd
       0.024069896 -0.07381664 0.009560614 -0.036411244
0003d0 a5 1d 77 3d 5f 11 b7 3d e4 d1 9b 3c e4 fa dc 3d
       0.060331006 0.0893886 0.019020982 0.10790041
0003e0 34 0c 90 bd 34 e6 9d 3d 69 41 10 38 0c bb 32 bd
       -0.070335776 0.077099234 3.4393193e-05 -0.043635413
0003f0 65 4a 22 3d 16 34 9c 3c fa 65 d6 3d 88 04 98 3d
       0.03962173 0.019067805 0.10468669 0.07422739

stack.1.0.bias f4 [64]
000000 af d8 8a bd 40 c9 1f 3d db d2 ad 3c d9 be ec bc
       -0.0677961 0.039010286 0.021218708 -0.028899597
000010 e7 ee 46 3d 5d 5e b1 bd 5e 7f 5c bc e3 90 1a 3e
       0.04856768 -0.086605765 -0.013458101 0.15094332
000020 10 45 57 3d d8 4d df bc ea c3 cd 3d 63 1c 87 3e
       0.052556098 -0.027258798 0.10047133 0.26388845
000030 83 8e 9e bd b1 53 71 3e ff 0a 71 be f1 29 95 3e
       -0.07742026 0.23567082 -0.23539351 0.2913356
000040 93 b4 36 be 37 2f 3b be d9 2b d0 39 e4 61 b8 3d
       -0.17842321 -0.1827973 0.0003970552 0.09003046
000050 5c 42 14 be b6 85 52 bd f8 0a 96 3d a1 01 58 3d
       -0.14478439 -0.051397048 0.07326311 0.05273593
000060 e3 19 17 3e fa 0a 32 bd ba 39 41 be ce 10 0d be
       0.14755969 -0.0434675 -0.18869677 -0.13775942
000070 22 af 11 3e 51 e0 db bd 5f bd 78 3d 0b a4 30 3e
       0.14226964 -0.10736144 0.060727473 0.17250077
000080 6f c0 50 bd 67 59 cb bd 7a 67 03 bd 8e 00 0f 3e
       -0.05096477 -0.099291615 -0.032081105 0.13965055
000090 12 92 b9 bd 64 3b fe 3b 32 8d 10 3e 39 8e 0c bd
       -0.09061064 0.0077585448 0.14116362 -0.03431532
0000a0 5a 24 03 be ff 5c 69 bc d5 f5 23 3e c8 f3 41 bc
       -0.12806836 -0.014243363 0.16011746 -0.011837907
0000b0 b1 7b 03 3e 63 e5 57 3e 3d b7 84 3d cf 59 23 bd
       0.12840153 0.21083598 0.064802624 -0.03988057
0000c0 e1 e0 ff 3d 57 a6 e9 3d 06 0d 85 bd b6 dc 40 3e
       0.12494064 0.1140868 -0.06496625 0.18834195
0000d0 d1 65 b5 3a cd 58 2b 3e bf 99 db 3d 04 29 10 3e
       0.0013839548 0.16733094 0.10722684 0.14078146
0000e0 af 94 b8 bc 04 7d fd 3d 90 c1 83 be 73 b5 c6 3d
       -0.022531835 0.123773605 -0.25733614 0.097025774
0000f0 8f e6 13 be d9 8d 66 3e 0a e1 15 bd 1a 66 a6 bd
       -0.1444342 0.22515048 -0.036591567 -0.08124943

stack.2.0.weight f4 [32, 64]
000000 a3 8b 0b 3d 7d a8 2d be 89 41 b5 bd c0 0f 93 3d
       0.034068715 -0.16958804 -0.088503905 0.071807384
000010 c5 cb b2 3d 60 42 2c be 92 32 39 3e f8 fa 5c bc
       0.08730272 -0.16822195 0.18085697 -0.01348757
000020 6a 6e bd bd e9 00 83 bd 50 05 e9 3c a4 10 ca 3d
       -0.092495754 -0.06396658 0.028444916 0.09866455
000030 4e 35 1c be b0 e0 98 3c 1b bc b5 bd 9d 72 07 bd
       -0.15254709 0.018661827 -0.08873769 -0.033068288
000040 f8 7d 40 3d d7 55 d9 be 4a 60 90 3d 28 30 a8 bd
       0.046995133 -0.42448303 0.07049616 -0.0821231
000050 9b d4 b2 bb 81 2d 65 bd 2b 8f c1 3c b6 fc 58 bd
       -0.0054574735 -0.0559516 0.023627838 -0.05297538
000060 23 6a 18 3e 9e e7 94 bd e1 c2 16 be 25 8e ac 3d
       0.14884238 -0.0727074 -0.14722778 0.084255494
000070 04 9c 27 be 1d e4 ee bd 70 8d 17 be a1 3d ab 3c
       -0.16368109 -0.11664603 -0.14800048 0.02090341
000080 71 65 b4 3d 70 da 1c 3d 68 13 12 3e a3 4b 88 bd
       0.08808411 0.038294256 0.14265215 -0.066550516
000090 f8 c9 91 3d 07 35 b0 bd 24 b3 f5 3d 39 a4 af 3d
       0.071186006 -0.08603864 0.11997059 0.08576245
0000a0 3c 86 09 be b1 33 57 3d 84 f9 f0 3d c4 9f 10 be
       -0.13430113 0.05253953 0.11766341 -0.14123446
0000b0 51 4e e6 bd a9 ab e3 3d ff 87 d3 bc d7 97 b7 3c
       -0.112454064 0.11116726 -0.025821684 0.02241127
0000c0 66 8e 11 3e 2a 6d 6b 3d c2 cd fe 3d 35 64 8f 3e
       0.14214477 0.057477154 0.12441589 0.2800614
0000d0 a6 65 22 3d 5d 5e 5a 3e 35 e5 af 3d 64 a6 18 3e
       0.03964772 0.21325059 0.0858864 0.14907223
0000e0 23 6f 34 bd 93 f2 6a 3e 0b 24 c6 3d 51 8a 38 3e
       -0.0440513 0.22944097 0.096748434 0.18021514
0000f0 6d 77 fb bd 80 dd 1e 3e e2 cb 83 ba 7d 46 94 bd
       -0.12278638 0.15514183 -0.0010055269 -0.07240007
000100 b9 e6 fa bd 9a c1 98 3d af f9 f3 3d d6 a9 fa 3d
       -0.12251038 0.074588016 0.11912858 0.12239425
000110 e3 56 c5 bd 9b 3b 3a be 46 b6 a1 3d fe 2b 25 3d
       -0.09635713 -0.181868 0.07896094 0.040325157
000120 6f b5 6c bd 03 81 74 3b dc 9e 0e be 47 19 ce bd
       -0.057790216 0.0037308342 -0.13927788 -0.10063415
000130 88 39 49 3d a8 33 30 be 12 9f ab 3c 98 48 fb 3d
       0.04912713 -0.17207205 0.020949874 0.122697055
000140 db 3c c4 3d 1d 29 1c 3d 88 4b 9c bd d6 0b 73 3d
       0.0958192 0.038125146 -0.07631594 0.05933746
000150 b1 77 03 bd 9c b1 1b bd 06 5c 01 bc 46 59 ae bd
       -0.03209657 -0.03801118 -0.007895475 -0.08513121
000160 aa c8 53 3d 31 26 f7 bd 3d 8d 87 3d bb ce ad 3d
       0.05170504 -0.12067831 0.06618736 0.08486696
000170 f1 bb 7b 3d 5c 18 90 bd 19 79 9f bd 7e 29 07 be
       0.06145853 -0.07035896 -0.077867694 -0.13199422
000180 06 7e cd bd c1 13 c2 bd 38 27 52 3d e0 56 1e 3e
       -0.10033803 -0.09476424 0.051306933 0.15462828
000190 d0 b6 28 bd 74 c3 23 be 90 a1 0d 3e 0c 7a 4d bd
       -0.04118997 -0.15992528 0.13831162 -0.05016522
0001a0 9b e5 a3 bd e7 6a 09 bc 32 e6 28 be 0d b1 81 bd
       -0.08002778 -0.008387304 -0.16494063 -0.06332598
0001b0 f1 1a a2 bc 51 15 6e 3d af b7 0c 3e 81 12 2d 3d
       -0.019788237 0.058125798 0.13741945 0.042253975
0001c0 3f a5 ed bd 91 7c 26 be fb 07 fb 3d 66 2f 4e 3d
       -0.11603784 -0.16258456 0.122573815 0.05033817
0001d0 78 1e 0a 3e 7f 35 1d be 88 cb e3 3d 84 58 e4 3d
       0.13488185 -0.15352438 0.11122805 0.111496955
0001e0 e2 11 89 bd 3d 78 37 3d b4 bc 12 bd a5 bc 66 bc
       -0.06692864 0.044792403 -0.035824493 -0.014083062
0001f0 f8 b0 d2 3d 83 01 be bb 2a 61 18 3d ce 0b a4 3c
       0.1028766 -0.00579852 0.037202038 0.02002516
000200 28 1d 23 3d de 78 94 3d da d8 c9 bd 08 1b c4 3d
       0.039822727 0.07249616 -0.09855814 0.09575468
000210 aa 77 c8 bd 35 76 b1 3d 4b 06 c7 bd 58 25 6b bd
       -0.09788449 0.08665124 -0.09717997 -0.05740866
000220 0d 27 d9 3d 15 34 f0 3d 37 03 39 bc 39 d4 db 3d
       0.106031515 0.11728684 -0.01129227 0.10733838
000230 6f 74 ce bd 62 86 2d 3d 1e fd ad bd 7e af 00 3d
       -0.10080802 0.042364486 -0.08495544 0.031417362
000240 7e db 71 3d 0c 3b 19 bd c4 a7 c0 bd 28 78 a0 bd
       0.059047215 -0.037409827 -0.09406999 -0.07835418
000250 70 e6 4f 3c ef bf 9e 3d f0 9c 48 3c 10 de 82 bc
       0.012689218 0.07751452 0.012244448 -0.015975028
000260 53 c5 42 bd da 18 84 bd 0c 12 82 3d 15 f7 de 3d
       -0.047551464 -0.064500526 0.063510984 0.10886971
000270 be b5 ae bc c1 24 c7 3d 6f e5 21 bd 7c 80 47 bd
       -0.021326896 0.09723807 -0.039525446 -0.048706517
000280 b9 dd 97 3c 42 27 2d bd a2 b4 c6 bc df e4 23 bd
       0.018538343 -0.042273767 -0.024256054 -0.04001319
000290 5d aa 63 3d a4 e4 37 3d df 8e 00 3d 4c 01 81 3d
       0.055582393 0.044895783 0.031386252 0.062990755
0002a0 6e b6 23 bc 2a 1f de bb 5f 33 7f bd b4 08 ec bd
       -0.009992225 -0.0067786174 -0.06230485 -0.115250975
0002b0 ac 46 01 be d2 be 6d 3d ac 2b 01 bd 26 1d fe bd
       -0.12624615 0.05804331 -0.03153579 -0.124079034
0002c0 a3 b8 9b bb 8c bf 0d 3d 8f 85 b5 3d d4 cd d5 3d
       -0.004752235 0.0346065 0.08863365 0.10439649
0002d0 bc 07 c7 bd a2 28 bb bd 17 51 dc bc 27 39 95 bd
       -0.09718272 -0.091386095 -0.026894135 -0.072862916
0002e0 50 43 5e bc 0c f3 5a bd c5 c4 95 bc 99 d9 37 3d
       -0.013565853 -0.053454444 -0.018282304 0.04488525
0002f0 50 17 5d 3d 8c d1 c6 bd 4d 17 40 3d 3d 68 e2 3d
       0.05397731 -0.09707937 0.04689722 0.11055038
000300 43 6e cf 3d d7 4c 88 3d 62 b9 1f 3e e9 98 3d ba
       0.10128453 0.06655281 0.15598062 -0.0007232563
000310 cd e6 f9 3d 3b 1c 50 be c5 b0 29 3c 29 8d d4 bc
       0.12202225 -0.20323269 0.010357087 -0.025946217
000320 1f 11 9d bb 50 79 28 3e e5 99 28 bd bf 9e 67 3e
       -0.0047933008 0.16452527 -0.04116239 0.2261915
000330 8a d9 ec 3d b5 0c ca 3d b9 df c3 38 5f 6e 43 3e
       0.1156493 0.09865705 9.339996e-05 0.19085072
000340 1e e9 e5 3d fe 51 49 be b3 e2 8f bd dd 34 37 3c
       0.11226104 -0.19660184 -0.07025661 0.011182037
000350 cd 3c 50 bd de 81 86 3d fa 0f 15 be 9b 13 20 bc
       -0.050839234 0.06567739 -0.14556876 -0.009770299
000360 73 13 3c 3e b0 a6 d0 bc b0 5b 58 be c2 5b a1 3c
       0.18366794 -0.025470108 -0.21128726 0.019697074
000370 7f f3 0e 3e d2 ee cb bd 18 c9 95 3d 05 83 c0 3d
       0.13960074 -0.09957661 0.07313746 0.0939999
000380 23 bb aa bd 93 8a fb 3d 0c 46 28 3e 15 1b c9 3c
       -0.08336475 0.1228229 0.16432971 0.024549047
000390 59 9e 0e be 83 b6 64 bc 4e fd 93 bc 4a 10 60 3d
       -0.13927592 -0.01395953 -0.018065121 0.054703034
0003a0 27 6d 72 3d 74 4c 12 3e 1a bd 64 bd 10 c7 18 be
       0.059186127 0.14286977 -0.055844404 -0.14919686
0003b0 1f 7a 18 3e 25 65 48 3c 2a ce f9 3d 71 92 41 bd
       0.14890336 0.012231146 0.12197526 -0.047258798
0003c0 96 4d 2f 3e c1 12 c6 3d c2 a0 42 3e 72 60 17 3e
       0.1711944 0.09671546 0.19006637 0.14782885
0003d0 22 3f 0f 3e f6 95 62 3d e8 89 00 3e 2d 2e 3d 3e
       0.13988927 0.055318795 0.12552607 0.18474646
0003e0 97 61 76 bd 82 ca 0d 3c 50 56 1f 3c 75 d9 b2 bc
       -0.060151663 0.008654239 0.009725168 -0.021832207
0003f0 bb 42 58 be 41 4d 5b 3d ca 8e 38 be 3a 6b 1c be
       -0.21119206 0.053540472 -0.1802322 -0.15275279

stack.2.0.bias f4 [32]
000000 a1 01 21 3e d4 6f a8 bd ea 97 7d bd 33 b0 8c 3e
       0.15723278 -0.082244545 -0.061912455 0.2747818
000010 ae 90 32 3d f5 83 22 bd 23 b5 98 bd 90 31 1a 3e
       0.04359501 -0.039676625 -0.07456424 0.15057969
000020 9d 61 17 bd f4 31 5a be 64 56 b9 bc d2 aa a5 3e
       -0.036958326 -0.21308118 -0.022624202 0.32356888
000030 ff 3e b6 3d ce 34 3c 3e f2 7f fb bd 8b 5e e5 3c
       0.08898734 0.18379518 -0.12280263 0.027999183
000040 84 88 e0 bb 34 de 7f 3e a9 72 0c 3d 04 59 c3 3d
       -0.0068522114 0.24987108 0.034289036 0.09538463
000050 93 07 ea bc 17 99 45 3e 98 98 e9 bd 3f a6 cb bd
       -0.028568065 0.1929668 -0.11406058 -0.09943818
000060 03 86 50 3d 1f 0a 14 3d 64 3f 26 3c f5 ac 19 3d
       0.050909054 0.036142465 0.010146949 0.03751846
000070 97 3f 51 bd 6a c9 2f bd ff dd db 3d c2 03 3d bd
       -0.051086035 -0.042916693 0.10735702 -0.04614616

stack.3.0.weight f4 [10, 32]
000000 da 83 2f 3d 18 4b 3c bd 67 77 97 bd 22 37 1e 3b
       0.042850353 -0.045970052 -0.07395821 0.0024141748
000010 19 5c 79 bd b4 91 82 bd cb 0b 1c 3e e0 74 21 bd
       -0.060878847 -0.06375447 0.15238874 -0.0394181
000020 17 cc 08 3e a8 f0 2d 3d 69 4e e4 bc eb f2 5c bd
       0.13359104 0.042465836 -0.02786942 -0.053942602
000030 e0 be 1e be fc 44 b2 bd 9f 7d b3 bd 25 30 fd bd
       -0.155025 -0.08704564 -0.08764195 -0.123626985
000040 a2 12 30 3e 1e f2 17 3e fb e9 8a 3d 8a ed 41 be
       0.17194608 0.14838454 0.067829095 -0.1893827
000050 c3 42 47 3c 15 c9 a1 3d 27 23 55 bc 75 67 97 3d
       0.012161913 0.078996815 -0.013008869 0.0739278
000060 c3 3c b2 bd 7c f6 12 3e 17 7c 82 bb b2 11 b4 bd
       -0.08702996 0.14351839 -0.003982078 -0.087924376
000070 ac a1 aa 3d 5f ef d8 bd 27 12 d4 bd f4 95 6b 3d
       0.08331618 -0.105925314 -0.10355025 0.057516053
000080 f6 7d 8b 3c 36 eb 59 3e 4f 8d 7c bd f8 de 81 bd
       0.017027836 0.21281132 -0.0616582 -0.06341356
000090 b0 ce 3a 3e 9b 20 62 3e 9d d0 25 be 08 dc 12 3e
       0.18242908 0.2208275 -0.16192861 0.14341748
0000a0 de 15 78 3a 12 5b 66 3e a3 66 7f be 8a 2b f8 bc
       0.00094637077 0.22495678 -0.24941497 -0.030294199
0000b0 92 49 a9 be a2 43 1c be 51 2c 38 be 1c 27 27 3e
       -0.33063942 -0.15260175 -0.17985655 0.16323513
0000c0 f4 60 1d 3d 8a 6d 49 be 92 e5 25 be e1 c6 80 be
       0.03842254 -0.19670692 -0.16200855 -0.25151733
0000d0 9c c2 85 be 1f 77 12 3e de 2f 36 be ac 7f 30 3e
       -0.26125038 0.14303254 -0.17791697 0.17236203
0000e0 25 f3 43 3e ef eb 5b be d1 06 46 3e eb 95 f8 bd
       0.19135721 -0.2147672 0.19338538 -0.121379696
0000f0 ad 5d 0e 3e fa fc 88 3d c0 cc 24 be 96 61 7e 3d
       0.13902922 0.066888765 -0.16093731 0.062104784
000100 06 0b 56 3e 70 8b f9 bd 5f a7 16 3e 6e 3c ee 3d
       0.20902643 -0.12184799 0.14712285 0.1163262
000110 42 34 b8 be 1e ce 11 be 6d 69 c3 bc b3 4b 4b 3e
       -0.3597737 -0.14238784 -0.023853982 0.19853096
000120 af 02 05 be 65 60 54 3e 04 73 1c be 73 57 38 3e
       -0.12989305 0.20739897 -0.1527825 0.18002109
000130 95 a8 dd 3d 89 06 91 bd 4f 2b 63 bd d0 93 76 3d
       0.1082317 -0.070813246 -0.055461224 0.06019956
000140 3c 68 20 bd fb 34 c2 3d e1 5f b8 3e 29 2b 93 bd
       -0.039161906 0.094827615 0.3601065 -0.071859665
000150 15 4f 5a be 06 e0 8b be 18 27 a4 bd 57 8c 2a 3d
       -0.2131923 -0.27319354 -0.08015269 0.041637745
000160 c3 27 e9 bc 23 54 41 bd 27 84 f3 bd 27 c4 da bd
       -0.028461343 -0.04719938 -0.118904404 -0.10681944
000170 47 7b 45 3e 93 7e e1 3d 58 74 81 bd 6a 92 83 3c
       0.19285308 0.1101047 -0.06321019 0.016061027
000180 9e 40 f3 bd 63 5f 73 3e 59 1c 0b bc 4a 25 05 3e
       -0.11877559 0.23766856 -0.008490645 0.13002506
000190 f1 8f 12 3d 86 ef 5d 3e a4 5f af bb 35 85 26 3e
       0.035781804 0.21673402 -0.0053519774 0.16261752
0001a0 ac da 1a be 8f 0a 44 be 43 99 1d 3e 01 6b 38 3d
       -0.15122479 -0.19144653 0.15390496 0.045023922
0001b0 a6 9e 93 be f3 9b 25 3e 9f e3 54 be f8 b5 ab bd
       -0.28831977 0.16172771 -0.20789956 -0.08384317
0001c0 f0 7e c5 bc d9 bd 39 3e 39 93 26 be 8a 93 5c be
       -0.02410838 0.18138827 -0.16267098 -0.21540657
0001d0 ea 8d 0d be 66 0c 06 3d c0 5d 1c 3b 48 69 ec 3d
       -0.13823667 0.032726668 0.002385959 0.11543518
0001e0 d5 80 8e 3d c3 9f a6 be 3f c6 11 bd df 62 21 3e
       0.069581665 -0.32543764 -0.035589453 0.15760373
0001f0 da 79 5f be bc 9f 0b be b5 10 88 be f1 f3 80 bc
       -0.21823826 -0.13635153 -0.26575246 -0.01574132
000200 79 9d 13 3e 60 41 79 3e 80 af e8 3d 4e f1 99 3d
       0.1441554 0.24341345 0.11361599 0.07516728
000210 47 36 4e be 54 77 3b 3e cb bb 69 3e ee 54 80 be
       -0.20137893 0.18307239 0.22825544 -0.25064796
000220 50 0b 66 be 40 5b b5 3c 30 58 6a bd 32 e6 20 3e
       -0.22465253 0.022138238 -0.05721301 0.15712813
000230 fb 6d 07 bd d8 cf a0 bd e8 8b 76 be 2e 25 48 3e
       -0.03306387 -0.07852143 -0.24076807 0.19545433
000240 dd 29 51 bd 7e dd 8b 3d 18 68 c4 bd 1a 04 eb bd
       -0.051065315 0.06829356 -0.09590167 -0.11475392
000250 19 93 26 be fa 56 3c be eb 4a ab 3d c0 7b 76 bd
       -0.16267051 -0.18392554 0.08363899 -0.06017661
000260 23 87 b0 3d e9 3e 88 be 39 3b 87 bd af 55 3b be
       0.08619525 -0.26610497 -0.06603093 -0.18294404
000270 c8 18 3c bd b0 07 25 be f2 48 d3 bd d1 5e 27 bd
       -0.04592207 -0.16116214 -0.103166476 -0.04086191
000280 47 31 a0 3e 20 86 64 bd 68 aa 20 3e af 26 0a bd
       0.31287596 -0.055791974 0.15690005 -0.033728298
000290 f4 5d 8d 3c 3f ba 10 3d 94 5c 76 be 60 89 87 3b
       0.017256714 0.035333868 -0.24058753 0.0041362494
0002a0 f6 de 60 3b 0e 5b b3 be a8 be 27 be 83 ab 06 3e
       0.0034312583 -0.35030407 -0.16381323 0.13151364
0002b0 96 0a 9c 3e fc 96 26 3e f3 f2 c8 3d 49 d4 91 3d
       0.30476826 0.16268533 0.09811964 0.07120568
0002c0 da c0 ae be ec 93 4e bd bb c2 b1 bd e4 21 66 be
       -0.3413151 -0.050434038 -0.0867972 -0.22473866
0002d0 67 88 88 be 00 1a 4d 3e 71 6d 6b be 3e 1d c1 bd
       -0.26666567 0.2002945 -0.22990967 -0.09429406
0002e0 af ce 93 be 42 2d 35 be a8 35 6e 3e 1e 73 d5 3c
       -0.28868625 -0.17693046 0.23262656 0.026055869
0002f0 01 cf c7 bd 45 51 0d be af b3 49 3e ff 62 64 bd
       -0.0975628 -0.13800533 0.1969745 -0.055758473
000300 d5 88 ea 3d cd bd a1 bd f2 a9 85 bd 80 11 20 3e
       0.1145188 -0.0789753 -0.06526555 0.15631676
000310 51 80 8a 3e 3b 23 84 be 6e 6f 0c be f7 f5 3d bb
       0.27051023 -0.2580813 -0.13714382 -0.0028985718
000320 b1 2f 4c 3e d4 13 e7 3c 17 20 2b be 70 ed 3e 3e
       0.19940068 0.028207697 -0.1671146 0.18645263
000330 9e 1c 54 3e b3 62 57 3e 1c c1 55 be 08 f8 16 3e
       0.20714042 0.21033745 -0.20874447 0.14743054
000340 2d f1 d4 3d 3c fd 01 3e fc 76 8b be 31 84 b5 3d
       0.10397563 0.12694257 -0.27239215 0.08863104
000350 89 21 b4 3d 3e c0 36 3e e3 ab bf bc c5 a2 28 be
       0.08795459 0.17846772 -0.023397392 -0.16468342
000360 e6 64 73 3d 80 de 43 3e 5a b7 79 be 44 0f 0c be
       0.059422396 0.19127846 -0.2438635 -0.13677698
000370 bd c2 6e be 2c cc e2 3b 86 cc 0a bd 44 46 ba bc
       -0.23316474 0.006921312 -0.033886455 -0.022738583
000380 80 05 82 be a9 53 25 be bf fa 86 bd 3c ac 6c be
       -0.2539482 -0.16145195 -0.06590795 -0.23112577
000390 73 58 28 3e f8 46 cf be ae d6 43 be a9 ff 00 3e
       0.1643999 -0.40483832 -0.19124863 0.12597527
0003a0 03 75 21 be 92 a8 7c be 1c 2a c2 bd 22 84 f6 3d
       -0.15767293 -0.2467368 -0.09480688 0.12036921
0003b0 85 eb 11 3c 9d 7e 8c be fb 35 1d 3e ca 33 94 be
       0.00890625 -0.27440348 0.15352623 -0.28945762
0003c0 0a c7 86 3e 42 06 21 be e5 05 5c be c2 50 8f 3d
       0.2632373 -0.15725043 -0.21486624 0.06997825
0003d0 af fe bf bd 59 1e ff 3d 70 af 36 be 2c bc a9 3c
       -0.09374749 0.1245696 -0.17840362 0.02071961
0003e0 b0 21 51 3e a3 26 ae 3d ad 14 3e 3d 73 1f 89 be
       0.20423007 0.08503463 0.046406437 -0.26781806
0003f0 78 b2 5c 3e 6e 28 1d be 2d 6a 3c 3e 7f d8 d1 3d
       0.21552455 -0.15347454 0.18399878 0.102463715

stack.3.0.bias f4 [10]
000000 ab 11 22 be 05 c1 eb bd f7 ee a2 bd 43 f8 48 3e
       -0.15827052 -0.11511425 -0.07955735 0.19625954
000010 17 48 2d 3d 93 3c 3d 3e fa 64 2c 3d a4 49 89 3e
       0.04230508 0.18480138 0.042088486 0.26813996
000020 f9 77 fb bd 3f fa fa bd
       -0.12278742 -0.12254762
