src/fminst/models/teacher_5cl_3.pt (torch, 447183 bytes, 8 tensors)

stack.0.0.weight f4 [128, 784]
000000 da f0 bf be 46 d3 62 bf 2f 2d 4e 3e c2 03 1d 3e
       -0.37488443 -0.8860363 0.20134424 0.15333465
000010 ba e7 df 3d 93 ee e5 bd 66 de 42 bf a2 82 7e bf
       0.1093287 -0.11227145 -0.76120603 -0.9941808
000020 f2 c3 3a bf 01 45 bf 3b f8 17 3a 3d 43 54 33 be
       -0.7295524 0.0058370833 0.045433015 -0.17512612
000030 fd f7 10 bf 76 90 e5 be 1b d8 ee be f0 43 14 bf
       -0.566284 -0.44836777 -0.4664925 -0.57916164
000040 ea d4 22 bf 46 8a e2 3d 7f 3b 81 bd 7f ee ee be
       -0.6360613 0.1106153 -0.06310176 -0.46666333
000050 10 ad 55 bf 98 28 44 bf 7a b3 dd be 1b ee 04 3a
       -0.834672 -0.7662444 -0.43300992 0.0005070881
000060 14 11 1f be c9 66 36 be 59 35 99 bf 00 df de be
       -0.15533859 -0.17812647 -1.1969405 -0.4352951
000070 e4 f4 8c bf 7b 17 f4 3e 1f 30 1b bc fc e4 8a 3e
       -1.1012235 0.47674164 -0.009471922 0.27127826
000080 2a 3f 28 3a c8 d7 1c be af 6f a1 be 80 78 67 3d
       0.00064181036 -0.15316689 -0.3153052 0.056511402
000090 32 ea a1 3e c3 b7 5e 3e 75 5a fd 3d 48 dd b0 bc
       0.3162399 0.21749787 0.12370769 -0.02158989
0000a0 52 43 59 3b f3 1a 35 be 6d 60 f6 bd 59 b2 b7 bb
       0.0033151698 -0.17686062 -0.120301105 -0.0056059775
0000b0 65 24 c4 3d 9d 0c 34 3e 3d d4 94 3e 7a 47 6a 3e
       0.09577254 0.17582937 0.29068175 0.22878829
0000c0 c8 62 a9 bb e3 dd 01 bf 5d 25 04 bf b1 ad a0 be
       -0.0051692463 -0.507292 -0.5161951 -0.31382516
0000d0 71 77 4f be 0c 6c 3b be 48 98 4a bf 4c 4d 19 bf
       -0.20260407 -0.18302935 -0.7913861 -0.5988357
0000e0 f1 75 58 bf 08 c8 86 3f 3d 40 a4 3e d1 38 05 bf
       -0.84554964 1.0529795 0.3208026 -0.5203982
0000f0 c7 a1 78 bd 27 4c a5 be ed 80 12 3f 3f dc c2 3e
       -0.060701158 -0.32284662 0.57227975 0.3805866
000100 48 c2 ac 3c 67 9e 95 be df 2d 08 be 57 64 56 be
       0.021088734 -0.29222414 -0.13298748 -0.20936714
000110 f4 53 24 be 8d 18 a5 be 65 90 a4 be bb 2e 65 be
       -0.1604765 -0.32245293 -0.32141414 -0.22381108
000120 75 c2 01 be 39 7d 50 be ee 12 62 bd 4e 45 90 3d
       -0.12671836 -0.20360269 -0.055193834 0.07044469
000130 94 02 e8 3e 63 c0 64 3e 04 b5 5c be f6 4c d0 be
       0.45314467 0.22339015 -0.21553427 -0.40683717
000140 94 d8 81 bf e3 eb ed 3b 80 80 12 3e f6 92 30 bf
       -1.0144219 0.007260786 0.14306831 -0.68974245
000150 8b 3d 9a bd 53 e8 13 3f e3 1d 15 be 62 34 4e bf
       -0.0753127 0.57776374 -0.14562182 -0.8054868
000160 c7 fb e9 bc d8 1e 11 3f 05 43 3a 3f 1b c2 e0 3d
       -0.02856244 0.5668769 0.72758514 0.10974523
000170 59 3e 5d bd 8a ba 3f bd 90 84 bb bd 5c 1f da bb
       -0.054014537 -0.046808757 -0.09156144 -0.0066565704
000180 6b f7 df bd 7c 2b 4e be c1 81 57 be 6c 42 3c be
       -0.10935863 -0.20133775 -0.21045591 -0.18384713
000190 ca 97 d5 bd 20 b0 18 bd 8a ae 00 3d 09 5c 30 bd
       -0.10429342 -0.03727734 0.031416453 -0.04305652
0001a0 f7 9a 4b 3e fc 0d ec 3e 4d ae 0e 3f e1 54 4a bd
       0.19883333 0.4610442 0.5573471 -0.049397353
0001b0 e3 26 bf bf 0d d3 ce be c2 e0 5f 3e 31 71 4e bf
       -1.4933742 -0.40395394 0.21863082 -0.80641466
0001c0 1b e2 7a 3e 00 8c 6f 3e f2 92 33 bf 65 db f0 be
       0.24500315 0.2339325 -0.70146096 -0.47042385
0001d0 0e ca 40 3e a1 7b 39 3f d6 c8 bc 3e 2d aa 13 3e
       0.18827078 0.7245427 0.36871976 0.14420386
0001e0 e2 cd 6b bd 13 d6 42 be 9d e3 18 be f1 04 a1 3b
       -0.057569392 -0.19026975 -0.14930578 0.004913919
0001f0 c3 ee ae bd 0c c0 42 be 4f 61 f0 bd 3c 31 44 be
       -0.08541634 -0.19018573 -0.1173731 -0.19159406
000200 8b ab f3 bd 73 91 9b bd 46 26 21 bd 28 88 87 bd
       -0.118979536 -0.075961016 -0.03934314 -0.066177666
000210 e7 e5 45 3e 32 fa 93 3e 51 13 fc 3e c8 2e b6 3e
       0.19325982 0.2890182 0.49233487 0.35582566
000220 00 50 a6 bf 13 b8 75 bf aa 87 b2 3c 93 62 bd 3e
       -1.2993164 -0.95984 0.021793205 0.3698927
000230 82 e3 d1 3e 03 97 8d 3d 36 dd 87 bf b4 85 bd 3d
       0.40993887 0.06913569 -1.0614383 0.092540175
000240 df c2 72 3e d9 45 90 3e 0f 85 b3 3d df 63 9b bd
       0.2370715 0.2817829 0.08765613 -0.07587408
000250 6c 93 f5 bd 7d 8d 68 3d 16 1d 90 3d 1d 23 07 3e
       -0.11991009 0.05677556 0.07036798 0.13196988
000260 54 3f 57 3c e2 3d 89 3d 85 13 ae 3d e5 cb 97 bd
       0.013137657 0.06701256 0.08499817 -0.07411937
000270 c2 ae 9d bd 0c 28 ba 3d 09 90 86 3d 00 ef 8f be
       -0.07699348 0.090896696 0.06570441 -0.2811203
000280 89 b3 82 3d e2 9c bf bc 70 a7 c8 3d 27 b2 2f 3f
       0.063819 -0.023390237 0.09797561 0.68631214
000290 6b ca 66 bf b8 d8 bd bf d3 3b 31 3c 1e 4b d7 3e
       -0.90152615 -1.4831762 0.010817486 0.42049497
0002a0 ee cb c0 bd 53 f3 0a be 2e 75 03 bf da 17 0a 3e
       -0.094138965 -0.13569383 -0.51350677 0.13485661
0002b0 88 5b 53 3e 3c ce f9 3d 26 1c 90 bd 9f e3 81 3d
       0.20640385 0.12197539 -0.07036619 0.063422434
0002c0 67 8f d1 bd c2 4c 81 bd 0b 84 23 3d a0 40 aa bd
       -0.1023243 -0.063134685 0.039920848 -0.083131075
0002d0 bc 08 da bc 3a 85 2a 3d 4b 35 02 3e 24 1d f9 bb
       -0.026615493 0.04163096 0.12715642 -0.007602351
0002e0 64 b6 db bd 69 f9 66 3e 85 a8 4d 3d 8a 5b 12 be
       -0.107281476 0.2255608 0.05020954 -0.14292732
0002f0 3f 3d 7d 3d 3a cf e1 bd 32 58 ce bd ed 70 2c 3f
       0.061825987 -0.110258535 -0.10075416 0.6735981
000300 8d d7 ea 3b 6e d8 c8 bf 32 3f 62 bf 44 15 76 bf
       0.007166809 -1.5691049 -0.8837768 -0.961262
000310 ed 66 a8 bf e7 e9 fd bc 4f 3b 38 bd 4e e3 d7 3e
       -1.315641 -0.030995322 -0.044978436 0.42165607
000320 94 24 b5 3e 8b 52 72 3d 57 99 66 bd ee 84 16 bd
       0.3537947 0.05916075 -0.05629858 -0.036747865
000330 2e 95 51 be 6c 7d c7 bd 8b 7d ad bc d0 dd 6d 3d
       -0.20467064 -0.09740719 -0.021178028 0.058072865
000340 2c de 1b 3d 06 da 26 3c c8 61 9a 3d 97 7b 85 3d
       0.038053676 0.010183817 0.075381815 0.065177135
000350 72 95 9e 3d 46 b3 15 3e 8e ea 5f 3d d9 15 7c be
       0.07743348 0.14619169 0.05466705 -0.24617709
000360 91 01 69 bc f1 54 fc 3d e4 cb d3 bd 95 d0 f8 3e
       -0.014221565 0.12320889 -0.103416234 0.48596635
000370 15 ae 09 3f 7b ca a0 bf 97 ae d3 bf ba 4f 27 bf
       0.53781253 -1.2561792 -1.6537656 -0.6535603
000380 7f 5c 08 bf 15 92 66 bd 36 96 b5 bc cb dc bf 3e
       -0.5326614 -0.05629166 -0.022166353 0.3747314
000390 71 77 20 3e dc ab 50 be f8 31 98 be b8 dd bc bb
       0.15670563 -0.20378059 -0.29725623 -0.0057637356
0003a0 f7 02 04 3d c5 87 63 3e 9a be 17 3e 73 3a 1a 3e
       0.03222939 0.2221976 0.14818802 0.15061359
0003b0 3f 36 cf 3c d1 01 b6 3d bb 4d aa 3d eb 68 f1 bc
       0.025294421 0.08887065 0.08315607 -0.029468974
0003c0 a4 32 94 bd fa 12 7f 3d 52 3f 29 bc 88 f5 c6 bc
       -0.072362214 0.062273957 -0.010330038 -0.024287
0003d0 44 31 30 3c f4 c6 b5 bd 27 79 a4 bd 6c 75 92 3e
       0.010753933 -0.08875838 -0.080309205 0.2860521
0003e0 8e 04 4c 3f 95 f8 48 bf 57 96 8e bf 05 6a fe be
       0.7969445 -0.78504306 -1.113963 -0.4969026
0003f0 30 b6 da 3e 80 a2 18 3e 14 44 a8 3c ab 60 a8 3e
       0.42717123 0.14905739 0.020540275 0.32886252

stack.0.0.bias f4 [128]
000000 61 17 a6 be 0e 6c 5a be cc 4a cb bd eb 65 cb bd
       -0.32439712 -0.21330282 -0.09926376 -0.09931549
000010 02 37 10 bd 07 ed 4e bd 37 7f 55 3d 7e a7 c5 bd
       -0.03520871 -0.050519016 0.052123275 -0.09651087
000020 c0 9f 58 3f 53 37 db 3e 44 29 b3 bd 76 ad 9e 3c
       0.8461876 0.42815647 -0.08748105 0.019369822
000030 19 0a 29 3f f0 87 5c be c2 e5 67 3c b1 b6 12 bd
       0.6603103 -0.21536231 0.0141539 -0.03581876
000040 7b 9e c5 bb 03 dd 5f bd 48 30 04 bd 65 57 b1 bd
       -0.0060308552 -0.054654133 -0.032272607 -0.08659247
000050 35 bc 49 bd fb 76 1e bd 6b 8e 29 bc 1a 66 97 bd
       -0.049251754 -0.038687687 -0.0103488965 -0.07392521
000060 2e ce 35 3e 80 39 eb bd 0c 06 59 3f b3 52 ec bc
       0.17754433 -0.11485577 0.8477485 -0.028848028
000070 67 ac 94 bd e4 c9 0a 40 0c f7 99 bd 66 64 40 bd
       -0.07259446 2.1685724 -0.075178236 -0.046970747
000080 7d af be bd 02 c6 e2 bc 8b 1c ba bd 26 f2 1e 3f
       -0.093108155 -0.027682308 -0.090874754 0.6208824
000090 3c cf 8f 3e c1 10 66 bb 1f d5 de 3e 5c 48 30 bd
       0.28087795 -0.00351052 0.43521973 -0.043037757
0000a0 b7 46 36 bf f2 33 9c bd d8 1e 8f bd fc 08 cd 3d
       -0.7120165 -0.07627095 -0.06988305 0.10011479
0000b0 5c 86 15 3f ec ab 7a 3c c8 93 6e bd b7 37 ca bf
       0.5840814 0.015299778 -0.058246404 -1.5798253
0000c0 58 8f 4a bd c9 07 2d 3f c5 97 07 be 86 d1 8a bd
       -0.04945311 0.67590004 -0.13241489 -0.06778245
0000d0 f4 59 ab bd a5 7e 83 bd 81 64 03 bd 04 46 f3 bd
       -0.083667666 -0.0642064 -0.03207827 -0.11878589
0000e0 3c b7 a8 bd 77 07 bf bd 0e b9 e5 bd 7f ac aa bd
       -0.08238074 -0.09327596 -0.11216937 -0.08333682
0000f0 9a b7 57 bd 58 7c 53 bd 0b a1 15 3f f7 8d 60 3e
       -0.05266533 -0.051632255 0.5844886 0.21929155
000100 a2 59 99 bd 68 c3 8a bd d0 a0 8f 3c b4 a0 a6 bd
       -0.07487799 -0.06775552 0.017532736 -0.081361204
000110 63 fe 2d bd 5f 30 96 bd 86 63 7c bd 9a bb 56 bd
       -0.04247893 -0.07333445 -0.06161835 -0.052425005
000120 9c da fc 3d 5f 7a b4 bd ae 06 db bd 60 ee 9d bd
       0.12346384 -0.08812403 -0.106946334 -0.07711482
000130 c2 b8 1d 3e bf ab 84 bd ce df 73 bd f3 89 b3 3d
       0.15402511 -0.064780705 -0.05953961 0.08766546
000140 37 41 b9 bd 6f 70 02 bd 57 5b 37 be ca 0a 33 bd
       -0.09045642 -0.031845506 -0.17905937 -0.04371146
000150 c5 66 a4 be 0d 4b 03 bd 6c 9c c8 bb 9e 1f 96 bd
       -0.32109657 -0.032053996 -0.0061221626 -0.07330249
000160 56 3c 81 bd d5 65 80 bd 1b 40 83 bc 72 de a8 3e
       -0.06310336 -0.06269423 -0.016021779 0.32982212
000170 8b 33 c8 ba 82 ea 66 bd 19 14 01 bd a6 5c 7a 3f
       -0.001527415 -0.056375988 -0.031513307 0.9779762
000180 f1 26 4a bd 77 4d e0 bd a3 03 36 bf a3 0f 82 bd
       -0.049353544 -0.10952275 -0.710993 -0.06350639
000190 10 31 92 3e 25 56 21 3d 6e 78 a8 be cd e4 ce 3d
       0.28553057 0.039388794 -0.3290438 0.10102234
0001a0 34 96 ad 3f a6 39 8b be f4 27 74 bd 4f b3 43 be
       1.3561463 -0.2719242 -0.059608415 -0.1911137
0001b0 42 21 87 bd c1 d6 38 3f b0 37 ba 3f 71 c6 09 bd
       -0.0659814 0.7220269 1.4548244 -0.033636514
0001c0 1e 87 18 bd 78 86 94 bc 7e 6c 66 be eb 2c b2 bd
       -0.037238233 -0.018130526 -0.22502324 -0.08699974
0001d0 ca 4d a1 bd 75 7e 93 be 22 3b 20 3f 58 8b b9 bc
       -0.07876165 -0.28807417 0.6259023 -0.022649452
0001e0 a8 82 3a be 37 6c 2e bd de 95 95 bd b5 18 e9 bd
       -0.18213904 -0.04258367 -0.073039755 -0.113816656
0001f0 3a 8c b4 bd 21 fa 4b 3f 5e 5f 25 3e c7 fa 9a 3e
       -0.088158086 0.7967854 0.16149661 0.30269453

stack.1.0.weight f4 [64, 128]
000000 95 e2 d2 bd 10 71 f3 3c 3e 01 36 3d ba 8c 0e 3e
       -0.10297123 0.029716998 0.04443478 0.1392087
000010 da 03 1e 3d cf 8a aa 3b e6 51 8f 3d 94 34 1b bd
       0.038577892 0.0052045356 0.06998043 -0.03789194
000020 35 1a 19 3d 9f 02 78 3e f6 f2 00 3e 6e 9f 66 3e
       0.03737851 0.2421975 0.12592682 0.22521755
000030 a9 d5 32 3f 23 ca 75 3e 06 55 92 ba b4 06 43 bc
       0.6985727 0.2400289 -0.0011164255 -0.011903454
000040 6d 33 44 3e c8 96 bd 3d 01 c7 69 3c a3 e9 02 3d
       0.19160242 0.09257275 0.014268638 0.031961095
000050 d4 e5 43 3c 9a 75 27 3d 5a c8 40 3d 6a dd fb 3b
       0.011956651 0.040883638 0.04706607 0.0076863067
000060 48 ee bc bd 7b 69 e1 bc 34 50 8e 3e 8b ad 8c 3d
       -0.09225136 -0.027516117 0.27795565 0.06869038
000070 ed 02 4c 3d ff 95 80 3e 7e 95 f5 bb 75 f2 86 3c
       0.049807478 0.25114438 -0.0074946275 0.016473034
000080 9c 91 86 3d 36 2e ee 3b ea ea cd 3c 33 82 fd 3d
       0.065707415 0.0072686924 0.02513643 0.12378349
000090 3c 11 ad bd 4a 56 3d 3e ff aa af 3d ef 7d 71 3d
       -0.08450553 0.18489948 0.08577537 0.05895799
0000a0 9d 5f 89 be b4 11 ad 3c 3d 95 28 bd d2 f8 e3 3d
       -0.2683076 0.021126606 -0.04115795 0.11131443
0000b0 f6 12 96 3e ea 5e 0b 3e 10 04 57 3d a9 5d 66 be
       0.2931134 0.13610426 0.05249411 -0.22496666
0000c0 8b 85 aa 3c 76 65 d9 be b3 83 b4 bd 50 f4 ae 3d
       0.020815631 -0.4246022 -0.08814182 0.08542693
0000d0 d6 4a 8f bc 51 81 11 bd 6a 3b bd bd 2f 70 01 bd
       -0.01749174 -0.035523716 -0.09239848 -0.031601127
0000e0 23 b3 85 bc 15 32 5a bc da 78 97 3d 1c 68 cb bb
       -0.01632077 -0.013317605 0.073960975 -0.006207479
0000f0 04 d3 e1 bb ce 48 0a be 75 46 41 3e 49 21 2e 3d
       -0.00689161 -0.13504335 0.18874533 0.042512212
000100 c7 4d b9 bc 8c a9 30 3c 17 b9 19 3e e2 52 42 bc
       -0.022620095 0.010782611 0.15012012 -0.011860581
000110 5c 81 ca bb 2c da 44 bd 7d 32 a0 3d 45 9b 55 3c
       -0.0061799716 -0.048059627 0.0782213 0.013037507
000120 cf 54 c8 3e 70 8d ff bc 38 84 01 3d e0 76 e7 bd
       0.39127204 -0.031195372 0.031620234 -0.113019705
000130 3c 4b 1a bc 94 9b d0 3d 82 d7 a7 3d c9 9f 88 3e
       -0.009417351 0.10185924 0.08195402 0.26684406
000140 73 5e 8f bd ab 9c db 3d ce 71 a5 be f0 02 83 bd
       -0.07000437 0.107232414 -0.3231339 -0.06397045
000150 9d 45 21 3f 9b 71 19 bd 0a 07 ce 3d 99 7b d9 bc
       0.62996846 -0.03746186 0.10059936 -0.026548194
000160 89 b1 81 3b 99 98 43 3b d4 ee 35 bc 65 ba d1 bd
       0.0039579314 0.0029845594 -0.011104304 -0.1024063
000170 ca 21 7b 3d bb ed ca bd 64 2c b1 bc ff 6b 4e 3e
       0.06131152 -0.09908625 -0.021627612 0.20158385
000180 16 93 d6 3d 84 44 b3 bc f2 cc ad 3d ec df 87 3c
       0.10477273 -0.021883257 0.08486356 0.016586266
000190 68 4c 88 be 33 52 02 3d d0 d1 48 3d af d4 ea 3d
       -0.26620793 0.031816673 0.049028218 0.114663474
0001a0 0c 2a 9d 3e 2f 5a 14 3d fe bf ae bd a6 b1 f4 3d
       0.30696142 0.03621882 -0.08532713 0.11947946
0001b0 c6 70 ff bb 22 2f 24 bf 9c 45 8d be f8 47 59 bc
       -0.007795426 -0.6413442 -0.2759217 -0.013261788
0001c0 93 c9 a4 3c 2e c5 31 3e e8 fe e9 3c 6f 89 13 3e
       0.02011565 0.17360374 0.028563932 0.14407896
0001d0 20 a9 04 36 46 4e 11 3c 2f 9b 5f bf 99 95 08 bc
       1.9767976e-06 0.0088687595 -0.87346166 -0.008336448
0001e0 c0 2b c0 bd 35 85 14 be 82 d2 4f bd a3 c5 0d 3d
       -0.09383345 -0.1450394 -0.050737865 0.03461231
0001f0 bf 7e 85 bd 5f b9 59 3d d0 3a 9d 3d d7 42 15 3e
       -0.065183155 0.0531553 0.07677233 0.14576279
000200 d5 37 79 bd 38 c5 08 be 41 a0 6b bc 52 a3 3b bd
       -0.06084426 -0.13356483 -0.014381469 -0.04581005
000210 4e 27 dc bd a8 5a 6d bc 0f 17 76 3d 06 f6 ee 3d
       -0.10749684 -0.014486946 0.060080584 0.11668019
000220 87 6b 03 be 1c 13 37 be d6 ff d3 bb a6 62 e9 bd
       -0.12833987 -0.17878383 -0.006469707 -0.11395769
000230 74 a7 8e bd 54 98 0c be 6f ec a3 bd b7 50 d7 bc
       -0.06965533 -0.13729984 -0.080040805 -0.026283605
000240 b3 44 a3 bd ea 33 2f bd ef 9e e3 bb f3 f3 7b bd
       -0.07972088 -0.04277412 -0.0069464366 -0.061511945
000250 00 ec 78 3d 7f 10 07 bd 7e a8 9c bd 9a 8b bb 3c
       0.060771942 -0.032974716 -0.07649325 0.022893716
000260 3a 95 01 bd e1 17 d4 3c f4 0a 6f bd ac f7 57 bd
       -0.031636454 0.025890293 -0.058360055 -0.052726433
000270 c1 30 48 bd 1f 5a c7 bd 5b 0d 97 bc 54 58 98 3c
       -0.04887462 -0.09733986 -0.018438986 0.018596806
000280 60 d5 5f bd 8f fd 13 be 37 c2 45 3d 52 1b 4f be
       -0.05464685 -0.14452194 0.04828092 -0.20225266
000290 0f a2 99 bd 31 27 16 3d f0 34 a7 3d 61 51 ba 3c
       -0.07501613 0.03665847 0.08164394 0.022743883
0002a0 74 17 e8 bd a6 b4 14 3d 6e 31 c0 bd e0 31 8a bb
       -0.11332598 0.036305092 -0.09384428 -0.0042173713
0002b0 00 36 3d be 27 07 fa bd fb 26 f1 bb d3 51 b6 be
       -0.1847763 -0.122083955 -0.007359383 -0.35609302
0002c0 ca be a8 bd 0d e3 97 bd 21 66 79 bc 9a 60 d5 bc
       -0.08239515 -0.074163534 -0.015222103 -0.02604704
0002d0 c0 c6 ab 3c f2 66 ff 3d 4c a1 b0 bd f7 51 1d be
       0.020968795 0.12470807 -0.08624515 -0.15363298
0002e0 15 e0 88 3c 02 92 8e 3d d4 82 b4 bd bd c2 dd 3a
       0.016708413 0.069614425 -0.08814016 0.0016918998
0002f0 0e 37 7a 3d 30 5a eb 3d 4b 0b 70 be bb c9 19 be
       0.06108766 0.11491811 -0.23441808 -0.1501836
000300 ee 7f e2 bc 1d c9 84 bc 56 b2 89 bd 47 e8 ba 3c
       -0.027648892 -0.01620918 -0.06723468 0.022815837
000310 bb 2b e1 bd 59 6f f9 bd a5 02 83 3c 3d f9 95 bc
       -0.10994669 -0.12179441 0.015992472 -0.018307323
000320 b9 81 84 bd 9a 63 9b 3d a0 00 05 be e7 9f fd 3d
       -0.06470055 0.07587357 -0.1298852 0.123840146
000330 44 9d 03 be 32 33 6a bd 21 16 e8 3d bc c1 16 bd
       -0.12852961 -0.05717773 0.11332346 -0.036805853
000340 07 55 82 3d be a6 1a bd 96 d3 4e bd c4 c6 dc 3d
       0.06363874 -0.037756674 -0.050494753 0.10780099
000350 b7 69 72 bd 3e 3c d4 3a 54 0c 25 bc ec fe 7b bd
       -0.05918285 0.001619227 -0.01007374 -0.06152241
000360 4c 38 a1 bc ba 43 08 be 3d 75 25 bd ca 22 61 bd
       -0.019680165 -0.13307086 -0.04039501 -0.054964818
000370 b6 1e f1 bd 42 0c 52 bc cf 46 ac bd 54 a5 3d be
       -0.11773436 -0.012820305 -0.08411943 -0.18520099
000380 8a 34 10 be 2c 51 81 bd 66 46 72 be 5d 2a 4c be
       -0.14082542 -0.063143104 -0.23659667 -0.19938035
000390 0c 69 ad bc bd 66 bf bc 1c 39 f0 bd f5 8f 69 bd
       -0.021168254 -0.02336442 -0.11729643 -0.057022054
0003a0 5e 8f d3 bd ff 20 ee bd 51 4c 85 3d 47 43 d4 3b
       -0.103300795 -0.11627387 0.06508697 0.0064777466
0003b0 2f 2d 2f bb 51 f5 0c be 95 33 75 be 21 ea 8f 3d
       -0.0026729812 -0.13765456 -0.23945458 0.070270784
0003c0 08 88 f7 bd 91 bc 10 be b2 ab be bd 35 c1 71 bc
       -0.12086493 -0.14134432 -0.09310092 -0.014755537
0003d0 90 6d 66 bd 8c cd 9b 3d 96 a7 a5 be 0f 2b 39 3d
       -0.05625683 0.07607564 -0.3235442 0.04520708
0003e0 45 f8 e3 bd 53 b0 b3 3d f4 d5 58 39 47 41 9e bd
       -0.11131338 0.087738656 0.00020679069 -0.077272944
0003f0 90 ea 76 3d 45 66 56 be 52 12 12 be 37 08 86 bd
       0.06028229 -0.2093745 -0.14264801 -0.065445356

stack.1.0.bias f4 [64]
000000 27 06 40 3f fc 84 58 be a5 c0 26 bf 8c 39 49 be
       0.7500939 -0.2114448 -0.651377 -0.19650859
000010 16 09 91 3e 60 62 01 bd 49 ff 98 bd 25 7d 92 be
       0.28327245 -0.03158796 -0.07470567 -0.28611103
000020 92 82 22 be 26 86 09 3f 01 a8 3d 3f f1 83 c0 bd
       -0.15870121 0.5372032 0.7408448 -0.09400166
000030 fb da af 3e 00 50 79 3b 20 cb df 3f d4 56 fc bb
       0.34346756 0.0038042068 1.7483864 -0.0077007804
000040 84 02 1a 3e 3c 60 aa 3f 59 d4 c8 bb 80 4a f0 bd
       0.15040022 1.3310618 -0.0061288294 -0.1173296
000050 94 a4 e9 bd 27 48 d0 be aa 02 fb bb a9 b9 8c 3f
       -0.11408344 -0.40680048 -0.0076602297 1.0994159
000060 d5 13 5b 3e d2 d7 ae be 32 c2 ef bd aa c7 23 3f
       0.21394284 -0.34149033 -0.11706962 0.6397654
000070 15 0d 29 bf f7 c4 df bd b3 3c 3f 3f c0 50 9e 3e
       -0.66035587 -0.1092624 0.74701995 0.30920982
000080 5e 03 64 3f f4 60 4e 3f b0 c1 f3 bd 18 35 84 be
       0.8906764 0.8061669 -0.11902177 -0.25821757
000090 92 ad f2 3f ff e5 f4 bc ff 3e 3e 3c 93 1b c3 bd
       1.895922 -0.029894827 0.011611699 -0.09526744
0000a0 b2 e4 ff 3e c3 c6 b5 be ef 6f d4 bd 21 c2 b1 3d
       0.49979168 -0.35503206 -0.10372912 0.08679605
0000b0 d2 5a 08 be 3e 12 af be d9 0e c6 bd 18 0e 86 be
       -0.13315895 -0.34193605 -0.09670801 -0.26182628
0000c0 6c 9b e9 be 0c a9 a0 3e 46 89 7d 3f 83 39 00 bf
       -0.4562639 0.31378973 0.9903759 -0.50087756
0000d0 31 02 54 be 5d c2 35 3e a0 98 5c 3f aa ee 9e bf
       -0.20703961 0.17749925 0.8617039 -1.2416584
0000e0 ca a0 75 3f be d3 da 3e 88 10 d8 bc 50 4e 7f bd
       0.9594847 0.4273967 -0.02637507 -0.062330544
0000f0 15 af d8 3e 6f 33 0d 3f d1 f4 04 bc d3 e7 7e be
       0.42321077 0.55156606 -0.008115009 -0.24893121

stack.2.0.weight f4 [32, 64]
000000 8d 60 f1 bd 14 5d 29 3e cc 36 68 be 15 87 a9 3d
       -0.11785994 0.16539413 -0.22677153 0.08277718
000010 08 ed 36 be 4c 1c b0 3d 80 0e 0a bd 22 39 ad 3d
       -0.17863858 0.08599147 -0.033705235 0.08458163
000020 5b bf 2c 3d c8 96 ae bc 02 cb 42 bd 40 ed 4c 3d
       0.04217468 -0.021312132 -0.047556885 0.050030947
000030 c3 93 6d 3d 55 dd e1 be 71 fe 5e 3c c5 00 b7 be
       0.058002245 -0.44114175 0.013610468 -0.35742775
000040 57 7a 52 be 94 82 bf bd 22 c5 0f 3d 28 87 40 be
       -0.20554481 -0.09351078 0.03510011 -0.18801558
000050 00 4c 80 39 c5 ab 86 3d ef 5c 95 be a2 c1 b8 3e
       0.00024470687 0.06575731 -0.29172465 0.3608523
000060 5f 26 0e bf 50 92 b1 bd 38 19 43 3c f7 ed 1f bf
       -0.555273 -0.08670485 0.011907868 -0.6247248
000070 1e 7e 96 3b ba ca 8a 3e 26 34 20 3e 46 8b 67 be
       0.004592671 0.27107793 0.15644893 -0.22611722
000080 00 8c 9a be e9 35 2c 3e 5b 7b 1f bf 52 73 60 be
       -0.30184937 0.1681744 -0.622976 -0.21918991
000090 6a 56 c9 3e 10 16 64 3d e7 b0 e4 bd 17 29 3d be
       0.3932374 0.055685103 -0.11166554 -0.18472706
0000a0 e2 88 61 3c 66 be a3 3e 15 56 06 bf 90 81 97 bd
       0.013765546 0.319812 -0.524751 -0.07397759
0000b0 26 a3 e0 3d 3a ff b2 bd bd e9 cb be fe e4 83 bc
       0.10968618 -0.08740087 -0.39826766 -0.016100403
0000c0 8a 81 78 3e ca 6d 91 bf 1b 7a 8e be 79 f1 62 bd
       0.24268165 -1.136163 -0.27827534 -0.055406068
0000d0 78 9d d9 bc 0a 2e 55 3d 64 f4 89 3b b7 13 2c 3f
       -0.026564345 0.05204586 0.004210042 0.6721758
0000e0 6d e0 90 be ca fc 6a be 88 81 34 be e3 80 5b bd
       -0.28296223 -0.22947994 -0.17627537 -0.053589713
0000f0 c1 06 1f be 90 c4 68 3e 67 8c 99 bd ba 26 85 be
       -0.1552992 0.22731233 -0.07497483 -0.2600611
000100 ea 14 0d 3e c8 8f 4e bd 01 fb b2 be b8 83 27 be
       0.1377751 -0.05043009 -0.34957126 -0.1635884
000110 03 9f ba be 8f 42 aa 3c cf 3c e2 3d 6e ab 9c 3e
       -0.3644944 0.02078369 0.110467546 0.3059954
000120 d7 5b 80 ba c2 cc 2c 3e 49 ea 28 bc f7 7d e6 3c
       -0.0009792995 0.16874984 -0.010309764 0.028136237
000130 3a 7d 98 3e 3d 82 2e be 21 e3 9e be 63 67 b9 3b
       0.2978304 -0.1704187 -0.3103266 0.0056580766
000140 6a ec 9e bd 80 36 b7 be ae c5 cf 3d b0 2c 04 be
       -0.07759936 -0.35783768 0.10145126 -0.12907672
000150 95 a0 9c 3d 25 89 9b 3d dd aa 6d 3d 99 3a 09 3f
       0.07647816 0.075945176 0.058024276 0.5360504
000160 91 b2 1d 3e 17 c7 e6 3d 74 ab 21 be 21 95 1b bf
       0.15400149 0.11268442 -0.1578806 -0.6077443
000170 e0 dd 16 bf fe 55 04 3b 64 4b 80 3e 9c a7 87 3d
       -0.58932304 0.0020192857 0.25057518 0.06623766
000180 7a 59 b5 bd 26 12 78 bd 60 db 35 3e 8d e2 b5 bd
       -0.08854957 -0.060564183 0.17759466 -0.08881102
000190 2f 32 c5 3d ef 7e 7d 3d a9 54 3f 3e 8f ae fb 3d
       0.096287124 0.06188863 0.18684639 0.12289154
0001a0 0c 1f 46 be 1e 44 a2 3e b6 49 54 be a8 3e f1 3d
       -0.19347781 0.31692594 -0.20731243 0.11779529
0001b0 bc 3a f4 3d d5 da bc bd 07 e4 68 be e4 c6 01 bd
       0.11925265 -0.092214264 -0.22743236 -0.031683818
0001c0 63 fd d9 3d 8b eb 82 3c 3f a7 06 bf 0e e6 8a bd
       0.10644033 0.015981456 -0.5259895 -0.06782161
0001d0 a7 49 0c bb 01 3c c4 bb b2 b4 e4 be ad bf e8 be
       -0.0021406205 -0.0059885983 -0.4466911 -0.45458737
0001e0 68 44 8d be ec 01 83 3e db 68 31 be 9c d0 b9 3e
       -0.27591252 0.25587404 -0.17325155 0.3629197
0001f0 fa 75 72 3d 0d b2 a7 be d4 dc b7 3d 2b e0 68 3e
       0.059194542 -0.3275303 0.089776665 0.22741763
000200 c7 44 5b be 9a 57 d5 3c 76 13 ee be 0c 05 f0 bd
       -0.21412955 0.026042748 -0.46499223 -0.117197126
000210 e7 c7 fd 3c bc 8d 1b bc 95 d8 64 bd 40 7c 13 bf
       0.03097911 -0.009494241 -0.05587061 -0.57611465
000220 90 45 83 bd cb fc 95 bd 0a 0d ca 3d 64 54 ce 3d
       -0.06409752 -0.07323607 0.09865768 0.1007469
000230 59 4c e2 3e e9 a5 0b be 52 0a a0 3e e4 99 f5 3e
       0.44198874 -0.13637508 0.31257874 0.47968972
000240 3d 10 41 bd 7e 0b 1a bf 42 1e a5 bd 5c 84 d6 3d
       -0.047134627 -0.60173786 -0.08062412 0.10474464
000250 94 bd 06 bd b6 4f ad 3e 86 0f d6 be 03 df 27 be
       -0.03289564 0.33849877 -0.41808718 -0.16393666
000260 6e 32 37 bf 61 c4 cf 3b 28 a8 23 be 37 3f 90 3c
       -0.71561325 0.006340549 -0.15982115 0.017608268
000270 d1 78 b4 be 88 0d ed bd 08 14 fb bb 80 5d e1 be
       -0.35248426 -0.115748465 -0.0076623 -0.44016647
000280 48 3a 51 bd a8 ed 30 bf db 61 3b 3e 16 69 4e bd
       -0.051080972 -0.69112635 0.18299048 -0.050393187
000290 b8 e2 73 3f 7d dc 8f bd 09 7f de be fb a2 b0 bd
       0.9526782 -0.07024477 -0.43456295 -0.08624836
0002a0 74 03 0b 3c c4 45 88 3e a4 b8 14 3d 65 78 a7 be
       0.00848471 0.26615727 0.0363089 -0.3270904
0002b0 3c ef 2d be ef c3 05 bc 21 cf ff be 43 76 93 bd
       -0.16985792 -0.00816439 -0.49962714 -0.07200291
0002c0 18 c3 93 bc ba 00 09 bf cf 90 fc be 6f 45 18 be
       -0.018037364 -0.53516734 -0.4932923 -0.14870237
0002d0 84 f7 6d bd 98 b0 5b 3e ab ad 08 bf 8b 74 a6 be
       -0.058097377 0.21454084 -0.53389996 -0.3251079
0002e0 7b 7c 26 bf 36 63 0f bf e0 0e dc bb a2 74 12 be
       -0.6503369 -0.5601076 -0.0067156404 -0.14302304
0002f0 0c 69 76 be 64 a3 10 3d c6 ba 2d 3f 92 b0 00 be
       -0.2406351 0.03531207 0.6786312 -0.12567356
000300 de 7a 3a be ba 5b e3 3d 0b 05 0b be 00 38 eb 38
       -0.18210933 0.1110148 -0.13576142 0.00011216104
000310 ac b8 a0 be f0 c7 52 3d d0 6d ab 3c 23 23 23 bd
       -0.31390893 0.051460207 0.020926386 -0.03982843
000320 b5 15 4b 3e 24 70 79 3e 3e 85 33 bf f8 c1 4a 3d
       0.198325 0.24359185 -0.70125186 0.04950139
000330 16 3a 3b be 5b 0e a0 be 20 2c 07 3e cc 9d 1d be
       -0.18283877 -0.31260952 0.13200426 -0.15392226
000340 a3 98 be bd 04 aa 26 be 20 0c b0 3c a2 6a 96 3d
       -0.09306457 -0.16275793 0.021490157 0.07344557
000350 4e 98 9e bd 0e 16 bf bd 9d ba c0 be 44 6f 5d be
       -0.077438936 -0.093303785 -0.37642375 -0.21624476
000360 f2 a6 f4 be a8 9b bb 3c 52 47 ba bd 28 7c 74 3e
       -0.4778362 0.022901371 -0.090956345 0.23875487
000370 0c 79 35 be fe 5a a6 bd c9 9f c0 be 07 cb 26 3f
       -0.17721957 -0.08122824 -0.37621906 0.65153545
000380 c1 2d b4 be 94 d5 bd be cc 59 d6 3d 63 2e c7 bd
       -0.35191157 -0.3707701 0.10466346 -0.097256444
000390 ea 0f d7 3e f8 cf 90 bd 5f 23 2d be fc e5 ad bd
       0.4200433 -0.07070917 -0.16908024 -0.08491132
0003a0 40 61 aa be 2c a9 05 bd 64 f1 74 be 28 9b 3e be
       -0.3327732 -0.032632038 -0.23920208 -0.18613875
0003b0 f0 a4 22 bc bb 28 43 bf c9 5c 10 bf de 98 d2 3d
       -0.0099270195 -0.76234025 -0.5639158 0.10283063
0003c0 08 88 a5 3d 48 14 d4 be 98 ec 98 be ce 9b 2c bf
       0.080825865 -0.41421723 -0.29868007 -0.6742524
0003d0 5e e9 ae bd ee 33 bd be 71 c2 ff bd 11 c1 ee 3e
       -0.08540605 -0.36953682 -0.12488259 0.46631673
0003e0 14 8f 99 be cf 60 a3 be 45 33 c4 be 8e 66 e5 bd
       -0.29991972 -0.31909797 -0.38320366 -0.112012014
0003f0 90 6e 38 3e 1f d0 31 be 21 48 ab 3d ac b1 29 bd
       0.18010926 -0.17364548 0.08363367 -0.041429207

stack.2.0.bias f4 [32]
000000 c6 4a 86 3f ca 66 36 3f 90 cd 07 3d 51 a2 43 bf
       1.0491569 0.71250594 0.033155024 -0.7641955
000010 aa 72 87 3f cb 5f 5c 3f 51 91 07 bf 42 52 26 3f
       1.0581868 0.8608367 -0.5295611 0.64969265
000020 5c 53 a8 bc ed b7 95 3f 5d 3f a4 3f c8 27 9f 3f
       -0.020547561 1.1696755 1.2831837 1.2434015
000030 0b cf c0 3f 49 bd 3b be 09 28 45 be 9e 70 d9 bc
       1.5063184 -0.18333925 -0.19253553 -0.026542958
000040 c6 30 c0 3f 14 b5 72 be fb 22 85 be 0b 0c 61 bd
       1.5014884 -0.23701888 -0.2600325 -0.054943126
000050 34 b5 08 bf cb 7c 85 bd 56 67 31 3f 90 56 e9 3e
       -0.53401494 -0.06517943 0.69298303 0.45573854
000060 14 e7 a0 3f 56 28 ab 3f 9a b8 60 3f f2 53 86 3f
       1.257052 1.3371685 0.8778168 1.0494368
000070 44 19 07 3e d3 e9 82 3f 49 29 ef 3f 7a d7 39 be
       0.13193232 1.0227607 1.8684474 -0.18148604

stack.3.0.weight f4 [10, 32]
000000 bd 79 c2 3e 31 9f 1f 3d fd 3b 94 3e c1 16 22 bd
       0.37983504 0.038970176 0.28952017 -0.03957248
000010 fc aa 81 be ee 9b c0 3e 41 f1 1a 3e 21 d4 6b 3e
       -0.25325763 0.37618965 0.15131094 0.2303014
000020 83 d0 9a be 59 78 8c be d5 8e a8 3e 5c 63 37 be
       -0.30237207 -0.27435568 0.32921472 -0.17908996
000030 b4 9a db 3e 57 52 77 bd 32 6f 6b 3e de 6a 85 3e
       0.42891467 -0.06038126 0.22991636 0.26058096
000040 20 30 e5 3e 8e 56 bb be 8d a3 de 3d 43 d1 2b be
       0.4476328 -0.36589473 0.108710386 -0.16779046
000050 44 91 03 3d d7 9c df 3e 07 3b 4b 3d 1e f5 56 3d
       0.032120958 0.43674347 0.04961684 0.052479856
000060 8d 79 8a 3e 5f 81 d6 3d e7 c4 4f 3e d2 84 64 3d
       0.2704586 0.10473894 0.20289956 0.05579073
000070 45 67 99 be fd 92 e2 be 35 c3 f5 3e 23 15 8d be
       -0.299616 -0.44252768 0.48000494 -0.2755519
000080 5b 49 a9 bd 55 91 1e 3e 50 50 cb be ba b7 eb be
       -0.082659446 0.15485127 -0.3970971 -0.4603861
000090 60 c2 ac 3e a2 34 8c 3e 38 0a 99 be 05 b2 de 3e
       0.33742046 0.27383906 -0.2989061 0.43495193
0000a0 93 7a bb bd 79 16 0b bd a9 f1 78 3d 0b c9 9f be
       -0.091542386 -0.03395698 0.06077734 -0.3120807
0000b0 9d d0 60 bf 38 f8 70 3d fc 6c b3 bb c2 fc 55 bd
       -0.8781832 0.05883047 -0.0054756384 -0.052243
0000c0 3a 7b 2e 3e 39 7f 50 be 91 13 34 3d a4 9d b6 bf
       0.17039195 -0.20361032 0.043963972 -1.4266858
0000d0 be 9d bb 3c 8a 71 5b 3e 53 b5 a8 bf c5 90 c5 3e
       0.022902366 0.2143003 -1.3180336 0.38587013
0000e0 eb fe de be 2f 8b ad 3e 35 7d c2 3e f2 4d 52 3e
       -0.43553862 0.3389525 0.3798615 0.20537546
0000f0 e2 fa a8 3e 38 9d c9 3e 12 d1 00 3f fc 5f bd 3e
       0.33003908 0.3937776 0.50319016 0.36987293
000100 a3 79 01 3e 6e f5 a6 be da 32 52 be fc c8 d2 bb
       0.12644057 -0.32609123 -0.20527211 -0.0064326506
000110 87 49 d1 3d 31 ea 00 be 34 eb a7 be 29 f9 07 3e
       0.10219102 -0.12589337 -0.32796633 0.13278641
000120 26 88 ef 3c c2 20 87 3e 40 9e 4f 3e 8b b1 bd 3d
       0.029239725 0.2639218 0.20275211 0.09262379
000130 97 78 27 3e 5c 9b 31 bc 37 62 48 3c 76 61 d0 3d
       0.16354595 -0.010840263 0.0122304475 0.10174839
000140 23 68 92 3e 9f 6e b6 3c 8a c4 c0 3d e6 47 2b 3e
       0.28595075 0.022269545 0.09412487 0.16726646
000150 91 b3 40 3d 82 14 a6 be 05 d7 92 3e 91 09 da be
       0.047046248 -0.3243752 0.28679672 -0.42585424
000160 1c dc 76 3e 23 7a b4 3e 3b 5c f1 bd fd ea f1 3e
       0.24107403 0.35249433 -0.1178517 0.47249594
000170 3d 8b fa 3d 4c 70 d1 3e 2a c1 f2 3e 3b 4a 7c be
       0.12233589 0.40905988 0.47412997 -0.24637692
000180 8d 99 b6 be d9 58 ad 3e 23 2d e0 be 03 f4 64 bd
       -0.35664025 0.33856848 -0.43784437 -0.05589677
000190 b1 87 86 3e de 2f 88 3e 9c b5 79 3e 6d c3 30 bd
       0.262754 0.2659902 0.24385685 -0.043155123
0001a0 3f 67 5e be 98 e9 ce 3e c4 1c 82 be 47 8a 8b 3e
       -0.21719073 0.40412593 -0.2541257 0.27253935
0001b0 98 0f 06 bd 72 84 a7 bb 26 ff 35 be 9d bf af be
       -0.032729715 -0.0051122243 -0.17773113 -0.34325877
0001c0 41 06 a0 3e 88 d6 8c 3e b1 de 97 3d b5 d3 da be
       0.3125477 0.27507424 0.07415522 -0.42739645
0001d0 12 59 37 be 60 0f a9 be de e8 05 bf 29 36 8c 3d
       -0.17905071 -0.33019543 -0.5230845 0.06846268
0001e0 a9 74 9e 3e fb 11 cf 3e a0 2b 99 3e 88 3d 09 be
       0.3094838 0.40443406 0.29916096 -0.13402379
0001f0 2b ea 68 be 09 51 c3 3d a2 d1 b9 3e 7b 9e 9f be
       -0.22745578 0.095369406 0.3629275 -0.31175599
000200 29 0f 13 be 9e 14 89 3e d9 e8 23 bf 01 bb 3a be
       -0.14361252 0.26773542 -0.6402717 -0.18235399
000210 e7 24 4e 3e a9 54 96 3e d4 d4 b6 be 4d 94 62 3e
       0.20131265 0.29361466 -0.3570925 0.22126885
000220 69 eb 7f 3e c3 55 14 3f ee 65 87 3d 56 56 48 3e
       0.24992146 0.5794336 0.066112384 0.19564185
000230 0e 08 5e 3e 5a 34 84 3d 74 2f 77 be 5d d3 e5 bd
       0.2168276 0.06455298 -0.24139196 -0.11221955
000240 46 07 34 be b3 9c 5b bf a9 48 11 3e 64 1d a2 3e
       -0.175809 -0.8578598 0.14187874 0.31663048
000250 23 29 80 be 56 6d c0 3e 6a f9 cb 3e 97 18 68 be
       -0.25031385 0.37583417 0.39838725 -0.2266563
000260 e9 0a 1a 3d 51 76 6f 3d 50 d2 aa be 46 6d e1 3e
       0.03760806 0.058462445 -0.3336358 0.44028682
000270 5a b7 41 3e f8 58 eb bc c4 34 d7 3e 27 5a 9f bd
       0.189176 -0.028728947 0.42032444 -0.07780867
000280 7b 22 d5 3b 1c 7b 17 be cf d4 11 bd 96 24 6d 3d
       0.0065043545 -0.14793056 -0.03560334 0.05789622
000290 d4 c1 88 bc f6 26 ed 3d d7 c4 8f bd 60 2b 42 3d
       -0.016693987 0.11579697 -0.07019966 0.047404647
0002a0 20 b7 9f bd 34 e3 93 3a 76 0e 0b 3e 47 b6 0f 3e
       -0.077986 0.0011282922 0.13579735 0.14034377
0002b0 70 a3 cd bc 6c bc 12 be 9b f0 b9 3d 6a 62 99 bd
       -0.025102347 -0.1432969 0.09079095 -0.07489474
0002c0 e9 fd e9 bd 93 43 84 bd 9e c5 08 3e d7 33 93 bb
       -0.11425383 -0.06458201 0.13356635 -0.004492264
0002d0 20 3f 11 be ee 1c 31 3e 30 58 33 be 6d e0 03 3e
       -0.14184237 0.17296192 -0.1751411 0.1287858
0002e0 08 2a 82 3d f2 cf 26 bd 4e 75 7e bd 30 bd 0a 3e
       0.06355673 -0.040725656 -0.06212359 0.13548732
0002f0 ea d9 8c 3d 06 51 e0 bd 08 ad 89 bc d5 4b 00 be
       0.06877501 -0.10952954 -0.01680614 -0.12528928
000300 68 54 36 3d 9c c4 b7 3d 7a 32 0e 3d 17 4d 21 bc
       0.04451409 0.08973047 0.034716107 -0.00984504
000310 d3 77 1a 3e a9 d9 a1 3d 56 58 1a be 81 50 ed bd
       0.15084772 0.079028435 -0.1507276 -0.115876205
000320 b1 3c 91 3c 7b 4c ed 3d 59 19 5a 3d bc a8 52 bd
       0.017729135 0.11586853 0.05324683 -0.05143045
000330 ce d4 6a 3c 83 b8 df bd dc 92 01 be 2b 86 20 be
       0.014332963 -0.10923865 -0.12653679 -0.15676181
000340 17 3e d9 bd 55 c4 26 be 22 92 0a ba 45 f4 f9 3d
       -0.10607546 -0.16285832 -0.0005286058 0.12204794
000350 bf eb 00 3e 33 70 0d 3e 7e 14 2b be 26 c5 30 be
       0.1258993 0.13812332 -0.16707036 -0.17262706
000360 55 12 00 3c 72 c7 16 3e e0 50 1b 3e cd fb ed 3d
       0.007816871 0.1472452 0.1516757 0.11620293
000370 11 cf 15 be b9 96 ca 3d c1 fe 12 3e dd 07 1c 3d
       -0.14629771 0.09892029 0.14354993 0.038093437
000380 74 07 25 be ed 61 03 3e 8f 85 67 3d fe f0 29 be
       -0.16116124 0.12830324 0.056523856 -0.16595837
000390 b9 9f 92 3d 5b a7 b0 bd 8f 1e 0c 3e 41 de 8d 3d
       0.07159371 -0.086256705 0.13683532 0.06927157
0003a0 46 53 34 be dc da 09 be c3 65 73 3d 42 23 04 3e
       -0.17609891 -0.13462394 0.05942322 0.12904075
0003b0 95 de fd 3d fd ab 23 bd 96 89 89 3d 4a 7d 18 be
       0.1239597 -0.039958943 0.067156956 -0.14891544
0003c0 da 76 ae bd 8a 7c 26 be bb 7f dd 3c 3f 9e 31 3e
       -0.08518763 -0.16258445 0.027038446 0.17345522
0003d0 a6 69 32 be a2 59 a3 3c 3a 7f d0 bd fa fc c0 3d
       -0.17423114 0.019940201 -0.101805165 0.094232515
0003e0 34 a1 0d 3e 4f fc 86 bb da 6a 19 be 1f c0 0d 3e
       0.13831025 -0.004119433 -0.14982167 0.1384282
0003f0 56 c4 97 3b 8c 64 1f be 72 1b aa 3d c7 55 c4 3d
       0.0046315594 -0.155657 0.08306016 0.09586673

stack.3.0.bias f4 [10]
000000 70 1d 2e 3e cf a0 5a 3e 85 29 0c 3f 83 30 38 3f
       0.17003417 0.21350406 0.54750854 0.71949023
000010 88 60 0f 3f 6f 52 8d 3d 74 1f 32 3e 87 7d ae bc
       0.5600667 0.069004886 0.17394811 -0.02130009
000020 db 7f 01 3e 28 63 49 bb
       0.12646429 -0.0030729268
