src/fminst/models/teacher_8.pt (torch, 447183 bytes, 8 tensors)

stack.0.0.weight f4 [128, 784]
0	0x3d418b7b	0.04725216
1	0xbbcc9396	-0.0062431796
2	0xbd57fe16	-0.05273255
3	0xbd23bbc5	-0.039973993
4	0x3d49f959	0.049310062
5	0x3dd3806d	0.1032723
6	0x3dbbb1bb	0.09164759
7	0xbdb7289b	-0.08943292
8	0xbd4cc49d	-0.049992193
9	0xbd3caacf	-0.046061333
10	0xbd16a554	-0.036778763
11	0xbcc763aa	-0.024339516
12	0x3d6f1702	0.05837155
13	0x3cc83283	0.024438148
14	0x3cdb1ee6	0.026748132
15	0x3de05288	0.109532416
16	0x3c852424	0.016252585
17	0xbda1ab92	-0.078940526
18	0xbd542c98	-0.05180034
19	0xbdcb8d15	-0.09939019
20	0xbde03c35	-0.109489836
21	0x3d36e425	0.04465117
22	0xbb82dfc2	-0.003993959
23	0x3d96c9a6	0.0736268
24	0x3dd8b1fd	0.105808236
25	0x3d99df4c	0.075132936
26	0x3d51503f	0.05110192
27	0xbd64bd1f	-0.055844422
28	0x3d348ef4	0.044081643
29	0x3d9f01cb	0.07764014
30	0xbe160fe7	-0.14654504
31	0xbc8ca9f1	-0.017170878
32	0x3be45491	0.006968089
33	0x3cf5ac75	0.02998946
34	0x3d680d8c	0.056653544
35	0x3ce374b0	0.027765602
36	0x3b5e292e	0.0033899057
37	0xbc9af1bd	-0.018914098
38	0xbd7df714	-0.06200321
39	0x3b0ebe5b	0.0021780941
40	0x3d963b58	0.07335538
41	0x3d1bd3ee	0.03804391
42	0x3c527e31	0.012847469
43	0x3c7b1098	0.0153237805
44	0x3c0dde65	0.00865898
45	0xbc188c6a	-0.009310821
46	0xbd3cc841	-0.046089415
47	0xbd222bd2	-0.03959257
48	0xbcac9eba	-0.02107178
49	0x3cd28caa	0.02570184
50	0x3c82266a	0.015887458
51	0x3dbcda23	0.09221294
52	0x3e0b5ac6	0.13608846
53	0x3e39083b	0.18069546
54	0x3d9cd418	0.07657641
55	0xbdd83383	-0.105567
56	0x3dce13f6	0.10062401
57	0xbcc3741c	-0.023859076
58	0xbda5548e	-0.08072768
59	0xbd3a5ac6	-0.045496725
60	0xbbe5e5b5	-0.0070159086
61	0x3c1d7111	0.009609477
62	0xbd5a9baa	-0.05337111
63	0xbd2d9ab8	-0.04238388
64	0xb98dc0d2	-0.00027037278
65	0xbd55aad3	-0.052164864
66	0x3c9e0b2e	0.01929244
67	0x3d8376f1	0.06419171
68	0x3c0a5773	0.008443701
69	0x3c3d7cb0	0.011565372
70	0x3d144d8e	0.036206774
71	0x3cabdd4a	0.020979542
72	0x3c9707c0	0.018436313
73	0xbc003885	-0.007825975
74	0xbcbd77f1	-0.023128482
75	0xbccc3737	-0.024928672
76	0xbda70c8f	-0.08156692
77	0xbcdc8019	-0.02691655
78	0xbd43963a	-0.04775069
79	0x3ce78508	0.028261676
80	0x3d2f65ce	0.042821698
81	0x3d750029	0.059814606
82	0x3d307f3e	0.043090098
83	0xbd4d9b9c	-0.05019723
84	0x3ddc0f69	0.10745127
85	0x3ca44b0a	0.020055313
86	0xbc978d76	-0.018500071
87	0xbc2ab7b5	-0.010419776
88	0xbcf5c960	-0.03000325
89	0x3c4e9485	0.012608652
90	0xbd0cf17b	-0.03440998
91	0x3d325e5c	0.04354702
92	0xbce2930e	-0.027658012
93	0x3c8e3efd	0.01736402
94	0xbce79daa	-0.028273422
95	0x3d04cd31	0.03242225
96	0x3d581bd3	0.05276091
97	0x3c1a3e0d	0.009414208
98	0xbca8beb1	-0.020598741
99	0x3d2af151	0.041734044
100	0x3ac08f0f	0.0014691072
101	0xbc98707d	-0.018608326
102	0xbc2b9522	-0.010472568
103	0xbc205a1c	-0.009787109
104	0xbd18ab5f	-0.037272807
105	0x3cb58f0e	0.02216294
106	0xbc8d2d99	-0.017233657
107	0xbd38dd82	-0.04513312
108	0xbbaacb9f	-0.005212262
109	0x3dad35e9	0.08457548
110	0x3df2da07	0.11857992
111	0x3d8f5339	0.06998295
112	0x3de2b87f	0.11070346
113	0x3d31f5f5	0.043447454
114	0x3ceb414a	0.028717656
115	0xbb94be01	-0.004539252
116	0xbcc71705	-0.024302969
117	0x3d0347d1	0.03205091
118	0x3cd45f6e	0.02592441
119	0x3c63fe24	0.013915572
120	0xbbd4928d	-0.006487197
121	0x3b417ea2	0.0029524942
122	0x3a9fb420	0.0012184419
123	0x3d46928e	0.04847961
124	0x3d72f43f	0.059314962
125	0x3c57fed5	0.013183315
126	0x3c3eb6fe	0.011640308
127	0x3d0dc747	0.034613874
128	0x3cbbbe38	0.022917852
129	0xbc51689c	-0.0127812885
130	0xbd0309bb	-0.0319917
131	0x3a594f7a	0.0008289736
132	0xbd15306b	-0.036423128
133	0xbd392885	-0.045204658
134	0xbc12ec44	-0.008967463
135	0xbda3b879	-0.0799417
136	0xbcf0c726	-0.029391836
137	0x3da4dd53	0.08050027
138	0x3e0f41da	0.13989964
139	0xbd00b1cc	-0.03141956
140	0x3e2ab504	0.16670614
141	0x3e1534b2	0.14570883
142	0xbc412421	-0.011788399
143	0xbc6f0d94	-0.01459064
144	0x3b4f4792	0.0031628353
145	0xbcf0135a	-0.029306103
146	0xbc4de8e2	-0.012567731
147	0x3c905773	0.017619824
148	0x3bbacd94	0.0057007764
149	0xbca33a29	-0.019925194
150	0x3c0ca910	0.0085852295
151	0x3bbe9b48	0.005816851
152	0x3d2110a4	0.03932251
153	0x3c7851bf	0.015156209
154	0x3cd68619	0.02618699
155	0xbc3e1930	-0.011602685
156	0x3c7c363c	0.01539379
157	0xbd246f33	-0.04014511
158	0xbcc4ba6e	-0.024014678
159	0xbd50fd25	-0.051022667
160	0xb9973f5e	-0.00028848177
161	0xbd86e9a0	-0.06587529
162	0xbd604b31	-0.054759208
163	0xbd4deeab	-0.05027644
164	0xbcd96545	-0.026537547
165	0x3daa771e	0.08323501
166	0x3e255b43	0.16148095
167	0x3db8be05	0.09020618
168	0x3de18a41	0.11012698
169	0x3dd70535	0.1049904
170	0xbcd9492f	-0.026524154
171	0x3d899766	0.0671833
172	0x3cac4e6b	0.021033486
173	0xbd298ff2	-0.041397043
174	0xbd42cca9	-0.04755846
175	0xbad6216a	-0.0016336862
176	0x3c4a77eb	0.012357692
177	0x3d623309	0.055224452
178	0x3cb44487	0.022005333
179	0x3d5ebb2c	0.05437772
180	0x3d21ba39	0.039484236
181	0x3d461c4b	0.048366826
182	0x3cf4d429	0.029886322
183	0xbd0c859a	-0.0343071
184	0x3d1ef49a	0.03880749
185	0x3bde6414	0.0067868326
186	0xbbd9344f	-0.00662855
187	0x3d0fac61	0.035076503
188	0xbc81df08	-0.01585342
189	0xbc426250	-0.01186426
190	0xbd090f94	-0.033462122
191	0xbc891ae2	-0.016736452
192	0xbc8ab134	-0.0169302
193	0x3d1725dd	0.036901344
194	0x3d8ab196	0.06772153
195	0x3d9e3e5b	0.07726737
196	0x3da11e25	0.07867078
197	0x3d199432	0.037494846
198	0x3bc8bf92	0.0061263526
199	0x3d249c45	0.040188093
200	0x3c931f61	0.017959299
201	0xbbbe96e6	-0.0058163283
202	0xbd03ec7c	-0.03220795
203	0xbceabef3	-0.028655505
204	0x3d41ae15	0.04728516
205	0x3c8b2c8b	0.016989013
206	0x3c52c633	0.012864637
207	0x3d340240	0.04394746
208	0x3d2d7297	0.04234561
209	0x3d8ad96b	0.067797504
210	0xbbaae16f	-0.005214862
211	0xbbfba690	-0.007679768
212	0x3c40188e	0.011724604
213	0x3ca2cc85	0.019872913
214	0xbce841f5	-0.028351763
215	0xbd1f1b0e	-0.03884416
216	0xbd3748e3	-0.044747245
217	0x3c8b7562	0.017023746
218	0xbd3d3c2d	-0.046199966
219	0x3b0b857a	0.0021289275
220	0xbc8ac97f	-0.016941784
221	0x3ce90b6c	0.02844783
222	0xbc86ea20	-0.016469061
223	0x3de37ca5	0.111077584
224	0x3dea0f77	0.11428731
225	0x3c9ce2a6	0.019151043
226	0xbcccb5f8	-0.024989113
227	0x3d50b065	0.050949473
228	0xbbe6eec3	-0.0070475056
229	0xba63e8bb	-0.00086940423
230	0x3cd476f8	0.025935635
231	0xbc21e2f2	-0.009880768
232	0x3cb57d28	0.022154406
233	0x3d822d6b	0.06356319
234	0x3d9d4d17	0.07680719
235	0x3da54da2	0.08071448
236	0x3d428c1f	0.04749691
237	0x3d00e57c	0.031468853
238	0x3d5fc7ed	0.054634023
239	0x3cbe06d1	0.02319661
240	0x3b257afd	0.0025250309
241	0xbbc783c6	-0.0060887067
242	0x3ca7c8bc	0.02048146
243	0xbb8dd654	-0.0043285284
244	0xbb60aa5c	-0.003428123
245	0x3c58bc5d	0.013228503
246	0xbd20f90d	-0.039300013
247	0xbcdb85e9	-0.026797252
248	0xbd69ceaa	-0.057081856
249	0x3cc63183	0.02419353
250	0x3d810620	0.062999964
251	0x3dee0cca	0.11623533
252	0x3e188464	0.14894253
253	0x3c8df5df	0.017329155
254	0x3bb709e3	0.0055858954
255	0x3a64237e	0.00087027985

stack.0.0.bias f4 [128]
0	0xbdbae6d2	-0.09126057
1	0x3e7bb634	0.24581224
2	0x3bd27df8	0.006423708
3	0xbd866cdb	-0.06563731
4	0xbe01cab0	-0.12674975
5	0x3e1b9a4e	0.15195581
6	0x3e42cdb9	0.1902379
7	0xbd4f6876	-0.05063673
8	0x3d91a9cb	0.071124636
9	0xbe257857	-0.16159187
10	0x3d52eadb	0.051493507
11	0x3e370ee0	0.17876768
12	0xbc31dc66	-0.01085577
13	0x3e6c1891	0.23056246
14	0xbd273ddd	-0.04083048
15	0xbc855cd1	-0.01627961
16	0x3dc28a05	0.094989814
17	0x3e7ae177	0.2450007
18	0x3e35e0e6	0.17761573
19	0x3da6a6e9	0.08137304
20	0x3d458f71	0.0482325
21	0xbde8253e	-0.113352284
22	0xbd92f45d	-0.07175515
23	0x3e0c2dfc	0.13689417
24	0x3d101f77	0.035186257
25	0x3e3d8b3e	0.18510148
26	0xbd5f1940	-0.05446744
27	0xbd8a9a5c	-0.06767723
28	0xbd205c08	-0.039150268
29	0x3d022838	0.031776637
30	0x3ebb0445	0.36526695
31	0x3d9ae13d	0.07562492
32	0xbe56418d	-0.20923443
33	0xbd7e7086	-0.06211903
34	0x3da202d8	0.07910699
35	0x3e54dd53	0.20787553
36	0xbe1bb622	-0.15206197
37	0x3d3d1f64	0.046172515
38	0x3e9179d4	0.2841326
39	0xbd21d7d8	-0.039512485
40	0x3e07f8de	0.13278529
41	0x3d4e7584	0.05040504
42	0xbe46f2ea	-0.19428602
43	0x3d8155d7	0.06315201
44	0xbdd09e65	-0.10186461
45	0xbcaf3545	-0.021387706
46	0xbe0533cf	-0.13008045
47	0x3e364acb	0.17801969
48	0x3d1d3faa	0.038390793
49	0x3db3c25e	0.08777307
50	0x3d0228b1	0.031777088
51	0x3e0e5bec	0.13902253
52	0xbd911e56	-0.07085864
53	0x3e2536a0	0.16134119
54	0x3d9c3aab	0.076283775
55	0x3e23f99f	0.16013192
56	0x3dfbbd9a	0.12292023
57	0x3e2c42ce	0.16822359
58	0x3c774462	0.015091987
59	0x3de43a2e	0.111439094
60	0xbe282f22	-0.1642423
61	0xbdb89e30	-0.09014547
62	0x3e1cbee3	0.15307193
63	0xbd45c90b	-0.048287433
64	0x3d96fbcf	0.073722474
65	0x3d8cb30b	0.06870087
66	0xbd662f5c	-0.05619751
67	0xbdb7abe7	-0.08968335
68	0x3e021b43	0.12705712
69	0x3dd2a789	0.10285861
70	0x3d1eff18	0.038817495
71	0x3de8bc9b	0.11364099
72	0xbc7350f1	-0.014850841
73	0xbd7d5e51	-0.061857525
74	0xbdac3edb	-0.08410426
75	0x3c56bb10	0.013106123
76	0x3ddd1928	0.10795814
77	0x3e8faa3d	0.2805957
78	0x3dfee3ab	0.12445768
79	0x3d1bf319	0.038073633
80	0x3e598d86	0.21245393
81	0x3e39883e	0.18118379
82	0x3e38218a	0.17981544
83	0xbdcb86dc	-0.09937832
84	0xbd095c61	-0.033535365
85	0x3dd921ae	0.10602127
86	0x3df782b0	0.120854735
87	0xbcaf15ed	-0.02137276
88	0xbbb29047	-0.005449328
89	0x3d0234eb	0.031788748
90	0xb937bd03	-0.00017522652
91	0x3dcc9e2f	0.099911086
92	0xbcc264f2	-0.023729775
93	0x3d8666e9	0.06562597
94	0x3e1164b7	0.14198576
95	0xbd73bef9	-0.059508298
96	0x3da5483a	0.08070417
97	0xbe46dc5a	-0.19419995
98	0x3dacb0d7	0.08432167
99	0xbc448ea9	-0.011996903
100	0x3df1c640	0.11805391
101	0xbd183d58	-0.037167877
102	0xbe5d00d3	-0.21582346
103	0x3e01d555	0.12679036
104	0x3e9fd09f	0.31213853
105	0xbdbecf7d	-0.09316919
106	0x3dc3e5a9	0.095652886
107	0x3e15feb7	0.14647947
108	0x3d541291	0.05177552
109	0xbdb000e6	-0.08593921
110	0x3ded825c	0.1159713
111	0x3d7bf7b7	0.061515536
112	0xbcc5830c	-0.02411034
113	0xbd0c31f5	-0.03422733
114	0x3d051aeb	0.032496374
115	0x3e2d3826	0.1691595
116	0x3decfc6f	0.115715854
117	0x3dff740b	0.12473305
118	0xbcb5d60e	-0.022196796
119	0xbc9f1bf7	-0.019422514
120	0x3e7ff570	0.2499597
121	0x3e51cc7a	0.20488158
122	0x3dc1a881	0.09455968
123	0xbb522af3	-0.0032069057
124	0x3db4ee84	0.08834556
125	0xbd58f564	-0.052968398
126	0x3cea7110	0.028618366
127	0xbdff5281	-0.12466908

stack.1.0.weight f4 [64, 128]
0	0x3cd4cfab	0.02597793
1	0x3da98535	0.0827736
2	0x3d03af19	0.032149408
3	0x3d8ef4fd	0.069803216
4	0xbdd5a49b	-0.104317866
5	0xbe688be8	-0.2270962
6	0xbe3dc414	-0.18531829
7	0xbdb37bec	-0.087638706
8	0xbbd8df66	-0.006618428
9	0xbcf0bc27	-0.029386593
10	0x3d80f402	0.06296541
11	0x3ca9bb20	0.020719111
12	0x3dc37771	0.09544266
13	0x3d24a90e	0.040200286
14	0xbb32eaf4	-0.0027300688
15	0xbd5c3e80	-0.053770542
16	0x3dfdb7cd	0.12388573
17	0xbd42ad3d	-0.047528494
18	0xbd16329a	-0.03666935
19	0x3d749433	0.059711646
20	0xbd993e34	-0.074825674
21	0x3cee9aec	0.029126607
22	0x3d61c1cf	0.05511647
23	0xbcac0a91	-0.021001132
24	0xbcf7bd92	-0.030241761
25	0x3d93e52d	0.07221446
26	0x3d36b872	0.044609495
27	0x3d933b3c	0.071890324
28	0x3e0706f7	0.1318625
29	0x3d9a35ac	0.07529768
30	0x3ddfc48c	0.1092616
31	0x3df50e22	0.11965586
32	0x3d4c82a5	0.04992928
33	0xbd7801cb	-0.060548585
34	0x3da7cd6f	0.0819348
35	0x3e37becb	0.17943875
36	0x3de1c0f8	0.11023134
37	0x3d384ca1	0.044994954
38	0x3d6b7792	0.057487078
39	0x3da0f0b5	0.07858411
40	0x3db0f760	0.08640933
41	0xbd6e1736	-0.058127604
42	0xbd3fca4c	-0.046823785
43	0xbd184ac6	-0.037180685
44	0x3bcaef8a	0.006193106
45	0xbd0c831f	-0.034304734
46	0xbd8a1719	-0.06742687
47	0x3a71582d	0.00092065596
48	0xbdc2bf65	-0.09509162
49	0x3df4cd99	0.11953277
50	0x3b2118be	0.0024581398
51	0x3d93463e	0.07191132
52	0x3b4d49cc	0.0031324504
53	0x3e06f944	0.13181025
54	0x3d84f7e2	0.064925924
55	0x3db84a2e	0.08998524
56	0x3cc44444	0.023958333
57	0x3d9904e7	0.07471638
58	0xbda8414e	-0.08215581
59	0xbbfbaf7a	-0.0076808305
60	0xbc3959b6	-0.011312893
61	0x3d80e955	0.062945046
62	0x3dd84b00	0.1056118
63	0x3dcf522a	0.101230934
64	0xbdb238a4	-0.087022096
65	0x3d724b4f	0.05915385
66	0x3b022f98	0.0019864794
67	0xbb93414e	-0.004493869
68	0x3bdcc56e	0.0067374026
69	0x3dda2020	0.106506586
70	0xbda45ac2	-0.08025123
71	0xbcb6c63b	-0.02231132
72	0xbd1570b0	-0.03648442
73	0x3dc162be	0.09442662
74	0xbd619359	-0.055072162
75	0x3e342d6c	0.17595452
76	0x3dbcaf90	0.092131734
77	0x3db2b000	0.087249756
78	0x3dd2fe02	0.103023544
79	0x3cd1b0a0	0.025596917
80	0x3caafb68	0.020871833
81	0xbd11e73e	-0.03562092
82	0xbd9dbeb0	-0.077023864
83	0xbd3bf6e9	-0.04588977
84	0xbbdb27cb	-0.0066880933
85	0x3d9c96e9	0.07645971
86	0x3dd2fa12	0.103016034
87	0x3c82013d	0.015869731
88	0xbe089942	-0.13339713
89	0xbdc32d16	-0.09530084
90	0xbdc6ea71	-0.09712685
91	0xbd5884f8	-0.052861184
92	0xbb8d10c7	-0.0043049785
93	0x3c6b2f6a	0.014354566
94	0xbe45ffc7	-0.19335853
95	0x3d362786	0.044471286
96	0x3da243fc	0.07923123
97	0x3d901ea8	0.07037097
98	0xbd7964fe	-0.06088733
99	0x3d51407f	0.0510869
100	0xbd8de828	-0.06929046
101	0x3e122709	0.14272703
102	0x3c28ae2e	0.010295434
103	0x3c096b57	0.008387408
104	0x3e016e72	0.12639788
105	0x3d94af41	0.072599895
106	0xbd5a3e53	-0.053282093
107	0xbbe947dc	-0.007119162
108	0x3e456052	0.19275025
109	0xbd6f074a	-0.05835656
110	0x3d81266d	0.06306157
111	0x3d49cc3b	0.049267035
112	0xbd5fcca7	-0.05463853
113	0xbd8a746c	-0.06760487
114	0xbd8b500e	-0.068023786
115	0x3d31411f	0.043274995
116	0xbd2caa61	-0.042154673
117	0x39868106	0.00025654602
118	0xbcd23121	-0.025658192
119	0x3cf24e78	0.029578432
120	0x3e17b6e0	0.14815855
121	0x3d8d9b29	0.0691436
122	0x3d6f711b	0.058457475
123	0x3dfebeed	0.1243876
124	0xbe4e8dfe	-0.20171353
125	0xbdbded74	-0.09273806
126	0x3dffdd8a	0.12493427
127	0xbd2ec5cb	-0.0426691
128	0x3c71a3a2	0.014748486
129	0x3db6cee3	0.08926179
130	0x3d95db9d	0.073172785
131	0xbcb141d7	-0.02163784
132	0xbd972cfd	-0.07381628
133	0xbd15bf24	-0.03655924
134	0xbd4dcf4f	-0.050246533
135	0x3bc20625	0.0059211426
136	0xbc8ce803	-0.017200476
137	0x3d0008f8	0.031258553
138	0x3de11c50	0.10991728
139	0x3d95b07b	0.073090516
140	0x3d9d32ee	0.0767573
141	0xbe0a8088	-0.13525593
142	0x3df72ce0	0.12069106
143	0xbd3bebda	-0.045879222
144	0x3d171c06	0.03689196
145	0x3d20cd0e	0.039258055
146	0xbd08bfa9	-0.033385906
147	0x3d9807d4	0.07423368
148	0x3d83949a	0.06424828
149	0xbcfcad08	-0.030844226
150	0xbdbbbd2e	-0.091669425
151	0xbe683b50	-0.22678876
152	0x3ceb8a42	0.02875245
153	0x3e1e99b3	0.15488319
154	0x3d83632a	0.064153984
155	0xbd1e6d25	-0.038678307
156	0xbbb7cd81	-0.005609215
157	0xbd9089e3	-0.0705755
158	0x3e18e5dd	0.14931436
159	0x3c02632b	0.007958214
160	0x3c0182af	0.007904693
161	0xbd9129be	-0.0708804
162	0x3bc93715	0.0061405995
163	0x3e39ca6c	0.18143624
164	0xbd54f971	-0.0519957
165	0xbbf18bac	-0.0073713865
166	0xbdd211ac	-0.10257277
167	0x3d8c6508	0.06855208
168	0x3e3264d6	0.17421278
169	0xbe901eb3	-0.28148422
170	0xbe048bd1	-0.1294396
171	0xbc2a3bd8	-0.010390244
172	0xbdf7d282	-0.12100698
173	0x3e03dec7	0.12877952
174	0xbe16083d	-0.1465158
175	0xbdabbed7	-0.08386009
176	0x3db05798	0.08610457
177	0x3e44b541	0.19209768
178	0x3bc0fae7	0.005889285
179	0x3db19b78	0.086722314
180	0x3da003a5	0.07813195
181	0x3dc766b1	0.09736384
182	0x3d705268	0.05867234
183	0xbc76fcac	-0.01507489
184	0xbd1dd5c8	-0.038533956
185	0xbcbf0bd4	-0.02332107
186	0x3d2c15e0	0.04201305
187	0xbe0e1b78	-0.13877666
188	0x3d4dec2d	0.050274063
189	0x3be213af	0.006899319
190	0x3dbec671	0.093151934
191	0x3de99687	0.11405664
192	0xbde51f37	-0.111875944
193	0xbcccca58	-0.024998829
194	0xbc9f704b	-0.019462725
195	0xbd83262f	-0.06403767
196	0xbda32fe2	-0.07968117
197	0x3d4b1424	0.049579754
198	0xbe08f1d5	-0.13373502
199	0xbbe47bb8	-0.0069727562
200	0xbd50fb5f	-0.051020976
201	0xbd5cd8f9	-0.05391786
202	0xbd80f52f	-0.06296765
203	0x3e0fe304	0.14051443
204	0x3bd2f6f3	0.00643813
205	0x3e227494	0.15864784
206	0x3e1c485c	0.15261978
207	0x3dac6923	0.08418491
208	0x3ddc3eff	0.10754203
209	0x3bd3503a	0.0064487727
210	0x3d7747aa	0.06037108
211	0x3c381bae	0.011237068
212	0x3cc5f89a	0.024166394
213	0x3de4b0c4	0.11166528
214	0x3db096ba	0.08622499
215	0x3c95c851	0.018283995
216	0xbd0b3b51	-0.033992115
217	0xbd745b74	-0.05965753
218	0xbde6ecb9	-0.1127562
219	0xbd7fe3e3	-0.06247319
220	0xbd07bb43	-0.03313757
221	0x3dc39881	0.09550572
222	0xbe4aefee	-0.19818088
223	0xbb941d06	-0.0045200614
224	0xbc03908b	-0.008030067
225	0xbceb5ea6	-0.028731655
226	0xbe0f7156	-0.14008078
227	0x3d31b6a7	0.04338708
228	0x3b34c673	0.0027584105
229	0x3dd6b322	0.104833856
230	0xbdbdaedb	-0.09261867
231	0xbcf66549	-0.030077593
232	0x3c3c8303	0.011505845
233	0x3d9418ac	0.07231268
234	0xbd81b290	-0.06332886
235	0xbbb3d413	-0.0054879277
236	0xbd84cae7	-0.06484013
237	0xbcb281a2	-0.02179033
238	0x3ce00a1d	0.027348572
239	0xbc4dd63b	-0.012563284
240	0xbdd530d7	-0.10409706
241	0xbd80a830	-0.06282079
242	0xbdad56b8	-0.08463806
243	0x3dc3e566	0.09565239
244	0x3dea08ec	0.11427483
245	0x3dc23940	0.09483576
246	0x3d3e9e76	0.04653784
247	0x3dbae9d3	0.0912663
248	0x3dbf9336	0.0935425
249	0x3daa8110	0.08325398
250	0x3dfd6ca1	0.12374235
251	0xbc04a031	-0.008094833
252	0xbe242f36	-0.16033635
253	0xbdf1504e	-0.11782895
254	0x3dfe58d8	0.12419289
255	0xbdc5c993	-0.09657588

stack.1.0.bias f4 [64]
0	0x3c941c7d	0.01807999
1	0x3cb2926c	0.021798335
2	0x3e5cdd04	0.21568686
3	0x3d3755c0	0.044759512
4	0x3d69f124	0.057114735
5	0x3da781b6	0.08179037
6	0xbd1ed130	-0.038773715
7	0xbd2215df	-0.03957164
8	0xbd9b6421	-0.075874574
9	0x3ac10251	0.0014725422
10	0xbbefe933	-0.0073215007
11	0x3e2c2bca	0.16813579
12	0xbdebaab4	-0.115071684
13	0x3cc8ed1a	0.024527121
14	0x3e06adff	0.13152312
15	0x3d6abd5e	0.0573095
16	0x3d8af516	0.06785028
17	0x3e348a36	0.17630848
18	0x3d7ba562	0.06143702
19	0xbe188b06	-0.14896783
20	0xbe3d7dee	-0.1850507
21	0xbccb73c0	-0.024835467
22	0xbded8dcc	-0.11599311
23	0x3d88405d	0.06652901
24	0xbdb2934f	-0.08719503
25	0x3d8eab74	0.06966296
26	0x3d220ae0	0.039561152
27	0x3db7f98b	0.089831434
28	0xbd8665be	-0.065623745
29	0xbdd6f6bb	-0.10496279
30	0x3dd7fa3f	0.105457775
31	0x3dd958d0	0.10612643
32	0x3e3b08c6	0.18265066
33	0x3e0d8e5d	0.13823839
34	0x3e490759	0.19631709
35	0x3d179fb7	0.03701755
36	0xbe06b0fa	-0.13153449
37	0x3cddb313	0.027062928
38	0x3e20d227	0.15705167
39	0xbd791b1b	-0.060816865
40	0x3dfe531f	0.12418198
41	0xbd9d6e69	-0.07687075
42	0x3d97c4ef	0.07410609
43	0x3d8e3c7c	0.0694513
44	0x3e71ef55	0.23626454
45	0x3e2780e8	0.16357768
46	0xbd481000	-0.048843384
47	0xbb635909	-0.003469052
48	0x3da1852d	0.078867294
49	0x3c69a9c7	0.0142616695
50	0x3e11797b	0.14206497
51	0x3d8ba09e	0.06817745
52	0xbd48e8da	-0.04905019
53	0x3e08b04e	0.13348505
54	0xbd88b2e9	-0.066747494
55	0xbe0d6c6e	-0.13810894
56	0xbda57763	-0.08079412
57	0x3e0a09d7	0.13480316
58	0x3e3992b4	0.18122369
59	0xbdec9c31	-0.11553229
60	0x3e1f9d73	0.15587406
61	0x3db2c56f	0.08729064
62	0x3e24809d	0.16064687
63	0xbd27e974	-0.040994123

stack.2.0.weight f4 [32, 64]
0	0x3e1e8607	0.15480815
1	0x3e3c74a8	0.18403876
2	0x3d8142e9	0.0631159
3	0x3e16bfd1	0.1472161
4	0xbcd20ba1	-0.02564031
5	0xbddff508	-0.10935408
6	0xbc44782e	-0.011991544
7	0xbe127cfc	-0.1430549
8	0xbd73c3ea	-0.05951301
9	0x3dc80260	0.09766078
10	0x3dc690cd	0.09695587
11	0xbe4a2ee7	-0.19744454
12	0xbde83541	-0.113382824
13	0x3e63e86b	0.22256629
14	0xbd83a3fd	-0.06427763
15	0xbd1c9671	-0.03822941
16	0xbc05e83d	-0.008173046
17	0x3ce3a073	0.02778647
18	0x3c5ef152	0.01360734
19	0xbd8be3b9	-0.06830544
20	0x3e33ee03	0.17571263
21	0x3b937d6f	0.004501037
22	0xbed0b84f	-0.40765616
23	0x3d4c2665	0.049841303
24	0xbd513726	-0.051077984
25	0x3dc51be0	0.09624457
26	0xbe02660e	-0.12734243
27	0xbc95da5e	-0.018292602
28	0x3d107b02	0.03527356
29	0x3dc72a84	0.09724906
30	0x3e09ff02	0.13476184
31	0xbd61cb7c	-0.0551257
32	0x3dbcbe5b	0.09215995
33	0xbc8ce68f	-0.017199783
34	0x3c52a8db	0.012857641
35	0x3d81c89a	0.0633709
36	0x3c3c651b	0.011498715
37	0xbd316eeb	-0.04331867
38	0xbe0bd3a4	-0.13654953
39	0x3e0cfeeb	0.13769118
40	0xbeefa25c	-0.46803558
41	0x3d18696f	0.037209924
42	0xbc427198	-0.011867903
43	0xbe0c9d1a	-0.13731804
44	0xbe568724	-0.2094999
45	0x3d39e09d	0.045380224
46	0x3e08a511	0.13344218
47	0xbe277e00	-0.16356659
48	0xbdaa277f	-0.083083145
49	0x3c30086a	0.010744194
50	0xbe0c525a	-0.1370329
51	0xbda7fca5	-0.08202485
52	0x3db6e6ff	0.08930778
53	0x3e4b7774	0.19869787
54	0x3bcf4ec0	0.0063265264
55	0xbdd12056	-0.10211246
56	0x3d809e78	0.062802255
57	0x3ea9b3be	0.33144945
58	0x3d7ce666	0.061743163
59	0xbc73d2c0	-0.01488179
60	0x3dbe469d	0.09290812
61	0xbe06f01b	-0.1317753
62	0xbdc01aec	-0.09380135
63	0x3e0e992d	0.1392562
64	0x3d51e32f	0.05124205
65	0xbc689f99	-0.014198207
66	0xbc962076	-0.018326025
67	0xbd881e13	-0.06646361
68	0x3db1a670	0.086743236
69	0xbd1c4941	-0.038155798
70	0x3b87c46d	0.004143289
71	0x3d5776ea	0.05260364
72	0x3dfdb419	0.123878665
73	0x3aefa6c9	0.0018283959
74	0xbd34dba3	-0.044154774
75	0x3d67f3a9	0.056628857
76	0xbd651d30	-0.05593604
77	0x3d0bd476	0.034138165
78	0xbcd7ab7f	-0.026326893
79	0xbd976f59	-0.07394285
80	0xbdb299c1	-0.087207325
81	0xbcbbc401	-0.02292061
82	0x3d9430ad	0.07235847
83	0xbdfed3e1	-0.124427564
84	0x3d98f87a	0.07469268
85	0x3daf4c7e	0.085595116
86	0x3def94f9	0.11698336
87	0xbdb9e919	-0.09077663
88	0x3dbbe2c1	0.09174109
89	0xbda1579d	-0.07878039
90	0x3d3f36e2	0.0466832
91	0xbd986511	-0.07441152
92	0xbc86dc69	-0.016462522
93	0x3da8e5f0	0.08246982
94	0x3c9221f1	0.01783845
95	0xbe011fc9	-0.12609781
96	0xbd6fa0ad	-0.05850284
97	0x3cd46b2e	0.025930014
98	0xbd6dae15	-0.058027346
99	0x3cb8e3c1	0.022569539
100	0xbc0f1296	-0.008732459
101	0x3d079976	0.033105336
102	0xbb49ce7d	-0.0030793243
103	0x3cb3663c	0.021899335
104	0xbde02292	-0.10944094
105	0xbd065562	-0.03279627
106	0x3dd7dc71	0.10540093
107	0xbda1040e	-0.078621015
108	0xbd5b89f7	-0.05359837
109	0xbc8105f7	-0.015749915
110	0xbdff3ec9	-0.12463147
111	0xbde6b829	-0.112655945
112	0xbde45638	-0.111492574
113	0x3ae820bb	0.001770995
114	0xbdf1c42b	-0.11804994
115	0x3bb6552f	0.005564354
116	0x3d413bf0	0.0471763
117	0xbc99e59a	-0.01878624
118	0x3ca92f48	0.020652428
119	0x3bed6c8d	0.0072456063
120	0xbccc0b10	-0.024907619
121	0xbcc99d7e	-0.024611231
122	0xbbffabc1	-0.007802457
123	0xbcf493f9	-0.029855715
124	0xbdaefa3b	-0.085438214
125	0x3d9ae2bd	0.07562778
126	0x3dd21b03	0.10259058
127	0xbd5569e5	-0.052102942
128	0x3e07bcae	0.1325557
129	0x3db566d5	0.08857504
130	0x3e16829e	0.14698264
131	0x3dcb8797	0.09937971
132	0xbd9626f7	-0.07331651
133	0x3bdf9813	0.0068235486
134	0x3d5e0ff9	0.05421445
135	0xbe0efcc3	-0.13963608
136	0xbd74c30e	-0.05975633
137	0x3dd45021	0.10366846
138	0xbd90135f	-0.07034945
139	0xbd852b6d	-0.065024234
140	0xbda64e67	-0.08120423
141	0x3e583d7c	0.21117204
142	0x3d09ba46	0.03362491
143	0xbdf1f326	-0.11813955
144	0x3dea0932	0.11427535
145	0x3edbb2a3	0.42909727
146	0x3dc11873	0.094284914
147	0xbe147e08	-0.14501202
148	0x3acaf89c	0.0015485468
149	0xbd5ec0e8	-0.05438319
150	0xbe9ea54f	-0.30985495
151	0x3d379222	0.044817097
152	0xbd9a15fe	-0.07523726
153	0x3daad7a4	0.083419114
154	0xbe4eed24	-0.2020765
155	0x3e0d5815	0.13803132
156	0xbde6faab	-0.1127828
157	0xbdbef488	-0.093239844
158	0x3c8a18f0	0.016857594
159	0x3e05d4cc	0.13069457
160	0x3d52a777	0.05142924
161	0x3c280372	0.010254728
162	0x3e02e593	0.12782888
163	0xbc5c3a2e	-0.0134416055
164	0x3cda17c7	0.026622666
165	0xbdf23a69	-0.11827547
166	0x3d32a820	0.043617368
167	0xbe21e014	-0.15808135
168	0x3e2eccfc	0.17070383
169	0xbd516665	-0.05112304
170	0xbddc4cf1	-0.10756863
171	0x3d9098b4	0.07060376
172	0x3e8adcda	0.2712162
173	0x3d8aed03	0.06783488
174	0xbdac4222	-0.08411051
175	0x3b5ec5de	0.003399245
176	0x3cbdd496	0.023172658
177	0x3e02a38d	0.12757702
178	0x3cb17392	0.021661554
179	0x3d825f94	0.06365886
180	0xbcd81180	-0.026375532
181	0x3e326baf	0.1742389
182	0xbddad088	-0.106843054
183	0xbd81d379	-0.06339163
184	0xbdca38d8	-0.09874123
185	0x3eaec8e7	0.3413765
186	0x3e70fb79	0.23533429
187	0x3d6e73e0	0.058215976
188	0x3e079852	0.132417
189	0x3d900b38	0.0703339
190	0x3b886c90	0.0041633323
191	0x3dc0d9ee	0.09416567
192	0x3dd41afa	0.10356708
193	0x3e162e47	0.14666091
194	0xbd062a40	-0.032755136
195	0xbd0dbdef	-0.034604963
196	0xbd5ea3c4	-0.054355398
197	0xbdc387a9	-0.095473595
198	0x3db973da	0.090553
199	0x3c138533	0.009003925
200	0xbced9f93	-0.029006755
201	0x3dc0b6cd	0.094098665
202	0xbe348414	-0.17628509
203	0xbe517bfd	-0.20457454
204	0x3c943520	0.018091738
205	0x3e44b1cd	0.1920845
206	0x3cd303a1	0.025758566
207	0xbd83713a	-0.06418081
208	0x3cfa297a	0.030537356
209	0xbe1b9c25	-0.15196283
210	0xbda84030	-0.08215368
211	0x3e394681	0.18093301
212	0x3dd3bd02	0.10338785
213	0x3b10e49d	0.002210892
214	0xbe5c065a	-0.21486798
215	0x3ca20738	0.019778833
216	0xbdeb21e0	-0.114810705
217	0xbcf5929f	-0.029977141
218	0xbe6d3b8b	-0.23167245
219	0x3de29540	0.110636234
220	0x3de2723a	0.11056943
221	0xbdb03396	-0.08603589
222	0xbdc57699	-0.09641761
223	0xbdabc453	-0.08387055
224	0xbe3e717e	-0.18597981
225	0x3ca8aff8	0.020591721
226	0x3dff767a	0.124737695
227	0x3dfd45d0	0.12366831
228	0xbd939c50	-0.072075486
229	0xbd2c9bc3	-0.042140733
230	0xbe244e15	-0.16045411
231	0xbc1ed540	-0.009694397
232	0xbec530f0	-0.385139
233	0x3c5f0e93	0.013614315
234	0xbe9d8987	-0.30768988
235	0x3ddcfb5d	0.10790131
236	0xbe472109	-0.19446196
237	0x3e2610d2	0.16217354
238	0xbbd01378	-0.006349977
239	0xb8afb57a	-8.378453e-05
240	0xbe6365d7	-0.22206818
241	0xbe476007	-0.19470225
242	0xbc128025	-0.008941685
243	0x3cf5e692	0.030017171
244	0xbdb06ced	-0.08614526
245	0xbd837d26	-0.064203545
246	0x3dd2b6a6	0.10288744
247	0xbe1ad150	-0.15118909
248	0x3d8dded0	0.06927264
249	0xbe9ffc0e	-0.3124699
250	0x3e10645b	0.14100783
251	0x3dce79ed	0.10081849
252	0x3dd38f83	0.10330107
253	0x3d10da27	0.035364296
254	0x3dcc1e57	0.09966724
255	0xbd7daec7	-0.06193426

stack.2.0.bias f4 [32]
0	0x3cd3005e	0.025757011
1	0xbd522a43	-0.051309835
2	0x3e2c7b7d	0.16843982
3	0xbdbd31f9	-0.09238047
4	0x3e572c8a	0.21013084
5	0x3ddd79d4	0.108142525
6	0xbd72c556	-0.059270225
7	0x3d7dbcfe	0.061947815
8	0xbdde610a	-0.108583525
9	0xbb952deb	-0.004552593
10	0xbd408703	-0.047003757
11	0xbc2497cb	-0.010045956
12	0x3d862941	0.06550837
13	0xbdfae0fe	-0.12249945
14	0x3cea143c	0.028574102
15	0x3ca608d3	0.02026788
16	0x3ca0e46d	0.019640172
17	0xbcefcab7	-0.029271467
18	0xbd59f412	-0.05321128
19	0xbdc87408	-0.09787756
20	0xbb650f34	-0.0034951689
21	0x3d7f6579	0.06235263
22	0x3d7cf5da	0.0617579
23	0xbd1cb29c	-0.038256273
24	0x3dc31bed	0.09526811
25	0xbe067fd1	-0.13134696
26	0xbd1e2ccf	-0.03861695
27	0xbd9dd17d	-0.07705972
28	0xbd8baeb4	-0.06820431
29	0xbcc054dd	-0.023477966
30	0x3dffdb37	0.12492984
31	0xbd8637d5	-0.06553618

stack.3.0.weight f4 [10, 32]
0	0x3e20deeb	0.15710036
1	0x3dc89c8b	0.09795483
2	0x3e5dcc78	0.2166003
3	0x3da1f75c	0.07908508
4	0x3e6dc8dc	0.23221153
5	0xbe0297db	-0.12753241
6	0xbe1ab1b9	-0.15106858
7	0xbcb87542	-0.02251685
8	0x3e04181d	0.12899823
9	0x3e540121	0.20703556
10	0xbe06fcb4	-0.13182336
11	0xbe43d63e	-0.19124696
12	0x3ccc3701	0.024928572
13	0x3e2094e9	0.15681805
14	0x3e264abc	0.16239446
15	0x3daa2295	0.08307377
16	0xbde9a447	-0.114082865
17	0xbe5d5922	-0.21616033
18	0xbdf0eee5	-0.117643155
19	0x3e324ac4	0.17411333
20	0xbe0332a8	-0.12812293
21	0x3e2deda2	0.16985181
22	0x3d78abf7	0.060710873
23	0x3e1d5dcd	0.15367813
24	0x3dfd3601	0.12363816
25	0xbdf9071d	-0.1215956
26	0x3df2a15f	0.11847185
27	0xbd60b2b0	-0.05485791
28	0x3e58e930	0.21182704
29	0xbe225bdd	-0.15855356
30	0xbcca9a3d	-0.02473175
31	0xbe10863b	-0.14113705
32	0xbe96e7b5	-0.29473653
33	0xbddafe0b	-0.10692986
34	0xbe0ee1c7	-0.13953315
35	0x3d6097e5	0.054832358
36	0x3e2c894e	0.16849253
37	0xbdc642f7	-0.09680741
38	0xbcfa2cbc	-0.03053891
39	0xbde1a9af	-0.11018693
40	0x3e56f271	0.20990922
41	0xbe456c9b	-0.19279711
42	0x3dbc473f	0.091932766
43	0x3e834bea	0.25643855
44	0xbe781407	-0.2422639
45	0x3dfd8982	0.12379743
46	0xbe2cfcb1	-0.16893269
47	0xbe1e8e75	-0.1548403
48	0xbd83a6d1	-0.06428302
49	0x3c7d31f2	0.015453802
50	0xbe16d63f	-0.14730166
51	0x3e0f7b31	0.14011838
52	0x3e72fda6	0.23729572
53	0xbe5896c8	-0.21151268
54	0xbe85dc79	-0.2614477
55	0x3e1665c0	0.14687252
56	0x3e23d134	0.15997773
57	0xbe2943b7	-0.16529737
58	0xbe0b23fe	-0.13587949
59	0xbd78f946	-0.0607846
60	0x3e48f99a	0.19626465
61	0x3d5e912e	0.054337673
62	0x3e17684f	0.14785884
63	0x3e3a2e59	0.18181743
64	0xbe1b467a	-0.15163603
65	0x3db676a3	0.08909347
66	0x3e1d6643	0.15371041
67	0x3b819437	0.003954436
68	0x3e216ea2	0.1576486
69	0x3de4f7c5	0.11180071
70	0x3e0ab703	0.13546376
71	0xbda8d639	-0.08243985
72	0xbe827eec	-0.2548746
73	0xbe424ce0	-0.18974638
74	0xbe4dde5c	-0.20104355
75	0x3e4b90d7	0.19879471
76	0x3deb2b25	0.114828385
77	0xbe1d4297	-0.15357433
78	0xbc6dcd44	-0.014514271
79	0x3e5152d8	0.20441759
80	0x3c40c739	0.011766248
81	0xbdce5d69	-0.1007641
82	0x3db31464	0.087441236
83	0xbdbe5ca1	-0.09295011
84	0xbe3f0db6	-0.18657574
85	0xbe64e09c	-0.22351307
86	0x3e294d4e	0.16533396
87	0xbe12ad2a	-0.1432387
88	0xbe319c3c	-0.17344755
89	0xbdc426dd	-0.09577725
90	0x3de65f31	0.11248625
91	0x3e4476fe	0.19186017
92	0xbe3fcf9c	-0.1873154
93	0xbe4112d1	-0.18854834
94	0x3d1997e8	0.037498385
95	0xbe2f1e01	-0.1710129
96	0xbc9b3508	-0.018946186
97	0x3dc813fa	0.09769435
98	0xbd59c839	-0.053169463
99	0xbdbcc2e0	-0.09216857
100	0x3d884358	0.0665347
101	0xbd1d85d5	-0.03845771
102	0xbdf540c6	-0.11975245
103	0x3deb8386	0.114996955
104	0xbd98dc2c	-0.074638695
105	0xbd129533	-0.03578682
106	0xbd257e09	-0.0404034
107	0x3dcc3520	0.0997107
108	0x3e00ee29	0.12590851
109	0xbbed81a3	-0.00724812
110	0xbcfecb62	-0.03110284
111	0x3e0ded8d	0.1386015
112	0x3cc22020	0.023696959
113	0xbdeb16cb	-0.11478957
114	0x3e07bfbb	0.13256733
115	0xbe34f782	-0.17672542
116	0x3c7ef20e	0.01556064
117	0x3dd8b62a	0.1058162
118	0xbe3d8183	-0.18506436
119	0x3d6358f1	0.055504743
120	0xbda7669a	-0.081738666
121	0xbd3c90a3	-0.046036374
122	0x3b9474b9	0.004530516
123	0xbdef556e	-0.11686216
124	0xbe4afc2a	-0.19822755
125	0xbdc0eb93	-0.09419932
126	0xbce39d2b	-0.027784904
127	0xbe18d2dc	-0.14924186
128	0x3d6a7613	0.05724151
129	0xbdb13c37	-0.08654063
130	0xbdc4a2a5	-0.096013345
131	0x3e2cac26	0.16862544
132	0xbe09cf44	-0.13457972
133	0x3cf4db83	0.029889828
134	0xbe04b143	-0.12958245
135	0xbe33ddaf	-0.17565034
136	0xbd74d0f3	-0.059769582
137	0x3e143552	0.14473465
138	0x3c62609d	0.01381698
139	0xbd24e46b	-0.0402569
140	0xbe22f28b	-0.15912835
141	0xbe267a1b	-0.16257517
142	0x3de8ab2c	0.113607734
143	0x3d22ed9f	0.039777394
144	0x3dbc72b1	0.09201563
145	0xbd9549a1	-0.07289434
146	0xbd51a047	-0.051178243
147	0x3e1f5c1e	0.15562484
148	0x3e07578c	0.1321699
149	0xbc82031e	-0.015870627
150	0xbd041dfa	-0.03225515
151	0x3de879e8	0.11351377
152	0x3ca4cde1	0.020117702
153	0xbdf51407	-0.119667105
154	0xbe1874e0	-0.14888334
155	0x3d8530e6	0.06503467
156	0xbb11327b	-0.0022155333
157	0x3cb6e4e6	0.022325944
158	0xbd131f56	-0.035918556
159	0xbdf8e3e6	-0.12152843
160	0xbe7cdc98	-0.24693525
161	0xbc9a570d	-0.018840337
162	0x3e24f6fe	0.16109845
163	0xbeb835fb	-0.35978684
164	0x3d85f170	0.06540191
165	0xbb930ec3	-0.0044878437
166	0xbdccd42d	-0.10001407
167	0xbe2ba00a	-0.16760269
168	0xbede1a27	-0.43379328
169	0x3d7e75ca	0.06212405
170	0x3e6a094a	0.22855106
171	0xbd91a9d2	-0.07112469
172	0x3d84bfb7	0.06481879
173	0x3d81a496	0.063302204
174	0x3c7dec50	0.015498236
175	0xbca3ca42	-0.019993905
176	0x3da37982	0.0798216
177	0x3e56aea2	0.20965055
178	0xbe2aea39	-0.16690911
179	0xbc8ca372	-0.01716778
180	0xbeae6bcc	-0.34066617
181	0x3b533947	0.0032230185
182	0x3df87c60	0.12133098
183	0x3e1e0c84	0.15434462
184	0x3d3f8cc0	0.04676509
185	0x3d191fa6	0.037383698
186	0xbec94fdd	-0.39318743
187	0xbf052f37	-0.5202517
188	0x3e233486	0.15938005
189	0x3e3bdc16	0.18345675
190	0x3e431b75	0.19053443
191	0xbe2e7031	-0.17034985
192	0x3e0e6d38	0.13908851
193	0xbd9be022	-0.07611109
194	0xbcc799fe	-0.024365421
195	0xbe0ace38	-0.13555229
196	0x3d3adc0d	0.045620013
197	0xbe42f5d4	-0.19039088
198	0x3dae832b	0.08521112
199	0xbcfc6822	-0.030811373
200	0x3db7bc14	0.0897142
201	0xbd142edb	-0.036177497
202	0x3dad845c	0.08472511
203	0x3e119374	0.14216405
204	0xbd95c938	-0.0731377
205	0xbd411154	-0.047135666
206	0xbdcd2a9b	-0.10017892
207	0xbca2fc03	-0.01989556
208	0x3d41930b	0.04725937
209	0xbe06b803	-0.13156132
210	0xbe78bce9	-0.24290814
211	0xbd8b558f	-0.068034284
212	0xbda60d77	-0.08108037
213	0xbdb2db03	-0.087331794
214	0xbcf1ea62	-0.029530708
215	0x3d704c31	0.05866641
216	0xbe15bc05	-0.14622505
217	0xbcb7b88b	-0.022426864
218	0xbcd7914b	-0.026314398
219	0x3e061317	0.1309322
220	0x3d346270	0.04403919
221	0x3e00b134	0.12567598
222	0xbd50cee6	-0.050978564
223	0xbe089987	-0.13339816
224	0x3e7d84b6	0.24757656
225	0xbe2703e9	-0.16310085
226	0x3e45fcbc	0.19334692
227	0x3e77de92	0.24205998
228	0xbe9b7547	-0.30362913
229	0xbe99bb58	-0.30025744
230	0xbe1bfb11	-0.15232493
231	0xbdd9776a	-0.106184795
232	0xbdc9ee2d	-0.098598816
233	0xbe47e6f1	-0.19521691
234	0x3c813025	0.015770027
235	0x3e2206a3	0.15822844
236	0xbcc30665	-0.02380676
237	0xbcde5b8e	-0.027143266
238	0xbe48fcac	-0.19627637
239	0xbdc17931	-0.094469436
240	0x3d0a2bea	0.033733286
241	0x3e2a8e3e	0.16655824
242	0xbe80661d	-0.25077906
243	0x3e0ae5d0	0.13564229
244	0x3d96b7c2	0.07359268
245	0x3e49e94d	0.19717903
246	0x3df5e3dd	0.12006352
247	0x3e285067	0.16436921
248	0xbe21e855	-0.15811284
249	0xbddeee2c	-0.108852714
250	0xbe0d06bd	-0.13772102
251	0x3d8495c5	0.06473879
252	0xbe802c07	-0.2503359
253	0x3dba30c4	0.090913326
254	0xbc849c4f	-0.016187815
255	0xbe7428c9	-0.23843683

stack.3.0.bias f4 [10]
0	0x3e15ec15	0.1464084
1	0xbe2b5975	-0.16733344
2	0x3e391229	0.18073334
3	0xbe3b8f03	-0.18316273
4	0xbdf43ca2	-0.11925627
5	0xbc677b75	-0.014128556
6	0x3d790fc9	0.06080607
7	0x3e56edef	0.20989202
8	0xbdf8399c	-0.12120363
9	0x3dc2b480	0.09507084
