src/fminst/models/teacher_5cl_2.pt (torch, 447183 bytes, 8 tensors)

stack.0.0.weight f4 [128, 784]
0	0x3dd8a0d6	0.10577552
1	0xbe7116aa	-0.23543802
2	0xbf07bad7	-0.5301947
3	0x3e7887c4	0.2427054
4	0xbe5d81c9	-0.2163154
5	0xbecda18c	-0.40162313
6	0x3f017b71	0.5057898
7	0x3e1cb5cf	0.1530373
8	0xbecce564	-0.4001876
9	0xbcbde3ae	-0.023179855
10	0xbdae660f	-0.0851556
11	0xbdf41b11	-0.11919225
12	0x3dd6e448	0.1049276
13	0xbea20ab7	-0.316488
14	0xbeef60d0	-0.4675355
15	0xbe74336b	-0.2384774
16	0x3daea7c2	0.08528091
17	0x3e03e9f1	0.1288221
18	0x3ddca761	0.107741125
19	0x3cd5d3c4	0.026101954
20	0x3dd0f9eb	0.10203918
21	0x3ef1c43e	0.47220033
22	0x3f834db8	1.0258093
23	0x3f13ccf0	0.57734585
24	0xbd68ed5b	-0.056866985
25	0xbc4b148c	-0.0123950355
26	0xbe39915e	-0.1812186
27	0x3d8970d8	0.06710976
28	0x3d781cf2	0.06057448
29	0xbe9b07d9	-0.30279425
30	0xbf4b8993	-0.79506797
31	0x3ffac57b	1.9591516
32	0x3f81416e	1.0098093
33	0x3f502776	0.8131021
34	0x3f997b45	1.1990744
35	0x3f033249	0.51248604
36	0x3ed27e79	0.41112116
37	0x3ed4d205	0.41566482
38	0x3c1f20d6	0.009712419
39	0xbd751829	-0.059837494
40	0x3db9007a	0.09033294
41	0x3e1565c5	0.14589603
42	0x3e31b16e	0.1735284
43	0x3dcd7091	0.10031236
44	0xbcc43c6c	-0.023954593
45	0xbd3a232a	-0.04544369
46	0x3e8f522a	0.27992374
47	0x3ed3eb45	0.41390434
48	0x3f0f5d71	0.56001955
49	0x3f6c58a9	0.92322785
50	0x3f776b42	0.9664804
51	0x3f79afb2	0.97533715
52	0x3f4d3159	0.80153424
53	0xbe3e0dab	-0.18559901
54	0xbe75d848	-0.24008286
55	0x3d628ad1	0.055308167
56	0x3ce0123d	0.027352447
57	0xbeb77358	-0.35830188
58	0xbea5ed3d	-0.3240756
59	0x3e363410	0.17793298
60	0xbf551d98	-0.8324828
61	0x3e4452ff	0.19172285
62	0x3ed23d20	0.4106226
63	0x3e65fe39	0.2246026
64	0x3f0bc3c4	0.5459559
65	0x3e832fd6	0.25622433
66	0xbd5c4501	-0.053776745
67	0xbda28def	-0.07937228
68	0xbd3bb20d	-0.0458241
69	0x3e09924f	0.13434719
70	0x3db29d2c	0.087213844
71	0xbe001c0c	-0.12510699
72	0xbe652160	-0.22376013
73	0xbdc1341c	-0.09433767
74	0x3c828916	0.015934508
75	0x3ed3e67e	0.4138679
76	0x3f414fb6	0.75512254
77	0x3ed9dfb1	0.42553475
78	0x3c9150b0	0.01773867
79	0x3f5ef47c	0.87091804
80	0x3eb9dfbe	0.36303514
81	0x3e657337	0.22407232
82	0x3f5029e6	0.8131393
83	0x3c7f6443	0.015587869
84	0x3dc2de4f	0.09515058
85	0xbea0b62d	-0.3138899
86	0xbef7cb3e	-0.4839725
87	0xbf50ee1d	-0.8161333
88	0xbf4db938	-0.80360746
89	0x3f308663	0.6895506
90	0x3e9772bb	0.2957972
91	0x3ea04e5a	0.31309777
92	0x3f06fa2b	0.52725476
93	0xbdc32dd7	-0.09530228
94	0xbdd23774	-0.10264483
95	0xbde0edac	-0.10982832
96	0xbe04c51f	-0.1296582
97	0xbdd2e00f	-0.10296642
98	0xbda8ee99	-0.08248634
99	0xbe5c1c67	-0.2149521
100	0xbd9fda05	-0.07805256
101	0xbd970a0c	-0.07374963
102	0xbd9489b0	-0.07252824
103	0x3e371d4e	0.17882273
104	0x3f14d5ea	0.58138907
105	0x3eee9f51	0.46605924
106	0x3e351e99	0.17687453
107	0x3ed8b4c2	0.42325407
108	0x3f2c5e6b	0.6733157
109	0xbe013c9d	-0.12620778
110	0xbcfa0181	-0.030518295
111	0x3bb319d2	0.0054657245
112	0x3dacef32	0.084440604
113	0xbe785df8	-0.24254596
114	0x3e04ddac	0.12975186
115	0xbf23d746	-0.64000356
116	0xbf4c2a07	-0.7975163
117	0x3f417886	0.7557453
118	0x3e19589d	0.1497521
119	0x3eaa707a	0.33288938
120	0x3eb58aae	0.35457367
121	0xbe98c45b	-0.29837307
122	0xbde1f513	-0.11033072
123	0xbd5fe157	-0.05465826
124	0xbd60ff94	-0.05493124
125	0xbe4f5c4a	-0.20250049
126	0xbe20a99d	-0.15689702
127	0xbdda4433	-0.10657539
128	0xbdb60975	-0.088885225
129	0x3d064059	0.03277621
130	0xbd2ca12f	-0.042145904
131	0x3cdd05a0	0.026980221
132	0x3f0d051b	0.55085915
133	0x3efe3f5f	0.49657723
134	0x3ec74b4b	0.3892463
135	0x3e888992	0.26667458
136	0x3f82063b	1.0158151
137	0xbe47dde3	-0.19518237
138	0xbe923059	-0.2855251
139	0x3c78ca25	0.015184914
140	0xbc8ff6f1	-0.017573806
141	0xbde229f3	-0.110431574
142	0x3c57ab40	0.013163388
143	0xbedcc7ca	-0.43121177
144	0xbcc568bf	-0.024097798
145	0x3f369d87	0.7133412
146	0x3db77115	0.089571156
147	0x3e3fabdb	0.18717901
148	0x3e3d3bce	0.18479845
149	0xbe3c9a06	-0.1841813
150	0x3d3ccb64	0.046092406
151	0xbdd15aa6	-0.10222368
152	0xbe0a6a4d	-0.13517113
153	0xbe3b0ee4	-0.18267399
154	0xbe417897	-0.18893658
155	0xbdbafe23	-0.09130504
156	0xbe585f6e	-0.21130154
157	0xbd1b1b27	-0.03786769
158	0x3d821ef5	0.06353561
159	0xbdd7271f	-0.10505509
160	0x3ef948d4	0.48688376
161	0x3f14be93	0.58103293
162	0x3efc7f3d	0.49315825
163	0x3ed17014	0.4090582
164	0x3f43cdfb	0.76486176
165	0xbdaf7863	-0.08567884
166	0xbeaf9dc3	-0.3430005
167	0xbe885cd8	-0.26633334
168	0xbe723e73	-0.23656635
169	0x3efdea6f	0.4959292
170	0xbedabd2c	-0.42722452
171	0xbf66efec	-0.9020984
172	0x3f0cc00e	0.5498055
173	0x3edf4bed	0.43612614
174	0x3d6e2050	0.058136284
175	0xbe3ccb05	-0.18436821
176	0xbdc347ed	-0.09535203
177	0xbe33bec5	-0.17553242
178	0x3b5c7ed5	0.0033644934
179	0xbdd3eeb9	-0.10348267
180	0xbe474995	-0.19461663
181	0xbe841328	-0.25795865
182	0xbe4494c4	-0.19197375
183	0xbe18a732	-0.1490753
184	0xbdf1e7ab	-0.11811765
185	0xbd813377	-0.06308644
186	0x3c4295c0	0.0118765235
187	0xbc0f781a	-0.008756662
188	0x3e4b1c7d	0.19835086
189	0x3ef7b1cc	0.48377836
190	0x3e91d259	0.28480795
191	0x3ece3b3c	0.40279567
192	0x3f2c8776	0.67394197
193	0xbec89632	-0.3917709
194	0xbe5c8795	-0.21536095
195	0x3da43cd8	0.080194175
196	0x3f355f80	0.70848846
197	0xbeaed05d	-0.34143344
198	0xbf25209b	-0.64502877
199	0x3e765e97	0.2405952
200	0x3f27bc5d	0.65521795
201	0x3ebb7ca7	0.3661854
202	0x3d98fe89	0.07470424
203	0xbe2ce6d4	-0.16884929
204	0xbe42b23c	-0.19013304
205	0xbe98045c	-0.29690826
206	0xbd5d888d	-0.054085303
207	0xbe0f4723	-0.1399198
208	0xbda1d2ab	-0.0790151
209	0xbe5369cc	-0.20645827
210	0xbea6df71	-0.32592347
211	0xbe3ae577	-0.18251596
212	0xbdad0414	-0.084480435
213	0xbe0181cf	-0.12647174
214	0xbe0a499b	-0.13504641
215	0xbdf55a0d	-0.119800664
216	0x3cacff87	0.021117939
217	0x3ed1bf31	0.4096618
218	0x3eb405db	0.35160717
219	0x3f10b7e7	0.5653061
220	0x3f85b170	1.0444775
221	0x3ea40b52	0.32039887
222	0xbeb8464f	-0.3599114
223	0x3e727578	0.23677623
224	0x3e617525	0.22017343
225	0xbf1340b7	-0.5752062
226	0x3f21e547	0.63240474
227	0x3dbfd917	0.093675785
228	0x3f02c89b	0.5108735
229	0x3e9055f1	0.28190568
230	0x3e69e024	0.22839409
231	0xbd8d6ab8	-0.069051206
232	0xbea34478	-0.31888175
233	0xbefb1da6	-0.49046057
234	0xbeb010fa	-0.34387952
235	0xbd9f6de6	-0.07784633
236	0xbdf5ffbd	-0.12011669
237	0xbe8dfac2	-0.27730376
238	0xbe980874	-0.2969395
239	0xbdd2ef07	-0.10299497
240	0x3b7253e6	0.0036976277
241	0xbe3c6b56	-0.1840032
242	0xbe8f5b61	-0.27999404
243	0xbe2e459b	-0.1701874
244	0x3e2e4731	0.17019345
245	0x3f088cab	0.5333964
246	0x3f0fa22b	0.56106824
247	0x3f22f704	0.63658166
248	0x3f7e8beb	0.9943225
249	0x3f50c3e0	0.8154888
250	0xbf24eecd	-0.6442688
251	0xbf1c861b	-0.6114213
252	0xbee3722b	-0.4442304
253	0x3f856cd8	1.0423841
254	0x3f2b8d17	0.6701216
255	0x3e60c3ec	0.21949738

stack.0.0.bias f4 [128]
0	0x3e9cefe6	0.30651778
1	0xbd1f857a	-0.038945653
2	0xbcc181c5	-0.02362145
3	0x3dfcdea0	0.1234715
4	0x3f12cead	0.5734661
5	0x3f0d4444	0.5518229
6	0xba0263a6	-0.0004973955
7	0xbe0274cd	-0.12739868
8	0xbd626e85	-0.05528118
9	0x3f80c8db	1.0061296
10	0x3f6f5ab4	0.93497777
11	0xbdba9dcb	-0.09112128
12	0x3e41528f	0.1887915
13	0xbf13f0fb	-0.5778958
14	0xbe34dc08	-0.1766206
15	0xbc73d9a4	-0.014883433
16	0xbd29ab03	-0.041422855
17	0x3f21a7fb	0.6314694
18	0x3fbda770	1.4816723
19	0xbd0ab3c6	-0.03386285
20	0xbd9ac805	-0.07557682
21	0xbfd517d6	-1.6647899
22	0x3f0fc6cf	0.5616273
23	0x3e2cd8df	0.16879605
24	0xbda305a6	-0.07960062
25	0xbcf50db7	-0.029913766
26	0xbda45bc5	-0.08025316
27	0x3f592c5d	0.8483332
28	0xbd80ad67	-0.06283074
29	0x3ef9d7ac	0.48797357
30	0x3e9a09eb	0.30085692
31	0xbe2df22f	-0.16986917
32	0xbcff056e	-0.031130519
33	0xbd8c5989	-0.06853015
34	0x3e028b66	0.12748489
35	0x3df97732	0.12180938
36	0xbd4ff636	-0.050771914
37	0xbda391ef	-0.07986819
38	0xbd300b29	-0.042979393
39	0xbd6c088e	-0.057625346
40	0x3da0f0af	0.07858407
41	0xbea2fcda	-0.31833535
42	0xbdb801ac	-0.08984694
43	0x3fa2a7e6	1.2707489
44	0xbef560ad	-0.4792532
45	0xbd820da4	-0.06350258
46	0x3f8f52ee	1.1197183
47	0xbd1b8d80	-0.03797674
48	0x3f0ce412	0.5503551
49	0xbd6a97aa	-0.057273544
50	0xbd81d70f	-0.06339847
51	0xbd284930	-0.041085422
52	0xbcd07c25	-0.025449822
53	0xbd73d9cb	-0.059533875
54	0xbd47f4d7	-0.04881748
55	0xbda079eb	-0.07835754
56	0xbd8840c2	-0.066529766
57	0x3f4d20f2	0.80128396
58	0x40078b6a	2.1178842
59	0x3d786c38	0.06065008
60	0xbd5a66be	-0.05332064
61	0x3de40454	0.11133638
62	0x3ed524d4	0.4162966
63	0xbdbca6b8	-0.092114866
64	0x3dff6259	0.1246993
65	0xbda27c51	-0.07933868
66	0xbd5338dc	-0.051567897
67	0x3d8c2cde	0.06844495
68	0x3d647ee1	0.055785064
69	0xbdc11afb	-0.09428974
70	0x3f9d2523	1.2276958
71	0x3f35e1a4	0.71047425
72	0x3f6c4bc4	0.9230311
73	0xbca5e1f2	-0.02024934
74	0xbe797644	-0.24361521
75	0x3e1c83fa	0.1528472
76	0x3df5a185	0.11993698
77	0xbdb7d1d8	-0.089755714
78	0x3f031cff	0.5121612
79	0xbe8139e4	-0.2523948
80	0xbf5c86b6	-0.8614305
81	0xbd3f1de6	-0.046659373
82	0xbe4f20e5	-0.20227392
83	0x3f5825ee	0.84432876
84	0xbd497037	-0.049179282
85	0xbd8d8a48	-0.06911141
86	0x3f60d9a9	0.87832123
87	0xbd72807d	-0.059204567
88	0xbdc65713	-0.09684577
89	0xbd369c45	-0.044582624
90	0xbdb6be33	-0.08922996
91	0xbd776995	-0.060403425
92	0xbd85c43d	-0.0653157
93	0x3faa4ee9	1.3305331
94	0xbd8527e6	-0.06501751
95	0xbd8c468f	-0.068493955
96	0xbd97e5a7	-0.074168496
97	0xbd081db6	-0.03323146
98	0x3f1ca7b7	0.6119341
99	0xbf3bebaa	-0.7340647
100	0xbde7aa3a	-0.11311765
101	0xbd80e6f6	-0.06294052
102	0xbd21d40d	-0.039508868
103	0x3b254369	0.0025217182
104	0xbeea6e1d	-0.45787135
105	0x3f70abde	0.9401225
106	0xbcf68507	-0.03009273
107	0xbd5c9a1f	-0.05385792
108	0xbd4467bd	-0.047950495
109	0x3ffd35ba	1.9782021
110	0xbd4d4748	-0.050116807
111	0x3cb06419	0.021532105
112	0xbda434b8	-0.08017868
113	0x3eb042c6	0.34425944
114	0xbd75f144	-0.060044542
115	0x3f4cd429	0.8001123
116	0xbd674ed7	-0.056471672
117	0x3f2f0803	0.683716
118	0x3f7e24d3	0.9927494
119	0xbdb6bd17	-0.08922785
120	0xbd7f8442	-0.06238199
121	0xbd7e7de8	-0.062131792
122	0xbe625a91	-0.22104861
123	0xbd57eb70	-0.052714765
124	0x3ee0581a	0.43817216
125	0xbe171f77	-0.14758097
126	0xbdabea5b	-0.08394309
127	0xbd970e0c	-0.07375726

stack.1.0.weight f4 [64, 128]
0	0x3df24a63	0.118305944
1	0xbcc32797	-0.023822589
2	0x3e2e8945	0.17044552
3	0x3dda9c55	0.10674349
4	0xbec10e81	-0.37706378
5	0xbe21a330	-0.15784907
6	0xbcd56d34	-0.026053049
7	0x3ddb7ea8	0.10717517
8	0x3a6587b7	0.000875588
9	0xbb7d4ea9	-0.0038651621
10	0xbe707d60	-0.23485327
11	0x3d0dd402	0.034626015
12	0xbe6f206e	-0.23352215
13	0x3eaad90c	0.3336872
14	0xbdf7af39	-0.12093968
15	0x3de6e906	0.112749144
16	0xbe179d16	-0.14806017
17	0xbf1306f4	-0.57432485
18	0xbf46d693	-0.77671164
19	0xbb9643e9	-0.0045857322
20	0xbc072402	-0.008248331
21	0x3ed59725	0.41716877
22	0x3dce543c	0.1007466
23	0x3ed02c96	0.40659016
24	0xbdffb81a	-0.124862865
25	0x3e11bfde	0.14233348
26	0xbdcf40c6	-0.101197764
27	0x3e326f28	0.17425215
28	0xbdffba99	-0.124867626
29	0x3d61fd63	0.05517329
30	0xbd3489ef	-0.044076856
31	0x3b5403ab	0.003235082
32	0xbe15c28a	-0.14624992
33	0x3d4b40b1	0.04962224
34	0xbe917a6c	-0.28413713
35	0xbd0863d0	-0.033298314
36	0x3e32bb5b	0.17454283
37	0x3d12416c	0.035706922
38	0xbd450650	-0.048101723
39	0x3db99f5c	0.090635985
40	0x3f06413e	0.524433
41	0x3ee7f68e	0.45305294
42	0xbc5079ed	-0.012724382
43	0x3e0c42e3	0.1369739
44	0x3e0e985b	0.13925306
45	0xbcf33e49	-0.029692786
46	0xbe335335	-0.1751221
47	0x3d420e94	0.047377184
48	0x3d7ebd50	0.06219226
49	0xbcbdc7e4	-0.023166604
50	0x3c4a3730	0.012342259
51	0xba7d8753	-0.0009671349
52	0x3c80694c	0.01567521
53	0xbd963374	-0.07334033
54	0x3b756635	0.0037444953
55	0x3ed849fe	0.42243952
56	0xbd03700e	-0.032089286
57	0x3e69d25e	0.22834155
58	0x3d827211	0.06369413
59	0xbb6c08c6	-0.0036015972
60	0xbcb83203	-0.022484785
61	0x3e85e2e9	0.2614968
62	0x3e544529	0.20729508
63	0xbd5cbaea	-0.053889193
64	0x3c21d86a	0.009878257
65	0x3c4ca720	0.012491018
66	0x3de071f2	0.10959233
67	0xbd049f63	-0.032378566
68	0x3e5afae3	0.21384768
69	0x3cc21ca5	0.0236953
70	0xbf192a4b	-0.5983016
71	0xbd13c959	-0.036080692
72	0xbe0e2c10	-0.13883996
73	0x3dd8234e	0.10553609
74	0xbf0d1ac3	-0.5511896
75	0x3e3bede0	0.18352461
76	0xbc7cd5d5	-0.015431841
77	0x3b3d3b96	0.0028874627
78	0x3d4522ff	0.048129078
79	0xbad25676	-0.0016047496
80	0xbf42cd14	-0.76094174
81	0xbdd6d265	-0.10489348
82	0xbc2a16bc	-0.010381397
83	0x3e5d42b2	0.21607473
84	0xbe13b48f	-0.14424346
85	0xbab7c482	-0.0014020356
86	0xbcef0bd7	-0.02918045
87	0x3b5e53c9	0.0033924452
88	0x3c9573e9	0.018243747
89	0x3be9bac2	0.007132859
90	0x3b91c160	0.004448101
91	0xbc82e583	-0.01597858
92	0xbc826c4e	-0.015920784
93	0x3df8426f	0.12122046
94	0x3de0f1bd	0.10983608
95	0x3c996227	0.01872356
96	0xbdc4e4cb	-0.09613951
97	0xbcd46088	-0.025924936
98	0xbf12b06d	-0.57300454
99	0xbdeede87	-0.116635375
100	0x3de93445	0.11386923
101	0xbc0371a5	-0.0080227
102	0xbc4cd8d1	-0.012502865
103	0x3c38c585	0.011277561
104	0xbe89ce3f	-0.26915166
105	0x3d52acf4	0.051434472
106	0x3e17223f	0.14759158
107	0x3df234bb	0.11826464
108	0xbd90afb6	-0.07064764
109	0x3eae67ad	0.34063473
110	0x3bf18114	0.0073701236
111	0x3deb35bc	0.114848584
112	0x3b87e333	0.0041469573
113	0x3dc695e6	0.096965596
114	0xbe008ef2	-0.1255453
115	0x3d6dad19	0.058026407
116	0x3ca9736f	0.020684926
117	0x3e3688ba	0.17825595
118	0x3d40f3c2	0.047107466
119	0x3e127f98	0.14306486
120	0xbd2bcce9	-0.041943464
121	0xbf35d74a	-0.7103163
122	0x3da1d63a	0.079021886
123	0xbcba4ab8	-0.022740707
124	0xbb9061c0	-0.004406184
125	0x3d86cb4b	0.06581744
126	0x3d32d640	0.043661356
127	0x3c8a4b86	0.016881716
128	0xbdd9296b	-0.10603603
129	0x3c4165b0	0.011804029
130	0x3e70a41e	0.23500106
131	0x3e3def67	0.18548356
132	0xbd32fd05	-0.04369833
133	0x3e914470	0.28372526
134	0xbd8710d2	-0.06595005
135	0x3dc22333	0.0947937
136	0xbe00aa2d	-0.12564917
137	0x3e200d8b	0.15630166
138	0xbd8910ea	-0.06692679
139	0xbdbb3405	-0.09140781
140	0xbe841508	-0.25797296
141	0xbe03f785	-0.1288739
142	0xbea591d0	-0.3233781
143	0x3d3d6da7	0.04624715
144	0xbc9536b3	-0.01821456
145	0xbe0435ff	-0.12911223
146	0x3e325477	0.17415033
147	0xbddd3658	-0.10801381
148	0x3c8ca997	0.01717071
149	0x3e9630ac	0.2933401
150	0xbe0d9d81	-0.13829614
151	0x3e1cae59	0.15300883
152	0x3be20cfd	0.006898521
153	0xbe176131	-0.1478317
154	0xbc17fa40	-0.009275973
155	0xbe05c1b2	-0.1306217
156	0xbe0fa5b9	-0.14028062
157	0xbd8d9b4a	-0.06914385
158	0xbe7178ad	-0.2358119
159	0x3bd8c76d	0.0066155703
160	0x3cd1008d	0.025512958
161	0x3c97f712	0.01855043
162	0xbe2ab5d9	-0.16670932
163	0xbdc83c44	-0.0977712
164	0x3dfacefd	0.12246511
165	0xbcaef9b1	-0.021359297
166	0xbd9250e9	-0.07144339
167	0xbc258da3	-0.01010457
168	0x3f16ae6a	0.58859885
169	0x3f0467c1	0.51720816
170	0x3d5d8eda	0.054091312
171	0xbd36899e	-0.044564836
172	0xbed6038e	-0.41799587
173	0xbd813fb4	-0.063109785
174	0xbe36b1fc	-0.17841333
175	0x3d0c2810	0.034217894
176	0xbe575153	-0.21027116
177	0xbda6ea2e	-0.08150135
178	0x3c80a5a1	0.015703978
179	0x3d428de5	0.047498602
180	0x3c657575	0.014005055
181	0xbd8b4d4e	-0.06801854
182	0xbd01f81a	-0.03173075
183	0x3f0b9403	0.5452272
184	0xbe00b532	-0.1256912
185	0xbd6c5e47	-0.057707097
186	0x3dc0b358	0.09409207
187	0x3d0ce9c7	0.034402635
188	0x3d8a8c9d	0.06765101
189	0x3dc97e91	0.09838594
190	0xbeb9f68b	-0.3632091
191	0xbca85c20	-0.020551741
192	0x3d8dab39	0.06917424
193	0xbd86b602	-0.06577684
194	0xbc1d27e9	-0.009592035
195	0x3e3c929a	0.18415299
196	0x3e137ccc	0.14403075
197	0xbe06692f	-0.13126062
198	0x3d4d8458	0.05017504
199	0xbec5a20b	-0.3860019
200	0xbd984f4a	-0.07436998
201	0x3d89d74d	0.067305185
202	0xbec8cbb0	-0.392179
203	0xbbd0d60b	-0.006373172
204	0x3d0c8c65	0.03431358
205	0xbdb038ee	-0.086046085
206	0x3dcbc365	0.09949378
207	0xbd44a19f	-0.048005696
208	0x3e21b28e	0.1579077
209	0xbce003a7	-0.027345492
210	0x3cb92b54	0.022603668
211	0xbe510600	-0.20412445
212	0xbe0b968c	-0.13631648
213	0x3deb5a4b	0.114918314
214	0xbd049b90	-0.03237492
215	0xbde5786a	-0.11204608
216	0xbe3ab4e5	-0.18233068
217	0xbd5f317f	-0.054490563
218	0x3d33a402	0.043857582
219	0x3cb46a13	0.022023236
220	0xbdae3355	-0.085058846
221	0xbe0f0cf9	-0.13969792
222	0x3c9662ca	0.018357653
223	0xbdd000f2	-0.1015643
224	0xbd9c269c	-0.07624552
225	0xbcd2cc82	-0.025732283
226	0x3c925fef	0.01786801
227	0x3ef1c1dd	0.47218218
228	0x3e26ec3d	0.16301055
229	0x3e46fd6c	0.1943261
230	0x3c962f1d	0.018333012
231	0x3d01a9ab	0.03165595
232	0x3d9f74e7	0.07785969
233	0xbd762155	-0.06009038
234	0x3e0db9b4	0.13840371
235	0x3d5476af	0.051870998
236	0x3c4a48db	0.012346472
237	0x3e370923	0.17874579
238	0xbe019186	-0.12653169
239	0x3dcef1eb	0.10104736
240	0x3cc4c391	0.024019035
241	0xbe4fd4f2	-0.20296076
242	0xbddf973c	-0.109175175
243	0xbeb1e162	-0.34742266
244	0xbc919889	-0.01777293
245	0x3edf8774	0.4365803
246	0xbecf128f	-0.40443847
247	0x3e060691	0.13088442
248	0xbe078aa9	-0.13236488
249	0xbed7d29d	-0.42152873
250	0xbf4ea5c7	-0.80721706
251	0x3cd6ae49	0.026206153
252	0x3d5e3c2f	0.054256614
253	0xbb84fa88	-0.004058186
254	0x3d8ff69b	0.07029458
255	0xbdf72f7b	-0.12069603

stack.1.0.bias f4 [64]
0	0x3f30e594	0.6910031
1	0x3d7b162e	0.06130045
2	0x3fad51d4	1.3540597
3	0xbe381634	-0.1797722
4	0x3ea6f204	0.32606518
5	0x3f860576	1.0470417
6	0xbe017a2e	-0.12644264
7	0xbf4df210	-0.80447483
8	0xbdb1caf9	-0.08681292
9	0xbf19ef2a	-0.6013056
10	0xbd53c7b9	-0.051704142
11	0xbe9e0976	-0.30866593
12	0x3ed3e926	0.41388816
13	0xbf1deb76	-0.6168741
14	0x3ec22805	0.37921157
15	0x3f0c0a3f	0.54703134
16	0xbe34c00f	-0.1765139
17	0xbe7a8905	-0.24466331
18	0xbe4e9462	-0.20173791
19	0xbe826320	-0.2546625
20	0x3f910033	1.1328186
21	0xbdfb712a	-0.12277444
22	0x3fe55f73	1.7919754
23	0x40287016	2.6318412
24	0x3f6b28bd	0.91859037
25	0x3f96f031	1.1792051
26	0xbd4a5556	-0.04939779
27	0x4017be14	2.3709764
28	0xbe36d90d	-0.17856236
29	0x3e41e606	0.18935403
30	0x3f7748bb	0.9659535
31	0x3fa31355	1.2740275
32	0xbe87d7bd	-0.26531783
33	0xbe052a82	-0.13004497
34	0x3c79daea	0.015249947
35	0xbe9521ae	-0.29127258
36	0xbe427f7d	-0.18993945
37	0xbdd4182e	-0.103561744
38	0x3fa6cb8c	1.3030868
39	0x3f39128a	0.72293913
40	0xbd8870bb	-0.06662127
41	0x3f3b611c	0.7319505
42	0xbebc15ec	-0.36735475
43	0x3f7f2d4e	0.99678504
44	0x3f38bbaa	0.7216135
45	0xbdff7c92	-0.12474932
46	0x3f644723	0.89171046
47	0xbdd7779b	-0.1052086
48	0xbdd14295	-0.10217778
49	0xbe18204e	-0.14856073
50	0xbe5aba51	-0.21360137
51	0x3ebe586b	0.37176833
52	0xbe6232a5	-0.22089632
53	0x3f1338b4	0.575084
54	0xbeb441c6	-0.3520643
55	0xbf01941f	-0.5061664
56	0xbdbaed5d	-0.09127305
57	0xbec0d7c8	-0.37664628
58	0x3e946beb	0.28988585
59	0x3f080537	0.5313296
60	0x3fa7e3f4	1.3116441
61	0x3ee402b9	0.44533327
62	0x3e66b0f0	0.22528434
63	0x3eb8662e	0.36015457

stack.2.0.weight f4 [32, 64]
0	0xbf0caa35	-0.54947215
1	0x3e4473aa	0.19184747
2	0xbf0f3792	-0.5594417
3	0xbe267e6d	-0.16259165
4	0x3c6cdf17	0.014457486
5	0xbe87426f	-0.26417872
6	0xbda5d980	-0.080981255
7	0x3e4dab92	0.2008498
8	0xbc6a94df	-0.01431772
9	0x3e5114e4	0.20418125
10	0x3f4f2d30	0.80928326
11	0xbad013b1	-0.0015875009
12	0xbe4edaf6	-0.20200714
13	0x3e08ff3b	0.13378613
14	0x3dbc0d11	0.0918218
15	0xbe95085b	-0.29107937
16	0xbd7faf13	-0.062422823
17	0x3e0cc7c7	0.13748084
18	0xbdc5cde6	-0.09658413
19	0x3e2c2113	0.16809492
20	0xbe60a458	-0.21937692
21	0xbd6d4375	-0.05792566
22	0x3e50aa61	0.20377494
23	0x3ed1a9b2	0.4094978
24	0x3cb4eb92	0.022084985
25	0x3e3f91ad	0.18707915
26	0x3bf2db8f	0.0074114273
27	0xbd97d6a3	-0.074139856
28	0xbd2ad332	-0.041705318
29	0xbe1bdfbc	-0.15222067
30	0xbe03c9f1	-0.12870003
31	0x3dafcb1c	0.08583662
32	0x3e509847	0.20370589
33	0x3d866cea	0.065637425
34	0x3ebc4bc8	0.36776567
35	0xbec9e130	-0.39429617
36	0xbd9d010d	-0.07666216
37	0xbd2ba40a	-0.041904487
38	0xbea33a7d	-0.3188056
39	0xbeceda6a	-0.40401012
40	0xbd7f078f	-0.062263068
41	0xbe554d74	-0.20830327
42	0x3ce64e23	0.02811343
43	0xbe2ac7af	-0.16677736
44	0xbdba3ba0	-0.09093404
45	0xbcd41d4a	-0.025892872
46	0x3e09fba0	0.13474894
47	0x3d1cac2c	0.038250133
48	0x3d2d2eae	0.042280845
49	0xbe69475c	-0.22781128
50	0x3d072907	0.03299811
51	0xbdddcb0d	-0.108297445
52	0xba3dd4a5	-0.00072414643
53	0xbe4f1007	-0.20220958
54	0xbe1cea24	-0.15323693
55	0x3e56a59b	0.20961611
56	0x3d739002	0.05946351
57	0x3e1a5942	0.15073112
58	0xbf0252f8	-0.5090785
59	0xbe920de2	-0.28526217
60	0x3eb63e87	0.3559458
61	0xbdc90977	-0.098162584
62	0x3d3bb5fa	0.045827843
63	0xbe9173fc	-0.28408802
64	0x3d1c7a9d	0.03820287
65	0xbe56e4dc	-0.2098574
66	0xbdb9530d	-0.09049044
67	0xbe1e88be	-0.1548185
68	0x3ebeb00d	0.3724369
69	0xbf09f3a1	-0.53887373
70	0x3ecebe0e	0.40379375
71	0x3ea96fce	0.33093113
72	0xbe13de67	-0.14440309
73	0x3dfdf3e3	0.12400033
74	0x3f7b5216	0.9817213
75	0xbe25026c	-0.16114205
76	0xbee8f382	-0.45498282
77	0xbe1a9c8a	-0.15098777
78	0x3d4800ee	0.04882901
79	0x3e63d85a	0.222505
80	0xbe751abd	-0.23935981
81	0x3e592c3c	0.2120828
82	0xbc0fedd7	-0.008784733
83	0x3da637b2	0.08116092
84	0xbebb2a42	-0.36555678
85	0x3dbc0b41	0.09181834
86	0x3ee18674	0.44047892
87	0x3e91b394	0.2845732
88	0xbecb1842	-0.39666945
89	0x3e7774cb	0.24165647
90	0x3e1560e9	0.1458775
91	0x3d63cd15	0.055615503
92	0xbe5c424f	-0.2150967
93	0x3e238840	0.15969944
94	0xbe315e6c	-0.17321175
95	0x3e497bd8	0.19676149
96	0x3edca1ef	0.43092296
97	0x3cd0396b	0.025418004
98	0x3ed99d70	0.42502928
99	0xbcac3a5b	-0.02102392
100	0xbe4a276b	-0.197416
101	0x3bd31828	0.0064420886
102	0xbe7b4d6e	-0.24541256
103	0xbe914848	-0.2837546
104	0xbe71c638	-0.2361077
105	0xbda9f3ac	-0.0829843
106	0xbe16c9df	-0.14725445
107	0xbe95c9ac	-0.29255426
108	0xbe21eb97	-0.15812527
109	0x3c3fd043	0.011707368
110	0xbd193418	-0.037403196
111	0x3dd82417	0.105537586
112	0xbe02f044	-0.12786967
113	0x3e66de8f	0.22545837
114	0x3be27b84	0.006911697
115	0xbd29162e	-0.041280918
116	0x3e7db7c6	0.24777135
117	0x3d852b4b	0.06502398
118	0xbc8ff93e	-0.017574903
119	0xbe2696f2	-0.16268519
120	0xbe31dff7	-0.17370592
121	0x3eb253bc	0.3482951
122	0xbf0dfbd4	-0.55462384
123	0x3bb88976	0.005631621
124	0x3e662cf5	0.22478087
125	0x3bf236dc	0.0073917937
126	0x3eb540b0	0.35400915
127	0x3cb1f8a0	0.021724999
128	0xbe058afb	-0.13041298
129	0xbdc190c4	-0.0945144
130	0xbe6a5796	-0.22884974
131	0xbddfa0e7	-0.109193616
132	0xbd062494	-0.032749727
133	0xbdc9cf48	-0.09853989
134	0x3ca79698	0.02045755
135	0xbd71c810	-0.059028685
136	0xbda2e20e	-0.07953273
137	0x3da8d524	0.08243778
138	0x3ac6e980	0.001517579
139	0xbdf27e38	-0.118404806
140	0x3d84aa0e	0.06477748
141	0x3cad9bd0	0.021192461
142	0xbe1d213f	-0.15344714
143	0xbdd7c9a2	-0.10536505
144	0xbe09ba64	-0.13450009
145	0xbdc6c3da	-0.097053245
146	0xbd9d2238	-0.07672542
147	0x3d73d5dc	0.059530124
148	0xbd6f831c	-0.058474645
149	0x3d368b10	0.044566214
150	0xbe1faf6f	-0.15594266
151	0xbdc441c0	-0.09582853
152	0xbd96649a	-0.07343407
153	0xbd91f844	-0.07127431
154	0x3db3c8e0	0.08778548
155	0xbe3a9a06	-0.18222818
156	0xbdb4a542	-0.08820583
157	0xbd36d424	-0.044635907
158	0x3d9fa25a	0.07794638
159	0xbd25ac4a	-0.04044751
160	0x3da12fb4	0.07870427
161	0x3d7e3f90	0.062072337
162	0xbcefbf90	-0.029266149
163	0xbcf81930	-0.030285448
164	0xbc53beb0	-0.012923881
165	0xbcdf2e58	-0.027243778
166	0xbdbd0c82	-0.09230901
167	0xbd1b1de8	-0.037870318
168	0x3c99caa0	0.018773377
169	0xbe1a7ac9	-0.15085901
170	0xbddec588	-0.1087752
171	0xbdfe9d3e	-0.12432335
172	0xbe7e3f4b	-0.24828832
173	0xbdf7af26	-0.12093954
174	0xbe7799c0	-0.24179745
175	0x3b144200	0.0022622347
176	0xbc65dbb0	-0.014029428
177	0x3dc7d37c	0.09757134
178	0xbdef0424	-0.11670712
179	0xbe5b67c2	-0.21426299
180	0xbd63d740	-0.0556252
181	0xbe7f70a5	-0.24945314
182	0xbe90af61	-0.28258803
183	0x3dc71492	0.0972072
184	0xbd7c9d38	-0.061673373
185	0xbd5173e4	-0.051135913
186	0x3df0565e	0.11735223
187	0xbe1d3d43	-0.153554
188	0xbe7a6adf	-0.2445483
189	0xbde97e3a	-0.11401029
190	0x3ce05b48	0.027387276
191	0xbd9de843	-0.07710316
192	0xbe6a1423	-0.22859244
193	0x3e4b2e51	0.19841887
194	0x3e19ced1	0.150203
195	0xbeca852f	-0.39554736
196	0xbd7ae16e	-0.061250143
197	0xbf12559b	-0.57161874
198	0xbe99c18b	-0.30030474
199	0xbd5cc46e	-0.053898267
200	0xbd744467	-0.059635546
201	0x3e92ffb2	0.28710705
202	0x3dc7c1ec	0.097537845
203	0xbd2dbf13	-0.04241855
204	0x3d93e14e	0.07220708
205	0xbe39eb76	-0.18156227
206	0x3ed05666	0.40690917
207	0x3e1267dd	0.14297433
208	0x3e610fd9	0.21978702
209	0xbcfb1bd5	-0.03065292
210	0x3bec7e5e	0.0072172126
211	0x3eb2eab0	0.34944677
212	0xbd6e5af4	-0.05819221
213	0xbc347fa9	-0.011016765
214	0x3e6adc6f	0.22935651
215	0x3eb20667	0.3477051
216	0x3ded24c2	0.115792766
217	0xbb6d1abe	-0.003617927
218	0x3d188284	0.037233844
219	0xbd899a39	-0.06718869
220	0xbe709ebe	-0.23498055
221	0x3e34bee7	0.17650948
222	0xbe882fdb	-0.2659901
223	0x3d6cfd21	0.05785859
224	0x3e3974b3	0.18110923
225	0xbd3a48aa	-0.045479454
226	0x3e114653	0.14186983
227	0x3f112cff	0.56709284
228	0xbe11c2ca	-0.14234462
229	0xbeb2a322	-0.34890085
230	0x3e568d9c	0.20952457
231	0xbdb847fe	-0.089981064
232	0x3cf08e2f	0.029364673
233	0xbda93320	-0.082617044
234	0xbccd37aa	-0.025050957
235	0x3e26e77f	0.16299246
236	0xbe141483	-0.1446095
237	0x3e54d05e	0.20782611
238	0x3c7bae46	0.015361374
239	0xbe0c4bdd	-0.13700815
240	0x3d6fe0f1	0.05856413
241	0xbe95b6e6	-0.29241103
242	0x3c0988bf	0.008394419
243	0xbd9fbea5	-0.078000344
244	0xbd2f5ed8	-0.04281506
245	0xbd6e5100	-0.058182716
246	0xbeba300e	-0.36364788
247	0x3e58f26d	0.21186228
248	0x3eaa24fa	0.33231336
249	0x3e242968	0.1603142
250	0xbe3fa6b2	-0.18715933
251	0xbe26b8d8	-0.1628145
252	0x3df23033	0.118255995
253	0xbe2d432d	-0.16920157
254	0x3e257839	0.16159143
255	0x3e5566e1	0.20840026

stack.2.0.bias f4 [32]
0	0x3f85a1fd	1.044006
1	0x3ef479cb	0.4774917
2	0xbe46567d	-0.1936893
3	0x3fb14210	1.3848286
4	0x3f76f8b9	0.9647327
5	0x3f807bf7	1.0037831
6	0xbe4be944	-0.19913203
7	0xbc8c22f3	-0.017106509
8	0xbe23bbff	-0.15989684
9	0x3e9591be	0.29212755
10	0x3f041780	0.5159836
11	0xbecc79ea	-0.39936763
12	0xbea37d9e	-0.31931776
13	0xbe90031d	-0.28127375
14	0xbe8db2b3	-0.276754
15	0xbebeba2d	-0.37251416
16	0x3f05e7c3	0.52306765
17	0x3d2a1844	0.041527048
18	0xbe150e15	-0.14556153
19	0xbe6780e4	-0.22607762
20	0xbe7a4cc3	-0.24443345
21	0x3fb2ec96	1.397845
22	0x3faeb8e5	1.3650175
23	0x3f179d01	0.59223944
24	0xbebb2eba	-0.36559087
25	0x3de2a39e	0.11066364
26	0x3edbf211	0.4295812
27	0x3f19603d	0.5991247
28	0xbe64853e	-0.22316453
29	0xbe2577ae	-0.16158935
30	0xbe72514f	-0.2366383
31	0x3f84f448	1.0387049

stack.3.0.weight f4 [10, 32]
0	0x3e3d87b9	0.18508805
1	0xbe263180	-0.1622982
2	0xbe5104a2	-0.20411924
3	0x3e339fb3	0.17541389
4	0x3eb6d30b	0.35707888
5	0xbe52265e	-0.20522448
6	0xbe8dedcb	-0.27720484
7	0x3e2015ae	0.1563327
8	0x3e2fe5ef	0.17177556
9	0xbcd74718	-0.026279017
10	0x3eb5cf4b	0.35509714
11	0xbce030aa	-0.027366955
12	0xbe800c31	-0.250093
13	0xbe1fbf70	-0.15600371
14	0x3e278fe2	0.1636348
15	0xbe124e8e	-0.14287779
16	0x3dd64238	0.10461849
17	0x3e233aae	0.15940353
18	0x3d7a2351	0.061068837
19	0x3e1cc57d	0.15309711
20	0xbef960a5	-0.48706546
21	0x3eb07007	0.3446047
22	0x3ead284e	0.33819813
23	0xbe6d58bd	-0.23178382
24	0xbd96b52a	-0.07358773
25	0x3c1cb1dc	0.009563889
26	0xbdb3061b	-0.08741399
27	0x3e270199	0.16309203
28	0xbd9c3be7	-0.07628613
29	0xbe83f9f1	-0.25776628
30	0xbd437493	-0.047718596
31	0x3e905217	0.2818763
32	0x3e3a9186	0.18219575
33	0x3d87fc39	0.066399045
34	0xbdf1148d	-0.11771498
35	0x3e94fc3c	0.2909869
36	0x3db45481	0.0880518
37	0x3e3d6d12	0.18498638
38	0xbd4fb1f5	-0.050706822
39	0x3d0c4025	0.03424086
40	0xbdd96d70	-0.10616577
41	0x3eab7560	0.33487988
42	0xbe74baa3	-0.23899321
43	0xbeaab477	-0.3334081
44	0xbee74b83	-0.45174798
45	0xbf85ec61	-1.0462762
46	0x3e5d2247	0.21595107
47	0xbe035c75	-0.12828238
48	0x3eb53431	0.3539138
49	0xbc72a848	-0.014810629
50	0x3e0e200a	0.1387941
51	0xbd212815	-0.039344866
52	0xbeb48687	-0.35258886
53	0x3dca3939	0.098741956
54	0x3e859238	0.2608812
55	0x3e883f8e	0.26610988
56	0x3dcbc67c	0.09949967
57	0x3daf91c7	0.08572727
58	0xbf225fb1	-0.63427263
59	0x3e5e4bd9	0.21708621
60	0xbdbf4075	-0.09338466
61	0x3d9435de	0.07236837
62	0xbdb4ada5	-0.088221826
63	0xbf015153	-0.50514716
64	0x3ea80177	0.32813618
65	0x3e9b6f9a	0.30358583
66	0xbb8b74a1	-0.0042558466
67	0x3e92bd45	0.28660026
68	0x3e9d11c5	0.3067762
69	0x3ea9cbd1	0.33163312
70	0x3db64990	0.0890075
71	0x3c8cc626	0.017184328
72	0x3dbf9415	0.09354416
73	0x3e1d271d	0.15346952
74	0x3e0e319e	0.13886115
75	0xbdc53f45	-0.09631208
76	0x3e46b1c7	0.19403754
77	0x3ee8e018	0.4548347
78	0xbd27b387	-0.040942695
79	0xbef8b54e	-0.48575824
80	0xbe9b9ead	-0.30394498
81	0xbd5999ad	-0.053125072
82	0xbd788e18	-0.060682386
83	0x3e059b7d	0.13047595
84	0xbc176dfa	-0.009242529
85	0x3e904cc3	0.28183565
86	0xbd8adeb1	-0.06780756
87	0x3e09a2d0	0.13441014
88	0x3dbd4def	0.0924338
89	0x3e3e55ad	0.1858737
90	0x3e533b43	0.20628075
91	0xbda5d22d	-0.080967285
92	0xbdde3f3f	-0.10851907
93	0xbe2e0b99	-0.16996612
94	0xbe4bf772	-0.19918612
95	0x3e533d07	0.20628749
96	0xbf02bcfa	-0.51069605
97	0xbe394589	-0.18092932
98	0xbe132694	-0.14370185
99	0x3e83d636	0.25749367
100	0xbe19de68	-0.15026248
101	0x3ea3643a	0.31912404
102	0x3dfd157b	0.12357613
103	0xbd52be8c	-0.05145125
104	0xbdb1e667	-0.08686524
105	0xbee6efd0	-0.45104837
106	0x3e4b2119	0.19836845
107	0xbc274aa1	-0.010210664
108	0xbefe8efb	-0.4971846
109	0xbe42e31b	-0.19031946
110	0xbe44783b	-0.1918649
111	0x3d047c9d	0.032345403
112	0x3deb08d5	0.11476294
113	0xbcdb4c6e	-0.026769843
114	0xbd29ec84	-0.041485325
115	0x3daecde8	0.08535367
116	0x3d9965d9	0.07490129
117	0x3dd90734	0.10597077
118	0x3e5a4c55	0.21318181
119	0x3e71cad0	0.23612523
120	0xbeb8bcc9	-0.36081532
121	0x3df3d778	0.11906332
122	0x3b1ca4a3	0.0023901842
123	0x3ea399a9	0.3195317
124	0xbe75784b	-0.2397167
125	0xbd30ada1	-0.043134335
126	0x3cecfd7a	0.02892946
127	0x3ec50a06	0.3848421
128	0x3dd57d8d	0.104243375
129	0x3e8c98a7	0.27460214
130	0x3db2653c	0.08710715
131	0xbd96b9a9	-0.073596306
132	0x3e8fab12	0.28060204
133	0x3e8030ac	0.25037134
134	0x3db86373	0.090033434
135	0x3c4a56f7	0.012349836
136	0xbd835599	-0.06412811
137	0x3eb1eda7	0.34751627
138	0xbe8a80e0	-0.2705145
139	0x3ea25e35	0.317125
140	0xbe6d7e8f	-0.2319281
141	0xbf0c28b2	-0.54749596
142	0xbdd633aa	-0.10459073
143	0xbe893ee0	-0.26805782
144	0xbf61be65	-0.88181144
145	0x3dca62cf	0.098821275
146	0xbe05f8d0	-0.13083196
147	0xbe09ab52	-0.1344426
148	0xbe1c8153	-0.15283708
149	0x3e605e18	0.21910894
150	0x3e8ca2ad	0.27467862
151	0x3eb62882	0.3557778
152	0x3d0bb219	0.034105394
153	0xbdf95ba8	-0.12175685
154	0x3ead64ee	0.33866066
155	0x3e8cb04e	0.2747826
156	0xbeea5a82	-0.45772177
157	0x3e2737a3	0.16329817
158	0x3e0ebf4e	0.13940164
159	0x3e1f4073	0.15551929
160	0xbe25f354	-0.16206104
161	0x3d95ea33	0.073200606
162	0x3d29ec4d	0.04148512
163	0x3e01b5f3	0.12667064
164	0xbdf443fe	-0.11927031
165	0xbc8e91e4	-0.01740355
166	0xbe35025c	-0.17676681
167	0x3e145c01	0.14488222
168	0xbd231138	-0.039811343
169	0xbe248380	-0.16065788
170	0xbe0bc4a4	-0.13649231
171	0xbdd9eade	-0.106405005
172	0x3dd54493	0.1041347
173	0x3e0ee0ec	0.13952988
174	0x3e0858a1	0.13315059
175	0x3e2f9574	0.17146856
176	0x3dc5f0be	0.096650586
177	0xbd44d32b	-0.048052948
178	0xbd9f287a	-0.07771392
179	0x3e1c45cb	0.15260999
180	0x3dc41100	0.09573555
181	0xbd8901bc	-0.06689784
182	0x3d8a6af1	0.06758679
183	0xbb596c43	-0.0033176101
184	0x3c5d4543	0.013505283
185	0xbdd6ad88	-0.10482317
186	0x3c6aedfe	0.014338968
187	0xbcf261d0	-0.029587656
188	0xbbd1f32f	-0.0064071636
189	0x3c907e9c	0.017638497
190	0xbe25124d	-0.16120262
191	0xbdf34bd8	-0.118797004
192	0xbd23411b	-0.03985701
193	0xbe1cbcbc	-0.15306371
194	0xbdbb6dbc	-0.091517895
195	0xbc994259	-0.018708395
196	0x3e2e7661	0.17037345
197	0xbda03826	-0.078232095
198	0xbe156843	-0.14590554
199	0x3e111ee2	0.14171937
200	0x3d5ff2c8	0.054674894
201	0xbd590f7a	-0.052993275
202	0x3cfbf708	0.030757442
203	0x3e3070dd	0.17230554
204	0xbbe697bf	-0.0070371325
205	0xbe21428e	-0.15748045
206	0xbc188971	-0.009310112
207	0x3c79132d	0.015202326
208	0xbda0532f	-0.07828366
209	0x3d64cf77	0.055861916
210	0x3dee8311	0.11646093
211	0xbccb5cb1	-0.024824472
212	0x3e31f6cd	0.17379303
213	0xbbfacd1e	-0.0076538464
214	0x3d6759f0	0.056482255
215	0x3d0ca66e	0.034338407
216	0x3e3403bd	0.17579551
217	0x3d7ee81f	0.062233087
218	0x3dc0bbcd	0.0941082
219	0xbe2560ba	-0.1615018
220	0x3b0d2692	0.0021537882
221	0x3cee20e9	0.029068427
222	0xbdcc2c59	-0.09969396
223	0xbdb98ea0	-0.09060407
224	0xbb9baf03	-0.0047510876
225	0xbdb5b5bd	-0.088725545
226	0x3d112f3c	0.035445437
227	0xbc6a14d3	-0.014287191
228	0x3de94607	0.1139031
229	0xbe1ad539	-0.151204
230	0x3dfac864	0.12245253
231	0xbd69492d	-0.05695455
232	0x3c77c309	0.015122184
233	0xbaf783d6	-0.0018883895
234	0xbd6fee36	-0.058576785
235	0x3e0b1701	0.13582994
236	0xbdfb5f09	-0.12273986
237	0xbc4e0e85	-0.012576704
238	0x3e30df31	0.17272641
239	0xbd18d761	-0.037314776
240	0x3ddc26ad	0.10749564
241	0x3e185987	0.14877902
242	0xbe2effa1	-0.17089702
243	0x3b859fe2	0.0040778974
244	0xbd698d04	-0.05701925
245	0xbc33b020	-0.010967284
246	0x3e0b1bf2	0.13584879
247	0xbd190157	-0.037354793
248	0xbdd1a69c	-0.10236856
249	0xbdf97d2d	-0.121820785
250	0xbdd474f6	-0.10373871
251	0xbcde1527	-0.027109696
252	0xbd1e1199	-0.038591
253	0x3deee577	0.11664861
254	0x3d5ea35e	0.054355018
255	0x3d5a4a9b	0.053293806

stack.3.0.bias f4 [10]
0	0x3e785cb1	0.24254109
1	0x3e2b1721	0.16708042
2	0x3f226517	0.634355
3	0x3f006ee5	0.5016921
4	0x3b7e7e9d	0.0038832792
5	0xbc5c7467	-0.013455487
6	0x3d08008c	0.033203647
7	0xbc44975a	-0.011998976
8	0x3def9b6f	0.116995685
9	0x3d997636	0.0749325
