src/fminst/models/teacher_9.pt (torch, 447183 bytes, 8 tensors)

stack.0.0.weight f4 [128, 784]
00000000: 8d1a 963d 1f58 d63d a2ce 29bc 19bd a7bc
00000010: b793 16bd 120c 293c 1330 343c ee9c e53c
00000020: 3e2c cdbd c8a7 a8bc c28c c93d 291a 6b3e
00000030: 1c4d 353e bf66 cfbc 1902 77bd 188b e73d
00000040: 7206 943e 4d94 3b3e 3f43 a83c 61e2 42bd
00000050: 7e7b 213d a30c c93d 7c7c 353d 2eba 2d3c
00000060: a530 96bc c648 a1bd 86f2 223d 7d90 3a3d
00000070: 4bcf 053e ad20 b93c df07 65bc 0401 0abd
00000080: 8aab 12bd 4065 5bbd 93f9 afbd 6030 12be
00000090: 0197 3cbd 924d 433d f4a4 6d3d f1cf c63d
000000a0: a6de 313e 7b90 303e aa06 623e 4928 273e
000000b0: 7170 943d 3831 1a3d db8d dd3c 4635 f93c
000000c0: bb55 07bd 0d85 0fbd 5185 143d bb7d 063d
000000d0: 936a 813d 1fa8 893c a609 02bd 4e97 af3d
000000e0: 94c5 943d 77f7 e0bc 0706 e4bd 3133 003d
000000f0: dc65 abbd 4e32 acbd 6ecc 16be f12b 9cbc
00000100: 1c3d 5e3d d117 f23c 21bf 083d 1619 153d
00000110: 12f8 83bc 10b4 f13d c687 f53d 0cb8 913c
00000120: 1214 16bd 4d6a 8c3d 7820 69bc 841a db3c
00000130: 68d5 c43b 8e9b 92bd 166f acbc c89e 833d
00000140: 4b0f 5d3d 54d7 963d 7221 d03c a644 613d
00000150: 7ba0 69bc 1787 e3bc e96b 4cbd f448 dfbd
00000160: f46e 99bd eb0f 8ebd 409e 5dbd b2b9 64bd
00000170: 6bac d7ba a15b 0b3d 51d2 97bc 9572 25bc
00000180: 541e d53c b4a0 b53c 90a9 093d 9894 223d
00000190: 3131 c43c 9ca9 1f3d f42a 56bc a756 d63c
000001a0: 9416 94bd 22d0 02bd 6ce6 e8bc 8628 c1bb
000001b0: 08e9 a03d 92b1 c03c 59cc 62bc fd62 6ebc
000001c0: 927e c0bc 1770 a9bd 2981 89bd b50b 3d3c
000001d0: 7e99 a3bd f31f 26bd 3f37 9bbd ac1c 50bd
000001e0: 1b9d c5bc 6986 8c3c aeb0 1b3d 11a3 763d
000001f0: 01f4 d8bc 91e3 3b3d ce4b 3e3a 36ec 533d
00000200: 1788 603d f1c6 39bc af35 173d 65c9 bb3c
00000210: ca94 17bc 38d7 03bd aee3 d7bc 0cee 503d
00000220: 4e52 c23d 7998 3d3c 8472 23bd 33d9 613d
00000230: 8989 043c 40f9 93bd 9ae2 55bd 8ddd 3cbb
00000240: 5e80 c63c cbb0 68bd 41ce 5ebd 1ffc c2bd
00000250: d48f 73bc f64a b5bc 73fb 1e3d a284 7f3c
00000260: 89fc 64bb 25fe 433d f85c d73c ee03 b53c
00000270: 5022 973c 5676 153c 5d53 903c d16f 093b
00000280: 1b1c 56bd 76ad 5fbd 5654 133b 65b7 9e3c
00000290: 87e2 3c3d e457 803c 5c6d 56bd da98 3f3d
000002a0: ac0b cc3c 5fed af3c 1de6 873d 44c9 8fbb
000002b0: 68e3 c8bc d3d5 28bd 56c7 e0bc 32ca d1bd
000002c0: 7387 99bc 8be8 473d fa96 bb3d 4343 6b3d
000002d0: 958e 0ebc 72e9 ce3b d654 87bc 1186 f0bc
000002e0: e425 f53c c6d1 5ebb afdb 9c3d 17b9 c03c
000002f0: 6f78 20bd dfcb 76bb 56a8 473d fad0 ba3c
00000300: 8870 b7bc 2c58 e93c 0b6a de3c 92a8 1e3d
00000310: cd99 863d f5f4 b33d 8629 cb3c 3448 a03c
00000320: d211 66bd 464b 5bbb 9883 16bc 3929 adbd
00000330: f7fc 45bd ddd5 2e3d a60c 333c a5a8 8c3c
00000340: a6dd 293c 6d33 273d e956 c53b 6692 d53c
00000350: 3be7 203d f103 30ba 61a7 993d ec68 a03d
00000360: 7d04 dd3c 7f87 8abc f8fd 2c3d 7dd9 253d
00000370: 9bba 0cba 9abd 1b3d b918 073d 8e4a 84bd
00000380: c872 c83c 4e57 c23c f127 013d b79d acbc
00000390: 977c a1bb b58f 993c f26b 21bd 0d0d 07bd
000003a0: 9416 15bd 2abc d2bb dcea 2fbd e540 a53b
000003b0: 86eb 063c d498 8abc 3ba9 dfbc bb3e afbc
000003c0: 8625 383c 7b6b cabb 7f29 2ebd 0c4f 03bc
000003d0: bb50 603c fec3 033c 540d 67bb 6293 103d
000003e0: 1a04 b53c 95a7 f63c 37ed debc 5987 0fbd
000003f0: 76b4 353b 8200 7f3c b1a0 d33c 161c 8cbc
0.07329283 0.104660265 -0.0103642065 -0.020475911 -0.036761966 0.010317819 0.01099779 0.028028931
-0.10018204 -0.020587817 0.098413005 0.22959198 0.17705196 -0.025317548 -0.060304735 0.11305827
0.28911167 0.18318291 0.020539878 -0.047579173 0.039424412 0.098168634 0.04430817 0.010603471
-0.018333742 -0.078752086 0.03978207 0.04554795 0.13067357 0.022598589 -0.013978927 -0.033692375
-0.035808124 -0.053563356 -0.085925244 -0.14276266 -0.046042446 0.0476814 0.05801864 0.097076304
0.1737009 0.17242615 0.22072855 0.16323961 0.07248009 0.037644595 0.027045181 0.03042091
-0.033040743 -0.035038996 0.036259953 0.03283475 0.063191555 0.0168038 -0.031747483 0.08573781
0.072642475 -0.02746175 -0.11133962 0.03129882 -0.083690375 -0.08408032 -0.14726421 -0.019063922
0.054257497 0.029552372 0.0333854 0.036400877 -0.0161095 0.11801922 0.11988787 0.017787956
-0.036640234 0.06856213 -0.014228933 0.026746042 0.0060068853 -0.07158576 -0.021049064 0.064267695
0.053969663 0.07365289 0.025406573 0.05499711 -0.014259453 -0.027774377 -0.0499076 -0.109025866
-0.07491866 -0.0693663 -0.054105997 -0.055841155 -0.0016454583 0.03402293 -0.018532904 -0.010098119
0.026015438 0.022171356 0.033608973 0.03969249 0.023949238 0.03898011 -0.013071764 0.026164366
-0.07230869 -0.031936772 -0.028430186 -0.0058947233 0.07856947 0.023522172 -0.013842666 -0.014549968
-0.023497853 -0.082733326 -0.067140885 0.011538436 -0.07988261 -0.040557813 -0.07578897 -0.050808594
-0.024122765 0.017153936 0.03801029 0.060214106 -0.026483538 0.04587132 0.00072592206 0.05173894
0.054817285 -0.011338935 0.03691643 0.02292318 -0.009251783 -0.03218767 -0.026353683 0.05100827
0.094883546 0.011571997 -0.039904132 0.055138778 0.008089432 -0.07225275 -0.052218057 -0.0028818578
0.024231132 -0.056809228 -0.054395918 -0.095207445 -0.014865834 -0.02213047 0.03881402 0.015595587
-0.0034940562 0.047849793 0.026289448 0.0220966 0.018448979 0.009122452 0.017617876 0.0020971189
-0.052272897 -0.054608785 0.0022480688 0.019374559 0.04611447 0.01566691 -0.052350387 0.04677663
0.02490791 0.021475492 0.066356875 -0.0043880064 -0.024522498 -0.041219544 -0.0274388 -0.10243644
-0.018741345 0.048805755 0.09159656 0.057437193 -0.008700986 0.00631445 -0.016519945 -0.029360803
0.029925294 -0.0033999546 0.07659089 0.023525758 -0.039177354 -0.0037658138 0.048744522 0.022804726
-0.022392526 0.028484426 0.027150175 0.03873498 0.06572304 0.08786956 0.024800073 0.01956568
-0.05616934 -0.0033461615 -0.009186648 -0.08455128 -0.04833695 0.042684425 0.010928309 0.01717026
0.0103677865 0.040820528 0.0060223234 0.026070785 0.03928302 -0.00067144545 0.07502628 0.07832512
0.02697968 -0.016910313 0.04223439 0.040490616 -0.00053683826 0.038022615 0.03298256 -0.06459533
0.024468794 0.02372327 0.03153223 -0.021071298 -0.0049281823 0.018745283 -0.039409585 -0.03297143
-0.036398485 -0.0064311223 -0.04294859 0.0050431364 0.008234864 -0.016918577 -0.027302375 -0.021392217
0.011239415 -0.0061773635 -0.042520043 -0.008014452 0.013691123 0.008042334 -0.0035255747 0.035296805
0.022096682 0.030109206 -0.027212722 -0.035041187 0.0027725971 0.015564086 0.02583346 -0.017103236

stack.0.0.bias f4 [128]
00000000: 7ec0 7e3d eec7 143e 80af c0bd ae61 0b3b
00000010: 3330 03be 24e1 52bd 629c 913d 6bb7 d2bd
00000020: a673 193e 1569 bd3d 82a5 de3d e581 423e
00000030: 3cda 9b3d e36d 9a3d 3684 b33d ed82 bc3c
00000040: a223 76bd e70b 97bc 205e 083e e579 f53d
00000050: bd8b a13e 27c8 2c3d ce70 1e3d d18b 26bc
00000060: 002c de3a 4a6f 103e 1443 2dbd 88bb 283d
00000070: dfb0 21bd 6312 d83d bcbd 53bd f402 fbbd
00000080: a404 50bd 91c4 1d3c 311c 5b3e bd3d 6f3e
00000090: 9f59 a73d cfc6 d5ba cc2b 0b3e 5962 42be
000000a0: 21c0 943d 51e7 65bd 2916 963c 2f12 e03c
000000b0: c1a7 003e 12ba 423e 0a79 62bd 6ada a33e
000000c0: d9b8 cbbd 9905 86bd 6693 8a3d a831 e93d
000000d0: 57c4 25bd 2e76 a03d 2761 6d3d 6b62 05be
000000e0: 39d4 1a3d b9ea 903d b3cb 6e3d 0414 283c
000000f0: f716 a43d 70a1 41bc 0611 4c3e 9ae7 823c
00000100: 3ace 7a3d 7576 63bd b284 033e 5455 8d3d
00000110: 6680 ed3d c991 2d3d aeca cfbd 8b76 053e
00000120: 7ef0 8a3e cc03 7b3d 5a31 3dbe aa4e a33b
00000130: 7328 d03e e77d 533e 8096 153e 266d 193a
00000140: 755b 3abd a13c d0bc b81c a33d a7a0 dd3d
00000150: 3931 593e 8b7a 1cbd 69bd 413b 6a23 633e
00000160: e692 013e 3fb9 623b e0be 283e 01f8 0abc
00000170: 4484 fc3c 55d0 c43d bc07 313e c780 483d
00000180: d43b 16bc 163d e83d 91aa 203e 7a30 373e
00000190: f929 043d a79b d53d 022c 9f3d 8cc1 e53d
000001a0: fe7c 3fbe 55e1 a4bc 81a0 8e3d 0fa7 2a3e
000001b0: be56 dcbd c17d 7e3e a325 9bbd cdc3 8b3d
000001c0: 09d4 673e a657 f43d e5fc fd3d 7283 28bd
000001d0: 06b7 513e d284 9a3d 68ac ed3c 21db 0dbd
000001e0: ba18 d3bd b6d9 783d 3cc9 55bd ea50 c6bd
000001f0: e5b0 b83d e7dc d63c 3b1c b53a 8995 9d3a
0.062195294 0.14529392 -0.09408474 0.0021267938 -0.12811355 -0.051484242 0.07109906 -0.102888905
0.14985523 0.092485584 0.10871412 0.18994863 0.07609984 0.075404905 0.087654516 0.023011649
-0.060092576 -0.018438293 0.13317156 0.1198614 0.31551924 0.042183068 0.038681798 -0.010165171
0.0016950369 0.14104953 -0.0423003 0.04119447 -0.039475318 0.10550382 -0.051694617 -0.12256423
-0.050785676 0.009629385 0.21397473 0.23363395 0.08171391 -0.001630986 0.13590926 -0.18982829
0.07263208 -0.056128804 0.018321114 0.02735242 0.12563993 0.19016293 -0.055291213 0.32002574
-0.09947366 -0.065440364 0.06766395 0.11386424 -0.040470447 0.07835041 0.05795398 -0.13025825
0.037800048 0.0707602 0.05829973 0.010258678 0.08012193 -0.011818275 0.19928369 0.015979577
0.06123183 -0.05553289 0.12843588 0.06901041 0.11596756 0.04237536 -0.1014608 0.13033502
0.27136606 0.061282918 -0.18475857 0.0049837427 0.4065586 0.20653497 0.14608192 0.0005852751
-0.045497376 -0.025419535 0.07964462 0.10821658 0.21210183 -0.038202804 0.002956236 0.22181478
0.12653694 0.0034595279 0.16479063 -0.00848198 0.030824788 0.09610049 0.17288107 0.048950937
-0.009169538 0.11339776 0.15690066 0.17889586 0.03226659 0.10430079 0.07772066 0.11218557
-0.18700024 -0.020126978 0.069642074 0.1666529 -0.10758732 0.24852659 -0.07575538 0.068244554
0.22639479 0.1193078 0.124017514 -0.04114098 0.20479974 0.07544865 0.029012874 -0.034632806
-0.103074506 0.0607545 -0.052193865 -0.09683402 0.09018115 0.026228381 0.0013817617 0.0012022714

stack.1.0.weight f4 [64, 128]
00000000: b543 cdbd 60c4 05bd 798b d03d 2427 3ebc
00000010: cc0d 033c 7086 b6bd e187 973d 64e8 4e3d
00000020: 74f3 06bd 5493 1b3d 0a5d 14bd 845f 62bd
00000030: 81e2 d33d ee75 eabc 00fa 123d c33b 2f3b
00000040: 1979 153d 739d aabd 9346 d1bd d5e5 08bd
00000050: 63b5 89bd 1bd1 69ba 8605 e33c 1c57 0a3c
00000060: 7900 cdbc 6b55 013e e675 a33d c873 d33c
00000070: b8b3 2bbd ed54 6abd d70c 613d 9fbb a4bd
00000080: 279e 35bc 89da 363c 2daf 913d 1270 b13d
00000090: d83d 23bc ff9b 5abd 1755 55bd 9f9d 10bc
000000a0: 1130 e2bc c962 573d dc86 293d f8e9 46bc
000000b0: ae05 1abd 22bb b03d 6e66 453d d301 613c
000000c0: 9253 cf3d f5c3 5e3d 5578 5e3b 6546 86bc
000000d0: 6e3a 0fbd a9aa 4d3d 8b12 393d c364 db3d
000000e0: 23df 813e a5e6 873d bb74 813d 8316 b73a
000000f0: d165 083e c76e 443a 6b3d c43c f55a 8bbc
00000100: f5a6 a43d a896 e53c 6dc3 af3d 968e 4ebd
00000110: d393 eb3c b7f5 7fbc 4403 ae3c 4ca9 91bc
00000120: 969b 4a3e eefc 78ba c459 45be f710 e9bc
00000130: f373 3f3d a9a6 09be e67b 34bd f432 ccbd
00000140: c2eb f03c 9c41 aa3d 8ded e2bc 3bb1 56bd
00000150: a75f 8a3d 2142 1ebe acff 09ba 1145 163e
00000160: 664a 2a3d 50c7 a2bd a3f8 3c3e 5826 b9bd
00000170: 2f1a 42bc 44ed 9f3d ed3e 9fbc 8607 a83d
00000180: 7dcd 03be c9a3 3fbd 3909 3fbe ddc0 0a3c
00000190: 6f78 6abd e8cb 453e 1528 16bd a4b5 18bd
000001a0: ebfe 0bbe bca0 d5bd a5da a03d e58e 7e3d
000001b0: 0f28 9b3d 0eeb bbbd f094 b33d eb4e 113d
000001c0: 2f6f 2fbc 4377 b33d 2016 253e f64d 3f3c
000001d0: 9520 c5be 1fe1 bcbd d15b 413d 5bf2 583d
000001e0: a0da f33c 5121 65bc 5700 ed3d 94bc d63d
000001f0: 1c71 d73d 9763 bdbd ad32 983d 24d2 da3c
00000200: b643 763d 469e 5a3d f261 f73c c3c6 a43d
00000210: d58a 893d 0780 9ebd 08e8 3cbc 0102 fc3b
00000220: 70ed 243b 405a d93d 2d00 c93d 95b9 f0bd
00000230: 7378 87bb 1882 88bc bba1 6dbd 8635 ed3d
00000240: dc12 6dbc 1c23 723d 2339 de3d cf76 e7bd
00000250: 346e a33d 19d9 fa3d 5ebe 83bd d295 0dbd
00000260: 3c94 72bd 6cbc 783b e422 25bc f438 1c3e
00000270: 5037 b0bd f218 55bd 9e27 e0bb 9266 2abd
00000280: 2f6c e13d 9a7b a33c 57b5 903e 2ea8 aabd
00000290: 7885 82bc e325 1a3d ebde a23d 0f09 143a
000002a0: 6a3f f93d da55 c8bc 753a a7bd a0df 663d
000002b0: 0c99 943d 0549 acbb 470a 84bd 868d a43d
000002c0: d543 9dbc 2571 f73d f0cc 55bd 010b 9fbd
000002d0: a540 ae3c 3162 373d 20b6 5a3b 15c3 713d
000002e0: 7b2b c7be b63c 9abd 0a03 f8bc 8985 993d
000002f0: 5dd9 903d a52d 4bbd 7d46 983d d2e0 f73d
00000300: 03c7 833d a73a 5d3d ba9d 563d 4fc6 a0bd
00000310: 4c7f 40be 99f3 6e3d f38a 04bd 603c 983d
00000320: 6ef7 8dbe b1c5 193b 4e73 243d 869a ea3d
00000330: 24c1 d6bd 211c 82be f42a bd3d 6123 c63d
00000340: 3b57 e3bd fabc d33c d66e e53d 9a82 d13d
00000350: 234a debd b3d8 093d c329 1c3d 8e53 8fbe
00000360: 98f2 c83c e225 233d 47bd c73d 9f66 2f3d
00000370: 55aa 1bbe edec 40bd 71d6 38be 1d73 97bd
00000380: b8a8 e03d e74b 253d 027e 273e a786 ba3d
00000390: 290a 07be f124 773d db6b b8bc 5017 48bc
000003a0: 52c8 83bd 349a c0bb afab a13c 8059 00bd
000003b0: 2b81 093c cd1d 77be 0000 5fbb c224 a53d
000003c0: 8971 d0bc 38dd a23d 803b 293d ae06 033e
000003d0: 3a5f 9ebb 7b37 ca3d 7d2c ac3d b224 1cbd
000003e0: 92c7 07bd 6cee 033e c8ef 9c3d b10c 7fbd
000003f0: b709 86bd 862f 47bd 258b 5f3d 88b6 7a3c
-0.1002268 -0.03265798 0.10182852 -0.011606012 0.007998895 -0.08912361 0.07398964 0.050514594
-0.03294702 0.0379823 -0.03622154 -0.055266872 0.103459366 -0.028620686 0.03588295 0.0026738502
0.03649244 -0.08330812 -0.10218539 -0.03342231 -0.0672405 -0.0008919404 0.027712595 0.00844362
-0.02502464 0.1263024 0.07981472 0.025812045 -0.04191944 -0.057209898 0.054943886 -0.080435984
-0.01108507 0.011160501 0.0711349 0.08663954 -0.009963475 -0.053371426 -0.0520831 -0.008826642
-0.02761081 0.052584443 0.041388378 -0.012140743 -0.037603073 0.08629443 0.048193388 0.013733345
0.10123362 0.054386098 0.0033946235 -0.016390989 -0.034967832 0.050211582 0.0451837 0.10712578
0.25365552 0.06635789 0.06321093 0.0013968501 0.1332009 0.0007493314 0.023955068 -0.017011145
0.08039657 0.02802594 0.085821964 -0.05042895 0.028757012 -0.015622548 0.021241792 -0.017780922
0.19785914 -0.00094981387 -0.19272524 -0.028450472 0.046741437 -0.13442482 -0.04406347 -0.09970656
0.029409293 0.08313295 -0.027701164 -0.052415114 0.067565255 -0.15454914 -0.00052642333 0.14674784
0.041574858 -0.07948172 0.18454222 -0.090405166 -0.011847063 0.07808927 -0.019439185 0.0820456
-0.12871356 -0.046787057 -0.18655862 0.008468834 -0.05724376 0.19316065 -0.03665932 -0.0372826
-0.13671462 -0.10431048 0.07854203 0.062147994 0.07576 -0.091756925 0.08768642 0.035475653
-0.010707661 0.08762982 0.16121721 0.011676302 -0.3850142 -0.09222626 0.047206704 0.052965503
0.029767334 -0.013984994 0.115723304 0.10485187 0.10519621 -0.09247511 0.07431541 0.026711531
0.060123168 0.053373598 0.030198071 0.08045723 0.06715933 -0.07739263 -0.01152993 0.0076906686
0.0025165938 0.10612917 0.09814487 -0.11754147 -0.0041342317 -0.016663596 -0.058015566 0.115824744
-0.014469828 0.059115514 0.10850742 -0.11301958 0.07980004 0.12248439 -0.06432794 -0.034566708
-0.0592234 0.0037954105 -0.010079119 0.15256101 -0.086043 -0.052025743 -0.0068406602 -0.041601725
0.110069625 0.019956399 0.2826335 -0.08332859 -0.015932783 0.037633788 0.079526745 0.0005647102
0.121702984 -0.024455 -0.08165447 0.05636561 0.07255754 -0.005257728 -0.06447273 0.08034806
-0.019197384 0.120821275 -0.052197397 -0.07765771 0.02127106 0.044771377 0.0033372715 0.059023935
-0.3890036 -0.07531111 -0.030274887 0.07496173 0.07072709 -0.049604077 0.074353196 0.12103428
0.06434443 0.054011013 0.052396514 -0.07850324 -0.1879856 0.05833778 -0.032359075 0.074333906
-0.27727836 0.002346378 0.040149026 0.11455254 -0.104860574 -0.25412086 0.09236708 0.09674717
-0.11100622 0.025846947 0.11202781 0.102299884 -0.10853984 0.033653926 0.038125765 -0.27993435
0.02452974 0.03983105 0.09752899 0.042822476 -0.15201695 -0.04710095 -0.18050553 -0.07395003
0.109696805 0.04035559 0.16356662 0.09107714 -0.1318747 0.060337964 -0.022512367 -0.012212589
-0.064346924 -0.0058777574 0.019735185 -0.031335354 0.008392612 -0.24132462 -0.00340271 0.080636516
-0.025444763 0.079523504 0.04131651 0.12795517 -0.0048331292 0.09873863 0.08406923 -0.038120933
-0.03314931 0.1288392 0.07662922 -0.062267963 -0.06544822 -0.048629306 0.054576058 0.015302308

stack.1.0.bias f4 [64]
00000000: b9f7 d53d 4aec 6e3e 55e5 6cbe de8a 8b3c
00000010: b0ca 56be bc2e f6bc 9d1e df3b 8520 6b3e
00000020: fe33 933e d2e7 9abd 9d88 023d 1934 2a3e
00000030: cbc6 2e3e 043d dc3d 943d 003e d553 ca3d
00000040: efb3 b93d ea4e 393e 31e8 05be c947 be3d
00000050: b4f5 46be b9be 54be cad6 ed3d c185 c83d
00000060: ae01 babc 3adb 6fbd d7fb 2a3e a701 14bc
00000070: bddd 2c3e 749e bb3d f902 bc3d b9f5 fbbc
00000080: 0c32 873e b67f cbbc 2a1d a13d 80a8 883d
00000090: 1303 dd3d 867b 2abd d691 173d 5eeb 0cbd
000000a0: d06c 5f3c e8ae d83d 826c 943e 69da 273e
000000b0: 36e6 b03d 76b7 28be a483 1a3e 6158 d53d
000000c0: 2f6e 053e dc3e c83d 7a29 7cbe 1723 48bc
000000d0: e83e 433c b3ab 3f3d cc27 babd c1d4 1b3e
000000e0: 4523 393e 7d81 c73d 13e6 02be 5073 db3c
000000f0: 7e8f ca3c 2fef 753d bc8f 073d 71e4 973c
0.1044764 0.23332325 -0.23134358 0.01703399 -0.20975757 -0.030051582 0.0068090693 0.22961624
0.28750604 -0.075637475 0.031868566 0.16621436 0.17068021 0.10753825 0.1252349 0.09879271
0.09067523 0.1809651 -0.13076855 0.09291036 -0.19429666 -0.2077588 0.116132334 0.097911365
-0.022705879 -0.05855868 0.16697632 -0.009033597 0.16881461 0.09161082 0.091802545 -0.030756818
0.2640537 -0.02484117 0.07866891 0.06672764 0.10791602 -0.041621707 0.037004314 -0.03440415
0.013636783 0.10580236 0.28989035 0.1639191 0.08637659 -0.16476235 0.1508928 0.104172476
0.13030313 0.097776145 -0.24625197 -0.012215397 0.0119168535 0.046794605 -0.09089622 0.15217878
0.1807986 0.09741495 -0.12783079 0.026788384 0.024726626 0.060042556 0.03309606 0.018541547

stack.2.0.weight f4 [32, 64]
00000000: 5ee7 713c cd83 8abd f837 103e 5ae1 2cbb
00000010: 317c 1cbe 9231 293d c23c 233d 3ed0 88bb
00000020: 1b6b 12be fac7 82bd 11ff 043e c824 803d
00000030: 9928 cfbc 8b48 89bd 66e6 263e f320 2d3e
00000040: 1e3b 0f39 ba79 db3d 2318 a03c a921 ee3d
00000050: 07d1 d53d d2a4 843d e7cb 2f3e 9db0 a2bd
00000060: d161 b6bc 1b03 d13d 34ac 73bd e5da 413e
00000070: 7431 59bd ecc3 28be 0cff 213e a627 0cbe
00000080: 2c1a 2a3c ecc8 acbc f4eb 003e 15fe d6bc
00000090: 8b90 833d 6bae 8a3d a075 a4bd 5517 0dbe
000000a0: 3845 ab3d 7b32 b93d 1f5f c23c 30c9 0bbe
000000b0: d410 9e3d 4583 27be d911 74bd 3727 f13c
000000c0: bf8f c1bd 9869 853d 3196 fbbd 8f67 9dbd
000000d0: fba9 6f3d 3c59 873d 7661 4ebc 8eb4 553d
000000e0: 4ee6 b7bd 18fc 90bd cf44 313e f7de 203e
000000f0: 8e02 83bd 2869 8bbd a1a8 5c3d 496e d5bd
00000100: 2ad3 313d 4ba5 d7bd 3a77 0dbc 5328 b93d
00000110: 4663 953d f981 5a3c 8cea cebd de35 b23d
00000120: 4593 883d 7390 1d3e ea16 003c e725 0a3b
00000130: 25f5 0fbd fe96 033d 2f10 9a3c d03f adbc
00000140: 92ce 84bd ab77 f6bd e207 b33d 39d5 14be
00000150: 2c9c 173e 08b4 05be e96a 07be 4da2 f9bd
00000160: 5ed4 a8bc f37f aabc 2fba 133e e74d 983d
00000170: e774 be3d e330 a3ba 2ec8 d63d ca60 1d3e
00000180: dc26 593c 352c 8cbd 7be6 0b3d a1fa 033e
00000190: 1507 ba3d 4441 06be a83d 863c 886e 0b3d
000001a0: e281 ca3d a8d7 76bd 7e2c 583d 269c 7e3e
000001b0: 0a42 833d f1b3 00be 0aea ae3d 2372 dabd
000001c0: 6f71 0abe c814 a43e a758 083e 7222 483d
000001d0: ea8e 0abd d489 e7bd 6d42 84bd a1a2 25be
000001e0: 95fc bf3d 51ac a13d 4f37 b3bd 4780 02be
000001f0: 48d9 bbbd 0ba1 c0bd ebf4 e43d 1783 a2bd
00000200: 0b21 15be 44ec e53d b420 0e3c 0347 b0bd
00000210: b593 0ebe 666f 7dbd 3634 38bd fd37 d73d
00000220: e297 55bd cfd3 68bd 0bfe 2cbe 7b52 a03d
00000230: d8c0 e13d bbf0 883d 1218 6e3d deee 4c3e
00000240: 6f2a 483e 0baa a13d ccd9 11be 494a 90bd
00000250: 2a84 25be 66f7 bbbd 231d 443e fc6c bb3d
00000260: 864d cfbd 9482 7bbd ace5 87be 5748 01be
00000270: b5cb 433e 951a e1bd 0268 5bbc 6ddf 913d
00000280: 28d4 8bbd 359b 393e 9071 8b3d 8552 463d
00000290: 19b3 3fbc 6c36 15bc 9893 b2bd 2da1 d8bd
000002a0: 89ec a63c 4149 123e c884 c43d f2cb cebe
000002b0: d5f6 8a3d 4e31 ef3d c333 183e a38a 7b3d
000002c0: 3909 a6bc 66f8 e03d be93 36be 71ba d9bd
000002d0: 3f81 8fbd 8cc0 793b 06d7 20be 4abe 563e
000002e0: 9793 e93d 6b2d 0fbe 9291 9ebd d5f6 173e
000002f0: 4c24 c33d 5f09 33be 2731 573b 6cb7 0bbe
00000300: ff2d b3bd fe24 043e 085d 473e 9df4 2dbd
00000310: b27f 853d cb15 6b3d 06d7 813d 7e6e f9bd
00000320: 6eb3 9ebe 41fb 363e 9a31 3b3b 71d7 26bd
00000330: 75c3 c63c 4b3a 363e d20a 453c bb84 6f3d
00000340: ea60 8abd 8fb7 b6bd ffd5 2a3e fd03 c1bd
00000350: 0f1e d83d 5115 623e 4658 a73b bd09 5d3d
00000360: 539f 183d da20 32bd 2157 82be 88cd 91bb
00000370: 1ff9 6ebd ba5f ba3c 4678 213e 9353 da3c
00000380: 9a6a 983d 6078 9ebd 28d0 f2bd 774e 95bd
00000390: a59b f03d b310 ecbb bb9b b33d e025 193c
000003a0: f22c 003e dfd8 a8bd 5c74 223e e649 a8be
000003b0: 32db e13d ee4b 0fbd 076e c93d aa21 b43c
000003c0: 21db 13be a4c4 233c 702d 433e b3cf cebc
000003d0: 7c1e f83d fb1f f43d 4786 f1bd 3bae cc3d
000003e0: feff 083e a5e4 f6bd b94c 0c3e 03ea 18bd
000003f0: 80c3 69bc cd7d 36be 56de c63d f3af cb3d
0.014764635 -0.0676342 0.1408385 -0.0026379437 -0.1528175 0.04130704 0.039852865 -0.004175215
-0.1429867 -0.06385799 0.12987925 0.062570155 -0.025287913 -0.067032896 0.16298828 0.169071
0.00013659566 0.10716577 0.01954276 0.11627514 0.104402594 0.064767495 0.17167626 -0.079438426
-0.02226344 0.102056704 -0.059490398 0.18931158 -0.053025678 -0.16480988 0.15819949 -0.13687
0.010382216 -0.0210919 0.12590009 -0.026244203 0.06424054 0.06771549 -0.08030248 -0.13778432
0.08362812 0.090428315 0.023726998 -0.13650966 0.077180535 -0.16358669 -0.059587333 0.029437644
-0.094512455 0.06514281 -0.12284506 -0.07685768 0.058511715 0.06608817 -0.012596479 0.052174143
-0.08979474 -0.07079333 0.17311405 0.15710054 -0.06396972 -0.06807166 0.053871755 -0.10421426
0.043414272 -0.10529574 -0.008634383 0.09040894 0.072943255 0.013336652 -0.1010333 0.087016806
0.066687144 0.15387134 0.007817963 0.002107972 -0.035145897 0.03212642 0.018806545 -0.021148592
-0.06484713 -0.120345436 0.08741738 -0.14534463 0.14805669 -0.13056958 -0.13224377 -0.121891595
-0.020609077 -0.020812964 0.14426492 0.07436734 0.09299641 -0.0012450482 0.104874 0.15368953
0.013253894 -0.06844369 0.03415535 0.12888576 0.09083382 -0.13110834 0.016386822 0.034040958
0.098880544 -0.06026426 0.052776806 0.24864253 0.0640908 -0.12568642 0.08540733 -0.10666301
-0.13519834 0.32047105 0.13315068 0.048860975 -0.0338277 -0.113055855 -0.06457982 -0.16175319
0.09374348 0.07894195 -0.08750784 -0.12744246 -0.091723025 -0.094057165 0.11179527 -0.0793516
-0.14563386 0.11226705 0.008674789 -0.086072944 -0.13923533 -0.061873816 -0.044971667 0.10508726
-0.0521468 -0.05684262 -0.16893785 0.07828232 0.1102311 0.06686541 0.058128424 0.20012996
0.19547437 0.07893761 -0.14243239 -0.07045419 -0.16163698 -0.09178047 0.1915174 0.091516465
-0.10122208 -0.061403826 -0.26542413 -0.12625252 0.19120677 -0.10991398 -0.013391497 0.07122693
-0.06827575 0.18125613 0.0680877 0.04841854 -0.011700415 -0.0091072135 -0.087195575 -0.10577617
0.02037646 0.14285757 0.095956385 -0.40389973 0.06785361 0.11679326 0.14863496 0.06141151
-0.02026807 0.10984878 -0.17829797 -0.10631264 -0.070070736 0.0038109152 -0.15707025 0.20971027
0.11405104 -0.1398217 -0.07742609 0.14840253 0.095284075 -0.17484044 0.0032835694 -0.13644189
-0.087490074 0.12904736 0.19469082 -0.04246961 0.065184966 0.05739383 0.063398406 -0.12179278
-0.3099627 0.17869283 0.00285635 -0.040732805 0.024263123 0.17795675 0.012026506 0.05847619
-0.06756766 -0.0892173 0.16683196 -0.09424589 0.10552608 0.22078444 0.0051069586 0.053964365
0.03726132 -0.04348836 -0.254571 -0.00444955 -0.05834305 0.022750724 0.15768537 0.02665118
0.07442208 -0.077378035 -0.11856109 -0.072903566 0.11748437 -0.007204139 0.087699376 0.009347409
0.12517145 -0.0824449 0.158647 -0.3286888 0.11028136 -0.03498452 0.09835439 0.021988709
-0.1443906 0.009995613 0.19060302 -0.025245523 0.121151894 0.11920162 -0.117931895 0.09994169
0.13378903 -0.12055329 0.13701142 -0.037332546 -0.014267802 -0.17821427 0.09710376 0.09945669

stack.2.0.bias f4 [32]
00000000: 5b8e 8c3d 7760 9cbd a636 9f3c 0e99 9ebd
00000010: 2195 0f3d 5c8e 413e 4b70 25be 32b9 2d3d
00000020: fab2 ca3d 313c 843d ba64 4c3e fede 9fba
00000030: fb8f 2a3e 6631 f03d aae8 133d 7f70 633e
00000040: 420b dbbd e745 73be 16da 86bc f616 6c3d
00000050: 1c75 a23e 6167 d7bd 2adc 1abd 8744 553d
00000060: a1d1 af3b 68a3 813d 8f10 ac3d df62 31bd
00000070: 59e0 6a3c 84d3 24bd 8dbc cc3d bfa9 04bd
0.0686309 -0.07635587 0.019435238 -0.077440366 0.03505433 0.18901962 -0.16156118 0.042412944
0.09897418 0.06456793 0.19960299 -0.0012197194 0.16656487 0.11728172 0.036110558 0.22210883
-0.10695507 -0.23757134 -0.016461413 0.057639085 0.31729972 -0.10517765 -0.03780762 0.052067306
0.005365566 0.063299954 0.08401596 -0.04330718 0.014335715 -0.04024078 0.09996901 -0.032388445

stack.3.0.weight f4 [10, 32]
00000000: ead8 c6bd e3c2 3bbe 2f59 f93d 4eeb 02bd
00000010: a0f8 39be 0cde b63e c24e 4f3c 55e3 163e
00000020: c40e 613e 9a87 483e 2d0f 00bd ac45 743d
00000030: bc2e efbd a43c 1fbe 0a13 4e3c 35a7 aa3b
00000040: ce61 19be 444c e8bd b0c4 39bd 9a1d db3d
00000050: 8177 ba3e 0869 ea3d 515c 6abd bab0 52be
00000060: 60e4 783d c215 1abe 8b3d d8bc 8426 c53d
00000070: c3a0 f4bd a710 e63d 4ac6 6f3e 2d8d e23d
00000080: 3992 403d fd1f a2bd 6bb9 86be 9399 183e
00000090: 7f3a db3d 0b54 a8be 8872 e3bd de49 84be
000000a0: 9a1f 30be 8625 62bd 9b18 28be 1f99 7c3d
000000b0: 26b2 b3bc 8739 5e3d 9b28 6a3e bdcf 293e
000000c0: 4f13 4f3e fcdd a4bd 308e 013e 216f 35be
000000d0: f762 9abd 742a d5bd 16bb 3fbe a9c3 133e
000000e0: 3ed5 8f3d 4b26 7ebe d952 35be 5d98 643e
000000f0: ea03 a5be 57a4 843e ff4d 12be 9374 4f3e
00000100: 85a2 26be d733 f43b 966d 383d f2a2 fe3d
00000110: f772 d6bd 2fb7 f03d 348c 2e3e 7507 e1bd
00000120: 7395 f7bd bbb5 453d 122c 403d 691b 873d
00000130: 0fa5 b2bd 1930 99bc a64d 24bd f3a2 123d
00000140: 775f 0ebd ca2d 173d 4b25 2cbe 09e3 2fbe
00000150: c5d9 883d 6000 74bd e6bc b73d ffd2 803d
00000160: b47f 0cbe aeec 2bbe 165e babc 8584 1dbe
00000170: ac17 bcbd a75e 1ebe 2d17 1abe 41b5 913c
00000180: 580d 213e 2d4e 2fbd a600 eb3d 925e a0bd
00000190: db55 ecbb b5a3 b7be 118b aabd 354e 5fbd
000001a0: df9c f9bc a778 5b3e 95ea 2f3e 9d5e 303e
000001b0: 0512 1b3e 7735 923d ce2f 0e3e dc0c 203e
000001c0: 9f46 96be 22e2 86be e71a 95be 8cfa 15be
000001d0: d9ce 713d 619e 553e 6049 abbd d694 6d3b
000001e0: dcc9 3a3d dc65 8cbd f74b 333e 3236 8dbd
000001f0: 710e 2fbe 6b90 013d b90d 62bd 27fd 63be
00000200: 1171 02be 0c0f 873e e587 81be d0fc c23d
00000210: eb13 50be b4bf cfbe dec5 46be 29ef 6fbe
00000220: e4d4 fb3d a304 e13b 5710 5f3d 7a0a 8f3d
00000230: 44b2 d1bc 922b 9ebd 148e 343d a7fd 82bc
00000240: 8078 723d 6ff1 76bd 7005 3bbe af34 e63d
00000250: ca25 3abb d853 3abe 0e02 eb3d a23f 4b3e
00000260: 529b 7b3d fdac ce3d 1c3d e13d ae21 52bd
00000270: b2d1 fb3b 2d9c 853d 6081 59be 4f1e 56bd
00000280: 7bc4 c33d c025 413d 9f6c dabd 27fe a1be
00000290: 4fda 283e e514 10be 95e1 eebc 08d1 f5bd
000002a0: c6fd e73c 06a2 d73d 37be c9be 6d92 bb3c
000002b0: 46f5 c33d 477b 693e bae9 da3d a002 77bc
000002c0: 8846 d9bd d18f 0abc 737a e23c 06b7 6c3e
000002d0: ca4e 6e3e c324 19be 2c19 4dbd 6689 993e
000002e0: 6e30 febc 13bb 603e 8d43 ce3d 20a1 7abe
000002f0: fd51 dc3d 889c 2ebe 8b12 64be 605c 51be
00000300: d9be eb3d 4574 873d 3c1d 7b3e 6ee7 153e
00000310: a977 14be 8e33 193c 60b8 d03c cc7a d1bd
00000320: d77f 433e 86e8 bfbd 7515 cf3d 90ef 2d3e
00000330: 5dae 2dbe dd7c 52be 68a8 7ebd dba9 1ebe
00000340: 9f8b 85be 01eb acbb f26f 873d 1ab7 103e
00000350: d5ba d3bd 4cc2 4f3d 4c09 1a3e 4970 aa3d
00000360: bab0 0cbc 58c9 7bbd 56fc 453e e7da ddbd
00000370: 5fc6 803d f031 b7bd 8e6c d93c 210b 463e
00000380: 09c9 32be 4a7f b7bd b868 113e d8a7 6dbe
00000390: 5c3d 0e3e 7d76 9bbe 62b2 e23d d861 863d
000003a0: 1c25 6abe ce9e 303e 389f 58be fa32 f6bc
000003b0: ba41 94be dffe 653d 4d15 da3c f42a 053e
000003c0: 7903 04be ee7d 83be 1d44 17be 00e6 c6bc
000003d0: fbdd 543d 8682 433c e426 09bd 09f6 b1be
000003e0: 6d35 203d d579 133e c5f8 5c3e b68b 76bc
000003f0: ad03 4c3e 6728 503d a48a 293e 5e7a 84bd
-0.09709342 -0.18336062 0.121752135 -0.031962685 -0.18161249 0.35716283 0.012653055 0.14735158
0.21978289 0.19582978 -0.031264473 0.059636757 -0.11678836 -0.15550476 0.012577781 0.005207921
-0.14978716 -0.113426715 -0.04535359 0.106990054 0.364193 0.11445814 -0.057216946 -0.20575228
0.06076467 -0.15047362 -0.026396533 0.09626487 -0.11944725 0.11233645 0.23415485 0.110620834
0.04701445 -0.079162575 -0.26313338 0.14902334 0.107045166 -0.3287662 -0.111058295 -0.25837606
-0.17199555 -0.055211566 -0.16415636 0.061669465 -0.021935534 0.05425408 0.22867052 0.16583152
0.2022221 -0.08050153 0.12651896 -0.17718174 -0.07538407 -0.10408488 -0.18723711 0.14430107
0.070230946 -0.24819295 -0.17707385 0.22323747 -0.3222955 0.2590663 -0.14287566 0.20259313
-0.16272934 0.007452469 0.045026384 0.12433423 -0.104711466 0.117536895 0.17045671 -0.109877504
-0.12089052 0.048269015 0.04691703 0.06597025 -0.08722889 -0.018699693 -0.040113114 0.03579993
-0.03475901 0.036908902 -0.16811101 -0.17176451 0.06682161 -0.05957067 0.089715764 0.06290244
-0.1372059 -0.16789505 -0.022749942 -0.15382583 -0.091842026 -0.15465795 -0.15047903 0.017786624
0.15727746 -0.042799164 0.11474733 -0.07830538 -0.007212383 -0.35867086 -0.08327306 -0.054517943
-0.03047031 0.21432744 0.1717933 0.17223592 0.15143593 0.07139104 0.13885424 0.15629905
-0.29350755 -0.263444 -0.29122087 -0.14646357 0.059035156 0.20861198 -0.083636045 0.0036252043
0.045602664 -0.06855366 0.17509447 -0.068951026 -0.17095353 0.03163187 -0.05518887 -0.22264539
-0.12738444 0.26378667 -0.25298992 0.095208764 -0.20320098 -0.40575945 -0.19411418 -0.23431076
0.12296465 0.006867008 0.054458942 0.0698442 -0.025597699 -0.07723154 0.04408081 -0.015990091
0.05919695 -0.060288843 -0.18263793 0.11240517 -0.0028403872 -0.18196046 0.11475001 0.19848493
0.061427422 0.10091589 0.10997984 -0.05130165 0.0076849097 0.06523929 -0.21240759 -0.052275
0.0955896 0.04715514 -0.10665249 -0.31639215 0.16489528 -0.1407047 -0.0291603 -0.1200276
0.02831925 0.105289504 -0.39402935 0.02289697 0.095682666 0.22800933 0.10689111 -0.015076309
-0.10609156 -0.00845714 0.027646279 0.23116693 0.23272243 -0.1495543 -0.050072834 0.2998764
-0.031028952 0.21946363 0.10071478 -0.24475527 0.107578255 -0.170519 -0.22272699 -0.20445395
0.11511011 0.066139735 0.24522871 0.14639065 -0.14498772 0.0093506705 0.025478542 -0.102285
0.19091736 -0.09370522 0.101115145 0.16985917 -0.16961046 -0.20555444 -0.062172323 -0.15494482
-0.26083085 -0.005277038 0.06613149 0.14132348 -0.1033837 0.050722405 0.15042609 0.08322198
-0.008587057 -0.061471313 0.1933454 -0.10832768 0.06287836 -0.08945072 0.02654102 0.19340183
-0.17459501 -0.08959825 0.14200103 -0.23208559 0.13890594 -0.30363837 0.1106918 0.06561631
-0.22865719 0.17248079 -0.21154487 -0.030053604 -0.28956395 0.056151267 0.026621485 0.13004667
-0.1289195 -0.25682014 -0.14772077 -0.024279594 0.05196951 0.011932975 -0.033484355 -0.34758022
0.03911345 0.14401944 0.21579273 -0.015047958 0.19923277 0.05081978 0.16556793 -0.06468652

stack.3.0.bias f4 [10]
00000000: 0c50 db3d ab79 1e3d 3b57 a4bd 2835 3e3e
00000010: 928a 603d 7f39 d53d e639 d73c 2a00 6d3e
00000020: b228 36bd 679d 48be
0.10708627 0.03869025 -0.080244504 0.18574965 0.05481965 0.10411357 0.026272725 0.23144594
-0.044472404 -0.19591294
