src/fminst/models/teacher_5cl_3.pt (torch, 447183 bytes, 8 tensors)

stack.0.0.weight f4 [128, 784]
0	0xbd9ef451	-0.077614434
1	0xbd7d7f9a	-0.06188927
2	0xbcad364a	-0.021144051
3	0xbd124552	-0.03571064
4	0xbd34a6c6	-0.04410436
5	0xbdd8d3a2	-0.10587241
6	0xbdf0cb4c	-0.11757526
7	0xbdb6b9a7	-0.08922129
8	0xbd593b32	-0.05303497
9	0xbc6aa659	-0.014321887
10	0xbd9be046	-0.07611136
11	0xbcdce143	-0.026962882
12	0xbba62b9c	-0.0050711166
13	0x3b026a2b	0.0019899707
14	0xbd5fb3cb	-0.054614823
15	0x3b923a61	0.0044625257
16	0xbd3fa0dc	-0.046784267
17	0xbca582d5	-0.020203987
18	0xbc2e62ec	-0.010643702
19	0xbd79fcd3	-0.061032128
20	0xbdc7732f	-0.097387664
21	0xbe2ec008	-0.17065442
22	0xbd628895	-0.055306036
23	0xbdb9efa4	-0.09078911
24	0xbd84a970	-0.0647763
25	0xbd0d5bb7	-0.034511294
26	0xbd6e184d	-0.058128644
27	0xbca204f8	-0.01977776
28	0xbd761c56	-0.060085617
29	0xbd63148e	-0.055439524
30	0xbbb164bb	-0.0054136193
31	0xbc730e6d	-0.014834982
32	0xbd561669	-0.052267466
33	0xbd970b45	-0.07375196
34	0xbdc33860	-0.09532237
35	0xbb14140b	-0.0022594954
36	0x3c245db1	0.010032103
37	0xbc9e1279	-0.019295918
38	0xbd304c2a	-0.043041386
39	0xbc9af405	-0.018915186
40	0x3d2d660a	0.04233364
41	0x3d384a35	0.044992644
42	0x3cec3ba0	0.028837025
43	0x3d0feede	0.03513991
44	0x3d0d47f2	0.03449244
45	0xbc60c54b	-0.013718913
46	0xbc6a0bb7	-0.01428502
47	0xbc8b09d1	-0.016972454
48	0x3c06bee5	0.008224224
49	0x3c1db826	0.009626424
50	0xbcbbe886	-0.022938024
51	0xbc214179	-0.00984227
52	0xb904e2fd	-0.0001267306
53	0x3d07e2f6	0.03317543
54	0x3d17a61e	0.037023656
55	0xbbe80bc7	-0.007081482
56	0xbd2b6ffb	-0.04185484
57	0x3d5184bf	0.051151987
58	0x3cfe8beb	0.031072577
59	0xbd8d89fa	-0.069110826
60	0x3d21701b	0.039413553
61	0x3cd350c1	0.025795342
62	0xbc6fb805	-0.014631276
63	0x3cd6059c	0.026125722
64	0xbc70adbb	-0.014689858
65	0xbc8eccd4	-0.017431654
66	0xbc05da31	-0.008169697
67	0xbceecbab	-0.02914985
68	0x3d7803e3	0.06055058
69	0x3d95b61f	0.073101275
70	0x3d58172c	0.052756473
71	0x3d9b57ee	0.07585131
72	0xbbcc7753	-0.0062398105
73	0x39d31814	0.00040262996
74	0x3cec16a9	0.028819399
75	0x3c44c9e2	0.012011023
76	0x3d0267ff	0.03183746
77	0x3d4a5b2e	0.049403362
78	0x3d861426	0.06546812
79	0x3d8a4ce0	0.06752944
80	0xbcce4156	-0.025177639
81	0x3a65d76e	0.0008767758
82	0xbc0f708c	-0.008754861
83	0x3b311c99	0.0027025102
84	0x3b8ae640	0.0042388737
85	0xbc402e53	-0.011729795
86	0x3c8e08b4	0.017338134
87	0xbd31258c	-0.043248698
88	0x3d022399	0.03177223
89	0x3c204c78	0.009783857
90	0xbae04642	-0.0017110782
91	0x3c12b80b	0.008955012
92	0xbc85b33e	-0.01632082
93	0x3d76002d	0.06005876
94	0xb9cc1b6d	-0.00038930346
95	0xbb452e1a	-0.0030087293
96	0xbb28faa2	-0.0025784154
97	0x3d088c6c	0.03333704
98	0x3a196771	0.0005851901
99	0xbaefb8cf	-0.001828933
100	0x3ba4214d	0.0050088526
101	0x3c95e547	0.018297805
102	0x3cbd1d24	0.023085184
103	0xbc113c4a	-0.008864472
104	0x3cc9d04a	0.024635453
105	0xbbaac73e	-0.00521174
106	0x3cb7950a	0.022409935
107	0x3d762184	0.060090557
108	0x3dbc8a71	0.09206093
109	0x3cac1ccf	0.02100983
110	0x3d2b17b2	0.041770644
111	0x3d39bb66	0.045344733
112	0xbd087e50	-0.033323586
113	0x38d00ae5	9.920242e-05
114	0xbd024a48	-0.03180912
115	0x3c877f8d	0.016540313
116	0x3db8dd4a	0.090265825
117	0x3d209e40	0.03921342
118	0xbc62ceb6	-0.013843229
119	0x3d3b5ff4	0.045745805
120	0x3d0379d4	0.032098606
121	0xbbec5b8f	-0.007213063
122	0xbca0999f	-0.019604502
123	0xbcd9ee57	-0.026602907
124	0xbd09c903	-0.033638965
125	0xbc9c712e	-0.019096937
126	0x3c955c81	0.018232586
127	0x3baf2267	0.0053446773
128	0xbcc8e00a	-0.024520893
129	0x3c922374	0.017839171
130	0x3d70cd1b	0.058789354
131	0x3c9fa126	0.019486021
132	0x3d2cc969	0.042184267
133	0xbb53ba40	-0.0032307059
134	0xbcc06e5a	-0.02349012
135	0x3d739abe	0.059473746
136	0x3db0e9f4	0.08638373
137	0x3d989660	0.07450557
138	0xbb9b4c1b	-0.004739297
139	0x3c91690a	0.017750282
140	0xbccdc70d	-0.025119329
141	0x3c79b06f	0.015239819
142	0x3c12546f	0.008931263
143	0x3d84b787	0.064803176
144	0x3d2e3803	0.042533886
145	0xbc4013f3	-0.011723506
146	0x3c08a060	0.008339018
147	0xbd04c704	-0.03241636
148	0x3d12b2d6	0.035815082
149	0x3d12e81a	0.03586588
150	0xbc260513	-0.010133046
151	0x3d0e2591	0.034703795
152	0x396ebac1	0.0002276702
153	0x3cd92533	0.026506996
154	0x3cf0c488	0.029390588
155	0xbcc24d47	-0.02371849
156	0x3c0b924f	0.008518769
157	0x3c938522	0.018007819
158	0x3cd4d9c2	0.025982741
159	0x3c3891e6	0.011265254
160	0xbbcca246	-0.0062449304
161	0x3c7ce26b	0.015434842
162	0x39222a1c	0.00015465211
163	0x3d5a8f33	0.05335922
164	0x3cccf2b6	0.025018077
165	0x3cb31f2b	0.021865448
166	0x3d13bec3	0.036070596
167	0x3cf05d57	0.029341383
168	0x3d0ea733	0.034827422
169	0x3c91b5ab	0.017786821
170	0x3d2337d9	0.039848182
171	0x3d926583	0.07148268
172	0x3bfd6d10	0.0077339485
173	0x3ce9d4db	0.02854388
174	0x3c6030f6	0.013683548
175	0x3d0e749a	0.03477917
176	0x3bd0823e	0.0063631823
177	0x3c3a6831	0.01137738
178	0x3cec7aa1	0.028867068
179	0xbc90bfe1	-0.01766962
180	0x3d104650	0.035223305
181	0x3af0e268	0.0018378021
182	0x3cdc1fd2	0.026870642
183	0x3d147070	0.03624004
184	0x3ab18375	0.0013543206
185	0x3be9ba74	0.0071328226
186	0x3cb90491	0.022585185
187	0x3d0cba1f	0.034357186
188	0xbcd304a3	-0.025759047
189	0x3c1e5536	0.009663871
190	0x3d30a7bb	0.04312871
191	0x3c809c0b	0.015699407
192	0x3d0e2ee3	0.034712683
193	0x3dabc8df	0.083879225
194	0x3d6f6b16	0.058451734
195	0x3d127e3b	0.035764914
196	0x3c9f9610	0.019480735
197	0x3cf6e98e	0.030140664
198	0x3cf11181	0.029427292
199	0x3db6dee2	0.0892923
200	0xbb63aee4	-0.0034741694
201	0x3cd662e7	0.026170207
202	0x3ce76242	0.028245095
203	0x3d721f74	0.059112027
204	0x3d925a5c	0.07146141
205	0xbcc13855	-0.023586432
206	0x3c8ac440	0.016939282
207	0xbcc1f3d6	-0.02367584
208	0x3d199217	0.037492838
209	0xbd204d7e	-0.039136402
210	0xbd43037e	-0.047610752
211	0xbce8f1e7	-0.02843566
212	0x3d0df36b	0.03465597
213	0x3bb3366d	0.0054691345
214	0xbcc21254	-0.02369038
215	0xbb4ce313	-0.0031263276
216	0x3c8fbefa	0.01754712
217	0x3c16ebe6	0.009211516
218	0x3c138683	0.009004238
219	0x3d4a4244	0.049379602
220	0x3d2e41b8	0.042543143
221	0x3d2aa757	0.041663494
222	0x3d622930	0.05521506
223	0x3d121b21	0.035670403
224	0x3ced137b	0.028939953
225	0x3c1ae1b4	0.009453226
226	0x3d1cb86d	0.03826182
227	0x3da0a85a	0.078446105
228	0x3d0397da	0.03212724
229	0xbd16a769	-0.03678075
230	0x3a52e425	0.00080448604
231	0x3d60f992	0.05492551
232	0x3d7d09c9	0.06177691
233	0x3d273c8c	0.040829226
234	0x3ae1a97c	0.0017216648
235	0x3cf6eff7	0.030143721
236	0xbcd2ed60	-0.025747955
237	0xbc52df67	-0.012870646
238	0xbb3019c1	-0.002687082
239	0x3ccdd6e5	0.025126884
240	0x3cafe1f5	0.02147005
241	0x3c7ad6fe	0.015310047
242	0xbccf3b2f	-0.025296776
243	0x3cb1131a	0.021615554
244	0x3d0819d0	0.03322774
245	0x3d08bcda	0.033383228
246	0x3ba25811	0.004954346
247	0x3d3175c6	0.043325208
248	0x3cf61959	0.030041384
249	0x3daa126d	0.08304296
250	0x3da25f31	0.079283126
251	0x3d61148b	0.054951232
252	0x3d06b19c	0.032884225
253	0xbc7fb26f	-0.015606507
254	0x3cf41aa0	0.029797852
255	0x3b9ad2e2	0.004724846

stack.0.0.bias f4 [128]
0	0x3d401495	0.04689463
1	0xbdb13a13	-0.08653655
2	0x3c5e714d	0.013576818
3	0x3df475b4	0.119365126
4	0x3da2685a	0.0793006
5	0x3e070594	0.13185722
6	0x3d23da9a	0.040003397
7	0x3e19ef87	0.15032779
8	0x3db664af	0.089059226
9	0x3c48e175	0.012260784
10	0x3e18db88	0.14927495
11	0x3cf8e1fb	0.030381193
12	0x3d93106b	0.07180866
13	0x3c926e33	0.017874813
14	0x3ddc9dcf	0.10772287
15	0x3dbb9ccc	0.09160766
16	0xbcb58517	-0.022158189
17	0x3cbf618b	0.023361942
18	0x3c5eb8ff	0.013593911
19	0x3df241f6	0.11828987
20	0xbde4b5e0	-0.111675024
21	0x3e1e4bca	0.15458599
22	0x3c160a75	0.009157767
23	0x3e30d64b	0.17269246
24	0x3d91ca71	0.07118691
25	0x3d61c46c	0.055118963
26	0xbdf42e5e	-0.11922906
27	0xbd8684c1	-0.065682895
28	0x3d2052a0	0.039141297
29	0x3e1da7de	0.15396068
30	0xbd23bd4b	-0.039975446
31	0xbd7be65b	-0.06149898
32	0x3e0d0ffa	0.13775626
33	0xbda0fa12	-0.07860197
34	0xbd7ffc0f	-0.06249624
35	0x3d6408df	0.055672523
36	0x3e24ded5	0.16100629
37	0xbd63071d	-0.055426706
38	0x3e4dec67	0.20109712
39	0x3df40b5e	0.119162306
40	0xbd2282ea	-0.03967563
41	0x3d0b043c	0.033939585
42	0x3de098d4	0.1096665
43	0x3d848d02	0.064722076
44	0x3e10e111	0.14148356
45	0x3de690ac	0.11258063
46	0x3e0d41ee	0.13794681
47	0xbda0a172	-0.07843293
48	0xbdd6e7df	-0.10493445
49	0xbd793be9	-0.06084815
50	0xbd0bf42f	-0.03416842
51	0x3bacb155	0.005270163
52	0xbdef31b1	-0.116794
53	0x3e1fbe76	0.15599999
54	0x3e581383	0.21101193
55	0x3e16a85b	0.1471266
56	0x3de06585	0.10956863
57	0xbd1d733e	-0.03843998
58	0x3dcb7948	0.09935242
59	0xbce8d422	-0.028421465
60	0x3e0adda5	0.13561113
61	0x3e352011	0.17688014
62	0x3cab4706	0.02090789
63	0x3dd0928f	0.10184204
64	0xbca1092e	-0.019657698
65	0xbe30f44a	-0.17280689
66	0xbc76352e	-0.015027327
67	0x3db57a3c	0.08861205
68	0x3d7a2b29	0.061076317
69	0x3ce4713b	0.027886024
70	0xbdb8d892	-0.090256825
71	0x3df5a556	0.11994426
72	0x3e1eb99f	0.15500496
73	0xbcf7c49d	-0.03024512
74	0x3dd1a558	0.10236615
75	0xbe22ff3d	-0.15917678
76	0x3da588e4	0.080827504
77	0x3e03b5bd	0.12862296
78	0x3d38feb7	0.04516479
79	0xbd8905f0	-0.066905856
80	0x3de8ec6c	0.11373219
81	0x3c8e3f99	0.01736431
82	0x3d92fff9	0.07177729
83	0xbd9ca410	-0.0764848
84	0x3e03f857	0.12887703
85	0x3e3e88a5	0.18606813
86	0xbdd88c4f	-0.10573637
87	0x3dfd0d92	0.12356104
88	0x3db19989	0.08671863
89	0x3e0b976d	0.13631983
90	0x3cbcf22b	0.023064693
91	0x3dbdc13d	0.09265373
92	0xbd3709e2	-0.04468716
93	0xbdc2ead3	-0.095174454
94	0x3cd3975c	0.02582901
95	0x3e2f86d9	0.17141284
96	0xbd527928	-0.051385075
97	0x3d9a78a5	0.07542542
98	0xbdeb555c	-0.114908904
99	0x3e31fc6b	0.17381446
100	0x3da10f8d	0.07864294
101	0x3dac805d	0.08422921
102	0xbe27d668	-0.16390383
103	0x3daa18ef	0.08305537
104	0x3e00b4e7	0.12569009
105	0xbde8c920	-0.113664865
106	0x3e0b320e	0.13593313
107	0xbd4e0874	-0.05030103
108	0x3d4903c1	0.049075846
109	0x3e18b69b	0.14913408
110	0x3d72802a	0.059204258
111	0x3dbc073f	0.091810696
112	0x3d9c5b6d	0.076346256
113	0x3d7d3054	0.061813667
114	0xbe223a12	-0.15842465
115	0xba71fe4e	-0.0009231315
116	0x3de6c6f2	0.112684146
117	0x3e49dafc	0.19712442
118	0xbdf60c8c	-0.12014112
119	0xbd280592	-0.041020937
120	0xbe046724	-0.1292997
121	0xbdeaa0b6	-0.114564344
122	0xbd1461d5	-0.036226112
123	0xbda8a2e5	-0.08234195
124	0x3e0126bb	0.12612431
125	0x3e2f9bc8	0.1714927
126	0xbc905abd	-0.017621392
127	0x3c9d8747	0.019229544

stack.1.0.weight f4 [64, 128]
0	0xbda454e1	-0.08024002
1	0x3ddab57b	0.10679146
2	0xbc737890	-0.014860287
3	0x3d9bce0b	0.07607659
4	0x3c8e3cb5	0.017362932
5	0xbd421db1	-0.047391597
6	0x3c9d734c	0.019220017
7	0xbcee6df4	-0.029105164
8	0xbbbfd7a5	-0.0058545643
9	0x3cf857b2	0.030315254
10	0x3db553df	0.08853888
11	0x3e1f5b10	0.15562081
12	0x3d36653d	0.044530142
13	0x3d94dbc1	0.07268477
14	0xbd7083d5	-0.058719475
15	0xbd0c420a	-0.034242667
16	0x3e074d8f	0.1321318
17	0x3dc83081	0.097748764
18	0xbd32a88f	-0.04361778
19	0xbe1da556	-0.15395102
20	0x3e05883d	0.13040252
21	0x3d655004	0.055984512
22	0x3ba6409f	0.0050736214
23	0x3c0fafec	0.00876997
24	0xbd9e2e1c	-0.077236384
25	0xbd586a72	-0.05283589
26	0x3d933d41	0.07189418
27	0x3c879874	0.016552188
28	0xbca0c81d	-0.019626671
29	0x3d2a592e	0.041588955
30	0x3e460823	0.19339041
31	0x3d2f5b77	0.042811837
32	0xbc82d090	-0.015968591
33	0x3c915967	0.017742826
34	0x3c6c4ce5	0.01442263
35	0x3e13e5a4	0.1444307
36	0xbd589a1c	-0.052881345
37	0x3d001eef	0.0312795
38	0x3863ad18	5.4282224e-05
39	0x3c61571f	0.013753681
40	0xbb3c43da	-0.0028726966
41	0x3e24b552	0.16084793
42	0xbe1dcdbb	-0.15410511
43	0x3da4ac33	0.08040657
44	0xbd71a99f	-0.058999654
45	0x3dacec56	0.08443515
46	0x3d129ad5	0.03579219
47	0xbc5191f0	-0.012791142
48	0x3db2cef1	0.08730877
49	0xbd733049	-0.05937222
50	0xbdb483b3	-0.08814182
51	0x3d2630e4	0.04057397
52	0x3d9748d5	0.073869385
53	0xbd96fa80	-0.07371998
54	0xbc7424f0	-0.014901385
55	0xbcabb087	-0.020958198
56	0xbdab52e5	-0.0836542
57	0x3d469a9c	0.04848729
58	0x3d121f41	0.035674337
59	0x3d00f686	0.031485103
60	0xbe0be572	-0.13661745
61	0xbd996a91	-0.07491029
62	0x3dd47a70	0.103749156
63	0x3c09fcc5	0.008422081
64	0x3e2740af	0.16333269
65	0x3db11250	0.08646071
66	0x3db18fc1	0.08669997
67	0xbd8e8eac	-0.06960806
68	0x3ceac3c8	0.028657809
69	0xbdb99762	-0.09062077
70	0x3e07c699	0.13259353
71	0xbd201d0b	-0.039090198
72	0x3da8b7ca	0.0823818
73	0x3cc5ab71	0.024129601
74	0xbd6e9851	-0.05825073
75	0xbc8c1557	-0.01710002
76	0xbda843a1	-0.08216024
77	0xbe04fe42	-0.12987617
78	0x3d1e6f91	0.038680617
79	0x3d3d0e1b	0.04615603
80	0x3b049d78	0.002023546
81	0x3d6177de	0.055045955
82	0xbd11af12	-0.03556735
83	0x3dc7d452	0.09757294
84	0x3c78a82e	0.015176816
85	0xbb8c1581	-0.0042750244
86	0x3e136e80	0.14397621
87	0xbe3afd37	-0.18260656
88	0x3d43e712	0.047827788
89	0xbe7d7b9b	-0.24754183
90	0xbd67de81	-0.05660868
91	0xbc79dd6f	-0.015250548
92	0x3d114d15	0.0354739
93	0x3d9fb5e5	0.077983655
94	0xbcad0ae5	-0.021123359
95	0x3d948139	0.0725121
96	0x3da51fd2	0.0806271
97	0xbd73f2b7	-0.059557643
98	0x3c3499ed	0.011023027
99	0xbd5d13ea	-0.05397407
100	0x3b45caca	0.0030180686
101	0x3ae1e580	0.0017234534
102	0x3dd84ad1	0.10561145
103	0x3d427f0c	0.047484443
104	0x3da5e5e5	0.081004895
105	0x3e006749	0.125394
106	0xbb37ea74	-0.002806333
107	0x3d8ecdbf	0.06972837
108	0x3d94b0b3	0.07260265
109	0xbda72e8b	-0.08163174
110	0xbce3edd3	-0.027823364
111	0x3deb8f58	0.1150195
112	0xbc637d79	-0.0138848955
113	0x3dffb855	0.124863304
114	0x3d86fc36	0.06591074
115	0x3dbd6674	0.09248057
116	0xbd32578b	-0.04354052
117	0xbdc5da58	-0.096607864
118	0x3d5a4bc5	0.053294916
119	0xbd5f972f	-0.05458754
120	0x3c821c55	0.01588265
121	0x3d37ccc4	0.044873014
122	0x3bb16323	0.0054134293
123	0x3d2a68bc	0.04160379
124	0xbdcb4f49	-0.09927232
125	0xbe045266	-0.12922058
126	0x3de74e2c	0.11294207
127	0x3dd3bcdc	0.103387564
128	0x3d779d81	0.06045294
129	0xbd5da436	-0.054111682
130	0x3df5aeb4	0.119962126
131	0x3dc75665	0.09733275
132	0xbd04e0ad	-0.03244083
133	0x3c940db5	0.018072942
134	0x3d0f52f7	0.03499123
135	0x3da0bcb3	0.078484915
136	0xbab9ed8f	-0.0014185178
137	0xbd9c5b85	-0.076346435
138	0x3dc76d0a	0.097375944
139	0xbda36e4e	-0.07980023
140	0x3d0d7efa	0.034544922
141	0xbded468d	-0.11585722
142	0x3d0f1e24	0.034940854
143	0x3dc5cdaa	0.09658368
144	0xbcdaf830	-0.026729673
145	0x3c5a0b37	0.013308338
146	0x3d9970d3	0.07492223
147	0x3d587ac4	0.052851453
148	0x3d0936b1	0.033499423
149	0x3db18732	0.086683646
150	0xbce41831	-0.027843567
151	0x3ceaa936	0.02864514
152	0x3dbae3d0	0.09125483
153	0x3bebd9c0	0.0071975887
154	0x3d21e4dc	0.039524898
155	0x3c8e4d53	0.017370855
156	0x3d0ccea8	0.03437677
157	0x3ce819af	0.02833256
158	0xbe147307	-0.14497004
159	0xbd3b8d5f	-0.04578912
160	0x3d9804e4	0.07422808
161	0xbdd2ffeb	-0.10302719
162	0x3c350f57	0.011051021
163	0x3cca9080	0.024727106
164	0x3d85c378	0.06531423
165	0xbbe6f0c1	-0.007047743
166	0x3ddfba51	0.10924209
167	0x3d59aeb8	0.05314514
168	0x3d3ad904	0.04561712
169	0xbcf2d363	-0.029641813
170	0xbd03cc17	-0.032177057
171	0x3d8c95a3	0.068644784
172	0xbd4050d1	-0.046952073
173	0xbd14e583	-0.036351692
174	0x3d6a79fb	0.057245236
175	0xbe0ba87f	-0.13638495
176	0xbcdc5018	-0.02689366
177	0x3d3fe74b	0.046851438
178	0xbc764093	-0.015030044
179	0xbd93ff5e	-0.07226442
180	0xbdcc53a9	-0.099768944
181	0x3de7be98	0.1131565
182	0xbc63b438	-0.013897948
183	0xbb0b7c16	-0.0021283678
184	0x3db4f389	0.08835513
185	0xbbc7ffe7	-0.006103504
186	0x3dd6697b	0.104693376
187	0xbc89c632	-0.01681814
188	0x3db79b5e	0.08965181
189	0x3db5661d	0.08857367
190	0x3c02aa65	0.007975196
191	0xbc96f793	-0.0184286
192	0xbdc23692	-0.09483065
193	0xbdbfd42e	-0.09366642
194	0x3cc4f389	0.024041908
195	0x3d1c0f51	0.038100544
196	0x3d05f1ea	0.03270141
197	0xbceba0ab	-0.028763136
198	0xbc27c3e0	-0.010239571
199	0x3e83978f	0.25701568
200	0x3d0b1dc3	0.03396393
201	0x3d9a2a24	0.07527569
202	0x3c5a47cc	0.013322782
203	0x3c67ffe1	0.014160127
204	0xbb7220cb	-0.0036945816
205	0xbd97c3aa	-0.07410367
206	0x3db188b5	0.08668653
207	0x3d43ad48	0.047772676
208	0x3e0b29a1	0.13590099
209	0xbd1bc4a1	-0.038029317
210	0x3cdd75bf	0.027033685
211	0x3dc4e95d	0.09614823
212	0x3cbb4131	0.022858234
213	0x3df4f19d	0.119601466
214	0xbd00b9d9	-0.031427238
215	0x3d72fb62	0.05932177
216	0x3ddd8bc0	0.10817671
217	0xbd9ae32c	-0.07562861
218	0x3c7582c7	0.014984793
219	0x3db2f25e	0.08737634
220	0xbcf6b551	-0.030115755
221	0xbe38ef67	-0.18060075
222	0x3c73390b	0.014845143
223	0x3d9104cd	0.07080994
224	0xbd642563	-0.055699717
225	0x3dc735c0	0.09727049
226	0xbd111ad7	-0.035425987
227	0xbd11db01	-0.03560925
228	0x3df1a861	0.11799694
229	0x3dc389e6	0.095477864
230	0xbd3aa847	-0.045570638
231	0xbbc79cbd	-0.0060916827
232	0x3b84cafd	0.0040525184
233	0xbd6c22d3	-0.0576504
234	0x3d5c5218	0.05378923
235	0x3d858d7b	0.06521126
236	0xbd412c54	-0.047161415
237	0x3dd15d90	0.10222924
238	0xbca1df4b	-0.019759795
239	0x3e3816e1	0.17977478
240	0xbd0d6c0a	-0.034526862
241	0xbd7cc42c	-0.06171052
242	0xbd04461c	-0.032293424
243	0xbdb24169	-0.08703882
244	0x3d9bf5f5	0.07615272
245	0x3d0ebb7d	0.03484677
246	0xbd08c3bc	-0.03338979
247	0x3c81a653	0.01582638
248	0xbdac73ab	-0.084204994
249	0xb9618e1c	-0.00021510612
250	0xbdcf9664	-0.101361066
251	0xbd6f7a31	-0.05846614
252	0x3d6ed77e	0.058310978
253	0x3d63fc9e	0.055660836
254	0xbd0aeb58	-0.033915848
255	0x3d787427	0.060657647

stack.1.0.bias f4 [64]
0	0xbe00683c	-0.12539762
1	0x3dc74ba0	0.09731221
2	0xbe0da09a	-0.13830796
3	0xbe429afd	-0.19004436
4	0xbc036bba	-0.0080212895
5	0x3e57b5d4	0.21065456
6	0x3c8be70d	0.017077947
7	0x3d470185	0.048585434
8	0x3e0b39bc	0.13596243
9	0xbce71490	-0.028208047
10	0x3e2ff99b	0.1718506
11	0xbdba5e4a	-0.091000155
12	0x3d316dfa	0.043317772
13	0xbd4a5f0b	-0.049407046
14	0x3d5be637	0.053686347
15	0x3e00f05b	0.12591688
16	0x3e66eba0	0.22550821
17	0x3d778b6d	0.0604357
18	0x3e13d407	0.14436351
19	0xbd7cac85	-0.061687965
20	0xbe39dcd1	-0.18150641
21	0xb9a43047	-0.00031316487
22	0x3d40dfd3	0.047088455
23	0xbd008e66	-0.0313858
24	0xbdf9814c	-0.121828645
25	0x3d9f1236	0.07767145
26	0x3d03a0e7	0.03213587
27	0xbdceb3a7	-0.1009286
28	0xbaf58925	-0.0018732889
29	0xbcb888f7	-0.022526247
30	0x3c89ccf3	0.01682136
31	0x3e6e504d	0.2327282
32	0xbcefd33b	-0.029275527
33	0x3e0c5ab6	0.13706478
34	0x3d01ca32	0.03168697
35	0x3dab9372	0.08377732
36	0xbc1137af	-0.008863374
37	0x3e5229c4	0.20523745
38	0x3ca4cc73	0.02011702
39	0xbd8dbce0	-0.06920791
40	0xbcf218f5	-0.029552916
41	0x3e0f7b35	0.14011844
42	0x3df93230	0.12167776
43	0x3d97d922	0.07414462
44	0x3d744b31	0.05964202
45	0x3e2a9e36	0.16661915
46	0xbce37de0	-0.027769983
47	0xbe1dcfe8	-0.15411341
48	0xbe2925b6	-0.16518292
49	0x3dbf9f49	0.09356553
50	0xbda85e0a	-0.082210615
51	0x3e0f0956	0.13968405
52	0xbd835e91	-0.064145215
53	0x3e1ee790	0.15518022
54	0xbd86b677	-0.06577771
55	0xbd639d03	-0.05556966
56	0xbdcbd934	-0.099535376
57	0xbd8caa55	-0.06868426
58	0xbcef7c9d	-0.029234225
59	0x3d2b405f	0.041809436
60	0x3e3c5c43	0.1839457
61	0x3cda3a10	0.026639014
62	0x3cefe94c	0.02928605
63	0x3cb75ff1	0.022384616

stack.2.0.weight f4 [32, 64]
0	0xbc7ebf58	-0.01554855
1	0x3dde14e6	0.1084383
2	0x3d59292f	0.05301779
3	0xbbe4d26f	-0.0069830935
4	0x3cf9bc40	0.030485272
5	0x3e16374f	0.14669536
6	0xbe157c22	-0.14598134
7	0x3e0f6a38	0.14005363
8	0x3c949254	0.018136181
9	0xbcb10604	-0.021609314
10	0x3d4869c2	0.048928984
11	0xbda63d64	-0.08117178
12	0x3dd162d5	0.10223929
13	0xbe277f42	-0.16357139
14	0xbdd52c27	-0.10408812
15	0xbe3b1bc1	-0.18272306
16	0x3cce00ee	0.025146928
17	0x3e19a685	0.15004928
18	0x3e056072	0.13025072
19	0x3c4c5302	0.0124709625
20	0xbd9d61a1	-0.07684637
21	0xbd9f9c80	-0.07793522
22	0xbe42a7e4	-0.19009358
23	0x3acac16b	0.001546902
24	0x3d4d4d25	0.0501224
25	0xbd3c1cb6	-0.04592582
26	0x3b91c0d6	0.0044480367
27	0xbde75b9a	-0.112967685
28	0x3d8c2cf5	0.068445124
29	0x3cc3bef0	0.023894757
30	0x3dfb81a6	0.12280588
31	0x3d874aba	0.0660605
32	0xbda6aa56	-0.08137958
33	0x3d80ebb2	0.06294955
34	0xbd8cb01a	-0.06869526
35	0xbbd30f8a	-0.0064410614
36	0xbd424567	-0.04742947
37	0x3daaca92	0.083394185
38	0x3c6ba679	0.014382952
39	0xbe0ba32e	-0.13636467
40	0xbd1225c3	-0.035680544
41	0xbe371852	-0.17880371
42	0xbd7621fe	-0.06009101
43	0x3ce6fdaf	0.028197138
44	0x3e00fe2a	0.12596956
45	0x3d6d214f	0.057893094
46	0xbd5f5957	-0.05452856
47	0xbe12a4d6	-0.14320692
48	0x3df088ba	0.117448285
49	0xbe1a4593	-0.15065603
50	0xbe3e7c81	-0.18602182
51	0x3e038ea8	0.12847388
52	0xbcd99d78	-0.026564345
53	0xbd582707	-0.052771594
54	0x3d2e13e4	0.042499438
55	0x3df92594	0.121653706
56	0xbde521db	-0.11188098
57	0xbe179921	-0.14804508
58	0xbdbdb4b9	-0.09262986
59	0xbe375012	-0.17901638
60	0xba97ad8f	-0.001157211
61	0x3e1f9b9e	0.15586707
62	0xbe25bdef	-0.16185735
63	0xbdbf1924	-0.09330967
64	0x3db1179e	0.08647083
65	0x3d9f9d08	0.07793623
66	0xbe5c5242	-0.21515754
67	0xbe2e831e	-0.17042205
68	0x3ce6f1ba	0.028191436
69	0x3dbd30f2	0.09237851
70	0x3de7ced9	0.1131875
71	0xbdc7e2d8	-0.09760064
72	0xbd263a92	-0.0405832
73	0x3c97e220	0.018540442
74	0x3da97c08	0.0827561
75	0x3d8d57cd	0.06901512
76	0x3d82bcd2	0.06383671
77	0x3ce0e301	0.027451994
78	0xbc3035ff	-0.010755061
79	0x3da9ae01	0.08285142
80	0xbd3d9663	-0.046285998
81	0x3dcf7581	0.10129834
82	0xba49bf86	-0.0007696081
83	0xbe549a5b	-0.20762007
84	0x39cd75dc	0.0003918846
85	0xbdc0eed1	-0.094205506
86	0x3d787f35	0.06066819
87	0x3e5934c8	0.2121154
88	0xbcd518ac	-0.026012741
89	0x3d488235	0.0489523
90	0xbe3ed149	-0.18634523
91	0xbe1b14cc	-0.15144652
92	0xbd95ab75	-0.073080935
93	0xbd5d4cad	-0.0540282
94	0x3ca9a418	0.020708129
95	0x3e132e1c	0.14373058
96	0xbd905cd0	-0.070489526
97	0x3e02a448	0.12757981
98	0xbd5dcc86	-0.054150127
99	0xbdaabac8	-0.08336407
100	0xbcce7e07	-0.025206579
101	0x3de8ed43	0.11373379
102	0xbca45855	-0.020061651
103	0x3df5010d	0.11963091
104	0x3c820360	0.01587075
105	0x3e2a82ab	0.16651408
106	0x3d3486f7	0.044074025
107	0x3e0b2303	0.13587575
108	0x3db4e2c2	0.08832313
109	0xbe432557	-0.19057213
110	0xbd95bc14	-0.07311264
111	0xbdc1e68f	-0.09467804
112	0xbe574235	-0.2102135
113	0x3e1ddac8	0.1541549
114	0x3babee62	0.0052469233
115	0x3dab3b5f	0.083609335
116	0xbd946af6	-0.07246964
117	0x3dd2cad6	0.10292594
118	0xbdf41f84	-0.11920074
119	0x3ded4ad4	0.11586538
120	0x3decb913	0.115587376
121	0x3de7a783	0.11311247
122	0xbd370182	-0.044679172
123	0xbb85ca1e	-0.004082932
124	0x3ceb83e3	0.028749412
125	0x3d4cc4c2	0.04999233
126	0xbd7a898b	-0.061166327
127	0x3dff681e	0.12471031
128	0x3d6a4aba	0.05720017
129	0x3d9bd01a	0.076080516
130	0x3d9454f2	0.072427645
131	0xbdff1583	-0.12455275
132	0x3d147ffd	0.03625487
133	0x3d2399ad	0.03994148
134	0xbc41cd69	-0.011828759
135	0x3d59a5e9	0.05313674
136	0xbde84a59	-0.11342306
137	0xbddec040	-0.108765125
138	0x3dc723ac	0.09723601
139	0x3dc72ff8	0.09725946
140	0x3d466d68	0.04844418
141	0xbdc68e09	-0.0969506
142	0xbbb71863	-0.005587624
143	0xbd3fec73	-0.046856355
144	0x3ddc9a87	0.10771661
145	0xbc1b3a74	-0.0094743855
146	0xbd0748af	-0.0330283
147	0x3dceb403	0.10092928
148	0x3cd43110	0.025902301
149	0x3dd6c9b3	0.1048769
150	0x3c07deb0	0.008292839
151	0x3da1a566	0.078928754
152	0x3ca4cf72	0.020118449
153	0x3d6aa732	0.057288356
154	0xbdf375e1	-0.11887718
155	0xbd903f0a	-0.07043274
156	0x3d619040	0.05506921
157	0xbded0d88	-0.115748465
158	0x3d396aba	0.045267798
159	0xbc882fd0	-0.016624361
160	0xbc5c1630	-0.013433024
161	0xbdbed785	-0.09318451
162	0x3ddc8f2a	0.10769494
163	0x3dbcadaa	0.09212811
164	0x3cfcf3de	0.030878004
165	0xbc9b7815	-0.018978158
166	0xbdc6c7b7	-0.09706061
167	0xbd0516fb	-0.03249262
168	0x3d6613cc	0.056171224
169	0x3d1c0fcb	0.038101
170	0xbc8cbeff	-0.017180918
171	0xbdb45aeb	-0.08806404
172	0xbdf3454a	-0.1187845
173	0xbd8e16dd	-0.069379546
174	0xbdf80996	-0.12111203
175	0xbc916c46	-0.017751824
176	0xbcad072d	-0.021121586
177	0xbdaf2c85	-0.08553413
178	0x3c91bf77	0.017791493
179	0x3dc4cffe	0.09609984
180	0xbd6df784	-0.058097377
181	0xbda39dcc	-0.07989082
182	0xbd61c438	-0.05511877
183	0xbd32f3ac	-0.043689415
184	0xbd6641e2	-0.056215174
185	0xbde1313d	-0.109957196
186	0x3b0c5a98	0.0021416303
187	0xbdaecabc	-0.08534762
188	0xbcfdd090	-0.03098324
189	0xbdd6fe18	-0.10497683
190	0x3d12b795	0.03581961
191	0xbd90d87c	-0.07072541
192	0x3d8a451b	0.06751462
193	0x3de27791	0.11057962
194	0x3dda50e5	0.10659961
195	0x3a88a917	0.0010426369
196	0xbcb2982c	-0.021801077
197	0x3d537c49	0.0516322
198	0x3ce74e5f	0.028235612
199	0x3d469305	0.048480053
200	0x3cf04f5a	0.029334713
201	0x3c18781e	0.009305982
202	0xbdeb6f04	-0.11495784
203	0x3d4f1872	0.050560422
204	0x3de38b90	0.11110604
205	0x3dc8002e	0.09765659
206	0xbdee4e7f	-0.11636066
207	0xbdb1fbd8	-0.086906135
208	0x3d929cc3	0.07158806
209	0xbc1e7095	-0.009670396
210	0x3cbafce4	0.022825666
211	0x3d90f0b1	0.07077158
212	0xbd9f8d4a	-0.077906206
213	0xbdbf160e	-0.093303785
214	0xbde40441	-0.11133624
215	0xbdb96886	-0.090531394
216	0xbd1c5898	-0.038170427
217	0x3cad5dc5	0.021162877
218	0xbdb7ac2f	-0.08968388
219	0xbdb61cec	-0.08892235
220	0x3d98b1d8	0.07455796
221	0xbda65afe	-0.08122824
222	0xbd8da5e6	-0.06916408
223	0xbb7c154c	-0.0038464842
224	0xbd39cd3c	-0.045361742
225	0x3d882c3f	0.06649064
226	0x3dd24e2f	0.102688186
227	0x3c0b4978	0.008501403
228	0xbc84c218	-0.016205832
229	0xbd9880f4	-0.07446471
230	0x3db4b30f	0.08823215
231	0xbdbad282	-0.091221824
232	0xbc44fcd7	-0.012023172
233	0xbcdbca4e	-0.026829865
234	0xbd7a2c3a	-0.061077334
235	0xbd0fd19d	-0.035112012
236	0xbc646442	-0.013939919
237	0xbda8fb99	-0.082511134
238	0xbb16d206	-0.0023013367
239	0x3dc68c00	0.09694672
240	0x3da23d47	0.07921844
241	0xbdc312d6	-0.09525077
242	0xbdfc9cbe	-0.12334584
243	0xbdf198ab	-0.11796697
244	0xbdaee95e	-0.08540605
245	0xbd9ca9a8	-0.07649547
246	0x3caebd10	0.021330386
247	0x3c396620	0.011315852
248	0xbdee8546	-0.11646514
249	0x3ac224c9	0.0014811988
250	0x3d173a48	0.036920816
251	0xbddff7a8	-0.109359086
252	0xbdea980e	-0.114547834
253	0x3d1394f5	0.03603073
254	0xbd7df428	-0.062000424
255	0xbd09d01d	-0.033645738

stack.2.0.bias f4 [32]
0	0x3d736467	0.059421923
1	0xbd66e10b	-0.05636696
2	0x3bce4e19	0.006295931
3	0xbded13c9	-0.11576039
4	0x3d212a6a	0.03934709
5	0x3d03bf91	0.032165114
6	0x3d77b767	0.06047764
7	0x3dacd8e2	0.084398046
8	0x3dc16c54	0.0944449
9	0xbe2f61fd	-0.17127223
10	0x3da0cad4	0.078511864
11	0x3e20ed80	0.15715599
12	0x3e303491	0.17207552
13	0x3dc9dd07	0.09856611
14	0x3e0d3f99	0.13793792
15	0x3dfb4960	0.122698545
16	0x3e0bb397	0.13642727
17	0xbd51f8cc	-0.05126266
18	0xbe6a59ca	-0.22885814
19	0x3c829f97	0.015945239
20	0xbdd49f6f	-0.10381972
21	0x3e4a3cca	0.19749752
22	0xbd8d3e67	-0.06896668
23	0x3e0f68ca	0.14004818
24	0x3e627780	0.22115898
25	0x3e71fe0b	0.23632066
26	0x3e1590e6	0.14606056
27	0x3b4beffe	0.0031118388
28	0x3d98a9fa	0.074542955
29	0x3e51e256	0.20496497
30	0x3d845f49	0.06463487
31	0xbdad7a8e	-0.08470641

stack.3.0.weight f4 [10, 32]
0	0xbc27fdcb	-0.01025338
1	0xbe2d7c17	-0.16941868
2	0x3d06af6f	0.03288215
3	0x3dc091f8	0.09402841
4	0xbe1ef704	-0.15523916
5	0x3de76f35	0.11300508
6	0x3e27cd80	0.16386986
7	0x3e23de6a	0.16002813
8	0x3de26bbb	0.11055704
9	0xbb11e4ac	-0.0022261543
10	0x3d1fa7b3	0.03897829
11	0xbe04403f	-0.12915133
12	0xbd9ce4d6	-0.076608345
13	0xbe34399b	-0.176001
14	0xbcd8307f	-0.026390312
15	0xbcdf58f6	-0.0272641
16	0x3e1e8511	0.15480448
17	0x3e05ba77	0.13059412
18	0x3ce2a808	0.027668014
19	0x3decb4c1	0.115579136
20	0x3dec7676	0.11546032
21	0xbbf779f0	-0.007552378
22	0xbe2d2d8d	-0.16911907
23	0xbdd4ac97	-0.103844814
24	0xbdd87549	-0.10569245
25	0xbd672c2d	-0.056438614
26	0xbdf7a0cf	-0.12091219
27	0xbc20b061	-0.009807677
28	0xbd64c219	-0.05584917
29	0xbd6197cc	-0.055076405
30	0x3e02cce4	0.12773472
31	0xbda14451	-0.078743584
32	0x3dd65395	0.10465161
33	0xbd8bf559	-0.06833906
34	0x3c8ede69	0.017440038
35	0xbdcfb221	-0.10141397
36	0x3d14029b	0.036135297
37	0x3dcdc2f4	0.1004695
38	0x3de4cf46	0.11172347
39	0x3e87fbab	0.26559195
40	0xbe9f17db	-0.31072888
41	0x3e050728	0.12991011
42	0xbb455f5f	-0.003011666
43	0xbe05ff13	-0.13085584
44	0xbd56c1cc	-0.052430913
45	0x3e2e1771	0.1700113
46	0x3d3bda07	0.045862224
47	0xbd830c31	-0.0639881
48	0xbe0779ff	-0.13230132
49	0xbdc9bb2e	-0.09850155
50	0x3dfa518f	0.12222587
51	0xbdd99142	-0.10623409
52	0x3d2b24bc	0.04178308
53	0x3dd9a749	0.1062761
54	0xbe88e4c8	-0.26737046
55	0x3e61b450	0.2204144
56	0xbe856624	-0.2605449
57	0x3e450cd8	0.19243181
58	0x3e2daf11	0.16961314
59	0x3e817478	0.2528417
60	0x3e86ea6d	0.26350728
61	0xbe5a2462	-0.21302941
62	0x3e3008c4	0.17190844
63	0x3b5897c7	0.003304945
64	0x3e4b814a	0.19873539
65	0xbe0587a0	-0.13040018
66	0xbe0907e8	-0.13381922
67	0x3e2a3b3c	0.16624159
68	0xbe1a6c01	-0.15080263
69	0xbe8326f9	-0.2561567
70	0x3e9e655d	0.3093671
71	0x3dfa8f87	0.12234407
72	0x3d1921b7	0.03738567
73	0xbd4a3dea	-0.049375452
74	0x3db3cdd1	0.08779491
75	0x3d22e5c4	0.039769903
76	0x3e496c25	0.1967016
77	0x3d5599ef	0.052148756
78	0x3e86fa78	0.26362967
79	0x3e7df645	0.24800976
80	0xbe4fe47c	-0.20302004
81	0x3c5eb87e	0.013593791
82	0xbe28cc4c	-0.16484183
83	0x3b6eadce	0.0036419514
84	0x3e2e66bc	0.17031378
85	0x3e899249	0.2686942
86	0x3d36c601	0.044622425
87	0x3d7537c9	0.059867654
88	0x3dbd7a5f	0.09251856
89	0x3e44571f	0.19173859
90	0xbe428079	-0.18994321
91	0x3da812df	0.082067244
92	0x3cfb5034	0.030677892
93	0x3e56b079	0.20965756
94	0xbaf093fa	-0.0018354647
95	0xbde43fdb	-0.11144992
96	0xbd847f90	-0.06469643
97	0x3e6ad692	0.22933415
98	0x3d5b1d74	0.053494886
99	0xbcfa8b54	-0.030584015
100	0x3e3db40b	0.18525712
101	0x3daa2587	0.08307939
102	0xbd5f5591	-0.05452496
103	0xbd404074	-0.046936467
104	0x3e060be5	0.13090475
105	0xbe1be5f7	-0.15224443
106	0xbdb42b51	-0.087973244
107	0x3e361550	0.17781568
108	0x3c806297	0.015672011
109	0x3d6acf33	0.057326507
110	0xbd046831	-0.032325927
111	0xbe37e26c	-0.17957467
112	0xbe46dae9	-0.19419445
113	0x3e1b6679	0.15175809
114	0xbe0c3396	-0.13691553
115	0xba736a7e	-0.0009285583
116	0xbc40a95e	-0.01175913
117	0x3e37ef97	0.1796249
118	0xbe270229	-0.16309418
119	0x3e1643ea	0.14674345
120	0x3c6f950b	0.014622937
121	0x3e6790e3	0.22613864
122	0x3e690202	0.22754672
123	0xbe62ca11	-0.22147395
124	0xbe186a07	-0.14884196
125	0x3e45df86	0.19323549
126	0x3e3c07c3	0.18362336
127	0x3bb1ee95	0.0054300525
128	0xbe2346b9	-0.15944947
129	0xbe2faf8c	-0.1715681
130	0x3e0ce8cc	0.1376068
131	0xbe13b1dc	-0.14423317
132	0x3d895ef3	0.06707563
133	0xbdb2edd5	-0.08736769
134	0xbdc0da0b	-0.094165884
135	0xbdfe2c8b	-0.1241084
136	0xbd55af04	-0.05216886
137	0x3e0cf809	0.13766493
138	0xbe1831b4	-0.1486271
139	0xbe1d46c8	-0.15359032
140	0x3c53533c	0.012898263
141	0xbe2ee604	-0.17079931
142	0xbd49e620	-0.04929173
143	0x3e2e9831	0.17050244
144	0xbc8f84a6	-0.017519306
145	0xbdc75a56	-0.09734027
146	0x3e0c1ca1	0.13682796
147	0x3cb81740	0.022472024
148	0xbcc9e65e	-0.02464598
149	0xbdda22e6	-0.106511876
150	0xbdee68ea	-0.116411045
151	0x3e0feb6c	0.1405465
152	0xbe2ccee2	-0.16875795
153	0x3d9dacc2	0.076989666
154	0xbe1cb2bb	-0.15302555
155	0xbdad3f07	-0.08459287
156	0xbdf42daa	-0.11922772
157	0xbdd13338	-0.10214847
158	0x3d4b6f6f	0.04966682
159	0x3d951c57	0.07280796
160	0x3bd5227b	0.0065043545
161	0xbe177b1c	-0.14793056
162	0xbd11d4cf	-0.03560334
163	0x3d6d2496	0.05789622
164	0xbc88c1d4	-0.016693987
165	0x3ded26f6	0.11579697
166	0xbd8fc4d7	-0.07019966
167	0x3d422b60	0.047404647
168	0xbd9fb720	-0.077986
169	0x3a93e334	0.0011282922
170	0x3e0b0e76	0.13579735
171	0x3e0fb647	0.14034377
172	0xbccda370	-0.025102347
173	0xbe12bc6c	-0.1432969
174	0x3db9f09b	0.09079095
175	0xbd99626a	-0.07489474
176	0xbde9fde9	-0.11425383
177	0xbd844393	-0.06458201
178	0x3e08c59e	0.13356635
179	0xbb9333d7	-0.004492264
180	0xbe113f20	-0.14184237
181	0x3e311cee	0.17296192
182	0xbe335830	-0.1751411
183	0x3e03e06d	0.1287858
184	0x3d822a08	0.06355673
185	0xbd26cff2	-0.040725656
186	0xbd7e754e	-0.06212359
187	0x3e0abd30	0.13548732
188	0x3d8cd9ea	0.06877501
189	0xbde05106	-0.10952954
190	0xbc89ad08	-0.01680614
191	0xbe004bd5	-0.12528928
192	0x3d365468	0.04451409
193	0x3db7c49c	0.08973047
194	0x3d0e327a	0.034716107
195	0xbc214d17	-0.00984504
196	0x3e1a77d3	0.15084772
197	0x3da1d9a9	0.079028435
198	0xbe1a5856	-0.1507276
199	0xbded5081	-0.115876205
200	0x3c913cb1	0.017729135
201	0x3ded4c7b	0.11586853
202	0x3d5a1959	0.05324683
203	0xbd52a8bc	-0.05143045
204	0x3c6ad4ce	0.014332963
205	0xbddfb883	-0.10923865
206	0xbe0192dc	-0.12653679
207	0xbe20862b	-0.15676181
208	0xbdd93e17	-0.10607546
209	0xbe26c455	-0.16285832
210	0xba0a9222	-0.0005286058
211	0x3df9f445	0.12204794
212	0x3e00ebbf	0.1258993
213	0x3e0d7033	0.13812332
214	0xbe2b147e	-0.16707036
215	0xbe30c526	-0.17262706
216	0x3c001255	0.007816871
217	0x3e16c772	0.1472452
218	0x3e1b50e0	0.1516757
219	0x3dedfbcd	0.11620293
220	0xbe15cf11	-0.14629771
221	0x3dca96b9	0.09892029
222	0x3e12fec1	0.14354993
223	0x3d1c07dd	0.038093437
224	0xbe250774	-0.16116124
225	0x3e0361ed	0.12830324
226	0x3d67858f	0.056523856
227	0xbe29f0fe	-0.16595837
228	0x3d929fb9	0.07159371
229	0xbdb0a75b	-0.086256705
230	0x3e0c1e8f	0.13683532
231	0x3d8dde41	0.06927157
232	0xbe345346	-0.17609891
233	0xbe09dadc	-0.13462394
234	0x3d7365c3	0.05942322
235	0x3e042342	0.12904075
236	0x3dfdde95	0.1239597
237	0xbd23abfd	-0.039958943
238	0x3d898996	0.067156956
239	0xbe187d4a	-0.14891544
240	0xbdae76da	-0.08518763
241	0xbe267c8a	-0.16258445
242	0x3cdd7fbb	0.027038446
243	0x3e319e3f	0.17345522
244	0xbe3269a6	-0.17423114
245	0x3ca359a2	0.019940201
246	0xbdd07f3a	-0.101805165
247	0x3dc0fcfa	0.094232515
248	0x3e0da134	0.13831025
249	0xbb86fc4f	-0.004119433
250	0xbe196ada	-0.14982167
251	0x3e0dc01f	0.1384282
252	0x3b97c456	0.0046315594
253	0xbe1f648c	-0.155657
254	0x3daa1b72	0.08306016
255	0x3dc455c7	0.09586673

stack.3.0.bias f4 [10]
0	0xbe27224a	-0.16321674
1	0x3da94e60	0.08266902
2	0xbc9c465a	-0.019076515
3	0xbd1d4297	-0.038393583
4	0xbe37fd73	-0.17967777
5	0x3d8d526f	0.069004886
6	0x3e321f74	0.17394811
7	0xbcae7d87	-0.02130009
8	0x3e017fdb	0.12646429
9	0xbb496328	-0.0030729268
