src/fminst/models/teacher_3.pt (torch, 447183 bytes, 8 tensors)

stack.0.0.weight f4 [128, 784]
0	0x3d06a4ca	0.032872
1	0xbe03d544	-0.12874323
2	0xbbd6507b	-0.0065403557
3	0xbd8256df	-0.063642256
4	0x3d1d9633	0.03847332
5	0xbc8c5567	-0.017130567
6	0xbe210178	-0.15723217
7	0xbd938848	-0.07203728
8	0xbc136380	-0.008995891
9	0x3d6ba808	0.057533294
10	0x3bc4737a	0.005995211
11	0xbd904009	-0.07043464
12	0xbc37cf00	-0.011218786
13	0xbcbc41e3	-0.022980636
14	0xbd732ae8	-0.05936709
15	0x3c8af33f	0.016961692
16	0xbdf008eb	-0.11720451
17	0xbcefadad	-0.02925762
18	0x3cf3d81b	0.029766133
19	0xbcb875f0	-0.022517174
20	0xbded7339	-0.115942426
21	0xbe4a11a0	-0.19733286
22	0xbd5ce138	-0.053925723
23	0x3cee0408	0.029054657
24	0x3d066f12	0.03282077
25	0x3cdf49e5	0.027256915
26	0x3c77401e	0.01509097
27	0xbd3f7421	-0.04674161
28	0x3cca36eb	0.02468439
29	0xbe1578ee	-0.14596912
30	0xbcfed44a	-0.031107087
31	0x3b336817	0.0027375275
32	0x3d3740c7	0.04473951
33	0xbce341dd	-0.027741367
34	0xbc40602d	-0.01174168
35	0x3d2fb45b	0.04289661
36	0x3d550e2f	0.05201548
37	0xbd7ee093	-0.06222589
38	0xbd9f5472	-0.077797785
39	0xbd679be6	-0.05654516
40	0x3d8024ae	0.06256996
41	0xbbec962f	-0.0072200517
42	0xbd6554e1	-0.05598915
43	0x3c0720e0	0.008247584
44	0xbc1295ec	-0.008946877
45	0xbd9bd008	-0.07608038
46	0xbd89c6b3	-0.06727352
47	0xbcc77565	-0.02434797
48	0x3cf7a936	0.030232053
49	0x3d29cb21	0.041453484
50	0xbcce55a4	-0.025187321
51	0xbd686402	-0.056736
52	0xbd159747	-0.036521222
53	0xbc13ba1e	-0.009016542
54	0xbda194d1	-0.078897126
55	0xbdffc53d	-0.12488792
56	0xbd7f63f6	-0.06235119
57	0x3da90e83	0.08254721
58	0x3d82d895	0.06388966
59	0xbcc82fde	-0.024436887
60	0x3d1f7127	0.03892627
61	0x3d36027c	0.044435963
62	0x3d57328e	0.052538447
63	0x3d5246de	0.051337115
64	0xbd060674	-0.032720998
65	0xbd1eda5f	-0.038782474
66	0x3c8acece	0.016944315
67	0x3bbbfe9c	0.005737139
68	0x3d7561c0	0.059907675
69	0x3d2336cd	0.039847184
70	0x3c8e5fd0	0.017379671
71	0x3d3addee	0.045621805
72	0xbc3afc9c	-0.011412766
73	0x3ca3518d	0.019936347
74	0x3b7d981f	0.0038695408
75	0xbb76c01f	-0.0037651134
76	0x3ced0786	0.028934252
77	0x3da9f60d	0.082988836
78	0x3d6d80eb	0.057984274
79	0xbc01033e	-0.007874308
80	0xbdb8605f	-0.09002756
81	0xbdb0a5c5	-0.08625368
82	0xbdcbc17c	-0.099490136
83	0xbe174ca6	-0.14775333
84	0x3dc54c5b	0.09633704
85	0x3c4d7cc2	0.012541952
86	0xbb972efe	-0.004613756
87	0xbbe02171	-0.006839924
88	0xbc9d8e18	-0.019232795
89	0x3cf0412b	0.02932795
90	0x3c995e98	0.018721864
91	0x3d01ead3	0.031718086
92	0x3bc83e57	0.006110947
93	0x3d630a18	0.055429548
94	0xbcb0eebc	-0.021598212
95	0xbc968d31	-0.018377872
96	0xbaf66fb6	-0.0018801603
97	0x3c95a679	0.018267857
98	0xbd10a50d	-0.035313655
99	0xbc51d3cc	-0.012806844
100	0xbae11954	-0.0017173686
101	0x3c82a941	0.015949847
102	0xbc1924ce	-0.009347154
103	0x3c84b54d	0.016199732
104	0x3d37c0e7	0.0448617
105	0x3c63c64b	0.013902257
106	0x3cdf561a	0.027262736
107	0xbcc7293d	-0.024311656
108	0xbc971c6e	-0.018446174
109	0xbdbbd2bd	-0.091710545
110	0xbca98be0	-0.02069658
111	0x3d2e5d06	0.042569183
112	0x3bc19804	0.0059080143
113	0xbc210bb6	-0.009829452
114	0x3cbba481	0.02290559
115	0xbd545bf0	-0.05184549
116	0x3d5bb3dc	0.053638324
117	0x3d555a08	0.052087814
118	0x3cc3f8da	0.023922373
119	0x3d7b79ec	0.06139557
120	0x3cee88a0	0.029117882
121	0xbd057d3e	-0.032590143
122	0xbd29700a	-0.041366614
123	0xbd02f1d0	-0.03196889
124	0xbd31fc30	-0.043453395
125	0xbccbb7d3	-0.024867928
126	0x3c3fa5b6	0.011697223
127	0x39e01970	0.00042743562
128	0xbcf4a667	-0.029864503
129	0x3c2778c4	0.010221664
130	0x3ccc0114	0.024902858
131	0xbc85bc10	-0.016325027
132	0x3ca46909	0.020069616
133	0x3c75bc90	0.01499857
134	0xbc226cc9	-0.009913632
135	0xbc234328	-0.009964742
136	0xbd2267c8	-0.039649755
137	0x3bfb8b06	0.007676485
138	0xbb58dead	-0.003309171
139	0xbd0d7e1a	-0.034544088
140	0xbe015a50	-0.12632108
141	0x3da3e75d	0.080031134
142	0x3d187440	0.03722024
143	0x3cf9da1e	0.030499514
144	0xbce932d8	-0.028466627
145	0x3c820337	0.015870674
146	0x3ccdbab5	0.025113443
147	0xbcd83386	-0.026391756
148	0x3d12ed0d	0.0358706
149	0x3cb46a97	0.022023482
150	0xbcb6f7dc	-0.022334985
151	0x3caf83aa	0.021425087
152	0xbc9ddd0d	-0.019270444
153	0x3c32b3ff	0.010907172
154	0x3c4e5d78	0.012595527
155	0xbd4939a9	-0.049127255
156	0xbbd42f2c	-0.00647535
157	0xbca844d7	-0.020540638
158	0x3c0c9ee3	0.008582803
159	0xbc35ea15	-0.011103173
160	0xbc98db5c	-0.018659286
161	0x3ca09f2f	0.019607155
162	0x3d00ce28	0.031446606
163	0x3d128c6b	0.035778444
164	0xbd5963b7	-0.05307361
165	0xbd3f37f6	-0.046684228
166	0x3d257e02	0.040403374
167	0xbd94ae6f	-0.07259833
168	0xbd001537	-0.031270232
169	0x3c1a2e65	0.009410475
170	0xbd3bdea9	-0.045866642
171	0x3d065d13	0.032803606
172	0xbd28fdf6	-0.04125782
173	0x3cefbce1	0.02926487
174	0xbb51f9da	-0.0032039792
175	0x3d0a71d7	0.033799972
176	0x3c04c963	0.008104655
177	0x3cff7564	0.031183906
178	0x3c933559	0.017969774
179	0xbd161199	-0.036637876
180	0x3d16182b	0.036644142
181	0xbc881c0e	-0.01661494
182	0x3bc7aadc	0.006093366
183	0x3d051c4d	0.032497693
184	0xbc3835d9	-0.011243307
185	0x3c1e530c	0.009663355
186	0x3cb66fd5	0.022270123
187	0x3ccf4c1e	0.02530485
188	0xbc55ad3f	-0.013041793
189	0x3c6c213e	0.014412222
190	0x3d610c13	0.054943155
191	0xbc4c8693	-0.012483257
192	0xbce8925b	-0.0283901
193	0xbd3d9805	-0.046287555
194	0xbd2e1ebf	-0.04250979
195	0x3b8f89cc	0.0043804403
196	0xbd7ba46c	-0.0614361
197	0xbcc82609	-0.0244322
198	0xbd6e33a8	-0.058154732
199	0x3d4d4a72	0.050119825
200	0xbc94232b	-0.018083176
201	0x3cffe2cb	0.031236073
202	0x3c78f7a8	0.015195765
203	0x3d9cc81f	0.076553576
204	0x3dc217f3	0.09477224
205	0xbaab621d	-0.0013075505
206	0x3c8a2f7c	0.016868345
207	0xbd342f40	-0.043990374
208	0x3ca60b82	0.02026916
209	0xbd1c97fc	-0.03823088
210	0xbcf0e8a1	-0.029407801
211	0xbccdd129	-0.02512415
212	0x3c9c00e9	0.019043403
213	0x3c16cae9	0.009203651
214	0xbcb57d2c	-0.022154413
215	0xbcd846fd	-0.026401037
216	0x3ca44ee1	0.020057144
217	0x3bc7c9eb	0.0060970685
218	0x3c68d787	0.014211542
219	0x3d57363a	0.05254195
220	0xbd0dc300	-0.034609795
221	0xbdaedea5	-0.0853856
222	0xbc4459d7	-0.01198431
223	0x3c966dbe	0.018362876
224	0xbd651033	-0.055923652
225	0x3c91df40	0.01780665
226	0xbd0988a5	-0.03357758
227	0x3cd1806f	0.025573937
228	0x3cc825de	0.024432119
229	0xbd1f80fe	-0.038941376
230	0xbc154af5	-0.009112109
231	0x3d9e7071	0.0773629
232	0x3db642b6	0.08899443
233	0x3d6e81fd	0.058229435
234	0xba1faa85	-0.0006090778
235	0x3cc1d9d6	0.023663443
236	0xbce12ff4	-0.027488686
237	0x3a936237	0.001124448
238	0xba5eae04	-0.0008494558
239	0x3cba7823	0.022762364
240	0x3c447d3b	0.011992748
241	0x3d061a4f	0.032739934
242	0xbc7a5f97	-0.015281579
243	0x3cfbb352	0.030725155
244	0x3d83022b	0.06396898
245	0x3d0a3952	0.03374607
246	0x3c3d713b	0.011562641
247	0x3cf6d4d8	0.030130789
248	0xbcf2113f	-0.02954924
249	0x3a6790f3	0.000883355
250	0x3d8926c1	0.06696845
251	0x3cb0c780	0.021579504
252	0xbcca7668	-0.024714664
253	0x3d3b9eae	0.045805626
254	0xbcd8d2fb	-0.02646779
255	0xbd166cdf	-0.03672492

stack.0.0.bias f4 [128]
0	0x3e3ce30b	0.18445985
1	0xbd488698	-0.048956484
2	0xbb5614d9	-0.0032666235
3	0x3de9ecee	0.11422144
4	0x3e742e28	0.23845732
5	0x3e571e42	0.21007636
6	0xbdbf3dbb	-0.09337946
7	0xbd72f75d	-0.059317935
8	0x3c14d3cd	0.0090837
9	0xbe825e4a	-0.25462562
10	0x3e53e62d	0.20693274
11	0xbd99ca9e	-0.07509349
12	0xbd877514	-0.06614128
13	0x3e01b0fd	0.12665172
14	0xbe4bb2d4	-0.19892436
15	0x3e6aeaa2	0.22941068
16	0x3e61d5fd	0.22054286
17	0xbdb93047	-0.09042411
18	0xbe3d7c07	-0.18504344
19	0x3e3d0072	0.18457201
20	0xbe40b957	-0.18820702
21	0xbc962836	-0.018329721
22	0xbe81aefd	-0.25328818
23	0xbdc3528f	-0.09537231
24	0x3df878f5	0.12132446
25	0xbdb2d77a	-0.08732505
26	0xbe4ac8dd	-0.19803186
27	0xbe6cdc3e	-0.2313089
28	0x3c7ab630	0.015302226
29	0x3d4b0319	0.0495635
30	0x3e0fbe27	0.14037381
31	0xbb9bee16	-0.0047586067
32	0xbdb3a8dc	-0.08772442
33	0x3e84db74	0.2594868
34	0x3df8f501	0.12156106
35	0x3bb44d1a	0.0055023553
36	0x3d9726aa	0.073804215
37	0x3e8d7bf5	0.27633634
38	0x3dd811a2	0.10550238
39	0x3e76eda2	0.24114087
40	0x3d38716c	0.045030043
41	0xbd2301af	-0.039796527
42	0xbb82a67a	-0.0039871307
43	0xbd9ec3a7	-0.077521615
44	0x3d7236c0	0.059134245
45	0x3e696e9d	0.22796102
46	0xbc583b4d	-0.013197732
47	0x3cc8ff4d	0.0245358
48	0xbe2249c9	-0.1584846
49	0x3dd47bb6	0.103751585
50	0xbdd2925d	-0.10281823
51	0xbe4572c7	-0.19282065
52	0xbdd5aa4a	-0.10432871
53	0xbe5cf6a1	-0.21578456
54	0x3e37b939	0.1794175
55	0x3e0ce34b	0.1375858
56	0x3e0f4f04	0.13994986
57	0x3daaabba	0.083335355
58	0x3de58719	0.112074085
59	0xbcf08659	-0.029360937
60	0x3e42ed76	0.19035897
61	0x3e701af1	0.23447777
62	0xbd2db511	-0.042409007
63	0x3e2f6ca9	0.17131294
64	0xbd7930df	-0.060837623
65	0xbc7d1318	-0.015446447
66	0x3d16175c	0.03664337
67	0xbe66bfbf	-0.22534083
68	0xbd6112aa	-0.05494944
69	0xbe4415bf	-0.1914892
70	0xbe7602b1	-0.24024464
71	0x3ced69dc	0.028981142
72	0xbe1927f5	-0.14956649
73	0xbd4627b4	-0.048377708
74	0x3e584278	0.21119106
75	0xbe3ad45d	-0.18245073
76	0xbe1a6cbd	-0.15080543
77	0xbbb28097	-0.005447458
78	0x3e686493	0.22694616
79	0x3e23389c	0.15939564
80	0xbd9e0537	-0.077158384
81	0x3e9722d6	0.29518765
82	0x3c508169	0.012726166
83	0x3e134e3e	0.14385316
84	0x3e8e7325	0.27822223
85	0x3e0e7c91	0.13914706
86	0x3e05f66a	0.13082281
87	0x3e51f6d4	0.20504314
88	0x3e606cac	0.21916455
89	0x3e880e32	0.2657333
90	0x3e17ca62	0.14823297
91	0x3cc145f9	0.023592936
92	0xbceca075	-0.028885106
93	0x3e01fbd0	0.12693715
94	0x3d975221	0.07388712
95	0x3d7cb390	0.06169468
96	0x3e45b62b	0.19307773
97	0x3e4b6304	0.1986199
98	0x3e4efb2a	0.20212999
99	0x3e53faea	0.20701185
100	0x3e5d60e1	0.21618988
101	0x3de498f1	0.11161984
102	0xbde23deb	-0.11046966
103	0xbe459c1d	-0.19297834
104	0x3de16610	0.11005795
105	0xbaf203d1	-0.0018464272
106	0x3d72711e	0.05918991
107	0xbdca67ad	-0.09883056
108	0x3e6bdc75	0.23033316
109	0x3e77820d	0.24170704
110	0x3e9945df	0.2993612
111	0x3e81e5b6	0.25370568
112	0x3e90313b	0.2816256
113	0x3d9b628f	0.07587158
114	0xbdf947d7	-0.121719055
115	0xbbd46f08	-0.0064829625
116	0x3e0f0dec	0.13970155
117	0x3e38ed5d	0.18059297
118	0x3b8ee4d0	0.0043607727
119	0x3e2f914c	0.1714527
120	0x3e5c5b6d	0.21519251
121	0x3e3eec2b	0.18644778
122	0x3e4cb0b9	0.1998929
123	0x3db998ca	0.09062345
124	0xbc576ea8	-0.013148941
125	0x3e83ed50	0.25766993
126	0xbbdae241	-0.0066798036
127	0x3d813194	0.063082844

stack.1.0.weight f4 [64, 128]
0	0xbdecfb70	-0.115713954
1	0x3df38306	0.11890225
2	0xbd39e34f	-0.045382794
3	0x3d7a45ae	0.061101608
4	0xba8b1cea	-0.0010613475
5	0x3b1fe4b6	0.0024397797
6	0x3d81d274	0.06338969
7	0xbb55b319	-0.0032607971
8	0x3e2019b2	0.15634802
9	0x3d1f77f1	0.038932744
10	0x3d8e7fd8	0.06957978
11	0x3de4a467	0.1116417
12	0x3d4c7659	0.049917553
13	0x3d9b7200	0.07590103
14	0xbd8cbbd3	-0.06871762
15	0xbde12e6d	-0.10995183
16	0x3d85fa04	0.06541827
17	0x3db11199	0.086459346
18	0xbcc2b455	-0.02376763
19	0xbd31c5f3	-0.04340167
20	0x3e26db77	0.16294657
21	0x3d7e8b42	0.062144525
22	0x3ba8c521	0.0051504527
23	0x3d7d8230	0.061891735
24	0xbde3b726	-0.11118917
25	0xbb598c4d	-0.0033195198
26	0x3d5bb22e	0.053636722
27	0x3d38a186	0.045075916
28	0xbcb3fbcc	-0.021970652
29	0x3d83ed06	0.06441693
30	0x3d992f3f	0.074797146
31	0x3cbab56d	0.022791589
32	0x3cd2f325	0.025750706
33	0xb9463745	-0.00018903341
34	0x3c060e22	0.00818208
35	0x3df463d1	0.11933101
36	0xbd003d2d	-0.03130834
37	0xbca77d5b	-0.020445516
38	0xba8a0020	-0.0010528602
39	0xbd2e68dd	-0.042580474
40	0xbca589a5	-0.020207236
41	0x3e8831fa	0.2660063
42	0xbed2b84d	-0.41156235
43	0x3df3baf7	0.11900895
44	0xbd2f0d90	-0.042737544
45	0x3dc293f4	0.09500876
46	0x3d8c6b67	0.06856423
47	0xbdc223a9	-0.09479458
48	0x3da82a8e	0.08211242
49	0xbdb2a278	-0.08722395
50	0xbddbb63f	-0.1072812
51	0x3cd96037	0.026535137
52	0xbd12d7fa	-0.035850503
53	0x3d815121	0.06314302
54	0xbc5a60f3	-0.013328779
55	0xbc11d4ad	-0.0089008035
56	0xbdbb822b	-0.09155687
57	0x3d8c88f1	0.06862057
58	0x3d74a0cc	0.05972366
59	0x3ceec62f	0.029147236
60	0xbc053705	-0.008130793
61	0xbd8f2479	-0.069893785
62	0x3df9605c	0.12176582
63	0xbd18800c	-0.03723149
64	0x3df640fd	0.12024114
65	0x3dcb9b75	0.099417605
66	0x3d86ba02	0.06578447
67	0x3e86e8bc	0.26349437
68	0x3d2e7c78	0.04259917
69	0xbdd43b37	-0.10362857
70	0x3d3aeaab	0.045633953
71	0x3e1ca614	0.15297729
72	0x3dcc6c96	0.099816486
73	0xbe58b946	-0.21164426
74	0x3e87dbb5	0.2653481
75	0xbd3b82e2	-0.045779116
76	0xbdaf679f	-0.08564686
77	0x3d8ddf11	0.06927312
78	0xbda8ca80	-0.08241749
79	0x3dca064a	0.09864481
80	0x3d677674	0.05650945
81	0x3d102151	0.035188023
82	0xbcff37ec	-0.031154595
83	0xbe3cd7a3	-0.18441634
84	0x3e824e86	0.25450534
85	0x3d3effbc	0.046630606
86	0x3ddce72d	0.10786281
87	0xbde7d898	-0.11320609
88	0xbd883e8f	-0.06652557
89	0xbd8ecc3a	-0.06972547
90	0xbe4c63fc	-0.19960016
91	0xbce589c4	-0.028019793
92	0x3d0b220f	0.033968028
93	0xbb96f936	-0.004607345
94	0xbd5561ee	-0.052095346
95	0x3e60ca14	0.21952087
96	0x3bcf0136	0.006317283
97	0xbdb24c90	-0.087060094
98	0xbe9692c4	-0.29408848
99	0x3d030763	0.031989466
100	0xbc98d985	-0.018658409
101	0xbcdbe495	-0.026842395
102	0xbd707d7c	-0.05871342
103	0x3d8e4c0e	0.069481
104	0x3d9b6b54	0.075888306
105	0x3e39a9b3	0.18131141
106	0xbaf36e14	-0.0018572235
107	0x3dacb6ac	0.084332794
108	0x3d1d8012	0.038452215
109	0xbdecd65a	-0.11564322
110	0xbd9e6a62	-0.07735135
111	0x3d5e1728	0.054221302
112	0xbcbbe6b4	-0.022937156
113	0x3e06a3d0	0.13148427
114	0x3d310c0a	0.043224372
115	0x3e1e4302	0.15455249
116	0xbd236aac	-0.039896652
117	0xbdc12db5	-0.09432546
118	0x3ddff4b5	0.10935346
119	0xbe220aaf	-0.15824388
120	0xbec78c93	-0.38974437
121	0xbd875bbe	-0.06609295
122	0xbe10f7e2	-0.1415706
123	0xbe30aa50	-0.17252469
124	0x3d87bafc	0.06627461
125	0xbc9e31d2	-0.019310866
126	0x3e4e96a8	0.20174658
127	0x3db920af	0.09039437
128	0x3d6b29a4	0.05741276
129	0xbd118aed	-0.03553288
130	0x3d67a875	0.056557138
131	0x3c773579	0.0150884325
132	0xbd709372	-0.058734365
133	0xbd94deb5	-0.072690405
134	0x3e63f14b	0.22260015
135	0x3daf76a9	0.085675545
136	0x3c46aa2d	0.012125534
137	0xbd802033	-0.062561415
138	0x3dd5594d	0.104174234
139	0xbd249f80	-0.040191174
140	0x3cd9e657	0.026599092
141	0xbdbda69e	-0.09260295
142	0x3d28cdf1	0.041212026
143	0x3e58e1f0	0.21179938
144	0xbd0c419b	-0.034242254
145	0x3d2d1fc6	0.04226663
146	0x3de34db5	0.11098806
147	0xbd1a69d0	-0.037698567
148	0x3e09059a	0.13381043
149	0x3de1a0bf	0.11016988
150	0x3c85c135	0.01632748
151	0x3e3c3f22	0.18383458
152	0x3d9f19e2	0.07768609
153	0x3d8bd75e	0.068281874
154	0x3ce85f9f	0.028365908
155	0x3d0bbca1	0.034115437
156	0xbc23a541	-0.00998813
157	0x3cdaa4cd	0.026689911
158	0x3e7db0ba	0.24774447
159	0xbdb2f1d7	-0.087375335
160	0x3daacf50	0.08340323
161	0xbd97e8fd	-0.07417486
162	0x3d293e34	0.041319087
163	0x3d10f91f	0.03539383
164	0x3da8a158	0.08233899
165	0x3ad551e0	0.0016275011
166	0x3dc8e15f	0.09808611
167	0x3d9cbeb8	0.07653564
168	0x3da2d765	0.079512395
169	0xbc80d370	-0.015725821
170	0x3c02c78d	0.007982147
171	0x3dfa205e	0.12213205
172	0xbd1d2166	-0.03836193
173	0xbd70cc8d	-0.058788825
174	0x3d958f8c	0.0730277
175	0xbe22d249	-0.1590053
176	0xbccebd4d	-0.02523675
177	0x3d41183b	0.04714225
178	0x3e3d6578	0.18495739
179	0xbd829224	-0.0637553
180	0xbc8fc96e	-0.017552104
181	0x3ddda48a	0.10822399
182	0xbcfcb381	-0.030847313
183	0x3af2502e	0.001848703
184	0x3dd0d535	0.10196916
185	0x3ce95179	0.028481232
186	0x3d9cc8db	0.07655498
187	0xbcaac3e9	-0.02084537
188	0x3e235926	0.15951976
189	0x3d991aba	0.07475801
190	0x3cb15621	0.021647515
191	0xbd770d7e	-0.0603156
192	0x3d05c04b	0.032654088
193	0xbd6253f3	-0.05525584
194	0x3c61f60b	0.013791571
195	0x3cc167b5	0.023609022
196	0x3c225406	0.009907728
197	0xbcf34ad3	-0.029698765
198	0x3d9dd377	0.07706349
199	0x3e8eed7d	0.27915564
200	0x3ca16060	0.019699275
201	0x3ec5b235	0.38612524
202	0x3e10b1d3	0.14130335
203	0x3da52e67	0.08065491
204	0xbc66a2a6	-0.014076864
205	0xbc26fbfd	-0.010191915
206	0x3db79e85	0.08965782
207	0x3e48e964	0.19620281
208	0x3df8c24e	0.12146436
209	0x3c84974d	0.016185427
210	0x3d00ac14	0.031414106
211	0x3e702a5e	0.23453662
212	0xbc016617	-0.007897875
213	0x3def8fc6	0.116973445
214	0xbd4a95b8	-0.04945919
215	0x3e073426	0.13203487
216	0x3e1f7cf6	0.15575013
217	0xbca1d512	-0.01975492
218	0x3e13e7d9	0.14443912
219	0x3d9c15cc	0.07621345
220	0xbd3ba38e	-0.045810275
221	0xbdce5844	-0.10075429
222	0xbd211a9a	-0.03933201
223	0x3daea01d	0.08526633
224	0xbdbdcba7	-0.09267359
225	0x3dbb4a03	0.09144976
226	0xbe20f436	-0.15718159
227	0xbd50d37e	-0.050982945
228	0xbcf1003e	-0.02941906
229	0x3dbd0a05	0.09230427
230	0xbd1f6f0f	-0.038924273
231	0xbb41cbf8	-0.0029571038
232	0x3bbe8142	0.0058137486
233	0xba501a60	-0.00079385005
234	0xbc2c6875	-0.010522951
235	0x3dc05a75	0.09392253
236	0xbd2aed6e	-0.041730337
237	0x3dd13385	0.10214905
238	0xbcd514b3	-0.026010847
239	0xbd804ffe	-0.06265257
240	0xbbf774f8	-0.0075517856
241	0xbd613b1d	-0.054988015
242	0x3d695c2e	0.056972675
243	0x3e193fb1	0.14965703
244	0x3d922463	0.071358465
245	0x3d83f099	0.06442375
246	0x3d27df42	0.0409844
247	0xbd2d3cc8	-0.042294294
248	0xbe82598f	-0.25458953
249	0xbe23cd72	-0.1599634
250	0xbe36ef0d	-0.17864628
251	0x3c53a314	0.012917299
252	0x3dd0a9f0	0.10188663
253	0xbc4a878e	-0.01236142
254	0xbab9d6e9	-0.0014178428
255	0x3d6c75c8	0.057729512

stack.1.0.bias f4 [64]
0	0xbe498137	-0.19678198
1	0xbd8ab73c	-0.067732304
2	0xbe59183a	-0.21200648
3	0x3d44fc71	0.04809231
4	0x3dd4bb39	0.103872724
5	0x3e83e3b5	0.25759664
6	0xbda5afb0	-0.0809015
7	0xbd9d1def	-0.07671725
8	0x3e4d7eed	0.2006795
9	0x3c742678	0.01490175
10	0x3dd3ee59	0.103481956
11	0x3cb33ecc	0.02188053
12	0x3d54bb11	0.051936213
13	0xbbb6467a	-0.0055626007
14	0xbd037e01	-0.03210259
15	0x3e809b74	0.251186
16	0x3da00316	0.078130886
17	0x3d8d8b70	0.06911361
18	0x3e517e38	0.20458305
19	0xbd4b69cd	-0.049661446
20	0xbcdb8ac5	-0.026799569
21	0xbd8c8df9	-0.06863017
22	0x3e895e80	0.2682991
23	0x3cd49d82	0.025954012
24	0xbe16cc7c	-0.14726442
25	0xbdf9d37e	-0.12198542
26	0x3dcea6f1	0.10090435
27	0xbd809520	-0.06278443
28	0xbe96bfbe	-0.29443163
29	0x3e5167e3	0.20449786
30	0x3c98afec	0.018638574
31	0x3e7639f3	0.24045543
32	0xbcff41cd	-0.031159306
33	0x3e4a5b70	0.19761443
34	0xbce192e8	-0.02753587
35	0xbd3feb4a	-0.04685525
36	0xbd88b27a	-0.06674667
37	0xbcf361ec	-0.029709779
38	0x3d4442cd	0.04791527
39	0xbd399f92	-0.045318194
40	0xbd59d73a	-0.05318377
41	0x3cad4135	0.021149257
42	0x3e43fbae	0.19138977
43	0x3dcee23f	0.10101747
44	0x3c1b9a1c	0.009497192
45	0x3dd5275e	0.10407899
46	0x3c032c3f	0.008006155
47	0xbe464b82	-0.19364741
48	0xbe4b0bbe	-0.19828698
49	0x3e7e830f	0.24854682
50	0x3e7c1b02	0.24619678
51	0x3e38b219	0.18036689
52	0x3e4542d1	0.1926377
53	0x3cf70fa8	0.030158833
54	0x3e04b4e4	0.1295963
55	0xbd639d03	-0.05556966
56	0xbcc2198a	-0.023693819
57	0xbd66c27d	-0.056337822
58	0x3d7255c7	0.059163835
59	0x3e809a73	0.25117835
60	0x3c197ccb	0.009368132
61	0xbdfb8181	-0.1228056
62	0x3d2d9a4a	0.04238347
63	0xbdd428b8	-0.10359329

stack.2.0.weight f4 [32, 64]
0	0x39fceae6	0.00048240199
1	0x3dedd1d2	0.11612286
2	0x3e4afea4	0.198237
3	0xbc307bb3	-0.01077168
4	0x3d0c6578	0.034276456
5	0x3dca54b0	0.09879434
6	0x3c659b90	0.01401414
7	0x3e3087de	0.17239329
8	0x3d904838	0.07045025
9	0x3c3b6fd7	0.011440239
10	0x3d9a6e7f	0.07540607
11	0x3d35e920	0.04441178
12	0x3cb3d086	0.021950018
13	0xbddf23e9	-0.10895521
14	0xbcd9540c	-0.026529334
15	0xbe19cf4b	-0.15020482
16	0xbca743e0	-0.020418108
17	0x3e3f41af	0.186774
18	0x3e24106f	0.16021894
19	0xbdcb54d2	-0.099282876
20	0xbd022c6b	-0.03178064
21	0xbdf4661d	-0.11933539
22	0xbda82dd7	-0.08211868
23	0x3e230ef1	0.15923668
24	0x3e0d1c3b	0.137803
25	0xbd14abf1	-0.03629679
26	0xbc7e7cd5	-0.015532692
27	0xbca52e65	-0.020163724
28	0x3e075bda	0.13218632
29	0xbd7223f1	-0.059116308
30	0x3dfb81a6	0.12280588
31	0x3d69cb03	0.057078373
32	0xbda6aa56	-0.08137958
33	0x3d94f6c1	0.07273627
34	0xbe1c8a86	-0.15287217
35	0xbd11f7fd	-0.03563689
36	0xbc3303f0	-0.010926232
37	0x3d9c39ea	0.07628234
38	0x3d31fd4e	0.04345446
39	0xbd915001	-0.07095338
40	0xbcb4f4a5	-0.022089312
41	0xbe3d373b	-0.184781
42	0xbda84103	-0.08215525
43	0x3d574f26	0.052565716
44	0x3e134f6b	0.14385764
45	0x3d47c8ca	0.04877547
46	0xbcdffd57	-0.027342482
47	0xbdac23bc	-0.08405253
48	0x3dff7950	0.124743104
49	0xbd6ca107	-0.057770755
50	0xbcf95ec3	-0.030440694
51	0x3cb3a978	0.021931395
52	0xbb8333c2	-0.0040039727
53	0xbe5ec126	-0.21753368
54	0x3e83e982	0.2576409
55	0x3df92594	0.121653706
56	0xbe18fbc6	-0.14939794
57	0xbe277c8a	-0.16356102
58	0xbd18a013	-0.037262034
59	0x3c27904e	0.010227276
60	0xbd89ca0c	-0.067279905
61	0x3e5c21b7	0.21497236
62	0xbda5c844	-0.08094838
63	0xbd0adce8	-0.03390208
64	0x3e108416	0.14112887
65	0x3dbc4753	0.091932915
66	0xbdef9a9b	-0.116994105
67	0xbe7915ce	-0.24324724
68	0x3d5d6f0f	0.05406099
69	0x3d9f637a	0.077826455
70	0x3d8745dc	0.066051215
71	0xbd8565e6	-0.06513576
72	0xbe13335f	-0.14375065
73	0x3df4b01f	0.11947655
74	0x3dd40c59	0.10353918
75	0x3e15c75e	0.14626834
76	0xbb801c83	-0.003909649
77	0x3d29e24b	0.041475575
78	0x3c08f356	0.008358797
79	0x3d3aa73d	0.045569647
80	0xbd459c29	-0.04824463
81	0x3df0f751	0.11765922
82	0x3c4d95e0	0.01254794
83	0xbdece165	-0.11566428
84	0xbc96c11b	-0.018402627
85	0xbe2b183d	-0.16708465
86	0x3cf1d875	0.02952216
87	0x3e3c989a	0.18417588
88	0xbcd6d49f	-0.026224433
89	0xbbc7d7d2	-0.006098726
90	0xbe4a2989	-0.19742407
91	0xbd9ebaf0	-0.07750499
92	0xbd98ba17	-0.07457369
93	0x3cba8ecb	0.022773167
94	0x3ca50654	0.020144619
95	0x3e068738	0.1313752
96	0xbd925852	-0.07145752
97	0x3df5da83	0.120045684
98	0x3b1d5596	0.0024007312
99	0xbd3f2958	-0.046670288
100	0xbd830f0f	-0.063993566
101	0x3dc1710a	0.094453886
102	0xbd179488	-0.037006885
103	0x3dccf4ad	0.10007606
104	0x3cf570e4	0.029961057
105	0x3df15ca2	0.117852464
106	0x3d3208c8	0.043465406
107	0x3da1698e	0.07881461
108	0x3d837275	0.06418315
109	0xbe1d9e6a	-0.15392461
110	0xbdb145d6	-0.08655898
111	0xbe01cbec	-0.12675446
112	0xbe7aa6af	-0.24477647
113	0x3e023367	0.12714921
114	0xbccf7954	-0.025326408
115	0x3d29ba09	0.041437183
116	0xbe421786	-0.18954286
117	0x3dd100df	0.10205244
118	0xbea228db	-0.31671795
119	0x3ded4ad4	0.11586538
120	0x3e1a22b9	0.15052308
121	0x3def1046	0.11673026
122	0xbd8ab3a7	-0.06772547
123	0x3dcb3284	0.099217445
124	0x3d42c5de	0.047551982
125	0x3d83c50f	0.0643407
126	0xbd4a38e9	-0.04937068
127	0x3d1383d3	0.03601439
128	0x3e05c776	0.1306437
129	0x3e1e3595	0.15450127
130	0x3deabf06	0.11462216
131	0xbe27d3df	-0.16389416
132	0x3dab18f5	0.083543696
133	0x3dd74ccb	0.10512694
134	0x3dc624e4	0.09675005
135	0x3d54d1fe	0.051958077
136	0xbdf1be3d	-0.11803863
137	0x3d242a4d	0.040079404
138	0x3e0158e2	0.12631562
139	0x3e3e86fd	0.18606181
140	0x3dd91a1a	0.106006816
141	0xbdd4da9e	-0.103932604
142	0x3cc7aa30	0.024373144
143	0xbd7be6dd	-0.061499465
144	0x3e198512	0.14992169
145	0x3cef6531	0.029223057
146	0xbca6c1a4	-0.020356007
147	0x3de1d953	0.110277794
148	0x3b4d78c0	0.003135249
149	0x3e29ffc8	0.16601479
150	0x3d6dfb64	0.058101073
151	0x3e0b8deb	0.13628356
152	0x3db50420	0.088386774
153	0x3cf01081	0.029304745
154	0xbdbe186e	-0.09282003
155	0xbdd0fffd	-0.10205076
156	0x3dad56b3	0.08463802
157	0x3bb0d42b	0.005396386
158	0x3d3be8b0	0.045876205
159	0xbc8f870a	-0.017520446
160	0xbc808c59	-0.015691923
161	0xbd75f77c	-0.060050473
162	0x3e3359e9	0.17514767
163	0x3e275d2c	0.16344136
164	0x3d5b5a9a	0.0535532
165	0x3d5769d3	0.052591156
166	0xbe1bdd8e	-0.15221235
167	0x3c440b4b	0.011965583
168	0x3db4a42a	0.08820374
169	0x3dea2228	0.11432296
170	0x3c9a2d46	0.018820416
171	0xbddd694d	-0.108111
172	0xbdb99703	-0.09062006
173	0xbdf76eda	-0.1208169
174	0xbd2e3b98	-0.0425373
175	0x3d30f155	0.043198902
176	0xbde0ee78	-0.10982984
177	0xba719614	-0.0009215784
178	0xbd96d3e2	-0.07364632
179	0x3ddaec27	0.10689574
180	0xbe274d41	-0.16338064
181	0xbce8b094	-0.028404512
182	0xbe478720	-0.1948514
183	0xbd32f3ac	-0.043689415
184	0x3d336b5a	0.04380355
185	0xbd9fec04	-0.07808688
186	0x3d197e4a	0.037473954
187	0xbdfce852	-0.12348999
188	0x3c4e8b72	0.012606489
189	0xbe0b3d59	-0.13597621
190	0x3db0c4b0	0.08631265
191	0xbbaa232a	-0.00519218
192	0x3d87ac17	0.066246204
193	0x3dd3a309	0.10333831
194	0x3dcc8676	0.09986584
195	0xbac52507	-0.0015040942
196	0xbcd0ee3c	-0.025504224
197	0x3d381469	0.04494134
198	0x3cab6dd0	0.020926386
199	0x3d2ddc36	0.042446338
200	0x3ccd1072	0.025032256
201	0x3c1d9723	0.009618553
202	0xbdfe0e7a	-0.12405105
203	0x3d2b5670	0.04183048
204	0x3dddc913	0.108293675
205	0x3dc1b38a	0.094580725
206	0xbdf5e529	-0.120065995
207	0xbdbe76a3	-0.09299972
208	0x3d8b967e	0.068158135
209	0xbc99b618	-0.018763587
210	0x3c854fc2	0.016273383
211	0x3d911bd4	0.07085386
212	0xbd9e984e	-0.077438936
213	0xbdbf160e	-0.093303785
214	0xbde1d9b9	-0.110278554
215	0xbdc041e5	-0.093875684
216	0xbd253877	-0.040337052
217	0x3c85cda4	0.016333409
218	0xbdba4752	-0.090956345
219	0xbdb63897	-0.088975124
220	0x3d8df6e6	0.06931858
221	0xbda8c163	-0.082400106
222	0xbd8da5e6	-0.06916408
223	0xbbfe6717	-0.007763754
224	0xbd39cd3c	-0.045361742
225	0x3d7f0d26	0.0622684
226	0x3dc985ae	0.098399505
227	0x3a896a41	0.0010483937
228	0xbcb90605	-0.022585878
229	0xbd9e343a	-0.07724805
230	0x3dad4900	0.08461189
231	0xbdba5b4f	-0.09099447
232	0xbc795fac	-0.015220564
233	0xbd2033fa	-0.03911207
234	0xbd84d3ba	-0.06485696
235	0xbd1f24d9	-0.0388535
236	0xbc874b26	-0.016515326
237	0xbdb38b70	-0.0876683
238	0xbad2425a	-0.0016041503
239	0x3dc52b03	0.096273445
240	0x3d943cb8	0.07238144
241	0xbdd55df4	-0.10418311
242	0xbdf98439	-0.121834226
243	0xbdfaa05a	-0.12237616
244	0xbdaee95e	-0.08540605
245	0xbda733ca	-0.08164175
246	0x3caebd10	0.021330386
247	0x3c396620	0.011315852
248	0xbde6ea8d	-0.11275206
249	0x3a9afb5c	0.0011824179
250	0x3d0b0cb5	0.033947665
251	0xbde5668e	-0.112012014
252	0xbdf81aff	-0.12114524
253	0x3cfea6f4	0.031085469
254	0xbd7faed0	-0.062422574
255	0xbd444a01	-0.047922138

stack.2.0.bias f4 [32]
0	0xbdb6f21d	-0.08932898
1	0xbdb2907d	-0.08718965
2	0xbcc5f308	-0.024163738
3	0xbdf1cc22	-0.11806513
4	0x3da05dbc	0.078303784
5	0x3e0afa0f	0.13571952
6	0xbd9d04df	-0.07666945
7	0x3d53bc64	0.051693335
8	0x3d9a92c1	0.07547522
9	0xbe46aea8	-0.19402564
10	0x3e4be0e6	0.1991001
11	0x3e570e5a	0.21001568
12	0x3cdc3516	0.026880782
13	0x3cf295c5	0.029612431
14	0x3d459481	0.048237327
15	0xbc29fdd5	-0.01037546
16	0xbe06cfaa	-0.13165155
17	0xbd51f8cc	-0.05126266
18	0xbdf8e8b4	-0.121537596
19	0x3c77c9ff	0.015123843
20	0xbdde730c	-0.10861787
21	0x3e781beb	0.242294
22	0xbe669329	-0.22517075
23	0x3d62a2d6	0.055331074
24	0x3e75ffd8	0.24023378
25	0x3ea0faa5	0.31441227
26	0x3d88f869	0.066880055
27	0x3e8af51f	0.27140138
28	0x3d486963	0.04892863
29	0x3e1de329	0.15418686
30	0x3dd63ee9	0.10461218
31	0xbddbf097	-0.10739248

stack.3.0.weight f4 [10, 32]
0	0xbc7e643c	-0.015526827
1	0xbe31e09b	-0.17370836
2	0x3d06af6f	0.03288215
3	0x3dc091f8	0.09402841
4	0xbe218d11	-0.15776469
5	0x3ddcde59	0.10784597
6	0x3e2252e8	0.15851939
7	0x3e23de6a	0.16002813
8	0x3de26bbb	0.11055704
9	0xbbfb6b1b	-0.00767268
10	0x3d09f6e6	0.033682726
11	0xbe088aa3	-0.13334136
12	0xbd9ce4d6	-0.076608345
13	0xbe399cec	-0.18126267
14	0xbd01e4aa	-0.03171221
15	0xbd0520c2	-0.032501943
16	0x3e191f7e	0.1495342
17	0x3e05ba77	0.13059412
18	0x3ce2a808	0.027668014
19	0x3decb4c1	0.115579136
20	0x3dec7676	0.11546032
21	0xbc5320e0	-0.012886256
22	0xbe327dff	-0.17430876
23	0xbdd4ac97	-0.103844814
24	0xbde28a98	-0.11061591
25	0xbd672c2d	-0.056438614
26	0xbe0182b4	-0.12647516
27	0xbc7c2cbe	-0.015391527
28	0xbd7075ad	-0.058705974
29	0xbd777b45	-0.060420293
30	0x3dfa6794	0.12226787
31	0xbda14451	-0.078743584
32	0x3dae3fa8	0.08508235
33	0xbdf6efbd	-0.12057445
34	0xbd92bf7f	-0.07165431
35	0xbdc2e1c8	-0.095157206
36	0xbabed0a4	-0.0014558029
37	0x3dbba072	0.09161462
38	0x3d6847cf	0.056709107
39	0x3eb5c8c6	0.3550474
40	0xbe6fd935	-0.23422702
41	0x3e207a60	0.15671682
42	0xba8f65a1	-0.0010940322
43	0xbe422fa3	-0.18963484
44	0xbce4c1f5	-0.027924517
45	0x3ddd7102	0.1081257
46	0xbd376349	-0.04477242
47	0xbe3c0a8b	-0.18363397
48	0xbb7e2364	-0.0038778419
49	0xbdc9bb2e	-0.09850155
50	0x3e084a80	0.1330967
51	0xbdda3ee4	-0.10656527
52	0x3d168606	0.03674891
53	0x3d0362c6	0.03207662
54	0xbe6bd490	-0.23030305
55	0x3e587c4c	0.21141165
56	0xbe8f9e88	-0.28050637
57	0x3e516779	0.20449628
58	0x3e0b35f0	0.13594794
59	0x3dddf90d	0.10838518
60	0x3e9c71c2	0.3055554
61	0xbe76e74a	-0.24111667
62	0x3e107664	0.14107662
63	0x3e516448	0.2044841
64	0x3d93c341	0.07214976
65	0xbe21f196	-0.15814814
66	0xbe80bc06	-0.2514345
67	0x3e26fbd6	0.16307005
68	0xbe2fe3ed	-0.1717679
69	0xbe5fa771	-0.21841218
70	0x3e338a8a	0.17533317
71	0x3de2cd68	0.110743344
72	0x3dd1d938	0.10246509
73	0xbe07ee72	-0.13274553
74	0x3d83a948	0.06428772
75	0x3c279abf	0.010229765
76	0x3ce24c76	0.02762435
77	0x3c2b4f6b	0.010455946
78	0x3e133973	0.14377384
79	0x3e367b32	0.17820433
80	0xbe28fec3	-0.16503434
81	0x3c5eb87e	0.013593791
82	0xbd6e31e2	-0.05815304
83	0x39d869e6	0.0004127763
84	0x3e2816a7	0.16414891
85	0x3ded1dc3	0.11577942
86	0x3cd367b1	0.02580628
87	0x3cdce774	0.026965834
88	0x3d489336	0.048968516
89	0x3e1fe878	0.15616024
90	0xbe6d2119	-0.23157157
91	0x3eba2553	0.363566
92	0x3c7e74cc	0.015530776
93	0x3e0f7b5d	0.14011903
94	0xbca79180	-0.020455122
95	0xbec704f6	-0.38870972
96	0xbdf6188e	-0.12016402
97	0x3e09e925	0.13467844
98	0x3b73fd90	0.0037229992
99	0xbce21c9c	-0.027601533
100	0x3e26b381	0.16279413
101	0x3cb3dad2	0.021954928
102	0xbcf4b986	-0.02987362
103	0xbd3c7f25	-0.046019692
104	0x3e978075	0.29590192
105	0xbe650c88	-0.22368062
106	0xbd8f9015	-0.07009903
107	0x3d91caf1	0.07118786
108	0x3cf321ec	0.029679261
109	0x3d3559ad	0.044274975
110	0xbcdc215d	-0.026871378
111	0xbe439754	-0.19100696
112	0xbe39e8f7	-0.18155275
113	0x3e1b6679	0.15175809
114	0xbc734a24	-0.0148492195
115	0xbb95fbe7	-0.0045771482
116	0xbc898733	-0.0167881
117	0xbb28c343	-0.002575115
118	0xbe432489	-0.19056906
119	0x3de7c38f	0.11316597
120	0xbd1dd8d9	-0.03853688
121	0x3e8d58b2	0.27606732
122	0x3e322adb	0.1739916
123	0xbd913902	-0.070909515
124	0xbe1df246	-0.15424451
125	0x3df5a091	0.11993516
126	0x3de69176	0.11258213
127	0xbddebc08	-0.10875708
128	0xbe2346b9	-0.15944947
129	0xbe2faf8c	-0.1715681
130	0x3e0ce8cc	0.1376068
131	0xbe13b1dc	-0.14423317
132	0x3d93e049	0.072205134
133	0xbda8846e	-0.08228384
134	0xbdb6d83a	-0.08927961
135	0xbdf31f3d	-0.118711926
136	0xbd3d76e8	-0.046255976
137	0x3e1232ef	0.14277242
138	0xbe1320e0	-0.1436801
139	0xbe1d46c8	-0.15359032
140	0x3c53533c	0.012898263
141	0xbe2ee604	-0.17079931
142	0xbd49e620	-0.04929173
143	0x3e33af24	0.1754728
144	0xbc8f84a6	-0.017519306
145	0xbdc75a56	-0.09734027
146	0x3e1148a9	0.14187874
147	0x3cb81740	0.022472024
148	0xbcc9e65e	-0.02464598
149	0xbdcf2abe	-0.10115574
150	0xbde444f0	-0.11145961
151	0x3e15872e	0.14602348
152	0xbe282b03	-0.16422658
153	0x3da8cb05	0.08241848
154	0xbe1cb2bb	-0.15302555
155	0xbda2c2f6	-0.07947342
156	0xbde9886e	-0.11402975
157	0xbdd13338	-0.10214847
158	0x3d647aa8	0.055781037
159	0x3d951c57	0.07280796
160	0x3da8e30d	0.082464315
161	0xbe7ad8bf	-0.24496745
162	0xbce59307	-0.02802421
163	0x3d579ff4	0.052642778
164	0xbe1b4a46	-0.15165052
165	0x3e8a33e7	0.26992723
166	0xbea7eb22	-0.3279658
167	0xbc95f6e7	-0.018306209
168	0xbd449f8d	-0.048003722
169	0xbdc7e00c	-0.097595304
170	0x3e8d94e2	0.2765265
171	0x3e574fdb	0.21026556
172	0xbcb9ad9f	-0.022665797
173	0xbea512ab	-0.32240805
174	0x3e25fe56	0.16210303
175	0xbdb9df93	-0.090758465
176	0xbe61b21f	-0.22040604
177	0xbd844393	-0.06458201
178	0x3e08c59e	0.13356635
179	0x3b2041d9	0.002445331
180	0xbe055aa3	-0.13022856
181	0x3e928fc4	0.2862531
182	0xbe8338df	-0.25629327
183	0x3e277cfe	0.16356274
184	0x3de4813c	0.11157462
185	0xbe689ecc	-0.22716826
186	0xbe444c19	-0.19169654
187	0xbe351ac5	-0.17685993
188	0xbc03625e	-0.008019058
189	0xbd81a97e	-0.06331156
190	0xbe8e91df	-0.27845666
191	0xbea8535d	-0.328761
192	0x3dbb81fd	0.09155653
193	0x3e11e913	0.14249067
194	0x3c231cb8	0.009955578
195	0xbc4fcf0e	-0.012683643
196	0x3e34ab08	0.17643368
197	0x3dcbf56c	0.0995892
198	0xbdfca663	-0.12336423
199	0xbe0be203	-0.13660435
200	0xbc8301b0	-0.015992016
201	0x3db0f26f	0.086399905
202	0x3dc70374	0.097174555
203	0xbd8d490a	-0.06898697
204	0x3c8de7c4	0.017322429
205	0xbe24f9fc	-0.16110986
206	0xbe76e34a	-0.24110141
207	0xbe038b98	-0.1284622
208	0xbdcc5eee	-0.09979044
209	0xbe26c455	-0.16285832
210	0xba0a9222	-0.0005286058
211	0x3df1236e	0.11774336
212	0x3df2416b	0.11828884
213	0x3e547bd7	0.20750366
214	0xbe0dc029	-0.13842835
215	0xbe9ef3ee	-0.3104548
216	0x3d22226b	0.039583605
217	0x3e30d347	0.17268096
218	0x3e3d9dfd	0.18517299
219	0x3ea60b78	0.32430625
220	0xbe855e02	-0.26048285
221	0x3e2fe0ee	0.17175648
222	0x3e2c432d	0.168225
223	0xbeee7d86	-0.46580142
224	0xbe89461b	-0.268113
225	0x3e4a4190	0.19751573
226	0x3dcaf4ec	0.099099964
227	0xbe2f5289	-0.17121328
228	0x3e016e91	0.12639834
229	0xbe66b95b	-0.22531645
230	0xbd3990ec	-0.045304224
231	0xbde91c74	-0.1138238
232	0xbe916920	-0.28400517
233	0xbeec33a4	-0.4613315
234	0x3cd335df	0.025782524
235	0x3e465a4c	0.19370383
236	0x3df79e19	0.120907016
237	0xbd861d5f	-0.06548571
238	0x3e01e8c8	0.12686455
239	0xbe8b2442	-0.271761
240	0xbdd01746	-0.10160689
241	0xbe267c8a	-0.16258445
242	0x3cdd7fbb	0.027038446
243	0x3e2db741	0.16964437
244	0xbe56f43f	-0.2099161
245	0x3d163303	0.036669742
246	0xbdb957fb	-0.09049984
247	0x3e1525b7	0.14565168
248	0x3e3502b6	0.17676815
249	0x3df1355d	0.11777756
250	0xbe936399	-0.28786924
251	0xbc8cc59c	-0.017184071
252	0xbe92561c	-0.2858132
253	0xbea182b0	-0.3154502
254	0xbd011a3d	-0.031519163
255	0x3e2f75fc	0.17134851

stack.3.0.bias f4 [10]
0	0xbe2c57fe	-0.16830441
1	0x3c3f0d5f	0.011660903
2	0xbcad6898	-0.021168038
3	0xbc2b0218	-0.010437511
4	0xbe32d667	-0.174646
5	0x3e18c24b	0.14917867
6	0x3e958e82	0.29210287
7	0x3d9005c5	0.070323505
8	0x3e147e14	0.1450122
9	0xbe012f4f	-0.12615703
