src/fminst/models/teacher_0.pt (torch, 447183 bytes, 8 tensors)

stack.0.0.weight f4 [128, 784]
00000000: 7285 97bd 769a 203d 988c debd fb0f 56ba
00000010: 8f47 a6bd b80b 97bd ca93 a03d 151d 083e
00000020: 3fe0 883d 1e5b 333d ad8c 933d 3b76 e73d
00000030: b24a c4bd a250 9dbd 7bee 05bd 3f37 9ebd
00000040: daa8 ba3d e6d1 123e 33f7 373c 9382 bd3d
00000050: cf67 0a3e abe5 753d 1a7e e5bd ee43 d3bd
00000060: 989a 8bbd 46a8 6e3c 56eb 86bd 8b25 bdb8
00000070: 5115 f1bd 388a 4fbc f8ea 00bd 67e5 333d
00000080: 8b8a c8bd 7065 11bd ca3f 84bd 7b79 1fbd
00000090: ad02 41bc 03e4 c03d 032f 9c3d 038a 293d
000000a0: 61fc acbb 079c 89b9 32fc de3c fee6 34bd
000000b0: c9b5 503c 07f4 593d fed7 cf3d 8a86 8d3d
000000c0: 5b77 f43b 4c5c bf3c b059 823c b714 23bc
000000d0: 5c48 58bd d4b8 f03a 220d 823d 09aa 84bc
000000e0: c15b 8f3c 5ae1 b1bd f111 c6bb 4ddc f2bc
000000f0: 1c91 26bb baf9 85bb c40d 2d3c fb62 803d
00000100: cbf9 543d 1ad3 653c dbf1 373a b58a 443c
00000110: ede3 ee3c 2442 6b3c dad2 8abd 16a7 3ebd
00000120: f815 e93c b8ae 2c3d 46b4 5c3d a883 4e3d
00000130: c20c b53d 7140 333d 8554 263d 92eb 013d
00000140: bd55 e6bc 7dfe 523c f999 ee3a 2f83 30bc
00000150: fd36 1f3c 1bfd d5bc 9de4 663d 1766 4bbd
00000160: 2d39 4d3d 7a59 a63c 1aa3 a73d 6937 883c
00000170: 7e32 4539 3698 dd3b 5f6d 213c 5752 1e3c
00000180: 0119 003d f0d0 1abd 5117 96bd 372b 5abd
00000190: b7a9 293d 631f 7a3d 45d1 213c 19fb e6bc
000001a0: f74c 8fbd 4891 5e3d 6961 793d f1f9 6a3d
000001b0: aaa7 b83c d891 f73a c70e 95bc 1a40 9abb
000001c0: cd2d 1bbb 5ccf 223d 0eff 73bc 1541 c93b
000001d0: 011e 183d aa91 743d 22ab 0c3d a9f8 d43c
000001e0: 80c1 a03c 020f a13c a3eb cd3b c0e6 8b3c
000001f0: ba64 61bd 0a26 71bd d719 90bd f832 70bd
00000200: 5f83 dfbc 088a bebb 61ef 103d 30b3 443c
00000210: ed14 abb9 25e5 ac3c 83b8 913d 1f1c f33d
00000220: 8dfa 4d3d 8a08 71bc a759 efbc f00f 253d
00000230: f123 183e b5b1 093c cb36 b03b 9d3d 0e3d
00000240: cd63 813d 28e9 2d3d 7c54 a53d e40b 903c
00000250: 7217 9d39 551a 94bc 8eda bcbc ce0e 25bd
00000260: b56a cfba e9e7 4cbc 43f2 ffbc 6f1f 38bd
00000270: 4276 203c ff5e 71bc 81de 0b3c c4fa 69bc
00000280: dfbc 0e3c cf37 4a3c f23e fdb9 cf10 3b3d
00000290: 35a9 3c3d 49f9 bc3c f8cd d2bc 1975 8b3d
000002a0: 1531 b53d baed 773d bbc6 dd3d 76e8 9c3c
000002b0: 5882 cf3d edde 803d b708 8a3c 9763 0d3d
000002c0: d52e b03b 7c8d cabb 5bb6 423d ea07 20bd
000002d0: 6ec1 d83b 133a cabc 37c7 58bc 2ef1 153c
000002e0: 63ae 2a3c 30b0 803c 326e 663b c731 f0bb
000002f0: ec24 9fbc 2ba2 6e3c 6c43 6e3d f94d 8c3d
00000300: c0ec 1c3d 5c85 fb3b 20b4 9ebc d471 d8bb
00000310: da4f 183e af86 e73d a8e5 803d fc5e 423d
00000320: 33b8 383d 0cf5 833d f443 c53c 9990 6fbc
00000330: 8201 0cbc 0171 383d fca7 9b3c e977 313d
00000340: eddc 0e3d b590 573c c603 c5bc e9fd 7d3a
00000350: e023 be3b abe6 38bc d5f8 223c 7f82 cb3c
00000360: cf30 64bc 37df 06bd 2d03 0f3d 2116 97bc
00000370: 902a 223d f69b ca3c 0fb0 df3b f027 b83b
00000380: e38c 353e 0e5b 7a3d ef75 ab3d 1497 643d
00000390: f00f 1c3d 4a16 b93c b6a0 173d cb90 283d
000003a0: d5cd 253d 0cf6 8a3d a8b4 843d 300c 863c
000003b0: 2d51 753d de61 60bc df77 f8bc 2193 f13b
000003c0: 4f3a 683c c6c0 573d 6b2a b8ba 9cb6 393c
000003d0: dfde dd3c 05dd b6bc c26a ca3c eb5f e5bc
000003e0: 31c5 e63c 8cbe 8cbb 4e49 f23c fff2 ad3d
000003f0: 8df4 873e 2386 2d3d 7d5b c03d eb0a 883d
-0.073984995 0.039209805 -0.1086666 -0.00081658334 -0.081191175 -0.07375282 0.078406885 0.13292344
0.066833965 0.043788068 0.07204566 0.113018475 -0.095845595 -0.07681395 -0.032698136 -0.07725381
0.09114237 0.14337882 0.0112283705 0.09253421 0.13516162 0.06003348 -0.112056926 -0.10315691
-0.06816596 0.014566487 -0.065878555 -9.019215e-05 -0.11771644 -0.012667231 -0.031474084 0.043919947
-0.0979205 -0.03549713 -0.06457479 -0.038934212 -0.011780423 0.0941849 0.07626154 0.041391384
-0.0052791093 -0.00026246926 0.027219865 -0.044165604 0.012738653 0.05321124 0.10148619 0.06910427
0.0074605173 0.02335944 0.015911907 -0.009953669 -0.052803382 0.001836563 0.06350161 -0.01619436
0.017499806 -0.086855605 -0.0060446193 -0.029646063 -0.0025416082 -0.0040886076 0.010562364 0.06268879
0.051996034 0.014027381 0.0007016935 0.011995961 0.029161418 0.014359031 -0.06778498 -0.046546064
0.028452858 0.042158812 0.05388286 0.050418526 0.08840324 0.043762628 0.040607948 0.031718798
-0.028117055 0.012878058 0.0018203846 -0.010773464 0.0097177 -0.026121667 0.056370366 -0.049657907
0.050103355 0.020306338 0.08185406 0.016627984 0.00018806194 0.0067625297 0.009852736 0.009663186
0.031273846 -0.037796915 -0.07328666 -0.05326387 0.04142162 0.06106509 0.009876554 -0.028195905
-0.06997102 0.05433777 0.060883913 0.05736727 0.022540886 0.0018888069 -0.018195523 -0.0047073485
-0.0023678422 0.039748535 -0.014892353 0.0061417916 0.03713799 0.05970923 0.034342892 0.025997477
0.019623518 0.019660477 0.0062841936 0.017077804 -0.0550277 -0.058874168 -0.070361786 -0.058642358
-0.027284322 -0.0058147945 0.03538454 0.012005612 -0.00032631253 0.021105358 0.07115271 0.11870598
0.050287772 -0.0147115085 -0.029217554 0.040298402 0.1485746 0.008404185 0.0053776256 0.034726728
0.063178636 0.042458683 0.08072755 0.017583795 0.00029962842 -0.018078962 -0.023053434 -0.040297322
-0.0015824648 -0.012506464 -0.03124345 -0.044951852 0.00979382 -0.0147321215 0.008536936 -0.014280979
0.008712023 0.012342407 -0.00048302818 0.045670327 0.046059806 0.023068087 -0.02573298 0.06809444
0.08847252 0.060529448 0.108289205 0.019153815 0.10132283 0.0629252 0.016849859 0.034518804
0.0053766766 -0.006181417 0.04753719 -0.039070047 0.0066148555 -0.024685895 -0.01323109 0.00915174
0.010417554 0.015709013 0.0035160896 -0.0073301527 -0.019426785 0.014565031 0.058169767 0.068508096
0.03831172 0.00767581 -0.019373 -0.0066053662 0.14874211 0.11304986 0.062938035 0.047453865
0.04509754 0.06443223 0.024080254 -0.014621877 -0.008545281 0.045029644 0.019001 0.043327246
0.03487866 0.013157059 -0.02404965 0.00096890196 0.0058026165 -0.011285464 0.0099470215 0.024842499
-0.0139276525 -0.032927718 0.034915138 -0.01844317 0.039591372 0.024732571 0.0068264077 0.0056199953
0.17729525 0.061121993 0.083721034 0.05580814 0.038101137 0.022593636 0.0370185 0.04115371
0.0404795 0.06785211 0.0647977 0.016363233 0.05989187 -0.013695208 -0.030330596 0.0073722755
0.014174058 0.052674077 -0.0014050727 0.011335041 0.027083812 -0.022322187 0.02470911 -0.027999839
0.0281702 -0.004295176 0.02957597 0.084936135 0.26553765 0.04236425 0.0939245 0.066427074

stack.0.0.bias f4 [128]
00000000: c18e 9e3c b0a4 93bd 52cb c33d 6952 803d
00000010: a553 3dbd a942 7f3d 20c7 45bd 56cc 203c
00000020: 8d1a b3bd 9a98 dc3d 1569 b63d 6057 0e3e
00000030: fcf9 14be 5234 823c a7eb 51bd 62e5 56be
00000040: 92b5 e2bb eaae 963d 2b11 19bd f979 b03d
00000050: f29d 973d 71fd cf3d 0072 43bd cfdb f7bd
00000060: 1197 02bc 57cd 6cbd 8a5e b13c 161e c3bd
00000070: de6e 1b3d f480 ecbd 1802 01bd e9bc d33c
00000080: 0fcd 6c3e 0dea ce3d 610a 8ebd 09c2 6bbd
00000090: 1c64 263e cb34 d3bd e988 983d 7167 00be
000000a0: 93c6 153e e5d4 f13d f1df 6a3d cfcf 92bc
000000b0: b15a f93d 8457 8f3d a197 11bd ad75 0abe
000000c0: 9430 8a3b 63b8 bc3c daca a4bb b5b2 b9bd
000000d0: 81ce 503e 67f0 e03d 8988 f2bd ba09 06bb
000000e0: f60f c7bd 378b f4bc edc9 cd3d eb0b 503d
000000f0: c2e3 093e c003 3d3d 5f40 5fbd 30b7 ea3d
00000100: 660c a03d ce30 9d3d 3dbc 5a3c 9df7 19bd
00000110: 4031 af3c 0e4f d7bc 6abb 013b b68a fdbc
00000120: 5052 6f3d ae51 883e ff1d edbc 8053 3a3d
00000130: e44d bf3d bb27 58bd 6315 9b3d b94d 943d
00000140: 9942 b83c 8dde 2d3c 716f 383e e132 3c3e
00000150: 4e98 d03c 0a90 7c3d 0296 64be 6da2 9f3d
00000160: 2925 643e 3b61 cb3d 4abd 44be 2348 c23d
00000170: 7077 b83d 0eb7 aa3d ac3e e0bd afd1 4c3e
00000180: 5b33 453d 2b6e e63d a86a 8e3d 5861 c8bc
00000190: 2445 163e 71d4 7f3e 5797 283e c380 f93d
000001a0: 427a 723d 4a98 03bd 275e 22bd ddf7 823e
000001b0: cb10 c23c 2374 5b3d be65 19be 4854 49bc
000001c0: 8216 583b 3941 9b3b f85e 54bd e359 293e
000001d0: 54fc 79b6 bc9a 05be 16d8 1e3e cb2c f43b
000001e0: 105e a83c e5e8 6cbd b717 3fbd 83d9 a13e
000001f0: eb0d 7b3c cec1 853d 45f2 d4bd bc8a 473c
0.01935518 -0.07209146 0.09560265 0.062657185 -0.046222348 0.06231943 -0.048285604 0.0098143425
-0.087452985 0.10771294 0.089067616 0.13900518 -0.14548486 0.015894089 -0.051250126 -0.2098594
-0.0069186175 0.07357581 -0.03736989 0.086170144 0.074031726 0.10155762 -0.04771614 -0.12102472
-0.007970587 -0.057813015 0.021651525 -0.09527223 0.037947528 -0.11548033 -0.031496137 0.025846915
0.23125099 0.101032354 -0.06935573 -0.057558093 0.16249126 -0.10312804 0.074479885 -0.1253946
0.14626531 0.118081845 0.057342473 -0.017921356 0.12175501 0.06999114 -0.035544995 -0.13521452
0.0042172167 0.023037141 -0.0050290646 -0.09067289 0.20391275 0.10983353 -0.11842448 -0.0020452575
-0.09719841 -0.029851539 0.1004828 0.050792616 0.13465789 0.046146154 -0.05450475 0.114607215
0.07814865 0.076753244 0.013350544 -0.037589658 0.021385789 -0.026282813 0.0019795545 -0.030949932
0.05842811 0.26624817 -0.028944967 0.045489788 0.09341028 -0.052772265 0.075724386 0.07241387
0.022492694 0.010612142 0.18011262 0.18378784 0.02546325 0.061660804 -0.22322848 0.07794652
0.222798 0.099306546 -0.19212833 0.09486415 0.09007156 0.08335696 -0.10949454 0.20001863
0.04814468 0.112514816 0.06953937 -0.02446048 0.14674813 0.24983384 0.16463982 0.121827625
0.059198625 -0.032127656 -0.039640572 0.2557973 0.023689648 0.053577553 -0.14980218 -0.012288161
0.00329724 0.0047379998 -0.05184838 0.16538195 -3.7250766e-06 -0.13047308 0.15512118 0.007451629
0.020552665 -0.057839293 -0.046653476 0.3161126 0.0153231425 0.06531106 -0.10397772 0.012179073

stack.1.0.weight f4 [64, 128]
00000000: 5641 02be 9e2f 27bc 8937 7a3d feab 343e
00000010: 669a aa3b 2e91 6fbd 9b0d 663d 287d 9fba
00000020: dcdf cf3d 557d 513d ada5 aa3d 6884 06be
00000030: 55d5 a8bc 7717 acbd 0451 c2bc 5668 fd3b
00000040: aab4 1a3e 1db3 e83d 6871 10bc 8d19 643d
00000050: 9922 c33c 3ab8 7a3b fab8 083e bf84 88bd
00000060: ffed 5a3d 738c 123d 28ba 81bc 05fd ba3c
00000070: 5247 11bd f8d3 61bd df5c a73b 3c52 353d
00000080: 2adc 353e 3926 ec3d 754e f3bc a653 023e
00000090: 0396 1abd cf8b 98bd daef babc ff95 823d
000000a0: 9bdd e8bd 2430 063e 80db 8f3d 611d a1bd
000000b0: 0b2b 033e c423 5a3d 43f8 eebd ed39 d83d
000000c0: 8f13 143e c5ee 4b3c ba5b 563d 9034 593d
000000d0: b5cb 393d c78c 9f3d 1d6e cbbc f95b 01bc
000000e0: cac3 5c3c cfc2 283e acae 493d e880 b93d
000000f0: 69c2 cc3d 0c69 6dbc f9de 6bbd dc29 25bd
00000100: 3a74 0a3e e835 733d 87b8 873d e25d c23d
00000110: c42e 8dbd 3bd9 babd 136a 153d 0524 803d
00000120: 54c0 913d 2cb2 6a3e 7346 ecbc 6fcc 1a3e
00000130: ff52 5a3d 19d5 2ebd be63 3c3c ad14 22bd
00000140: baac 0e3d 47c4 d63d dc1c a63d 0a33 273d
00000150: 9aeb 78bd 139f ca3b 1cc9 92bd 3d7a 8abc
00000160: a38e 4dbd 0c52 06bd bb29 2dbd ee7f b23d
00000170: d373 c2bd 44ad e13d e8e3 8a3d 4e31 943e
00000180: 67a5 b03d 7f98 823e cc7a e3bb 1677 d13d
00000190: c43a 4fbd fd17 c6bc e088 3b3d 7d8a 8bbd
000001a0: 615e 043e 0854 103d 7d7b 9b3c 51b8 2c3e
000001b0: a3a0 cabd af43 103e 175e 5c3d 8a6c ad3d
000001c0: 44f2 143a 1c27 96bd 4aa9 b03c 8c16 59bd
000001d0: 5e84 c93d 0b6b 883b 30ea 8a3c 2685 31bd
000001e0: 82e7 5fbd 7d0c ca3c 8b32 cbbd 2d9c 243d
000001f0: 9d54 d03d 26f8 d2bd ceef 553c 9a53 c2bd
00000200: c58d aabc 93ea 183e 65c3 8c3d 3012 0ebe
00000210: e05b 1b3c e271 77bd e545 a03d 7333 f93d
00000220: 1c06 85bd 0706 f93d 18e1 0ebe ea2b 043e
00000230: 8f7a d4bd 7824 d53c e733 8bbd e480 c9bd
00000240: fdd5 abb8 d7e4 443e b837 e1bd f41d 063d
00000250: f071 d83d 2705 1a3e b8ea 17bd 5062 2cbd
00000260: 79e6 0abe 4fb7 bb3d 424c 82bd 735d b83c
00000270: 6489 da3a bcc6 b8bd f202 08be 91c4 083e
00000280: cfd9 89bc 434c 8abd 924f b4bc 86eb 8b3d
00000290: 186e a0bc 1450 12be aa8e 21be 4387 bfbd
000002a0: 67c3 823e 25a6 503d 58e9 a2bd 2767 d13d
000002b0: ada9 30bd 8ed4 213d c625 203e a671 a33c
000002c0: 5e39 ae3b 8131 21bb 3476 f0bc 3a48 ce3d
000002d0: 2eb7 aa3d d553 95bd d327 86bd 740d ec3d
000002e0: aa83 d33c 921d 6f3e d1d0 a33d 307d bdbb
000002f0: 9a55 57bd 2d33 043e 8c3d 533d dad7 0d3e
00000300: 7b12 6abe 67fa dbbd 72bd a3bd ddc1 a73c
00000310: 1e8e c83d 13be 94bd 8fd1 743d e461 1dbe
00000320: 75ea 85bc fa05 413d 1c46 713c f42f 9a3d
00000330: cdb8 b53d ae03 f43c 53fd c33d b9b5 0f3d
00000340: ddb2 c9bd c3da a3bd 3904 1e3e c7eb 573c
00000350: 2c07 d2bb 1dfd e63d 5535 063e 1e53 0ebd
00000360: eff4 363e 3597 3a3d 8b9f 04be 1572 26bd
00000370: ba39 343d 47e9 ae3d 2374 e63c 3dbf c83d
00000380: 9d9a 3f3c dc40 d83d 2159 123e 6d88 c9bb
00000390: e3c9 60bc 1602 913e 6079 4ebd 31ed 993d
000003a0: 1d29 60bb 0e28 453c 1912 57bd 5338 bdbd
000003b0: 226b 0abd d420 903d ee52 533d d854 f43c
000003c0: bfca b53d 22e1 713c 47ff e0bc c1bf 0f3d
000003d0: 846f ecbc f38a d4bd 3630 023e f34c edbc
000003e0: 58e5 ba3d 8a93 1abe 8b46 163e b8eb c33b
000003f0: d38c 21be 8bae a9bd 7297 f03d 2c7b 88bd
-0.12720236 -0.010204224 0.06108812 0.17643735 0.005206394 -0.058488064 0.05616532 -0.0012168037
0.1015012 0.051144917 0.083323814 -0.13136446 -0.020609537 -0.08402913 -0.023720272 0.007733385
0.1510798 0.11362288 -0.008816101 0.05568843 0.023820208 0.003825678 0.13351813 -0.06665944
0.053449627 0.035778474 -0.015835837 0.022825727 -0.035468407 -0.05513379 0.0051075066 0.044267878
0.17759767 0.11530728 -0.029700497 0.12727222 -0.03774072 -0.074485414 -0.022819448 0.06376266
-0.11370393 0.13104302 0.07024288 -0.07866932 0.12809388 0.053256765 -0.11668446 0.105579235
0.14460586 0.012447064 0.05233357 0.053028643 0.045360286 0.07790523 -0.02483278 -0.007895463
0.013474414 0.16480564 0.049238846 0.0905779 0.09998018 -0.014490377 -0.05758569 -0.040323123
0.135209 0.05937758 0.06626993 0.09490563 -0.068936855 -0.09123465 0.036478113 0.0625687
0.07116762 0.2291953 -0.028842187 0.15117048 0.053301807 -0.042683695 0.01149839 -0.0395705
0.034832694 0.10486656 0.08110973 0.04082016 -0.060771562 0.006183514 -0.07167265 -0.01690399
-0.050184857 -0.03279309 -0.042276125 0.08715807 -0.09494748 0.11019376 0.06781751 0.28943866
0.08625298 0.2550697 -0.0069421288 0.10227792 -0.050593153 -0.02418136 0.04578483 -0.06813524
0.12926628 0.03523639 0.018979782 0.16867186 -0.0989392 0.14088319 0.05380067 0.08467968
0.00056818523 -0.07331678 0.021565098 -0.053000018 0.098397 0.004163151 0.016957372 -0.04333987
-0.054664142 0.024664158 -0.0992175 0.040188003 0.10172389 -0.10301237 0.013057662 -0.09488602
-0.020819554 0.14933233 0.06873206 -0.13874125 0.009482354 -0.06041134 0.07825831 0.12168016
-0.06495306 0.12159353 -0.13953054 0.12907377 -0.10374939 0.026018366 -0.06797009 -0.09839037
-8.193774e-05 0.1922792 -0.10996956 0.03274341 0.10568607 0.15041028 -0.03708908 -0.042085946
-0.13564481 0.09165823 -0.06362201 0.022505498 0.0016673026 -0.090222806 -0.13282374 0.13356234
-0.016827492 -0.06752827 -0.022010598 0.06832032 -0.019583747 -0.1428836 -0.15777078 -0.09351971
0.25539705 0.050939698 -0.07954663 0.10224753 -0.043130565 0.03950935 0.1563941 0.019951653
0.0053168973 -0.0024596157 -0.029353239 0.1007237 0.0833572 -0.0729138 -0.065505646 0.115260035
0.025819618 0.23351124 0.07998813 -0.005782746 -0.05257187 0.12910147 0.051572368 0.13851872
-0.22858612 -0.1074112 -0.07995118 0.020478183 0.09792732 -0.07262816 0.059770163 -0.15369374
-0.01634715 0.04712484 0.014726188 0.075286776 0.088731386 0.02978691 0.09569802 0.035085414
-0.098485686 -0.0800071 0.15431298 0.013178772 -0.0064095464 0.11278746 0.13106282 -0.034747235
0.17866872 0.04555436 -0.12951486 -0.04063614 0.044000365 0.08540588 0.02813155 0.09802101
0.0116945775 0.10559246 0.14291812 -0.0061502964 -0.013720009 0.28321904 -0.05040872 0.07515944
-0.0034204193 0.012033476 -0.052507494 -0.092392586 -0.033793576 0.070375115 0.05159276 0.029825613
0.088765614 0.0147631485 -0.027465476 0.03509498 -0.028861769 -0.10378065 0.12713704 -0.028967356
0.09125775 -0.15095344 0.14675348 0.0059790276 -0.15776376 -0.082852446 0.11747636 -0.06664118

stack.1.0.bias f4 [64]
00000000: b382 093e dba1 233e fa60 0a3e fbbf 873d
00000010: 96bd 2f3e 638e a93a e861 0bbc 8712 a03c
00000020: 0256 d73d aaa3 cdbc 9ba7 223d 6ebe cc3d
00000030: 673d afbc 4e46 873d 832d 25be efc5 333e
00000040: 4e80 75be 46d6 fe3c d878 ac3d e2ba e0bc
00000050: 3b62 ad3d 2103 dcbd b346 1bbe b0f7 9abd
00000060: 604b 3c3d 6784 693e d2a3 1ebd 1ac4 433e
00000070: bd81 23be f3d8 fb3d 6635 003e 9361 2b3d
00000080: 8b06 84bd c620 4fbd 6b6a 8c3d 8d1b 16bd
00000090: fcd8 153e 545c 3ebd 2574 aabd 39e8 e53d
000000a0: 7601 0abc f1e3 50bd b4a4 d3bc 6ba8 493d
000000b0: 1211 353e ccb4 84be ead3 283d 5fbb 223d
000000c0: 583d 8b3a a507 49bc 1067 b1bd ca0f bbbc
000000d0: b22d 243e 787c 813c f1d6 3c3e 77ae 0a3e
000000e0: 4105 a23d 6d7f 1ebc 750a e13d 18bf c9bd
000000f0: d787 04be 038e ea3d e2ba b53d e12a 2cbd
0.13428764 0.15979712 0.13513556 0.06628414 0.17162165 0.0012936111 -0.008507229 0.019540085
0.105144516 -0.025102455 0.039710622 0.09997259 -0.021391584 0.066052064 -0.16130643 0.17555974
-0.23974726 0.031108033 0.084214866 -0.027432863 0.084660016 -0.10742784 -0.15163688 -0.07566774
0.04597032 0.22804414 -0.03873045 0.19117776 -0.1596746 0.12297239 0.1252037 0.0418411
-0.064465605 -0.050568365 0.06856235 -0.03664737 0.14633554 -0.04647477 -0.08322934 0.112259336
-0.0084232 -0.050998632 -0.025835373 0.04923288 0.17682293 -0.25919187 0.041217722 0.039729472
0.001062314 -0.012269889 -0.08662236 -0.022834677 0.16033056 0.015806422 0.18441369 0.13543116
0.07911158 -0.009673935 0.10988323 -0.09850901 -0.12942444 0.11452868 0.08873536 -0.04203308

stack.2.0.weight f4 [32, 64]
00000000: 5065 a8bd a645 223e df1b 52be 5038 a1bd
00000010: c618 05bd 9733 303e 9fac 353d 5b2c eabc
00000020: 5962 69bd 108e 0c3e 9258 a43d 58a1 30bb
00000030: f123 303e f719 b73d 10b7 973b fac1 edbd
00000040: 0893 363e 127a 8fbb 7470 313e 62c5 abbb
00000050: c4a2 8bbb 96ce fc3d 46bb 093d fa82 2bbd
00000060: 2cd9 fd3c 0f10 d8bd 4481 bbbd f3a8 0c3c
00000070: 7f26 863d 90b1 21bd 43bb 80bc 667e babd
00000080: 58cf 05bd 276d 94bd 4a6e 0b3e 87e4 5dbd
00000090: 9302 6a3d dddf bfbc 295b 2d3d 20dc b6bd
000000a0: 355a 5ebc 85cb 203e d9c2 7abb c854 1fbd
000000b0: b9a2 eb3d a07c 8f3d cf62 133e 0fac 713d
000000c0: 1bd2 093d 66c9 91bd dae6 173d 8515 f43d
000000d0: ec9c 013e 808b 903d 9122 72be d8f6 0c3e
000000e0: fa02 403d 98d4 283d 9060 333b fe12 2e3e
000000f0: 2139 fd3c c663 0d3c c029 eabd a11f f93d
00000100: 4464 073e 4905 383d e437 d03d d1f9 54be
00000110: ba04 c83d 57e0 20bd d5f9 f8bd 4671 583e
00000120: 44ff 6c3d ff97 ab3d d9d4 e43d 9b48 943d
00000130: d562 463e 600b e6bd 67e8 1bbe eb10 a8bd
00000140: 0558 dcbd 18ea 2ebe b89e 6e3e 6080 323c
00000150: aab7 8f3c 7dc2 edbd 06d4 32bd ca65 b8bd
00000160: 6318 f0bd e5e0 613e c53f 58be fef4 913d
00000170: ae4f 8abd ce04 a6bd 41e9 343e 1935 35bd
00000180: 66b0 1bbd 6544 b13d c3c3 213e 68d6 94bd
00000190: e440 d23d 5fe3 37bd b2fc c53d 9a07 bcbd
000001a0: d23f 8ebc 38bb 483e 4957 153e 5311 5db9
000001b0: 886b 923e 62ef 0fbd 6d67 563e 96c7 973c
000001c0: e1f0 3c3e 60a5 6bbc ab63 2a3e c3e5 273e
000001d0: 3092 533a 2c1b a83c ec9a 69be d7f1 ef3d
000001e0: c1f6 ca3d 62e2 4a3d e333 b5bd 925d 083e
000001f0: 6e6f 983d 3c8b 1ebe fb33 75bd 65aa 033e
00000200: e619 adbc 5c83 8dbe ce6a d53d 0fc5 e13d
00000210: f5c2 1ebd 851e 12be 4524 313e 9fc9 b93c
00000220: 5d56 d4bd c28d 0b3e 6f1c c13d f2a3 1bbd
00000230: c555 323e 46e0 093e fd0d f73d b326 8bbc
00000240: e728 df3d 9a88 f03d 323e 8fbe 3736 993d
00000250: 7c40 40bc a0d9 053e 5212 9b3c 7bff 7b3d
00000260: 2329 163e 6b07 b5bd cb73 d63c c4eb 093e
00000270: e7eb bf3d a490 113e 8dc4 053e 5655 f53d
00000280: e3f5 3a3b ea0d 9b3d 0571 913d ead7 ce3d
00000290: 46f7 5ebe dd03 ecbd 9bbc 25bd c2ca a8bc
000002a0: d7f2 18be b790 223e 328a 013c 9f98 84bd
000002b0: f89b 3fbe e9c9 173e d866 06be 511d 03be
000002c0: c104 16be 465f b13b 04f5 39bd 3631 d2bd
000002d0: d22e a03d a959 a63d 4377 49be 09b6 ad3d
000002e0: acf2 023e 5a56 2cbc a47b 1c3d cc98 f3bd
000002f0: 3de9 99bc 150f dd3d b98e 8bbd ef87 d3bc
00000300: 845a 89bd 8ed1 973e b7f9 e23d 1700 14bd
00000310: d798 4c3d a46b c0bb f5f9 16be c57b 003d
00000320: 4749 22be dc86 d93d 7e67 003e 2d6e 81bd
00000330: 44ac c73d fbb9 f0bd efdb a4bc 79e2 553e
00000340: 4f3c 14be b927 34bd 8c86 773e 5ef8 cbbc
00000350: b772 cebd bc4a 063e 0b21 db3d 0028 3d3d
00000360: a3dc ec3d c248 37bd ba67 f9bd 3f40 a43d
00000370: bf67 43be aa27 733c 36e3 b9bd 84fb 573d
00000380: 5bed 55bd 072a ba3d d9fe 543e 2989 b53c
00000390: 794f f33d fa78 323d e2df a0bd b509 203c
000003a0: 9e9b dfbd 4c4e 9ebd 2606 0ebe d8ad eabd
000003b0: 3d0f 443e d639 04bd 4815 553e 313a 2fbe
000003c0: 2e9f 5c3d 93fc 66bd 820f 003d 1e31 9e3d
000003d0: 7cf8 113e 3340 3f3c 2ec2 1e3e 05d4 ba3d
000003e0: 766e b93d 57fd 2a3e a440 cb3d 29f9 31bd
000003f0: 7317 6b3d 84fc 823d 46f1 51be d0d7 1d3e
-0.08222449 0.15846881 -0.20518444 -0.07872069 -0.03249433 0.1720718 0.044354077 -0.028585603
-0.056978557 0.13726068 0.08024706 -0.0026951637 0.1720121 0.08940499 0.004629977 -0.11609264
0.17829525 -0.0043785656 0.17328054 -0.0052420357 -0.0042613465 0.12344091 0.033625863 -0.041872956
0.030987345 -0.10549938 -0.09155515 0.0085852025 0.06550311 -0.039475977 -0.015714293 -0.0910614
-0.03266844 -0.07247382 0.1361629 -0.05417302 0.05713136 -0.023422176 0.042323265 -0.08928704
-0.013571312 0.15702637 -0.003826311 -0.038899213 0.11505646 0.07006192 0.14393161 0.05900198
0.033647638 -0.07118492 0.03708539 0.11918167 0.12657517 0.070578575 -0.23645999 0.13766038
0.04687784 0.04121837 0.0027370788 0.16999432 0.03091103 0.008629745 -0.114337444 0.12164236
0.13221842 0.044926915 0.1016691 -0.20798422 0.097665265 -0.039276447 -0.12157027 0.2113696
0.057860628 0.083786 0.1117341 0.07240411 0.19373639 -0.11232638 -0.15225373 -0.08206352
-0.10758976 -0.17081487 0.23302734 0.010894865 0.017543633 -0.11609361 -0.043659233 -0.0900379
-0.117234014 0.22058447 -0.21118076 0.07126807 -0.06753479 -0.08106385 0.17667104 -0.04424009
-0.038010024 0.08655623 0.15797333 -0.07267457 0.10266283 -0.044894572 0.096673384 -0.091811374
-0.017364416 0.19602668 0.14584078 -0.00021082656 0.28597665 -0.035140403 0.20937891 0.018527787
0.18451263 -0.01438269 0.16639583 0.16396241 0.0008070795 0.020520769 -0.22813004 0.11716049
0.09910346 0.0495323 -0.08847787 0.13316944 0.074431285 -0.15482801 -0.059864026 0.12857969
-0.021130513 -0.27639282 0.10420762 0.11023914 -0.038760144 -0.14269455 0.17298992 0.022679148
-0.10368035 0.13628295 0.094292514 -0.037998147 0.17415531 0.1346446 0.12063215 -0.016986227
0.108964734 0.11744805 -0.2797714 0.07481044 -0.011734124 0.13071299 0.018929634 0.061522942
0.1466413 -0.088393055 0.026178261 0.13468844 0.09371167 0.14215332 0.1306326 0.11979167
0.0028527908 0.07571013 0.07101635 0.10099776 -0.21774015 -0.11524174 -0.04046307 -0.020604495
-0.14936386 0.15875517 0.0079064835 -0.06474423 -0.18711841 0.14823116 -0.1312517 -0.12804152
-0.14650251 0.005412969 -0.04539968 -0.102632925 0.0782143 0.0812257 -0.19674401 0.08481986
0.12787884 -0.010518635 0.03820385 -0.11894378 -0.018787974 0.10793892 -0.068143316 -0.025821654
-0.067067176 0.29652065 0.110827856 -0.0361329 0.049950447 -0.0058722068 -0.14743789 0.031368036
-0.15848266 0.106214255 0.12539479 -0.063198425 0.09749654 -0.11754223 -0.020124404 0.20887174
-0.14476131 -0.043983195 0.2417242 -0.024898704 -0.10080474 0.13114446 0.10699662 0.046180725
0.115655206 -0.04474712 -0.121779874 0.080200665 -0.19082545 0.014841 -0.0907654 0.0527301
-0.052228313 0.09090047 0.20800342 0.02216013 0.118803926 0.043572403 -0.07855202 0.009767939
-0.109183535 -0.07729778 -0.13869533 -0.11458939 0.19146438 -0.03228172 0.208089 -0.17112042
0.053862743 -0.056393217 0.03126479 0.07724212 0.14254946 0.011673021 0.15503761 0.09122471
0.09054272 0.16698204 0.099244386 -0.04345051 0.05739541 0.0639582 -0.20502195 0.15414357

stack.2.0.bias f4 [32]
00000000: bf9e 4cbd 012f 62bd 3bb1 983d 110b 7f3e
00000010: 1610 d43d 093f 63bd 93b3 e53d 830c ed3d
00000020: 4466 60bd be75 56bc dd92 c9b9 59b9 53be
00000030: f2c7 2b3e e3c5 33bd 46c2 1d3e 0ad3 403e
00000040: 6c6c abbc 5956 643b 7d9c 14bc 74bd b53d
00000050: a18d 39bd 3fde 6dbd 9b75 9ebd ee8c 803e
00000060: 73c9 333e 06b7 893e aeaa 413d 9ae8 8b3e
00000070: e9dd 14bc 4063 2f3c 59d9 b83d 2cae aebd
-0.04995608 -0.055220608 0.07455679 0.24906565 0.10354631 -0.055480037 0.11215892 0.11574652
-0.054785028 -0.013089595 -0.0003844713 -0.20676173 0.16775492 -0.04388989 0.1540614 0.18830505
-0.020925723 0.0034841506 -0.009070513 0.08874026 -0.045301083 -0.05807328 -0.07737275 0.2510752
0.17557316 0.26897448 0.047281913 0.27325898 -0.009086111 0.010704815 0.09025831 -0.085293144

stack.3.0.weight f4 [10, 32]
00000000: 1db9 dcbc 15a1 fd3d c192 ef3d bdb6 3d3e
00000010: 7319 12be 628d 7fbe 4b9c ce3d 8fdc c53d
00000020: 14ae 0a3e 99b1 6ebe e782 92be 9d5d 05be
00000030: db3d 2a3e 7e90 c13c db8b bc3d 99c1 c33d
00000040: 8fa2 bf3d 922f 55be fe2b b4bd 1ca7 6b3c
00000050: 3a52 003e 1b7b 943c 1480 3abc d9b3 e83b
00000060: 9194 a0be 5985 f53d 7b88 9ebe 6358 2c3e
00000070: bbd4 e7bd 2dca 913d 7fd3 e4bd cc7a e93c
00000080: 7f67 f0bd 02ac e2bd 63c8 b9bc a631 36be
00000090: 8404 04be d18e 473d dd54 1abe 34be 0a3e
000000a0: 086d 5e3d 2899 a83d aa1b fe3d 4869 37be
000000b0: 53fc 45bc d050 75be c8c6 35bd e449 4abe
000000c0: 6de4 1abc f5ba 9bbd cc5e 44be 1f2e 8c3d
000000d0: 493a 1f3e 1c0d be3d a9b3 11bd 288d a63d
000000e0: 1a9e a53d 4dd8 c33d b8da e13d 3828 08be
000000f0: bb5b 223c 7855 6cbd ddd3 09be d691 003c
00000100: 5cba 433d 3061 06bc 01d9 3ebe 9a33 d43d
00000110: 048e c0bd bcde 30bd 3769 87bd 3104 35be
00000120: 3622 efbd 017d 503d 6be1 933c 3883 12bd
00000130: 7316 0c3e 5610 0b3e e664 26be 34a6 d1bd
00000140: 0419 133e ae01 32be 5369 53bd c67e b23d
00000150: 1ad1 313e 5e47 06be 26d0 10be c22e 083d
00000160: 45ba 68be ed8f b5bd e4c3 2ebd a748 91bd
00000170: e9bd adbd 0b9e 493d ae69 f4bd eeac d3bd
00000180: 5e3f 96bd 66f5 b5bd 3813 37be f6ab 25be
00000190: af62 d43d d1c5 9e3d 6c1b cb3d 954b 89bc
000001a0: 6a9c 37bd c144 9f3c 072b d33d 5b23 40bd
000001b0: fd23 11be 9eb1 e93d 8012 76bd 1db6 b43d
000001c0: 2dd0 b63d b3bf 08be 99f8 9abd 3458 0ebd
000001d0: 27eb 11be d7be 54be 3d1a b23d 1ddf 083e
000001e0: 7619 4cbe 8153 37be f9a2 36bd e42f 0b3e
000001f0: 7bcd 1c3d 13d0 c83c 75e5 dabd bdaa 473d
00000200: e936 d73c 673f 5b3d bc1c 193d bdf6 ae3d
00000210: 4d04 db3d 3f57 d9bd 8035 3d3d 7188 4cbe
00000220: 9177 74bd 8c0d 9fbe 94ad 3e3e c0da 33bd
00000230: cef0 b5be 594d 233e 4958 2dbe 315b 0bbe
00000240: af15 22be 30a7 183e 3ff7 ec3d 4f0c 86be
00000250: db2d b03d ed78 2b3d 845c 21be 3895 6a3e
00000260: 43d1 4abd f0e3 5fbe 0c81 3abe 9d10 1e3e
00000270: 4dbc e5bd 0a7b 1abe 17b0 63be 4a6a 7b3c
00000280: 2d6a 003d 7e98 763e 3304 a2be 8907 fd3d
00000290: 75b6 883e f2f9 8ebc 5f7d ccbd ac98 22bc
000002a0: 2828 27bc 24c2 6d3e 000e d33d 9811 00be
000002b0: 380d 013e d913 c93d 6ebf bebd 42ec 3e3c
000002c0: 2995 9e3d b311 493e e828 bd3d 0b1c 013e
000002d0: 6bad 6b3d cd75 a5be e7f2 153d d053 af3e
000002e0: b021 bc3e 161b aa3e a8ec 03bd 7c95 49bd
000002f0: ff56 c1bd 0289 51bd 0fdf 2ebe 8abe 97be
00000300: 2f30 bebd 4781 a0be 66ad 1fbe 5c08 163e
00000310: 9f92 e7bc 06f7 a6bd e0df 873d f85a 4bbe
00000320: a623 623d cb15 e3bd de87 043e 4c87 05be
00000330: 0bf4 c03d 319f e3bd 248d 473e 55a1 583e
00000340: c871 0cbe 1617 8abe 2ba2 2f3d 8724 243e
00000350: 02ee 623c c822 27be ef07 e33b db2d e6bd
00000360: 1bbf 7b3e 84e7 28be 64d9 8ebc 866e 753e
00000370: f882 bb3d dbd5 3e3d bedb 6abe 8731 c23d
00000380: 58c9 5abe 7b44 fb3d 77ca 66be c615 f0bd
00000390: 0d9e a43c 539c 0ebc 091a 0a3e 650c 773e
000003a0: 8b4e af3d 320e 0a3e 59af 2c3b 5f6c 9cbe
000003b0: 4a87 6b3c fe85 57be e643 193b 5bd1 a2be
000003c0: 9804 e43d 657d 2a3e b60d 443e 40d3 ec3c
000003d0: 175a 9f3c 65dd 78be 0f9f 803d dc42 c93d
000003e0: 01f0 c6be 33cf 143e 7241 673e 7d81 213d
000003f0: 4b14 b7bc 8e3c 043e 2d31 423e 5ae6 5d3d
-0.026943738 0.123842396 0.11697913 0.1852674 -0.1426752 -0.24956277 0.10088404 0.09661209
0.13542968 -0.23309936 -0.28615496 -0.13023992 0.16625158 0.02362847 0.09206363 0.0955841
0.093571775 -0.20818928 -0.08797453 0.014383104 0.12531367 0.018125108 -0.011383075 0.0071015176
-0.31363347 0.11988325 -0.309635 0.16830592 -0.11319872 0.0711864 -0.11173152 0.028500937
-0.1173849 -0.11067964 -0.02267856 -0.17792377 -0.12892348 0.048720185 -0.15071435 0.13549119
0.0543032 0.08232337 0.1240762 -0.17911255 -0.012084085 -0.23956609 -0.044379026 -0.1975475
-0.009453875 -0.076040186 -0.19176787 0.068447344 0.15549578 0.09279844 -0.035571728 0.08132392
0.08086796 0.095627405 0.110280454 -0.13296592 0.009909566 -0.057698697 -0.13459726 0.00784727
0.047785148 -0.008201882 -0.18637468 0.10361405 -0.09402087 -0.043181166 -0.06611865 -0.1767738
-0.11676447 0.050900463 0.018051824 -0.03576967 0.13680439 0.1358045 -0.16249427 -0.10236779
0.14365011 -0.17383453 -0.051614117 0.08715586 0.17364922 -0.13113162 -0.14141902 0.033247717
-0.22727306 -0.08865342 -0.042667285 -0.070939355 -0.08483488 0.049222987 -0.11934219 -0.10335718
-0.07336305 -0.08884697 -0.17878425 -0.16178879 0.10370385 0.07752574 0.0991734 -0.016759673
-0.044826902 0.019441964 0.10310941 -0.046908718 -0.14173885 0.11410831 -0.060076237 0.08823798
0.08926425 -0.13354377 -0.075669475 -0.034752086 -0.1424986 -0.20775925 0.08696411 0.13366361
-0.19931588 -0.17902948 -0.044589017 0.13592488 0.0382819 0.02451328 -0.10688297 0.048746813
0.0262713 0.053527262 0.03738092 0.08543155 0.1069418 -0.10612344 0.0461936 -0.19973923
-0.05968434 -0.31065023 0.18620902 -0.043909788 -0.35535282 0.15947475 -0.1692821 -0.13609006
-0.15828584 0.14907527 0.11570596 -0.26181266 0.08602496 0.04186337 -0.15757948 0.22908485
-0.049515974 -0.21864295 -0.1821329 0.15436025 -0.11217556 -0.15085998 -0.22235142 0.0153451655
0.031351257 0.24081609 -0.3164383 0.12354953 0.26701704 -0.017453168 -0.0998485 -0.009924095
-0.010202445 0.2321859 0.10305405 -0.12506711 0.12602699 0.09818239 -0.09313856 0.011653008
0.07743294 0.19635658 0.09236318 0.12608354 0.05753843 -0.32316437 0.036608603 0.3424363
0.36744452 0.3322379 -0.032208115 -0.049214825 -0.09440421 -0.05115605 -0.17077278 -0.29637557
-0.09286534 -0.3134863 -0.1559349 0.14651626 -0.028268157 -0.08152585 0.06634498 -0.1985892
0.05520978 -0.11088141 0.12942454 -0.13039893 0.094215475 -0.11114348 0.19487435 0.21155293
-0.13715279 -0.26970738 0.042879265 0.16029559 0.013850691 -0.16321862 0.006928436 -0.11239215
0.2458462 -0.16494566 -0.017437644 0.23967943 0.0915584 0.046590667 -0.22935387 0.09482103
-0.21365869 0.12268921 -0.22538172 -0.11722903 0.020094896 -0.008704263 0.13486494 0.24125822
0.08559903 0.13481978 0.0026349633 -0.3055143 0.014375517 -0.21047208 0.0023386418 -0.3180035
0.11133689 0.16649397 0.19145855 0.028909326 0.019452138 -0.24303205 0.06280338 0.098272055
-0.38854983 0.14532165 0.22583559 0.03943013 -0.022348544 0.12913725 0.18964072 0.05417476

stack.3.0.bias f4 [10]
00000000: bc1f 7e3d f635 00be 731d 4bbe acd9 60bd
00000010: 214d b03d f15a 243e 1a17 8a3c 62c5 7b3e
00000020: 08ff 7abd ec89 a73d
0.062041983 -0.12520584 -0.19835453 -0.054895088 0.08608461 0.16050316 0.016856719 0.24587014
-0.061278373 0.081806034
