src/fminst/models/teacher_5cl_0.pt (torch, 447183 bytes, 8 tensors)

stack.0.0.weight f4 [128, 784]
00000000: 6f24 243d 6a24 303d dddf 8cbc 2fc4 463d
00000010: cbd0 81bc a2a1 9e3c e2ac 743d 6046 b33d
00000020: c80f 013d 3979 223d bff7 10bc 06b8 bdbc
00000030: 6d6e 94bd 09a2 f5bd 6f27 d0bd 73de 69bd
00000040: e064 a03c bb9d 173d aee3 c9bc 8241 a3bc
00000050: db6c 363d eb16 813d d894 9ebb 2450 5e3d
00000060: 67d1 b13d 1cae a63d 0483 863d 677d 32bc
00000070: ae42 523d 7fc9 0bbd b1e3 1e3d f427 ca3d
00000080: 5786 043d 46fa 933b e529 58bd fbac 09bd
00000090: 5450 fabb 6a19 123d bf80 263c 392c 9dbb
000000a0: 0a0d 49bc 4a1c 12bd 02b4 99bc 4d15 71bd
000000b0: 00e1 4dbd 3c4c ffbc 1232 453d 81f1 d43c
000000c0: 8f60 aebc ec5b 5d3b 03aa e43c 09f5 de3d
000000d0: 417c 0f3e 27ea f13d 5fde be3d b5f2 293c
000000e0: 5203 803d 2abd 63bd ecf1 fc3b 671a 753d
000000f0: b626 303d c303 4cbc 5a82 36bd 9b03 433d
00000100: c84e 2e3d 637e 493c 8c01 f9b9 c350 833c
00000110: 61b3 eb3c 9fe0 103d 3437 00bd 24e1 97bc
00000120: d18b 2b3c 34d7 3e3d dcd4 073d 489b 1e3d
00000130: c745 043d faf4 b1bc be2f 90bb a70d af3b
00000140: 1fe0 bd3d 5ebf 113e c51b bd3d 23ec 9e3b
00000150: e10c 0c3d 28f1 263c ce96 5a3d 9ef2 363d
00000160: c9fb 4abc 5a2d f8bc 6a8d 023d 7e21 fa3c
00000170: ff2f 7d3d 4fbd 083d 61b7 e6bc 4494 f1bc
00000180: 72b1 973c 8051 b5bb b08d 46bd 46ce 1ebd
00000190: 2e98 ec3c 6fb9 283d b8e5 e33a 2088 ab3c
000001a0: 86d8 0dbd aea1 c73c 247e 39bc 146b 19bb
000001b0: e56b b23d 2f17 f73d dadf 953d 6500 9d3d
000001c0: d2d4 c53c e7e3 b13d efc2 ab3d 7781 5bbc
000001d0: 6a29 1abd 1917 2fbb 0262 073d 6019 003d
000001e0: 1e8f 183d a0b9 883c bace 7abc 3ceb 113c
000001f0: ca06 4cbd ade3 10bd 08fa 10bd 3caf bdbc
00000200: f17e e5bc 2a4e 8fbc ca8d 4c3c 982c fe3c
00000210: 4185 0b3c afa7 223d 21bf 633d 3892 e83c
00000220: 72db 2f3d 2a79 c63d 4415 d73d 322a ac3d
00000230: f2b3 f33c b87d d43d 701a a03d 0559 e0bc
00000240: 2018 c2bc f78e 81bb 7364 7d3d f44c e33b
00000250: 2b65 0abc b718 f0bc cb62 25bd b68b 53bd
00000260: 98be 7ebc 9724 e73b 2936 a6bb 53f5 1ebd
00000270: 273c 2b3c 2f8e 66bc 556c 233c c445 0c3b
00000280: 2fc5 313c 31a9 c13c 31b0 d43c 11e5 15bb
00000290: 54bd c93c 0271 683d c42a d13d 99f5 ae3d
000002a0: 7435 3e3d 0571 d03d 0ef7 013d a275 09bd
000002b0: bd1d 1f3c 9aa2 323d 9311 4a3b 4e8f b33c
000002c0: 733c e23b 119e 34bb c548 ff3c f21f 4bbd
000002d0: e718 1ebc f825 e5bb bccc f83b 89fe 733c
000002e0: 45c0 d33c f249 ca3c d11d b33c 1a04 993c
000002f0: 2e4b 84bc 3d1c 193d 9b6d cc3d 7b5b 443d
00000300: cba0 edbc 7670 3d3d 07b7 4a3d 42be 273d
00000310: 9d2b f43d 44af 593d 4b82 75bc be0f 74bc
00000320: ad2b 44bc 939e 7e3d 91ad 4e3b 8418 c5bc
00000330: ee72 13bc 6fdb 093d 2448 aabc 9d25 c23c
00000340: d7ed 893c 92f6 4c3c dbbf 9cbc 0360 18ba
00000350: 1b20 7f3c 1f44 a53b 90a2 953c 044a 0c3d
00000360: 65d7 10bc 406b 32bc 8da7 a93d fd01 d5ba
00000370: f4c8 e4bb dd41 333d 205b 653d 348f 203c
00000380: 2460 e63c 1632 403d 8d2f 38bc 6422 9fbb
00000390: 7f43 6f3c 95cb fa3c 58e9 d23c b277 1c3d
000003a0: a187 a53c ba24 ff3c 4ea7 7a3a 15d3 bcbc
000003b0: 4319 f13c a8ca abbc cd11 cfbc 4935 833c
000003c0: fcb1 a33c f8f5 3d3d b740 84bc e45e 063d
000003d0: 5e60 443d aac9 87bb edf3 923d 768e d33b
000003e0: b485 453b 158f 76bc eeeb b33b 0ca6 bcbb
000003f0: e48f d23d 5096 c4ba d293 34bc 614e b23b
0.04007381 0.043003477 -0.01719659 0.04852694 -0.01584663 0.019364182 0.059735186 0.08753657
0.03150919 0.03966639 -0.00884813 -0.023159038 -0.072476245 -0.119937964 -0.10163771 -0.05709691
0.019579351 0.037015658 -0.024644699 -0.019928697 0.044537406 0.063031994 -0.004839521 0.054275647
0.086825185 0.081386775 0.06567958 -0.010894156 0.051333122 -0.03412771 0.038791362 0.09870902
0.03235468 0.004515919 -0.05277433 -0.033612233 -0.0076389704 0.035668768 0.010162531 -0.0047965315
-0.012271175 -0.03567151 -0.018762592 -0.058858205 -0.050263405 -0.031164281 0.048143454 0.025994064
-0.021286277 0.0033776714 0.0279131 0.108865805 0.14012243 0.11812239 0.09319758 0.010372807
0.06250633 -0.055600323 0.007719269 0.059839632 0.043005668 -0.012452069 -0.044557907 0.04761086
0.0425556 0.012298199 -0.00047494133 0.016029721 0.028772058 0.035370465 -0.031302646 -0.018539973
0.010470347 0.046591952 0.033161983 0.038722306 0.032293107 -0.02172326 -0.0044002226 0.0053422037
0.09271263 0.14233157 0.09233812 0.004849927 0.03419197 0.010189332 0.053366475 0.04466497
-0.012389132 -0.030295063 0.031873144 0.030533548 0.06181335 0.033383664 -0.028163614 -0.029489644
0.01851723 -0.005533397 -0.048474967 -0.038770936 0.028881159 0.04119247 0.0017387187 0.020938933
-0.03463032 0.024369087 -0.011321578 -0.002340977 0.087119855 0.12064969 0.07318087 0.07666091
0.024149332 0.08686047 0.0838679 -0.013397566 -0.03763715 -0.0026716648 0.033052452 0.0312742
0.037245862 0.016690075 -0.0153080765 0.008906182 -0.049811162 -0.03537338 -0.0353947 -0.023154847
-0.028014632 -0.017493326 0.012484977 0.031027123 0.008515657 0.039710697 0.055602197 0.028390035
0.04293389 0.09691079 0.10502103 0.084064856 0.02974889 0.103755414 0.078175426 -0.027386198
-0.023693144 -0.0039538103 0.061863374 0.0069366638 -0.008446972 -0.02930866 -0.04037742 -0.05164691
-0.015548371 0.0070539224 -0.0050723744 -0.03880818 0.010451353 -0.014071985 0.009974559 0.0021403888
0.010850235 0.023640247 0.02596292 -0.002287213 0.024626411 0.056748398 0.10213235 0.08542938
0.046437696 0.10177807 0.03172975 -0.03355945 0.00971168 0.0436121 0.003083323 0.021918919
0.0069041788 -0.0027560035 0.031162629 -0.049591012 -0.009649492 -0.0069930516 0.0075927656 0.014892229
0.025848517 0.024693463 0.021864804 0.018678714 -0.01614913 0.037380446 0.09981843 0.047938805
-0.029007336 0.04624983 0.049490955 0.04095293 0.11922381 0.053145662 -0.014984678 -0.014896331
-0.011973304 0.062162947 0.003153656 -0.024059542 -0.008999569 0.033656534 -0.020786352 0.023699576
0.016837044 0.012509959 -0.019134453 -0.00058126467 0.015571619 0.005043521 0.018265992 0.034250274
-0.008840417 -0.010889828 0.08283911 -0.0016251203 -0.0069819633 0.043763984 0.055995107 0.009799767
0.028122015 0.046922766 -0.011241806 -0.0048563946 0.014603495 0.030614654 0.025746033 0.038200088
0.020206274 0.031145442 0.00095616735 -0.02304987 0.029430991 -0.020970657 -0.025277043 0.01601662
0.01998233 0.046377152 -0.01614414 0.03280534 0.047943465 -0.0041439133 0.071754314 0.0064561917
0.0030139508 -0.015048762 0.0054907715 -0.005757099 0.10281351 -0.001499841 -0.011021571 0.0054414724

stack.0.0.bias f4 [128]
00000000: 3a26 c23d 6d9c 2a3e 4c39 e63d 09ff c1bc
00000010: 7799 783e b38d 44bc 28ff 183e 1f02 cc3d
00000020: ffbc da3c e656 a4bc 94e5 05be 64a4 57bd
00000030: 54f6 ab3d 3e52 7d3e 8786 803d b851 a63d
00000040: 44cc 1cbc e9cc 453d f6ae 20bc d795 523b
00000050: f1e6 c63d 64ed 67bc 9830 c4bc 66a0 823c
00000060: 3be1 b43d d259 8dbd 1574 be3d dbce bdbd
00000070: a005 3f3c 71ca d5bd 49ac 003d 9e44 83bd
00000080: 0a87 44bd f227 433d e092 943d 380c 2e3e
00000090: 1ca8 b4bc b83d 9dbd 60a7 d13c 21e6 5b3d
000000a0: fad8 c53d 59af 11bd 7247 fc3d 64fc 5d3e
000000b0: 4d21 413d 54ed a73d 5c60 0cbd bc60 dbbc
000000c0: 7beb 6c3e 674b 093e f8fd f9bd 455e 3c3e
000000d0: 7ed6 a0bd c24c 2f3d 4bc7 ecbc d90d 8b3c
000000e0: f045 3ebd d381 4abc 7e0c 0f3e 5bb4 493e
000000f0: 48c4 6c3e 9086 d23c a59b 22be a830 663d
00000100: 45ec 7fbe 491d 073e 37b1 76bb bf38 adba
00000110: d2ae 6dbd f190 973d f595 c73d 6111 a73d
00000120: 0505 6a3e f450 cfbb 75da 973d 6c70 e43c
00000130: 5108 913e fea4 053d e895 923b 9c28 433d
00000140: 6796 303d c6ce efbd 7012 1d3e a81a 423d
00000150: c7b3 893e 7dfc 9b3d 28e4 62bd 457b 623d
00000160: a746 c63b 3ab7 3cbd c0d6 3abd cfa7 223e
00000170: 5fe4 133e 439c e23d 02e0 e83d 6886 fc3c
00000180: f28d a53c 7b70 21bd d46d 14bd 47ab 103c
00000190: 850d 413d 0a9a f43d a1a9 b13c 70a9 da3d
000001a0: 79d9 12be 4c75 123e b47c 243d 69ba 79bd
000001b0: d550 463d 3be7 693e 383e 013e b8f4 8f3e
000001c0: 0df9 a33d 8e18 c13d 227b 143d 7fc6 313e
000001d0: eaff 39bd a568 3e3d ec5e 71bc 4a1b da3c
000001e0: a7b5 83bc d091 263e c9ca 27bc 5a3c f23d
000001f0: e58a f9bd d88d 693e 853e b73d a579 b33d
0.094799474 0.16661234 0.11241397 -0.02368118 0.24277292 -0.011996674 0.14941084 0.09961342
0.026701448 -0.020060968 -0.13075858 -0.05264701 0.08396593 0.24738404 0.06275659 0.08121055
-0.009570185 0.04829112 -0.009807339 0.0032132769 0.09712017 -0.014155719 -0.023948953 0.015945625
0.08832022 -0.069018975 0.09299485 -0.0926797 0.011659056 -0.10439003 0.031414304 -0.06409572
-0.047980346 0.047645517 0.07254577 0.16996849 -0.022052817 -0.076777875 0.025592506 0.053686265
0.096605256 -0.035567615 0.123183146 0.2167831 0.0471509 0.081995636 -0.034271583 -0.026779525
0.23136704 0.1340767 -0.12206644 0.18395336 -0.07853411 0.04279781 -0.028903624 0.016974377
-0.046453416 -0.012360054 0.13969609 0.19697706 0.2312175 0.02569893 -0.15879686 0.056198746
-0.24992473 0.13194765 -0.003764225 -0.0013215764 -0.05802805 0.07400692 0.09745399 0.08157612
0.22853477 -0.006326789 0.07414714 0.027885638 0.28326657 0.032628052 0.0044734366 0.04764615
0.043112185 -0.11709361 0.15339065 0.047388703 0.26894972 0.07616518 -0.055393368 0.05529334
0.006050903 -0.046073176 -0.045614958 0.15884326 0.14442585 0.11064961 0.11370851 0.030825809
0.020209286 -0.03941391 -0.036237553 0.008829898 0.047132034 0.11943443 0.02168733 0.10676849
-0.14340772 0.14302558 0.04015799 -0.06096879 0.04841693 0.22842114 0.12621391 0.28116393
0.08006487 0.094285116 0.03625024 0.17360877 -0.045410074 0.046486516 -0.014732104 0.02662434
-0.01607783 0.1626656 -0.010241219 0.118279174 -0.12184695 0.22808015 0.089474715 0.08763436

stack.1.0.weight f4 [64, 128]
00000000: d313 d3bd 1988 99bc e79e 983d 338c 583d
00000010: b8bc 073b 50aa cdbb 3b3b 3a3d a761 a9bd
00000020: 2f4c c93d a135 c33c daac 25bd 37d8 5abe
00000030: 476a 10bd 59f9 8abc fbbe 793d 4364 d63d
00000040: 691e de3d 2765 9f3d 0959 3ebd fd9e 23bc
00000050: 7fb4 883c f6c9 35bd a076 a43d 9a76 94bd
00000060: 61f5 b13d e8bf 4c3c 1a2b 8cbb 207a d73c
00000070: b54d aabd b9ab 87bd 3074 31bd 9fe4 33bd
00000080: e23e ba3c 86ca df3d 23e3 98bd c5b3 d63d
00000090: 9bdb 39bd da40 6ebd fae5 ea3c c6af 6e3d
000000a0: 83cf 22bb 277d 853d 5c63 eb3c f9b0 8dbc
000000b0: 0cb0 9b3c e2dc 733d 9e08 9bbd 8e23 923d
000000c0: 9cc0 b83d 3480 5d3c c93d a13c 7f5d f73c
000000d0: 5a11 63bd a633 423d b2c7 b13b ee7a 17bd
000000e0: fd22 39bc 4275 da3d 5d28 5e3d cc1c bf3d
000000f0: 21a0 e73d 0011 cbbc 71ce 2dbe e6cc 57be
00000100: 0da9 703c 2caa 553e 8bd2 693d 0956 a93d
00000110: f53e 78bd 5f36 d3bd a70f 2fbc aacb ba3d
00000120: 7180 ac3d 4e78 28bd ca4c c1bc c717 a13d
00000130: ec00 aa3d 7603 9b3d 9cdf 9c3c e7b4 bebd
00000140: adc0 84bd c7a6 043d 64bd 873d 188c 803d
00000150: 368b 2bbd 9806 10ba 50ce 373d d7fd 1b3d
00000160: a4dd bbbd 4847 ddbd 2cd2 2ebe 78c2 883d
00000170: f98c 8cbd f3a2 c53d 3097 ef3d d423 b0bc
00000180: 8e07 933d ae21 aa3d 5f93 4ebd ebad 7a3d
00000190: 8862 17bd 7ed6 44bd cbaa 93bc 2836 bebd
000001a0: 443b 913d 37ac 5d3d 8a11 893c 73f2 00be
000001b0: 79c0 3ebd a000 ff3d 27eb ba3d 6c7a a63d
000001c0: e363 7c3d d15f 4abd 8cb5 383d 3e14 a7bd
000001d0: 8b40 883d 27b8 c0bc b0a7 843c e78f ae3d
000001e0: 2c0d a3bd 79be f03c 6f55 c6bd 5d11 82bd
000001f0: a645 433d fbb9 96bd a280 6b3e dfe8 40be
00000200: c61f da3c 7f65 d13d 05cb 543d a71b b23c
00000210: fd48 083d 870c 383d 65fc 5f3d 7ab5 093e
00000220: 9c66 9cbc e268 903d a209 cbbc 81b2 053e
00000230: 1abe b0bd 845d 063e f316 29bd 46ab 13be
00000240: 84d1 bbbc 6672 d33d 0711 8abd 1d9f 18bc
00000250: 109d cd3d 3617 ce3d 8c50 2abc 450e 9bbc
00000260: 3c3f 01be d3c6 d03d 2bc1 37bd 02ab e8bc
00000270: 7add 98bc acd8 003d 704e efbd 72b6 c13d
00000280: 937f 34be c785 33bd b58f a9bc 738a b33d
00000290: c957 18bd ba91 9f3c 68eb 7e3b 94fe 08be
000002a0: f197 11bd 6df9 94bc 1332 dcbd 0669 c53d
000002b0: 8e4d c6bd 6e72 743d 943b 7e3d f16f cabb
000002c0: 6c84 223d c4dd 3f3d 8518 09be ffcf ec3d
000002d0: 1d8a 573d 5d46 64bd 9c0e 0abd e406 f23d
000002e0: 8c2e 733c 764d e23d 48e3 af3d 9378 6cbc
000002f0: 3841 9fbd a888 ad3d 1f14 7c3d f76d 753e
00000300: 2471 03be 096f 21be 196e 52bd 1383 a13b
00000310: a3ff cb3d 93f4 babd 8fa7 a03d f603 7ebd
00000320: 7faf 3dbc e6f4 803d 569a e83c 5c23 14bd
00000330: 06a1 da3d 2bde b83c d345 833d 5090 133d
00000340: 5562 03bd 1755 8ebd 876e 563c 1e11 d2bd
00000350: 165e a2bc 603f e23d 7bf2 cd3d 40d8 5b3c
00000360: 2a44 b13d 350c 7f3d 8d89 abbd e209 bcbd
00000370: eca2 a33d eff4 243d 8383 14bd 0379 00be
00000380: 63f5 19bc 6c3a 2abe 10cd c93d 7759 28bd
00000390: e1d7 fe3b 769d 8e3d c5be 82bc 2155 183d
000003a0: a865 21bd 7aa1 54bc ac3d 13bd 6254 20bd
000003b0: 990c 78bb a9d4 f53d b0f2 813d ad90 653d
000003c0: dca3 083e 6cc8 86bc a2fe 9dbc 084e 233e
000003d0: f9e0 3d3d 88c9 2ebd 6d0b d13d 995a 363c
000003e0: 0a02 fd3d c6f0 8fbd e2a9 ce3d 2824 7d3d
000003f0: 69ff 88bd 1790 a1bc 1d03 07be dbee 053e
-0.103065155 -0.018741654 0.07452183 0.05286808 0.002071185 -0.0062764063 0.045466643 -0.08270579
0.09828984 0.023829283 -0.040448047 -0.21371542 -0.035257604 -0.016964601 0.06097315 0.10468342
0.10845644 0.07782965 -0.04647163 -0.009986636 0.01668763 -0.044382058 0.080304384 -0.07249184
0.086893804 0.012496926 -0.004277599 0.02630335 -0.08315603 -0.0662455 -0.043323696 -0.043919202
0.022735063 0.109273 -0.07465198 0.10483507 -0.045375448 -0.058167316 0.028674114 0.0582731
-0.0024842925 0.065180115 0.028733902 -0.017296301 0.019004844 0.059536822 -0.07570003 0.07135688
0.09021112 0.013519336 0.019682782 0.03019595 -0.05543647 0.047412537 0.005425417 -0.03698247
-0.011299846 0.106668964 0.054237712 0.093316644 0.11309839 -0.02478838 -0.16973282 -0.21074256
0.014688742 0.20865697 0.057085555 0.08268363 -0.060606916 -0.10313105 -0.010684884 0.09120877
0.08422936 -0.041130356 -0.023596186 0.07865863 0.08300957 0.075690195 0.019149594 -0.09311848
-0.064820625 0.032385614 0.0662792 0.06276721 -0.04188081 -0.00054941466 0.04487449 0.038083877
-0.09173134 -0.108046114 -0.17072362 0.06677717 -0.06862826 0.09650221 0.116987586 -0.02150146
0.07179175 0.08307205 -0.050433513 0.061201017 -0.0369592 -0.04805612 -0.018025776 -0.09287673
0.07091382 0.054119315 0.016731996 -0.12592487 -0.046570275 0.12451291 0.09126883 0.08128819
0.061618697 -0.049407784 0.04509501 -0.08158158 0.066529356 -0.02352531 0.01619324 0.08523541
-0.07961497 0.0293877 -0.09684264 -0.06350968 0.047673844 -0.07359692 0.22998288 -0.18838833
0.026626479 0.10224437 0.051951427 0.021741701 0.033272732 0.044933822 0.05468406 0.13448134
-0.019091897 0.07051255 -0.024784867 0.13056375 -0.08630009 0.13121611 -0.04128165 -0.14420804
-0.022927053 0.10324554 -0.06741529 -0.009315279 0.10039723 0.10063021 -0.01039518 -0.018927703
-0.12621778 0.10194173 -0.044861954 -0.028401855 -0.018660296 0.031456634 -0.11684883 0.09458627
-0.1762679 -0.043828752 -0.020698408 0.087666415 -0.037193093 0.019478668 0.0038897637 -0.13378364
-0.035545293 -0.018185342 -0.107517384 0.09639172 -0.09682761 0.05967944 0.062068537 -0.0061778952
0.03967707 0.04684235 -0.1338826 0.115631096 0.05262195 -0.055731166 -0.03370534 0.118177205
0.014842641 0.11049931 0.08588272 -0.014433044 -0.07776111 0.08473331 0.061542626 0.2396773
-0.12836128 -0.15765013 -0.05137453 0.0049289553 0.09960868 -0.0912868 0.07844459 -0.062015496
-0.011577486 0.06296711 0.028393906 -0.036166534 0.10675244 0.022566875 0.06409802 0.0360263
-0.0320762 -0.06949823 0.013087875 -0.10257171 -0.019820254 0.11047244 0.10056015 0.013418257
0.086555794 0.0622675 -0.08375845 -0.091815725 0.07990059 0.04027265 -0.03625823 -0.12546162
-0.009396884 -0.16623849 0.09853566 -0.041100945 0.0077771996 0.06963627 -0.015960107 0.03719056
-0.039403588 -0.012977952 -0.035947487 -0.039142974 -0.0037849306 0.12003452 0.06345117 0.056046177
0.13343757 -0.01645299 -0.019286457 0.15947735 0.04635713 -0.042672664 0.102072574 0.011129999
0.123539045 -0.07028346 0.10090996 0.06180206 -0.066893406 -0.019722028 -0.13184781 0.13079397

stack.1.0.bias f4 [64]
00000000: ec23 133e 1904 233e 375e eebc 63ca 713c
00000010: 3530 abbc 64ac d03d 5dde efbb 53e8 92be
00000020: fecf c5bc 3214 f43c 862c 3b3e d30a d43d
00000030: 38b6 06bc 72b0 323d 4deb 83bd 13c1 463e
00000040: 99c7 3d3d e551 07bd b0bf e03d e867 debc
00000050: 1f5a 053e 8a98 caba 1779 45bd 4db3 9dbd
00000060: dee1 ba3d 1471 9ebc 9849 cb3c 5e0e 613e
00000070: fbb9 073e b977 163e 0d18 13ba c675 4f3e
00000080: 779c 52bc db06 84bd 95f1 c8bc 268d 6f3d
00000090: 2214 fcbd 4eb5 4fbd 9ecb aabd 358c bfbc
000000a0: 6131 993d 6ad3 a3bd e37d 5dbe ded2 183e
000000b0: 1e6b 073e 3aba 173d 4c06 1fbd a8c1 013e
000000c0: 474d 563d 5017 77bc 15f9 2b3c f7cd 833d
000000d0: 2da6 123e 3b30 edbd 5232 7a3e d87b 763d
000000e0: 931d 84ba 64b5 a53d 3baf 903c 6d6f 063c
000000f0: e55c 06bd 3a8a e13d e8b1 7c3d b664 443e
0.14369172 0.15919532 -0.02909766 0.014757725 -0.02089701 0.10189131 -0.007320209 -0.28692874
-0.02414703 0.029794786 0.18278703 0.10353627 -0.008222155 0.043625303 -0.064413644 0.1940959
0.04633293 -0.033037085 0.109740615 -0.027149156 0.1302266 -0.0015456837 -0.048211183 -0.077002145
0.09125112 -0.01934103 0.024815366 0.21978137 0.1325454 0.14694108 -0.0005611189 0.20259771
-0.012854687 -0.0644662 -0.024529258 0.05848422 -0.123085275 -0.050710015 -0.08339618 -0.023382286
0.074801214 -0.079993084 -0.21630053 0.1492419 0.13224456 0.037042834 -0.038824365 0.1267153
0.05231979 -0.015081242 0.0104963975 0.06435769 0.14321204 -0.11581465 0.24433258 0.0601767
-0.0010079615 0.08091238 0.017661681 0.008205277 -0.032803435 0.11012693 0.061693102 0.19179043

stack.2.0.weight f4 [32, 64]
00000000: 2c14 9dbd 4398 053e 0db0 e6bd e934 67bd
00000010: 81ce cebb 26d0 4a3e faaa be3b 8d65 cbbd
00000020: a7ba 853b ee7a 173e 3628 b93d c542 e0bb
00000030: cdf6 1d3e 8721 98bc cc70 13bd 38b1 bdbc
00000040: 0e09 023e 49fa 5cbc 911b 263e 00b8 cabb
00000050: cf46 bd3c 39f9 253e 397a 5a3d 5d02 33bd
00000060: 4fd6 173d a513 65bd 633c 02be 6103 423d
00000070: 8a66 57bb 1f31 e6bb 042e a4bc 8850 17be
00000080: 49b3 8bbd 146e 84bd a4c3 ee3d 619e bcbd
00000090: 153e 463d f0fb 5cbd 04af 303d d256 c8bd
000000a0: a86c d8bd f7ee 9b3d e77f a0bc f7ed f4bd
000000b0: 9abe f53d e92d 70bd d1b2 a73d e383 633d
000000c0: 8695 ffba c316 87bb ce28 763c df79 033e
000000d0: 447b 173e 647f 493b 5ae3 12bc dd54 3a3e
000000e0: 2300 003d 0c05 e13c 1a2f b3bc bd67 123e
000000f0: 5904 cabb 9e0a 733d 0d71 d5bc ba13 053e
00000100: 38fe 7e3d 3962 5ebd 7c85 dd3d b229 02be
00000110: 7c80 843d 41cf 83bd 0ece bfbd 31bf e23d
00000120: c0dd e3bb de04 cf3d f427 bb3d 8dc9 8c3c
00000130: 3ab5 363e 2368 d1bd 145e ddbd f06c 9cbd
00000140: aae7 12be 694d a4bd 9d12 0f3e 6080 323c
00000150: c817 913c 71d1 913c a0b8 813d ca65 b8bd
00000160: 7023 a2bd c11e 453e 082f f1bd 3cbd b83d
00000170: b87b b93c 1897 643d 778d fa3d dbc6 f23c
00000180: de37 64bc 4f9b 3e3d 880f af3d a051 c6bd
00000190: a2c5 c53c eac0 a3bd b2fc c53d 6672 6dbd
000001a0: 1161 06be 55b8 fa3d 0262 ee3d d4fb 2fbe
000001b0: 3c51 103e 3e39 9ebd 2135 6e3d 87b3 c6bb
000001c0: a9a9 eb3d 9cf1 d63c b996 f83d ec19 d53d
000001d0: e5de 9bbc 96ea 0e3c 23e3 80bd 1c57 0c3e
000001e0: fb96 193d 3d27 5dbd 5825 97bd d288 893d
000001f0: 0a8e 9a3d c6d3 88bd 053c fbbc 971b a13d
00000200: 802b b03c 3ab8 e2bd 0d4a c03d d04c 953d
00000210: 4628 0fbd 3ba8 51be e1cf d13d 324b 893d
00000220: b31c 70bd af32 f63d d61b af3d 114d 8abd
00000230: 81fe 123e 4538 653d f2d9 643d fbe8 12bd
00000240: f3a3 843d d316 743d 2a92 86bd de40 993d
00000250: c867 8abd be12 323c 6e4a ebbc f61b 883d
00000260: 3caf 143e 9515 74bc 5c47 40bd 77a9 cb3d
00000270: dae2 34bd b7f0 ef3d eb1f 993d fbac a03c
00000280: e5a0 5ebc ee96 053e 5bb2 343d ff63 8e3c
00000290: 1535 47bd 9758 9abd 4c5e 28bd 4460 12bc
000002a0: 7d65 e4bd cac9 a03c 04f5 1abd ce1f d6bd
000002b0: b2ec 663d 2b10 c53d 1c52 b93c 75e1 3bbe
000002c0: 0ed2 c7bd e09a 79bd 344b 6abd a7b1 4bbd
000002d0: f9af 603d bc19 963d ed28 0fbe bcf3 873c
000002e0: f50c d13d 26b5 cfbc f89b 8eb9 8f77 a6bd
000002f0: 2863 47bd 4085 973d 5517 d5bd af06 85bc
00000300: 172e 74bd edeb 403e a633 d2bb 318c 31bc
00000310: bce3 693d 1276 333d 79b8 bfbd fb26 c0bd
00000320: 0357 d2bd 4f49 013e 31b2 023e a760 78bc
00000330: c1b3 163e af66 46be 412b 0ebc c401 fa3d
00000340: 647d 00be 0571 71bd f7ad c53d e840 d4bc
00000350: 610c c3bd 525f 403e 4ddf cf3d 437f 443d
00000360: 0717 173e b419 393c 5db7 c2bd a44f 423e
00000370: 3ae0 acbd c500 223d 75d4 10bd efba 193d
00000380: 3692 acbd 1341 ca3d 2d41 023e 754a 423d
00000390: 4cc0 e43d 00f1 e6bc 446b a0bd ac0d 97bd
000003a0: 0678 09be 72a9 043b 1e1a adbd f47d 39be
000003b0: ad67 293e 99d4 0ebe 3a9e 2d3d 35d7 dfbd
000003c0: 8a86 913d e48f 30bd 5e0f ae3d f93b 223e
000003d0: 420f 0f3e ef40 a1bc c59f fbbd 65c6 7b3e
000003e0: 1672 083d 40bb da3d a2ac da3d f76b 6f3b
000003f0: 11cd cc3d cf82 5b3d bfdd d6bd 2234 163e
-0.07669863 0.13046364 -0.11264048 -0.056446943 -0.0063112383 0.19805965 0.005818722 -0.09931479
0.0040810886 0.14792988 0.09040873 -0.006843897 0.15426178 -0.018570675 -0.035996243 -0.023155794
0.12698767 -0.013487407 0.16221453 -0.0061864853 0.023105053 0.16208352 0.053339217 -0.043703426
0.037069615 -0.055926938 -0.12718348 0.047366504 -0.0032867515 -0.0070248987 -0.020041473 -0.14776814
-0.06821305 -0.06466308 0.11658409 -0.09209896 0.04839905 -0.053951204 0.043135658 -0.09782185
-0.105675995 0.07613938 -0.019592239 -0.11959451 0.11999245 -0.058637533 0.081884034 0.0555457
-0.0019499518 -0.0041225865 0.015024377 0.12839459 0.14793116 0.0030746097 -0.008965338 0.18196435
0.03125013 0.027468227 -0.021873046 0.14297386 -0.006165069 0.059336297 -0.026054883 0.12995806
0.06225416 -0.05429289 0.10816476 -0.12711218 0.06469819 -0.06436015 -0.09365474 0.11071623
-0.006953925 0.1010835 0.0913848 0.01718595 0.1784257 -0.10224941 -0.108089596 -0.07637966
-0.14346185 -0.08022577 0.13971944 0.010894865 0.017711535 0.017800065 0.063340425 -0.0900379
-0.079169154 0.19250013 -0.117765486 0.090204686 0.022642002 0.055808157 0.122340135 0.029635837
-0.013929335 0.046534833 0.08547884 -0.096835375 0.02414209 -0.0799578 0.096673384 -0.057970427
-0.13122965 0.1224219 0.11639787 -0.17185909 0.14093488 -0.07725762 0.058156136 -0.006063882
0.115069695 0.026238255 0.12138123 0.10405335 -0.019027183 0.008722922 -0.06293323 0.13705105
0.0374975 -0.0539925 -0.0738017 0.067155495 0.07546623 -0.066810176 -0.030668268 0.078665905
0.021505117 -0.11070295 0.09389124 0.072900414 -0.034950517 -0.20474331 0.10244728 0.067037955
-0.05862112 0.12021386 0.08550231 -0.067529805 0.14354898 0.055961866 0.05587191 -0.03586672
0.06476583 0.05959208 -0.06570847 0.074830756 -0.06758076 0.010868726 -0.028722014 0.06645958
0.14519972 -0.014897724 -0.046943054 0.09944432 -0.044161655 0.117158346 0.07476791 0.019613734
-0.013588165 0.13045856 0.044115406 0.017381666 -0.048634607 -0.075364284 -0.041105554 -0.008934084
-0.1115217 0.01962747 -0.03783132 -0.10455285 0.056378074 0.096222244 0.02262216 -0.18347724
-0.097568616 -0.060938716 -0.057200626 -0.04972997 0.05485532 0.07329127 -0.13980456 0.016595714
0.102075495 -0.025354933 -0.00027200556 -0.08128273 -0.048678547 0.07398462 -0.10404841 -0.016238539
-0.059614267 0.18839999 -0.0064148484 -0.010836647 0.05710195 0.043813772 -0.09361357 -0.09382435
-0.102705024 0.12625621 0.12763287 -0.015159762 0.14717008 -0.19375108 -0.008677305 0.12207368
-0.12547833 -0.058945674 0.09652322 -0.025909856 -0.095238455 0.18786362 0.10150013 0.04797293
0.14754878 0.011297632 -0.0950763 0.18975693 -0.08441205 0.039551515 -0.035358865 0.03753179
-0.08426325 0.09875693 0.12720175 0.04743429 0.1116949 -0.02819109 -0.07832959 -0.073756546
-0.13424692 0.00202426 -0.08452247 -0.18114454 0.16543455 -0.13948287 0.042387225 -0.10929719
0.071057394 -0.043105975 0.08499025 0.1584319 0.13970664 -0.019684283 -0.12286333 0.245874
0.033311926 0.10680246 0.10677458 0.0036532858 0.10000051 0.053591546 -0.104915135 0.14668325

stack.2.0.bias f4 [32]
00000000: 07eb d73d 8aa9 21bd 1606 9cbc 4047 3d3e
00000010: b632 763d 8708 ab3d 2166 f13d 2e5c c93c
00000020: acf1 6fbd 64cc 3fbd 4c58 aa3d c11e 8abb
00000030: ccaf 1e3e f1f6 ae3d 7f03 bb3d 1036 4a3e
00000040: 409d e43d 1028 dfbd 32d6 b3bd 50dc 1b3e
00000050: bfcb 32bd 9e54 53bd 59b5 0abd a8e4 853e
00000060: e741 be3d 3596 d83d 8fab bb3d 5677 293e
00000070: 23c8 0cbd 9c64 b03d 3f50 dd3d 9c9f 233d
0.10542875 -0.039468326 -0.01904587 0.18484211 0.060106955 0.08351236 0.11787058 0.024580088
-0.058580086 -0.04682578 0.083176225 -0.004215092 0.15496749 0.08543194 0.09131526 0.19747186
0.111628056 -0.10896313 -0.08781089 0.15220761 -0.04365134 -0.05159437 -0.033864353 0.26151013
0.092899136 0.10575525 0.091635816 0.1654943 -0.034370553 0.0861294 0.10806321 0.039947137

stack.3.0.weight f4 [10, 32]
00000000: 9684 6a3c 4632 4b3d 1d7a 2e3e 49be 283e
00000010: f52a 1ebd c187 6dbe 4b9c ce3d b113 423d
00000020: 14ae 0a3e 97ed 1abe 70bd 5cbe ce39 d6bc
00000030: ef21 293e 0c7b 8c3d 0b28 e73d acc8 0f3e
00000040: 69a5 363e ffbb 0ebe b775 dcbc 7485 603d
00000050: dcef e53d c1ff c23d 2faf 31be 9ac6 d23d
00000060: 5002 cdbc 9576 9cbd ba87 20be eb30 553e
00000070: 702c 07be dc94 8fbd f08f beb9 7a78 013e
00000080: 9ae0 92bd 57cc 85bd 555f 233d 31f2 1bbe
00000090: 4eb1 afbd 911c d33d dd54 1abe d637 313e
000000a0: 086d 5e3d 45c9 0e3e 2efe 2a3e 162e 0abe
000000b0: 6cf3 023d d542 23be 2c79 69bc 7da1 2abe
000000c0: 6de4 1abc a580 0cbd bf9b 1dbe 9279 da3d
000000d0: 493a 1f3e 641a f53d a9b3 11bd e7ff 033e
000000e0: 8e11 2f3e 2cf6 0d3e 0f46 1b3e 87c9 d6bd
000000f0: 1bef 4b3c 7855 6cbd 52e9 c0bd 128c 5b3d
00000100: 709b f93d 1f4b 5f3d 64f8 73be d43c 323e
00000110: 187b 68bd e1ac a1bd 3769 87bd 9bbd 83be
00000120: 2e6b ecbd dc09 303e 2fab 8d3d eb30 08bd
00000130: 2f57 493e b6bd 403e da46 3dbe 1d59 b0bd
00000140: 453c f23d 6106 a8be 786c 3ebb c042 693e
00000150: 6bb8 293e f456 0abe c507 2bbe 57c8 123e
00000160: cf2d 29be b6cf 6cbc 98da 22bd 51da 87bd
00000170: 6754 39be aac6 38bc 88c0 cdbd e881 01be
00000180: edf5 87bd d3df 14be abd4 27be 384c 37be
00000190: caa1 3a3e 2404 843e 76c1 d13d ec2a ac3d
000001a0: 8c35 44bd 65b3 873d 978f 293e f05f 0f3d
000001b0: f2d6 24be 73f3 2e3e 55a4 bdbc a728 393e
000001c0: b8fc 3f3e 888c 65be bea4 94bd dce2 f4bc
000001d0: 706c 16be 1c25 05be 5236 cb3d e7a3 263e
000001e0: d478 18be 26ab 1bbe a91d d63b 11f3 683e
000001f0: 3510 74bc a404 5a3e c05b c3bd 29d4 2b3e
00000200: 0b55 d53c 969e 9a3a 86fc e73d fe26 b63d
00000210: 22e4 d23d 8afe d8bd abd3 4c3d 8597 17be
00000220: 2e6f 67bd f59e 13be 09ef 433e f73b d4bd
00000230: a338 95be 6e3a 173e 9a2f 43be f4c1 14be
00000240: 0cd5 03be 2ab9 bf3d 29d5 1f3e 2767 19be
00000250: c600 bf3d 94e8 debc 22fe 78be 96e8 1f3e
00000260: 2019 edbc 00b5 0abd 7a12 53be 86d0 303e
00000270: ca74 50be 3820 3abe e5dd 78be 1072 523c
00000280: 2399 6b3d dee3 303e a446 2dbe aba9 b63d
00000290: 3343 293e 96a6 4b3d 4469 d3bd 89b5 853c
000002a0: 2828 27bc 832f 323e 4cc1 ed3d 77b9 1f3d
000002b0: 7028 bd3d 597b ed3d fceb 9cbd 86f1 133d
000002c0: 49ee a63d 4cc0 2f3e 8bd5 be3d 0575 cb3d
000002d0: 3ec7 713d d858 04bc cd5a 303d a43d bb3d
000002e0: 9f51 0f3e 6bf6 113e 0092 d6bb dd58 5d3d
000002f0: 9b51 c8bd 4987 38bd d4f4 ebbd f546 32be
00000300: 5e04 d6bd ed75 99bc 9b17 34be c959 b63d
00000310: b27a 72bc 9a79 97bc 4e72 813d 38f3 a7bd
00000320: a623 623d d95d d6bd 7c8c d03d 6227 a9bd
00000330: 55a7 bd3d e406 14be 921d 243e 3c54 213e
00000340: 2aa8 0bbe 797a 20be 61f1 4c3d acf4 f43d
00000350: 3ea1 8f3c bc3b 27bd c06a 463c 5b1d 91bd
00000360: fa25 9d3d 1893 3a3d 5ad3 4b3d 958b 2a3e
00000370: c794 c43d 0f63 293d 15f4 e8bd 831c 833d
00000380: 07e1 13be dfb2 003e b657 17be e377 9abc
00000390: 3c68 973c 68a1 483b 6f43 093e 1607 2a3e
000003a0: 8b4e af3d f7b8 ac3d 6d93 c73c 29a6 2abe
000003b0: 9dec 6c3c dc6d 8ebd d830 5dbc bfbb f0bd
000003c0: 5c0e ff3d b20e 123e dc0a 193e 12ec c43c
000003d0: ab36 bd3c 1f21 873d 2db5 843d 0d6f fa3d
000003e0: ea8a 21be 8df4 ae3d 61a2 313e 8854 9e3d
000003f0: aea8 ccbc 588f 083e 4488 0c3e 60bb c13d
0.0143138375 0.04960849 0.1703877 0.16478838 -0.038615186 -0.23196317 0.10088404 0.04738206
0.13542968 -0.15129696 -0.2155664 -0.02615061 0.16516851 0.06859407 0.112869345 0.14041394
0.17836536 -0.13938902 -0.0269116 0.05481477 0.1122739 0.095214374 -0.17351983 0.102917865
-0.025025517 -0.07639805 -0.15676776 0.20819442 -0.13200545 -0.070108145 -0.00036346866 0.12643614
-0.071717456 -0.06533115 0.039885838 -0.15229107 -0.0857874 0.10308183 -0.15071435 0.17306456
0.0543032 0.13943966 0.16698524 -0.13494143 0.031970426 -0.15943463 -0.014250081 -0.16663165
-0.009453875 -0.034302372 -0.15391444 0.10667719 0.15549578 0.11967924 -0.035571728 0.12890588
0.1709654 0.13863438 0.15163444 -0.10487657 0.012447144 -0.057698697 -0.09419502 0.05360038
0.121878505 0.054515 -0.23825222 0.17406017 -0.056758016 -0.07894302 -0.06611865 -0.25730595
-0.115438804 0.17191261 0.06917416 -0.033249777 0.19662164 0.18822369 -0.18484059 -0.08610747
0.11827902 -0.32817367 -0.0029056352 0.2277937 0.16574256 -0.13509732 -0.16702183 0.14334236
-0.16521381 -0.014453819 -0.03975925 -0.066334374 -0.18098603 -0.011277834 -0.10046488 -0.12647212
-0.066387035 -0.14538507 -0.1638972 -0.17900169 0.1822578 0.2578441 0.10241978 0.08406624
-0.04790263 0.06626014 0.16558681 0.035003603 -0.1609762 0.17085056 -0.023149649 0.18081914
0.18748748 -0.2241689 -0.072579846 -0.029893331 -0.14689803 -0.13002437 0.0992247 0.16273461
-0.14889842 -0.15202007 0.0065342975 0.22748972 -0.014896442 0.21290833 -0.09538984 0.16780151
0.026041528 0.001179653 0.11327462 0.08894156 0.10297419 -0.105954245 0.05000655 -0.14803894
-0.056502514 -0.14416106 0.19134153 -0.10363 -0.29144773 0.14768383 -0.19061127 -0.14527112
-0.1287424 0.09361489 0.15608658 -0.14980756 0.093263194 -0.027210511 -0.24315694 0.15616068
-0.028942645 -0.03386402 -0.20612517 0.17267045 -0.20357051 -0.18176353 -0.24303396 0.012844577
0.05751909 0.17274424 -0.16921479 0.0891908 0.1652954 0.049719416 -0.10322812 0.016321914
-0.010202445 0.17400937 0.11609134 0.038995232 0.092362285 0.11595792 -0.07662198 0.036119007
0.08150918 0.17163199 0.09318074 0.09934429 0.059027903 -0.008077823 0.043055344 0.091426164
0.1399598 0.14254157 -0.0065481663 0.054039825 -0.0978119 -0.045050893 -0.11521307 -0.1740988
-0.10450052 -0.01873299 -0.1758713 0.08903844 -0.014799761 -0.018490601 0.0632063 -0.08200687
0.05520978 -0.10467119 0.10183045 -0.08259465 0.09260432 -0.14455754 0.16026905 0.15754789
-0.13638368 -0.1567172 0.050034884 0.1196073 0.017532941 -0.04082845 0.012110412 -0.07085677
0.07673259 0.045550436 0.049762107 0.16654809 0.095986895 0.041354235 -0.1137468 0.064019226
-0.1444131 0.12568234 -0.14779553 -0.018855995 0.01848232 0.0030613784 0.1340463 0.16604266
0.08559903 0.08433717 0.02436229 -0.16664948 0.01446071 -0.06954548 -0.013500415 -0.1175456
0.12453911 0.14263418 0.14945549 0.024038348 0.023097357 0.06598114 0.06479869 0.122282125
-0.15775648 0.08542738 0.17347099 0.07730967 -0.024982776 0.13335931 0.13723856 0.09459567

stack.3.0.bias f4 [10]
00000000: 871e 6bbd c311 d3bd 5937 a9bd a75d b73c
00000010: fea4 7c3d c3ea eb3d 3e57 45bc 7663 303e
00000020: f3d7 64bd 4226 303e
-0.05740216 -0.10306122 -0.0826251 0.022383524 0.061680786 0.115193866 -0.012044726 0.17225441
-0.055870008 0.17202094
