src/fminst/models/teacher_5cl_7.pt (torch, 447183 bytes, 8 tensors)

stack.0.0.weight f4 [128, 784]
00000000: 3020 4c3d a6fe 2c3c bcf8 daba ff66 d83b
00000010: 269c 1ebd 99af 97bc 2dc4 123d ce72 a33d
00000020: 9953 d4bc 95c1 843d 4fee b63d 09a1 843d
00000030: 264b 043d 5d30 1fbd cf97 fbbc 02c4 283c
00000040: 8854 933d 9cb5 053d f504 433d b080 cdbd
00000050: 99d7 96bc a307 7e3d b95b 553d 5fbc 663c
00000060: e65c b53b 1967 243c f6ef 973d 5fba 543c
00000070: bf37 5d3d 2949 6837 3444 d23b b868 2d3c
00000080: 3645 bbbc 83c8 953c b0e6 913d b942 b9bc
00000090: 1042 913b 29e8 0a3d 3a93 463c b6b1 f5bb
000000a0: e60a 053d 5f5c 473c 4441 bd3b 4f9a a73c
000000b0: f595 653c 95b9 91bc 42ee 343b ab99 00bb
000000c0: 4454 9abd 30ed 8bbd 7fd2 1c3c d79b 203d
000000d0: 5461 c33c fbad 88bc e3d4 28bd 368d 27bc
000000e0: 75c7 cd3c 7613 413a 9a61 d7ba 2f8d e83c
000000f0: 56eb 38bb b13d e6bc 254a 53bd 6f21 77bd
00000100: fdd4 0e3d e71a 2c3d 904f 20bc 1c2f 61bb
00000110: 1f07 14bd 548a 94bb 0428 78bc 75ff 8cbd
00000120: edf8 ef3b 3cb1 09bc 8896 1dbc 7f91 553d
00000130: 4689 fbbc 927d adbd 3fde 8cbd 4dcc c4bc
00000140: 14f2 ad3c 4d5e 1bbd a7b8 f3bc 6b31 e5bc
00000150: 9684 a33c c2b0 cabc 15c3 333b 8d5d 4f3b
00000160: 9eb2 15bd fb7c dbbc 0887 a3bd f693 febb
00000170: 729c 753d 3701 57bc 5630 05bd f899 973c
00000180: ef2d 00bd 8af5 523c 3308 de3b 5a94 a83c
00000190: bd1d f7bb daf9 debc ecef 53bd 3fff ab3b
000001a0: 907b f3bc ac95 e4bd 871c 97bd 54d6 d7bd
000001b0: 6620 6fbd fd7a 343c fb98 0bbd a8a5 753b
000001c0: e6d7 303d 071b f1bb 39c5 6cba b9fa 7abd
000001d0: d6c6 c4bd 3bae d6bd 1eb2 8ebd 247c e73c
000001e0: 03b9 013d d1a3 52bd ac2c f03c c85a 133d
000001f0: 634d ac3c db0d b3bc 6e42 43bd 149c 3dbc
00000200: 3300 493d fe62 183d 33da 82bd a2cd 34bd
00000210: e00c d7bc fadd 44bd 1e2b a3bd 3879 86bd
00000220: 3f6a 42bd 79b8 df3c 980f 233d 75c2 1a3c
00000230: 48da f33c cdd0 833d 48ab 0bbd 3760 a0bb
00000240: edd9 0fbe 7a12 19be e000 45bd 23c5 d63c
00000250: 0c76 283d 4293 98bb 610f 893c 6a2c a1bb
00000260: 977f aebb 44e9 453b feb6 8b3c c44e c43c
00000270: 6376 6bba 01aa c93c cc13 723c ba4a 84bd
00000280: dbad 58bc aa77 4cbd 0746 d9bd e9db f8bd
00000290: 7b2c 69bd 51cd 5fbd 028b 9a3b eddd d83b
000002a0: 8f81 843d fc44 023d 356f 5cbd 743a c5bd
000002b0: 9959 cfbd 7a9c 1bbe b55f 86bd afbc a03c
000002c0: 34ad 83bd ab82 283b 9571 143d 8344 7fbc
000002d0: 835d 6b3d 99af eab9 8c75 04bd f7dd f33b
000002e0: 2165 853c e5e8 0fbb 3d11 b1bc aeef 91bc
000002f0: a8bd 393c e8a1 7a39 c32a 78bd 50a6 99bd
00000300: 6d65 9abd f171 d8bd 4542 93bc 8197 a43c
00000310: 74da 223d c31f 293c 72d1 44bd 8272 17be
00000320: e4f6 eebd 6ab2 a7bd 5371 e6bb de63 7abc
00000330: 9b45 b0bd fbe2 a6bc 56f6 d9ba 4d05 b23c
00000340: f9c5 073d 2539 323d bb09 5fbc f6b2 b83c
00000350: ffd0 fa3a ca96 af3c 735e 08bc bdc1 63bd
00000360: b319 a43c f4b9 b63c 1db7 31bd 6fa9 f3bd
00000370: 26db 1cbe 961e a5bd 0f70 41bd 82ec d93c
00000380: 6ab8 253d ea5b a3bc d8ea 87bd 0c52 10be
00000390: 667c 0dbe bdaa e8bd 7bd9 26bc 462c 603c
000003a0: 28a6 11bd 8022 00bd eeb3 a0bb ae82 1c3d
000003b0: 8eea 1a3d d5e8 833b 54b1 ce3c 12d8 13bc
000003c0: 62f5 54bc 01d2 23bd ea33 d0bd cb77 b1bd
000003d0: 2928 2a3b ec49 9e3d 0182 2bbd 658d 0bbe
000003e0: 1142 33be 7f2f 0dbd db09 f3bc 2864 793c
000003f0: fd12 a23c 384e 283d e894 babd f867 6ebd
0.049835384 0.01055876 -0.0016706209 0.006604075 -0.038723134 -0.018516349 0.03583162 0.07980882
-0.025918769 0.06482235 0.089321725 0.064760275 0.03229823 -0.038864482 -0.030712036 0.010300638
0.071938574 0.0326439 0.04761215 -0.10034311 -0.018413352 0.062019 0.052089427 0.014082997
0.005534756 0.010034346 0.07418816 0.012983887 0.05400824 1.38453115e-05 0.006416822 0.010584049
-0.02286015 0.018284088 0.07124078 -0.022614824 0.004432924 0.03391281 0.0121200625 -0.0074979914
0.032481097 0.012168019 0.0057756025 0.020459322 0.014012803 -0.017788688 0.0027607833 -0.0019622843
-0.07535604 -0.06832349 0.009571671 0.03921112 0.02385012 -0.016684523 -0.04121865 -0.010226538
0.025119523 0.00073652656 -0.0016432286 0.028387634 -0.0028216443 -0.028105589 -0.05158438 -0.06033462
0.03487109 0.042017844 -0.009784594 -0.0034360355 -0.036139604 -0.0045330916 -0.015146259 -0.06884662
0.0073233754 -0.008404072 -0.009618409 0.05214071 -0.030705106 -0.08471216 -0.068783276 -0.0240232
0.021233596 -0.03793173 -0.029751135 -0.027977666 0.019960683 -0.024742488 0.002742951 0.0031641454
-0.036547296 -0.026792994 -0.079847395 -0.007769103 0.05996365 -0.013122848 -0.0325168 0.018506035
-0.031293806 0.012875924 0.0067758798 0.020578552 -0.007541387 -0.027218748 -0.05174248 0.0052489336
-0.029722005 -0.1116136 -0.07378488 -0.10538927 -0.058380507 0.011015651 -0.03408144 0.0037482772
0.043174647 -0.0073579582 -0.0009032074 -0.061274264 -0.096082374 -0.104824506 -0.06967567 0.028257437
0.03167058 -0.05142576 0.029318176 0.035975248 0.021032995 -0.021857193 -0.047670774 -0.011572856
0.049072456 0.03720378 -0.063892744 -0.04414142 -0.026251256 -0.048063256 -0.07967208 -0.065660894
-0.047464605 0.027309643 0.039809793 0.009445776 0.02976717 0.0643631 -0.034098893 -0.004894282
-0.14047976 -0.14948454 -0.048096538 0.026217049 0.041128203 -0.0046562264 0.016730966 -0.0049186246
-0.0053252685 0.0030198852 0.01705503 0.02396334 -0.00089821796 0.024617197 0.014775228 -0.064595655
-0.013225044 -0.049918808 -0.1060906 -0.121513195 -0.056927186 -0.054639164 0.004716278 0.0066182525
0.06470024 0.03180407 -0.053816993 -0.0963029 -0.10124511 -0.1519641 -0.065612234 0.019621221
-0.0642952 0.002571265 0.036241133 -0.015580299 0.057462227 -0.00044762788 -0.032338664 0.0074422318
0.016283574 -0.0021958884 -0.021614665 -0.017814483 0.0113367215 0.00023902173 -0.060587656 -0.07502425
-0.07538877 -0.105686076 -0.017975936 0.020091774 0.039759114 0.010322514 -0.048051305 -0.14789775
-0.116681844 -0.08188327 -0.0070325523 -0.015282599 -0.08607026 -0.020371905 -0.00166292 0.021731043
0.033147786 0.04351153 -0.01361316 0.022546273 0.0019135772 0.021434207 -0.0083233 -0.055604685
0.020031786 0.022305466 -0.04338752 -0.11897551 -0.15317973 -0.080624744 -0.047226008 0.026602034
0.040459074 -0.019941289 -0.0663659 -0.14093798 -0.13816985 -0.11360691 -0.010183687 0.013682431
-0.03555885 -0.0312829 -0.004904262 0.038210563 0.037821345 0.0040255585 0.025231041 -0.009023683
-0.012997957 -0.039995197 -0.10166152 -0.08665427 0.0025963879 0.07728943 -0.04187203 -0.13628156
-0.17505671 -0.034469124 -0.029667785 0.015221633 0.019784445 0.04109022 -0.09110433 -0.05820462

stack.0.0.bias f4 [128]
00000000: ad24 2b3e e4bf e03c 6cd1 da3d f558 17bd
00000010: e43d 3b3d 39a7 db3d 4519 42bc 6129 1a3d
00000020: c397 bdbd 8d8f 093e 9455 a43d d976 b33d
00000030: beaa 473d 9889 403b a315 423d 438e eb3b
00000040: cc25 543d cc96 26be 7e95 453d f755 14be
00000050: 0f4d 003d a682 073e 0fd5 523d f0db e83c
00000060: 3f5e b7bd 18f6 ce3c fb3d 23be fa77 a03b
00000070: 6f6c fa3d 523b 253d 0ce5 d93d 5e08 4e3e
00000080: 977c 4cbd 682c 9f3d 3ad9 eb3c aca4 54bd
00000090: 9b8e 3e3d 3324 6a3d 013c 253e afb5 283e
000000a0: a425 153d 8dea eb3c c1f9 7d3d 5f75 17be
000000b0: e691 43bd 60f7 47bc 4070 e23c 49bd 963d
000000c0: b0bc 62bd f9d2 f5bd bd69 a13d 79d2 563d
000000d0: f212 c6bd 2d2c fb3d 99cc 0e3e 5cd1 293e
000000e0: af8f f53d 6d39 ae3d 74ab 2f3e 634e e43d
000000f0: c5cd fb3d 2245 66ba 305d de3d 254e 053e
00000100: 68c7 fbbd 6343 303e 0f4c dc3d 46fe 563d
00000110: eb2d f93d c9d7 eb3d 06df 4f3c cd0d 853d
00000120: 0276 8bbd a566 bc3d 8525 713d d871 4d3d
00000130: d35b b73d 6469 2bbd d11e ab3d 0f76 9dbd
00000140: 4b97 4f3e 3e00 cabd 8c11 c03d 9af5 0b3e
00000150: 0d6b a9bd 81d8 713d d022 d43d db99 e03d
00000160: be79 68bb f004 bfbc d4de 153d 7fe7 d03d
00000170: d769 7fbd 89c3 2b3d 67b0 043e 1d78 093e
00000180: bfca cb3c 2b58 9b3c 5826 193d 826e 08bd
00000190: 0895 823d e826 753d 8ba6 723d b1fd 323e
000001a0: 09e9 6cbd 4da0 a53d 6fe9 723d 3195 f53d
000001b0: f835 823d b5e9 38bd 2096 fbbd c983 153e
000001c0: b166 ae3c 899c 9f3d 9de4 ef3d 75d0 873d
000001d0: ca08 b5bc a304 eb3d fc09 533d a36a 543e
000001e0: f628 bf3c b51d 573c b6e4 ab3d 664f 6e3d
000001f0: 6a40 e73d bb48 013d f318 463b fa04 9abc
0.1671321 0.02743525 0.10684475 -0.03695007 0.04571332 0.107252546 -0.011846845 0.03763712
-0.09257462 0.13433667 0.08024135 0.08762903 0.048746817 0.0029378887 0.047383916 0.00718859
0.05179386 -0.16268462 0.04823827 -0.14485918 0.03132349 0.13233432 0.05147272 0.028425187
-0.08953523 0.025263831 -0.15941612 0.004897115 0.12227713 0.040339775 0.1063939 0.2012038
-0.049923506 0.07772142 0.028790105 -0.051914856 0.046522718 0.05716343 0.16136171 0.16475557
0.03641285 0.028798366 0.062005762 -0.14790867 -0.04774656 -0.012204975 0.027641416 0.07360322
-0.055355728 -0.120031305 0.07881496 0.052446816 -0.09671582 0.12264285 0.13945235 0.1658377
0.11990296 0.08507047 0.17155248 0.111477636 0.12295107 -0.00087841053 0.10857618 0.13018091
-0.12293893 0.17213206 0.107566945 0.052488588 0.12166961 0.11515767 0.01268745 0.06496773
-0.068096176 0.091992654 0.058873672 0.050157398 0.08953061 -0.041848555 0.08355487 -0.076885335
0.20272557 -0.098633274 0.09378347 0.13667908 -0.082723714 0.059044365 0.103582025 0.109668456
-0.0035472955 -0.023317784 0.03658946 0.102004044 -0.062356796 0.041934524 0.12957917 0.13424726
0.02487695 0.01896294 0.037390083 -0.033308513 0.06376082 0.059851557 0.05924086 0.17479588
-0.057839427 0.080872156 0.05930465 0.11991347 0.0635795 -0.045144755 -0.122844934 0.14601053
0.021289201 0.077935286 0.117135264 0.06631557 -0.022098918 0.11475494 0.051523194 0.20743804
0.023334961 0.013129641 0.083932325 0.05818119 0.11291583 0.0315635 0.0030227273 -0.018801201

stack.1.0.weight f4 [64, 128]
00000000: d963 e3bc 987c 26bc e9b9 17bd 4f9f 183c
00000010: 392b dbbc 589f 77ba d365 a3bb fc05 6cbd
00000020: ce91 2b3c 46a6 68bd 521c fdbb 180d 84bd
00000030: bb27 313c 4d2a 25bb 7a8b b0bd a641 85bd
00000040: 19e9 6a3d 2af8 59bc 7b73 ba3c afd5 3e3d
00000050: 0ae6 cdbc 5bef ce3c 479d 5dbd 848c 433d
00000060: f34e 423d 5ead 2dbd 2bf6 873d beb9 1dbd
00000070: 1bbf b73c 1085 74bd e9e4 32bd cfd2 40bd
00000080: 47e7 41bd cd8e ea3a 6121 5dbd d644 123c
00000090: 6fd7 ab3d d5f9 073c 833c 07bd 3020 4abd
000000a0: b72d 24bc 0919 b93c 339a 95bc a7a6 82bd
000000b0: e270 083c f058 3d3d 729b e7bb b543 30bd
000000c0: 7e5b b0bd 59d3 6ebd 5fcf 88bd 1cb4 babc
000000d0: 69db 29bb 9fd4 a2bd f97d b13d 3322 87bc
000000e0: 5e22 81bd c868 473d 340f a23d e7c8 9d3d
000000f0: 9585 64bd fd4c 523d 5b71 7cbc e8f3 5bbd
00000100: bbca 553d a646 873d fe74 933d a463 babc
00000110: 8929 71bd 0d91 923d 8665 a3bd 09b7 88bd
00000120: 1ca8 c8bb 1da4 00bc 0d8a b13d 445c a33c
00000130: 79f1 553a 7f03 5a3c df01 05bd d5b5 a4bd
00000140: 7745 a4bd 393c f73b 16f0 0cbc 28cd 4abd
00000150: 8359 0d3b 8d40 483c 4f82 a63d f7f5 26bd
00000160: 7a88 4cbd d536 1c3c a830 1ebd 3a38 723d
00000170: 4b26 e63c 8ce4 a43d f1b1 253d 470a 693d
00000180: 0c18 2e3c 1356 ac3d 1112 7e3d d019 9a3c
00000190: 3442 a7bd b1ce e0bc d012 30bd 721d b1bc
000001a0: dd08 28bd 6a6b 853c e38b 913d 3f9f 983d
000001b0: e784 12bc 9774 933a 0aaa 3ebd e4e1 41bd
000001c0: c7d1 96bd 1835 a4bd c40d 053d 307e 953d
000001d0: 54e5 8d3d f535 9dbd f39b b3bd 4eb0 99bd
000001e0: a725 833d 5968 853c 7ee3 173d 69fc 9cbd
000001f0: 778c 8bbc 4209 9b3d f63b 803a 2604 7a3c
00000200: d29d 023d 7d53 31bd ef95 673d 786d 81bd
00000210: 3852 a3bc 4d6f 37bd 1512 edbc 8f49 78bd
00000220: 6f97 983d c6ca afbd ecde 1dbc 13e7 b73c
00000230: aac6 6a3d 8fb3 3e3d 2eb3 9d3d 0f3e 33bd
00000240: ec9f 0abd d8be a6bd 6b40 dc3c 329f dcbb
00000250: d9f0 843d 159a 74bd 3481 983d bfdc d6bc
00000260: 4784 953d a0f7 a03d d178 963d cefa c6bc
00000270: e694 9ebd e5f8 8abd 8838 a8bd 1137 1ebd
00000280: 3e1a 5abd 0667 a5bc eb17 25bb 4604 88bd
00000290: 3e30 5cbd f738 aa3d 8f57 b1bd 6bd1 893d
000002a0: 1ee9 37bd f7a0 94bd 7249 44bd 25db dabc
000002b0: ea31 3dbd 8c97 a6bc b193 b7bd 154e 3bbd
000002c0: 4ca0 87bd f921 233d ba46 8f3d 283a aabc
000002d0: 51ec 853d fe3d 763c f6ec 393d 06ac 893a
000002e0: 9327 d2bc eb6c 8b3d 383b 5cbd ab54 ca3b
000002f0: ede6 7cbc 7561 63bd 94ed 1b3d d051 37bd
00000300: 404d 80bd 1f6f e8bc 4791 b6bd 79e4 adbd
00000310: c362 2abd 8594 1a3d ab97 0f3d b4a4 a4bd
00000320: d7cb a8bc d97b d53c e70f 833c 20ef b8bd
00000330: 114a 263d e4e1 f6bc 5d27 cebc 83ef 57bd
00000340: 4c77 863d a64f c5bc 9eeb 0ebd c447 743d
00000350: 64af 393d 3111 3d3d fa79 aabd c606 2ebd
00000360: 54ff 2a3d c193 65bd 0cdb 20bc c28e 323c
00000370: cd21 a4bd 3501 023d b650 3c3c aefe a1bd
00000380: 270b c53c f72a b13c c6dc 56bd 52ed 6d3d
00000390: 9173 94bd b6d0 6fbd 79ae 3fbd 625a 863d
000003a0: 5388 3f3d 2a7c 02bd 955f 4a3d 05cb 1ebd
000003b0: c79a 553d 8b5e 243c 9e1c e8bc b972 153b
000003c0: 4360 0c3d 0598 4dbc 1e79 d5bc 6b92 0e3c
000003d0: 11fb b73c 1d43 983d 6223 0abc 4e55 ac3d
000003e0: c0ce 823b 0713 403c a83c f0bc d380 81bd
000003f0: e430 403d 2482 913c 1366 893d 2245 853d
-0.027757572 -0.010161541 -0.037042532 0.009315326 -0.026754009 -0.00094460463 -0.0049865036 -0.057622895
0.010471774 -0.056799196 -0.0077243233 -0.0644781 0.010812695 -0.0025202215 -0.08620353 -0.06506662
0.057351205 -0.013303796 0.022760144 0.046590503 -0.025134105 0.025260618 -0.05410507 0.047741428
0.047438573 -0.042401664 0.0663875 -0.038507216 0.022429993 -0.05969721 -0.043675337 -0.047076043
-0.047339704 0.0017895341 -0.05398691 0.008927545 0.083907 0.008299311 -0.033016693 -0.049347103
-0.010020665 0.022594946 -0.018262004 -0.06379443 0.008327695 0.046227396 -0.007068091 -0.04303332
-0.08611201 -0.058307026 -0.06680178 -0.022790961 -0.0025918132 -0.079507105 0.086666055 -0.0164958
-0.06305383 0.04868391 0.07913056 0.07704335 -0.055791456 0.051342953 -0.015407885 -0.053699404
0.052195292 0.06605272 0.07200049 -0.02275259 -0.0588775 0.071565725 -0.079783484 -0.06675536
-0.006123556 -0.007851628 0.08668909 0.019941457 0.00081612874 0.013306498 -0.032472488 -0.08042494
-0.08021062 0.007545021 -0.008602163 -0.04951206 0.0021568246 0.012222421 0.08130323 -0.040761914
-0.04993484 0.009534557 -0.03862062 0.059135653 0.028094431 0.08051404 0.0404529 0.056894567
0.01062585 0.08414855 0.06202895 0.018811136 -0.08166924 -0.027442308 -0.04298669 -0.021620486
-0.041024078 0.01628657 0.071067594 0.07452249 -0.008942819 0.0011249956 -0.04654888 -0.047334567
-0.073642306 -0.08017939 0.03248383 0.07299459 0.069285065 -0.07676307 -0.08769979 -0.075043306
0.06403666 0.016285108 0.037082188 -0.07665331 -0.017034752 0.07570125 0.0009783495 0.015259778
0.03188879 -0.04329251 0.056539472 -0.06319708 -0.019936666 -0.04478388 -0.028939286 -0.060617026
0.07450759 -0.08583598 -0.009635668 0.022449052 0.057318367 0.04655796 0.077001914 -0.043760356
-0.03384392 -0.08141869 0.026886186 -0.0067328447 0.064912505 -0.059717257 0.074465185 -0.026228307
0.073006205 0.07859731 0.07347263 -0.024289515 -0.07743244 -0.06785754 -0.082139075 -0.038626734
-0.053247683 -0.020190727 -0.0025191258 -0.0664144 -0.053756945 0.083116464 -0.086592786 0.067293964
-0.044900052 -0.07257264 -0.047921605 -0.026715824 -0.04619018 -0.020335935 -0.08963717 -0.04572876
-0.06622371 0.03982732 0.06995912 -0.020779684 0.065392144 0.0150294285 0.045392 0.0010503537
-0.025653636 0.06807884 -0.053767413 0.006174644 -0.015435916 -0.055512864 0.03806837 -0.044755757
-0.06264734 -0.0283733 -0.08914428 -0.08490843 -0.041598093 0.037739296 0.03505675 -0.08039227
-0.02060501 0.026060032 0.015998794 -0.090299845 0.04059798 -0.03013701 -0.025165254 -0.05271865
0.06565723 -0.02408583 -0.03489267 0.059638754 0.04533328 0.046158973 -0.083240464 -0.04248693
0.041747406 -0.056049112 -0.00981785 0.010898294 -0.080142595 0.031739432 0.011493852 -0.079099044
0.02405317 0.021626933 -0.05245664 0.058087654 -0.07248605 -0.05854865 -0.04679725 0.06560208
0.04676087 -0.031856693 0.04940756 -0.038767833 0.05214956 0.010032306 -0.028333958 0.0022803976
0.03427149 -0.012548451 -0.02605873 0.008701901 0.022458585 0.07434676 -0.0084312875 0.08414708
0.0039919317 0.0117232865 -0.029325798 -0.063233994 0.046921626 0.017762251 0.06708922 0.06507327

stack.1.0.bias f4 [64]
00000000: 9358 8bbd 8131 c53c 57bf 183d 794c d6bd
00000010: a441 58bd 08ee 00bc 8652 84bd 9d6e 173e
00000020: 83a5 503d dd3a 00bd 7805 a13d 580f 7a3d
00000030: 1ee2 a23c c0d3 3f3d 4374 97bd fefe 5f3d
00000040: 6820 cdbd d6cf ccbd 4234 65bc 3145 843d
00000050: b4ee 00be 2a7a 683d 37ce 8dbd 13a4 5a3d
00000060: 32a1 163d 984f a93c f94b d4bc 5a66 643d
00000070: 0efa 8e3d dbdb 143d 14be 143e a958 633e
00000080: eb86 cf3d 2d61 ff3d 0843 1ebd 1790 da3d
00000090: 5e97 8ebd 85bb 283d e122 003e 186c 003e
000000a0: 4129 2b3c f0d3 423e 5eaf 173e 0fd5 a13d
000000b0: e3b8 b23d 165a 803e 2c83 3dbd 921f 633c
000000c0: c250 c53d 067b 423e 18ff bbbc 94cf 983b
000000d0: 56dc 0fbe e7c0 8b3c 32bb 893d 7541 f03d
000000e0: 9e8f 57bc d9ff 053e 0aea 3bbe 37fc 033e
000000f0: 5798 1abe cf38 4e3e 10d4 57bd bd1c 0a3d
-0.068040036 0.024071457 0.03729185 -0.10463805 -0.052796975 -0.007869251 -0.064610526 0.1478829
0.050939094 -0.031306136 0.07862371 0.06104979 0.019883212 0.0468328 -0.07395222 0.05468654
-0.100159466 -0.10000579 -0.01398951 0.0645851 -0.12591058 0.05675713 -0.06924098 0.05337913
0.03677482 0.020667836 -0.025915133 0.055761673 0.06981288 0.036342483 0.14525634 0.2220179
0.101331554 0.12469707 -0.038638145 0.10672014 -0.06962465 0.041194458 0.12513305 0.12541234
0.010446847 0.1902616 0.14812991 0.07901966 0.087266706 0.2506873 -0.046267673 0.013862507
0.09634544 0.18992242 -0.022948787 0.004663417 -0.14048895 0.017059756 0.06725158 0.11731235
-0.0131568 0.1308588 -0.18350998 0.12889181 -0.15097176 0.20138858 -0.052692473 0.033718813

stack.2.0.weight f4 [32, 64]
00000000: 3153 0b3d 2b25 f6bd f394 acbd 2183 b53d
00000010: b024 833d 704c 75bd 1ef8 2d3e 2cf9 f73b
00000020: d7a6 bcbd 579a 6bbd 09c2 873d a243 f13d
00000030: 8302 0cbe 7d40 45bc 63dd 13bd 93bd 98bd
00000040: e004 be3c b863 74be bd16 473d 51db 93bd
00000050: 5d92 e1bc d345 4d3c df24 9c3d d98b 62bd
00000060: 4081 003e adb3 53bd 3dbb 1fbe 74c4 983d
00000070: e6da 04be ba2b 4fbd eaa8 00be f385 bf3b
00000080: c63c 0d3e 0317 6f3d 3e39 cf3d 0366 b7bd
00000090: 0d87 3a3d bd47 e1bd ec7b 0a3e 7439 803d
000000a0: ba33 96bd 51a4 9b3d 9ea5 0a3e 4d0e 1cbe
000000b0: c183 92bd e986 113e 40c0 0bbd 421f b2ba
000000c0: 949b 563e 2979 523d 80ee e73d 015a 073d
000000d0: 5ca5 8b3c 0bb8 a13d 945e ab3d a163 213e
000000e0: 5805 3cbd c49f 2e3e ae02 93bd 493e 273e
000000f0: eaa0 7ebd 7c53 153e e520 aa3d 888e 42bd
00000100: 5009 ffbd e809 843d 288f 0f3d 7f3e 2a3e
00000110: 266b bdbd 24d0 f4bc 5198 873d 4469 a03d
00000120: 670d 0fbe 298f 0e3d f338 32be 7072 f0bd
00000130: 0164 a73d 7e30 0bbd 8ed4 fb3d e864 e53d
00000140: 62d3 8f3d 1d06 7abc b177 6cbd 4235 3c3d
00000150: 6ea9 ffbc 4fda 123c 1f91 a4bc 4659 aebd
00000160: 9d2f a03d 5fef 06be 4a8b f73c 3cc3 973d
00000170: a8f0 153d 5c1d 8cbd 26b8 0fbe 67bc 95bd
00000180: 53cc 8fbd fd79 95bd c074 6b3c 03e3 f83d
00000190: 910b 113d d204 a4bd 80c9 043e 9e5e 4cbd
000001a0: e2c4 3bbe c1da 86bc 7bab 2dbe 7da7 17bc
000001b0: 5080 cebc 81cf dd39 7835 073e 2182 303c
000001c0: 0706 1fbe 3bf8 08be 0c1c 113e a0cf bf3c
000001d0: 0327 db3d 9a90 bcbd a198 e13d 319b e83d
000001e0: 4b41 1fbe cb25 f13a 4d25 d3bc 1e3c 06bd
000001f0: b0fd 123d f74f ff3c c8d9 813b 4071 c6bd
00000200: 760d 203d c125 8c3d 6a23 ccbd e493 f23d
00000210: 2149 b5bd c7dd 793d 81a7 b3bd a71a 1abd
00000220: 3276 9d3d 302b 3a3e 81e8 d2b9 4fa1 fb3d
00000230: b328 2ebe 1112 3a3d 19e9 0ebe 4968 1e3d
00000240: f821 ec3d d652 49be 8803 6abd 2797 57bd
00000250: 1985 adbd ce75 de3d 484d 4ebc 10de 82bc
00000260: 7619 f1ba 3664 63bd 9e18 523c e560 273e
00000270: 36ff aabd 98d5 c93d 112a c0bd 4d83 6ebc
00000280: d29a 603d a9d0 803d f08c 6dbc 0f77 65bd
00000290: 1b70 b43d f46c 11bc 7957 f23d b52b 913d
000002a0: e332 dabb a577 0d3d 392b 70bd 36f5 39be
000002b0: 9708 f7bd c647 163e 7837 483c 6ae5 67be
000002c0: 24f9 eb3d 45b4 873d cead 023e a02c d83d
000002d0: dbca 98bd 0ee2 c0bd 6fae ae3b 8311 0b3d
000002e0: e88f 90bd fdba 903c 42c1 09be 7853 c83d
000002f0: 0510 2dbd 574f 49bd 7885 de3d 4efe 993d
00000300: 5318 d03d bce4 f4bb 1dc1 163e 8c33 5bbc
00000310: e38e 8e3d d7ed 87bd 6780 14bd f44d 7a3d
00000320: 5f75 d83c 0434 db3d dea0 a7bc 0868 9abc
00000330: 1488 bd3d dfc1 023b 6757 c33d 02de 473d
00000340: 517c e33d a814 16be 796f 88bd 798c 9d3c
00000350: c774 acbd c2e4 653d 6d56 49be 9fd6 47bc
00000360: 8ff4 e73d 2269 00bc a5a3 a4bc d4ac b93c
00000370: 5afc b93d eb30 1cbc 23a5 493d ad55 de3c
00000380: e7ec 7bbd 4b17 223e f7ac a03d 05e8 4a3b
00000390: fa5d f0bd 9ed6 363c 36d0 883b b446 8e3d
000003a0: dfda d93d e844 163e 6106 91b9 46cb b6bd
000003b0: 1262 c43d 8d32 853d c210 0ebd 7fdd f0bd
000003c0: d7c0 e93d 0b1a ca3d 313f 203e 06b3 c73c
000003d0: 6739 be3d b16d 7fbd 6dac cb3d d392 293e
000003e0: 1206 d6bd 6aff 9d3c d3ae d6bd 8a3d 18bd
000003f0: 8dfd 8ebe ac94 863c 139b 9ebd 2b51 d3bd
0.034014884 -0.12018808 -0.08426847 0.088629015 0.06403482 -0.05988735 0.1698918 0.0075675454
-0.0921151 -0.057520237 0.06628806 0.11780478 -0.13672833 -0.012039301 -0.036099803 -0.074580334
0.023195684 -0.23866165 0.04860567 -0.07219566 -0.027535612 0.012528854 0.0762422 -0.05530915
0.12549305 -0.051685024 -0.1559877 0.074593455 -0.12974128 -0.05057881 -0.12564436 0.0058448254
0.13792714 0.058371555 0.1011834 -0.08955004 0.04553895 -0.11000011 0.13523835 0.06260958
-0.07334085 0.075997 0.1353974 -0.1523983 -0.07154036 0.1421162 -0.03411889 -0.0013589638
0.20957786 0.05138508 0.11324787 0.03304482 0.017046623 0.078964315 0.08367649 0.15760662
-0.045903534 0.17053133 -0.071782455 0.16332354 -0.06216518 0.14582628 0.083070554 -0.04749921
-0.12452948 0.06447202 0.035048634 0.16625403 -0.092489526 -0.029884405 0.06620849 0.07832578
-0.13969956 0.034804497 -0.17404537 -0.11740577 0.08173371 -0.033981793 0.12296401 0.11200887
0.0702274 -0.015260247 -0.057731334 0.045949228 -0.03120872 0.008963182 -0.02008873 -0.08513121
0.078215815 -0.1317725 0.030217785 0.07410285 0.03660646 -0.06841537 -0.14035091 -0.073113255
-0.070213936 -0.07298658 0.014371097 0.12152674 0.03541142 -0.08008732 0.12967491 -0.04989492
-0.18336824 -0.016461732 -0.16959946 -0.009256241 -0.025207669 0.00042307007 0.1320399 0.010773213
-0.15529643 -0.13375942 0.14170855 0.023414433 0.107008 -0.09207268 0.1101544 0.113577254
-0.15552251 0.0018398104 -0.025774622 -0.032772176 0.035886467 0.03116606 0.003962729 -0.096895695
0.039075337 0.068431385 -0.09967692 0.11844614 -0.08851839 0.06100252 -0.08772183 -0.037623074
0.076885596 0.18180537 -0.0004022755 0.122866265 -0.17007713 0.045427386 -0.13956107 0.038673673
0.115299165 -0.19660506 -0.057132274 -0.052634384 -0.08472652 0.10862313 -0.0125916675 -0.015975028
-0.0018394429 -0.05551549 0.012823252 0.16345556 -0.08349459 0.09855193 -0.093830235 -0.014557672
0.05483515 0.06289799 -0.014498934 -0.056021746 0.08810445 -0.008876074 0.1183309 0.070884146
-0.006658898 0.03453793 -0.05863497 -0.18159947 -0.12062185 0.14675817 0.012220256 -0.22646108
0.11522129 0.066261806 0.12761614 0.105553865 -0.074605666 -0.094181165 0.0053308527 0.033952247
-0.07058698 0.017667288 -0.13452628 0.097815454 -0.042251606 -0.04914793 0.10865301 0.07519208
0.101608895 -0.0074735563 0.14722104 -0.013378989 0.06960847 -0.06637161 -0.036255267 0.0611095
0.026423154 0.107032806 -0.02046245 -0.018848434 0.092544705 0.0019951982 0.09538155 0.048795708
0.11107696 -0.14656317 -0.06661887 0.019232022 -0.08420711 0.056126364 -0.19661875 -0.012197166
0.11325943 -0.007837566 -0.020097563 0.022665419 0.09081335 -0.009533147 0.049229752 0.027140463
-0.061505225 0.15829198 0.078454904 0.0030961048 -0.117366746 0.011159567 0.0041752113 0.06947079
0.106374495 0.14674723 -0.00027661308 -0.0892549 0.09589018 0.065037824 -0.03468395 -0.11760997
0.114137344 0.098682486 0.15649106 0.024377357 0.092882924 -0.06236047 0.09944997 0.16559915
-0.104503766 0.01928683 -0.10482564 -0.037168063 -0.2792782 0.016428314 -0.07744422 -0.10318216

stack.2.0.bias f4 [32]
00000000: 8bff 243e aecc c8bd c2d9 5b3d 88d1 773e
00000010: f852 6cbd a2da 69bb 5400 b73d 2cd5 093e
00000020: b6d8 0ebe 9886 4fbd a257 f23d fa47 393e
00000030: c5f2 ccbd 4776 bd3d 7353 8bbd b660 4f3d
00000040: cfc7 71bc cebb 2d3e 1db4 2abd 6060 9f3d
00000050: f172 1cbd 4bc5 983d d8aa 54bc fac8 db3d
00000060: 4290 8bbd aa48 c5bc ef10 773c f9b3 ca3d
00000070: 4f06 a13d 8316 27bd c0c4 77bd 4cca 3fbd
0.16113107 -0.098046646 0.053674467 0.24201024 -0.057696313 -0.0035683294 0.089356095 0.13460225
-0.13949856 -0.050665468 0.11833121 0.18093863 -0.10007242 0.09251075 -0.06803026 0.05062934
-0.014757111 0.16966173 -0.041675676 0.07782054 -0.038195554 0.07459506 -0.012980185 0.107316926
-0.06814624 -0.0240825 0.015079721 0.09897608 0.078625314 -0.040792953 -0.06049037 -0.046823785

stack.3.0.weight f4 [10, 32]
00000000: 9217 353d 8f52 a2bd 4cd0 abbd 99e5 35bd
00000010: 2eef 89bd b49f a1bd acf7 1f3e bc9b 59bd
00000020: 1b1b f33d 9332 643c 2db3 01bd b4a1 6abd
00000030: a32c 26be cc4c bdbd e4de cabd 685f 04be
00000040: aef5 143e 23a2 1a3e 28d7 643d 8169 43be
00000050: 2fa3 943c 7fd8 873d e343 30bc 1b9b 823d
00000060: 4292 e6bd 6986 113e 8cda 8cbc e355 cebd
00000070: 40cb 953d 5fef d8bd 9a20 e5bd f495 6b3d
00000080: f91e 06bc 3bec a73d 831d 41be 5656 ddbd
00000090: a3a8 db3d f156 723e 62c1 16be 9686 273e
000000a0: 51d1 a73c e238 733e 4a92 53be e116 ccbc
000000b0: e308 0abe 7eb0 26be 2da2 4cbe e233 1e3e
000000c0: c490 2f3e e894 14be 25df 48be a8d8 6ebe
000000d0: eafc 24be 3e34 183e 548f 34be bece 383e
000000e0: 9b11 603e 2a74 1ebe 9b07 463e 282b 35be
000000f0: 23f1 3f3e b970 ef3d 4285 d5bd 39d2 7d3d
00000100: bf4e 543e 85f7 20be 22bf 343e f43f e93d
00000110: 416b cabd f0b5 55be 9325 7bbb b694 433e
00000120: 2a26 bdbd 1b8c 503e 1bbb 56be 43ca 2c3e
00000130: 302d b63d c4d4 d7bd 6cbb 08bd 549b 7b3d
00000140: 7348 11bc 48cb e03d 5c23 de3d 8393 26bd
00000150: 47a8 08be 06cd 2cbe 82ab 8ebd 9344 2b3d
00000160: ddf1 6cbd 9aad ae3d ecef 8fbe 7a3b a1bd
00000170: 994b 1f3e e528 d83d 6820 c7bd 5d8f 893c
00000180: 329e b5bd c368 723e 6daf 3a3d d3a6 133e
00000190: 4554 0b3e 933b 693e 575a 673d eb20 113e
000001a0: d214 05be 6e80 45be 4065 323e 275c 573d
000001b0: ac0b 0bbe e698 123e 7132 17be 48a2 88bd
000001c0: f8cb 41bd eda2 3a3e 3015 22be e4e3 3cbe
000001d0: 22c7 12be 84b9 453c 14ab 463d 0094 143e
000001e0: a353 cb3d ba68 8ebe 3853 8cbc ccdb 203e
000001f0: 54de 3dbe bc9f 0bbe 7f93 53be f1f3 80bc
00000200: 3809 163e cd21 6b3e f9c1 1e3e 5ac7 8e3d
00000210: e80e 83be 2526 fb3d bb03 673e 5e6f 63be
00000220: 89ac 1dbe 8407 53bc 4959 71bd d030 1b3e
00000230: 340b 773d 6819 38bd 710d 73be 790d 3d3e
00000240: f9ac 12be b920 9a3d 5fdb 4c3d 6d5d ccbd
00000250: 54d1 e1bd 6bc4 b0bd cfc8 bd3d 9d3c bbbd
00000260: 30c9 e83d 1a03 90be e17d 41bb 7152 6dbe
00000270: 14b3 aebc c898 24be 3795 afbc 7600 18bd
00000280: 61e3 083e 7020 0f3e efcf 213e 81a2 bd3c
00000290: 621c 613d d7a7 ccbb 6932 23be 7195 6cbd
000002a0: b69a fbbb 088e 18be 4789 20be 4b52 da3c
000002b0: 1075 083e c69f bb3d 8fcf 283d f658 4abc
000002c0: 19f9 14be cac6 17bd 6f20 223e fac7 21be
000002d0: 6bb6 10be a42d f03d 43c8 d1bd 308e 71bd
000002e0: a6ab 19be fcca cebd 7957 053e 8f75 063d
000002f0: da44 d3bd 3f0e 9dbd fb5c f73d cfc2 67bd
00000300: e8d0 ca3d 0907 b1bd f2a9 85bd 83e4 0a3e
00000310: eea9 413d c35a 21be 0ea6 00be 9a81 023d
00000320: 7c9d 0d3e ceb4 813d 2203 cfbd 9b40 2f3e
00000330: 7b3e 2a3e 7fe2 1f3e cd5d 0cbe a018 153e
00000340: 9c78 223e d4ed 9c3d 0610 93bd bbec 993d
00000350: fa4b e23c d6f6 d03d e895 0fbd 4422 cbbd
00000360: 8c01 893d 3446 113e 353f fdbd aceb 11be
00000370: 46c8 17be 2e9e 6a3d 545a 683d 4446 babc
00000380: a0ec f0bd bef1 d93d 090d 89bd 2caf c6bd
00000390: 789c 203d 9fca b7bd c52e febd bdb9 bf3d
000003a0: 95c9 a6bd 09c2 80bd a81e afbd 3c10 8e3d
000003b0: c119 0dbc e37d 30be 6d5d ee3d f9ae 28be
000003c0: 186a f33d d701 01bd ec94 853d bd61 eb3c
000003d0: ab97 a53c 9184 923d 958c 74bd 8065 a73a
000003e0: 4497 1d3e 1c74 093d 7d26 103b d2c9 2fbe
000003f0: 1130 1f3e e84e f0bd 6cb9 f33d 88f0 d63d
0.04421193 -0.07925903 -0.08389339 -0.044408415 -0.06735073 -0.07891789 0.15621823 -0.053127035
0.11870404 0.013928073 -0.031665016 -0.05728312 -0.16227965 -0.092431635 -0.09905794 -0.1292702
0.14546844 0.15100913 0.05586925 -0.19083215 0.018144218 0.0663309 -0.010758373 0.0637724
-0.11258365 0.1421143 -0.017194055 -0.10074975 0.073141575 -0.105925314 -0.11187859 0.057516053
-0.008186095 0.08199354 -0.18858914 -0.10807483 0.10725524 0.23665978 -0.14722207 0.16359934
0.020485552 0.23752168 -0.20661274 -0.024913253 -0.13479953 -0.16278264 -0.1998374 0.15449479
0.17145067 -0.14509928 -0.19616373 -0.23324835 -0.16112104 0.14863679 -0.176328 0.18047616
0.21881716 -0.15474 0.19338839 -0.17692244 0.1874433 0.11691422 -0.104258075 0.061968062
0.20733164 -0.15719421 0.17651036 0.11389151 -0.09883738 -0.20870185 -0.0038321957 0.19099697
-0.09235795 0.20365946 -0.20969813 0.16874032 0.088953376 -0.10538629 -0.033381864 0.06142743
-0.008867371 0.10976273 0.10846588 -0.040668022 -0.13345443 -0.16875085 -0.06966306 0.041813444
-0.057847846 0.085292056 -0.28112733 -0.078726724 0.15556182 0.10554675 -0.09722978 0.016791994
-0.08868064 0.23672776 0.045577455 0.14419107 0.13606365 0.22776632 0.05648264 0.14172713
-0.12996224 -0.19287273 0.17421436 0.052578118 -0.13578671 0.14316139 -0.14765336 -0.06671578
-0.04731366 0.18226214 -0.15828395 -0.18446308 -0.14333776 0.012068156 0.048502997 0.14509583
0.09928062 -0.27814275 -0.017129526 0.15708846 -0.18541843 -0.13635153 -0.20661734 -0.01574132
0.14651954 0.22962113 0.15503682 0.06971617 -0.2559731 0.12263135 0.22560017 -0.22210452
-0.15397848 -0.01288021 -0.05892304 0.15155339 0.06031342 -0.044946104 -0.23735596 0.1846217
-0.14323796 0.075257726 0.050013896 -0.09978757 -0.11026254 -0.08631214 0.09266817 -0.091424204
0.113664985 -0.28127366 -0.0029524493 -0.2317598 -0.021325625 -0.16073906 -0.021433456 -0.037109815
0.13367988 0.13977218 0.15801977 0.023148777 0.05495871 -0.006245594 -0.15937199 -0.057759706
-0.007678355 -0.1489793 -0.15677367 0.026650568 0.13325906 0.09161334 0.04121357 -0.0123503115
-0.14548148 -0.037054814 0.15832685 -0.15798941 -0.14132087 0.11727455 -0.10243275 -0.05897349
-0.15006885 -0.1009731 0.1302165 0.032826956 -0.10315867 -0.07668733 0.120782815 -0.05658227
0.09903127 -0.0864392 -0.06526555 0.13563733 0.0472812 -0.15757279 -0.12563345 0.03186188
0.13829607 0.06333314 -0.101080194 0.17114489 0.16625397 0.15613745 -0.13707657 0.14560175
0.15866321 0.076625496 -0.071807906 0.07515856 0.02762412 0.1020333 -0.03505507 -0.09918645
0.06689748 0.14186937 -0.123655714 -0.14250058 -0.14822492 0.05727976 0.05672677 -0.022738583
-0.11763883 0.10641812 -0.066919394 -0.0970138 0.03921172 -0.08974194 -0.12411264 0.09361599
-0.081439175 -0.06287009 -0.08550769 0.0693669 -0.008612097 -0.17235522 0.11638913 -0.16472997
0.1188547 -0.031495895 0.06522545 0.028733129 0.020213922 0.07154191 -0.059704382 0.0012771338
0.15389735 0.033557996 0.0021995597 -0.17166832 0.1554568 -0.117338 0.11900601 0.104950964

stack.3.0.bias f4 [10]
00000000: 50af 2bbe a301 6d3d cd4b 79bd 215a ff3d
00000010: 5c5c a83d 8c17 e73d c82f cdbd 46f0 113e
00000020: 50ae cabd 08a7 dbbc
-0.16766095 0.05786289 -0.060863305 0.124683626 0.08220741 0.11283788 -0.10018879 0.14251813
-0.09896529 -0.026813045
