src/fminst/models/transfer_5_8.pt (torch, 447681 bytes, 8 tensors)

stack.0.0.weight f4 [128, 784]
000000 68 66 80 3d 4c b0 cd 3d e0 6d d3 3d 3d 0b f2 bd
       0.062695324 0.100433916 0.10323691 -0.1181855
000010 e4 25 bf bf ac 89 ff bf b7 61 3d c0 44 1d a1 bf
       -1.4933438 -1.9963889 -2.959089 -1.2587056
000020 15 04 9e 3e 43 d8 6d 3f 0b 19 16 40 e3 7d f3 3f
       0.3086249 0.92908114 2.3452785 1.9022793
000030 40 52 bb be 50 c1 78 3e 74 e7 83 3f 37 fb 53 3d
       -0.3658619 0.24292493 1.0305009 0.05175325
000040 c6 ce 86 3f a8 46 dd 3f e6 2f a0 3f 50 2d 84 3f
       1.0531852 1.7287188 1.2514617 1.0326328
000050 b2 e6 82 bf 7a 05 5d c0 06 f7 d9 bf c5 e2 ca bf
       -1.0226653 -3.4534593 -1.702851 -1.5850455
000060 85 67 93 3e 96 38 b3 be 83 ce d1 3e 40 9e af 3d
       0.28789917 -0.3500411 0.40977868 0.08575106
000070 c7 42 02 3d 6c 23 f5 bd f6 c1 91 3e 85 92 b6 3e
       0.031801965 -0.11969647 0.28468293 0.3565866
000080 da 67 c7 bf 29 c8 af bf 8d 83 a9 bf b2 09 37 3e
       -1.5578568 -1.3732959 -1.3243271 0.17874792
000090 59 82 0d 3f 94 11 07 3d fe 6d 89 3f d0 94 33 3f
       0.5527702 0.03297575 1.0736692 0.70148945
0000a0 14 2f 11 3f 33 79 b8 3e 36 84 c7 3e 2e 6f 52 3e
       0.5671246 0.36029968 0.38968056 0.20550224
0000b0 1e 6a 79 3f fc d2 90 3f 4e d1 02 3f 6d 69 5d 3f
       0.97427547 1.1314387 0.51100624 0.8648899
0000c0 9a 9b 5b 3f bb 9b f8 be 52 b0 03 bf b7 9b 35 bf
       0.85784304 -0.48556313 -0.5144092 -0.70940727
0000d0 f4 38 70 3d f5 bd ac 3e 4a eb 6d 3f 25 6c 0b 3e
       0.058648065 0.33738676 0.9293715 0.13615473
0000e0 8b cb 13 3e 3b 63 50 3d 89 b9 a3 3e b6 82 95 be
       0.14433114 0.050875884 0.3197749 -0.29201287
0000f0 9c bf 0e c0 52 15 8a bf 90 b5 22 3f 12 2c 36 bf
       -2.230445 -1.0787756 0.6355829 -0.71160996
000100 83 d8 3c bf c6 8f 8d be ec 30 b6 3d 24 f6 87 3e
       -0.7376787 -0.27648753 0.0889605 0.26554978
000110 62 a9 93 be 64 ef b3 be 2e b6 42 be db 4a a9 3d
       -0.28840166 -0.35143578 -0.19014809 0.08266231
000120 32 74 96 bd d6 8e f7 3d 50 47 9e bd 6c 4d 95 be
       -0.07346381 0.12087791 -0.077284455 -0.2916063
000130 ed b4 88 be 9c d3 35 3d 40 9b c1 3f 16 8a f6 be
       -0.26700535 0.04439126 1.5125504 -0.48152226
000140 27 11 b5 bf f2 1d 12 3e ee fa e7 bd 0f 97 e1 3e
       -1.414586 0.14269236 -0.11327158 0.4406056
000150 32 c2 55 bd ca db 27 3e ee 49 f8 3e 9c ce 72 3d
       -0.052187152 0.16392437 0.48493904 0.05927907
000160 07 ec 61 3d 6c b3 80 3b ff 4a 96 3f d3 50 cd bf
       0.055156734 0.0039276388 1.1741637 -1.604029
000170 8e d1 1e bf cc 75 05 3f 35 4f 61 be 0e ce 8d be
       -0.62038505 0.5213287 -0.22002871 -0.2769627
000180 45 73 a4 3d 0b 6d 67 be d2 a5 6b bd 64 83 7e be
       0.080297984 -0.2260019 -0.057531185 -0.24854809
000190 38 09 dd bd a4 20 32 be 6c cd d0 3e 5d f3 99 bd
       -0.10792774 -0.17395264 0.40781724 -0.07517121
0001a0 38 2c 1e bf a3 76 8e be 63 de a7 3f d5 54 df 3f
       -0.6178622 -0.27824888 1.3114742 1.7447764
0001b0 a0 a0 1d 40 79 a8 88 3f e4 da f8 3e 03 c4 ce 3e
       2.4629288 1.0676414 0.486045 0.4038392
0001c0 00 45 bf bd e3 1a a5 3e dd 1b 24 3e 24 14 59 3f
       -0.093393326 0.32247075 0.16026254 0.8479636
0001d0 08 d1 3b 3f 61 cc 8b 3f aa 57 2f 3f 1f 70 75 bf
       0.7336583 1.0921746 0.6849314 -0.9587421
0001e0 12 ab 11 bf 0a eb 3c 3f 48 20 0e bf 0c 97 34 bf
       -0.5690166 0.7379614 -0.5551801 -0.7054298
0001f0 40 21 1d be d8 50 6b 3e 78 58 c4 3b 0e 3f 46 be
       -0.15344715 0.22980058 0.0059919916 -0.19359991
000200 fb 20 28 bf b6 f4 47 bf f3 4c c0 bd 72 14 a9 3e
       -0.65675324 -0.78107774 -0.09389677 0.3302341
000210 ef 8b 7d bf 05 c3 54 bf 67 19 ae 3f 1e 2e d1 3f
       -0.99041647 -0.83110076 1.3601502 1.6342199
000220 7c 01 5b 40 ed fb b7 3f ec cb 86 3d 2d 7d 9e be
       3.4219656 1.4373757 0.06581864 -0.30954877
000230 e0 30 aa bd c3 66 a4 3d b0 26 89 3f 77 1a 27 be
       -0.083101034 0.08027413 1.0714931 -0.1631869
000240 0e 27 c0 3f 5a 41 cf 3d 1a 60 63 3f 9a e3 67 bf
       1.5011919 0.10119887 0.88818514 -0.9058167
000250 5b 85 4c bf 38 bf 16 bc 58 0a 33 bf 52 e6 e6 be
       -0.79890984 -0.009200864 -0.6993766 -0.45097595
000260 39 bd d3 be e9 43 df 3e 39 e6 00 3f 0a da 98 be
       -0.41355303 0.436065 0.5035129 -0.2985385
000270 54 b0 48 be 09 5a e3 be 13 8c 8b be ec fa 8e bc
       -0.19598514 -0.4440463 -0.27255306 -0.017453633
000280 8c 94 44 bf 3c 01 cd be bc c8 bb 3d b5 4c d6 3f
       -0.76789165 -0.40040004 0.091691464 1.6742159
000290 f6 9b 2e 3f 26 bf 3b 40 e3 51 1b 3f fa e7 1e be
       0.6820673 2.9335418 0.60671824 -0.1551818
0002a0 ce 39 e8 3e 11 08 90 be 77 a9 e3 3f 18 fd aa 3f
       0.453566 -0.28131154 1.7786092 1.3358488
0002b0 51 1d 3d 3e f7 ea 75 3f 3d 27 ae 3d 78 f4 e5 be
       0.18468215 0.9606165 0.08503578 -0.44913077
0002c0 bf 02 bc 3e ed 40 a6 3d b9 93 d3 be 02 7c 31 be
       0.36720845 0.08117852 -0.4132364 -0.17332461
0002d0 15 86 b6 be a5 57 d5 3e 94 e4 1a 3f ec d1 da bc
       -0.3564917 0.4166843 0.6050503 -0.026711427
0002e0 b4 b9 f5 3e be 55 a6 3d d3 b2 1e 3e 26 36 f5 bd
       0.47993243 0.08121823 0.15497904 -0.119732186
0002f0 56 df d3 be 3e e7 31 bf ca e5 34 3e 3c 62 a6 3f
       -0.4138133 -0.6949347 0.17665783 1.2998729
000300 52 f0 75 3f fe d9 57 40 8d fb 50 3f b5 72 c2 3e
       0.96069825 3.3726802 0.81633836 0.3797814
000310 00 8d ed 3d 9f ad bb 3f b7 9b 3b 40 aa 7a 8a 3e
       0.11599159 1.466236 2.931379 0.2704671
000320 30 dd 00 bf 90 07 32 3f e4 95 40 bb 77 1d 53 bf
       -0.50337505 0.6954279 -0.0029386217 -0.82466835
000330 6c 3c e6 bd 35 d8 5d 3e fd 86 ef 3d a2 73 c1 bd
       -0.11241993 0.21664508 0.11695669 -0.09445883
000340 07 59 68 3e 05 7f 03 3f a9 42 c3 3e 8a a1 c5 3d
       0.22690211 0.5136569 0.38136795 0.09649952
000350 2a 9e b6 3d a0 82 22 3f 72 5e a7 3e e6 32 12 bd
       0.08916886 0.6348057 0.32689244 -0.03569307
000360 04 99 19 bf b7 02 ba bf 0e 40 ea 3d 3c 95 02 3f
       -0.5999911 -1.4532079 0.11437999 0.51008964
000370 13 9a 09 3f a7 1a 34 40 67 58 03 40 0c 55 08 3e
       0.53750724 2.8141267 2.0522707 0.13313693
000380 70 fa 98 3f a4 26 00 40 21 f6 b3 3e 61 6a 11 3f
       1.1951427 2.0023584 0.3514872 0.56802946
000390 09 d5 80 3f 41 1b e1 3e a4 0e 0f be f7 06 12 bf
       1.0065013 0.43966106 -0.13970429 -0.5704188
0003a0 04 3c 76 3f da d5 46 3f 32 0b ba 3d 47 83 7c be
       0.96185327 0.7767006 0.090841666 -0.24659453
0003b0 60 09 70 be e0 32 53 bc 89 75 a4 3e c4 a6 b0 3d
       -0.23441076 -0.0128905475 0.32120922 0.08625558
0003c0 21 77 19 3e 80 30 1a 3f 68 83 d7 3c ea 48 6b 3e
       0.1498685 0.60230255 0.026307777 0.22977033
0003d0 10 c7 2c bf 88 be d1 bf 14 08 13 bf 00 2d 05 3f
       -0.67491245 -1.638627 -0.574342 0.5202179
0003e0 47 66 db 3e e8 c4 c5 bc ee 0d 2c 40 1c 02 63 3f
       0.4285147 -0.024141744 2.6883502 0.88675094
0003f0 9b 81 c6 3f 23 43 2b bf 71 d3 ed 3d b8 32 3c 3f
       1.5508302 -0.6689932 0.11612595 0.7351489

stack.0.0.bias f4 [128]
000000 d4 ea dc 3e 2f d3 a4 3f 28 24 42 bd 44 92 e9 bc
       0.4314791 1.2876948 -0.047397763 -0.028512128
000010 a8 ff 8c 3c 86 85 60 3e 98 de 21 bd 42 64 45 be
       0.01721175 0.21925935 -0.039518923 -0.19276527
000020 30 78 21 be 5f d5 82 be 5c 74 81 bc d5 f6 85 3e
       -0.15768504 -0.25553414 -0.015802555 0.2616488
000030 7c 54 f5 bd 88 ee 87 3c fa 33 42 be ec f1 ab be
       -0.11979005 0.016593233 -0.1896514 -0.3358301
000040 3f e9 8e bf 6f 29 40 3f e1 36 18 bd fa 15 85 3e
       -1.1164931 0.7506322 -0.03716171 0.2599333
000050 c6 37 a2 3d 72 37 0a bd 3e e2 f6 bd fc 81 c3 3d
       0.07920794 -0.033744283 -0.12054871 0.09546277
000060 94 fa 47 3f d6 02 0e 3e fc 86 a4 3c de 35 20 3f
       0.78116727 0.1386827 0.020083897 0.62582195
000070 48 4f bb bc 88 13 37 3e 00 a0 ba b6 bc 17 83 bd
       -0.022864953 0.17878544 -5.5618584e-06 -0.06401011
000080 30 6e 8a bc 68 77 fc 3b c8 1e a9 3b 4d aa 35 3d
       -0.016898245 0.007704664 0.00516114 0.044351865
000090 e9 08 c3 bf fa 1a db 3d b3 78 20 3d 1e 82 14 be
       -1.5237094 0.10698505 0.039177608 -0.14502761
0000a0 e0 15 e4 bc b6 88 51 be da a5 f2 bd c6 db 5a 3d
       -0.027842462 -0.20462307 -0.1184804 0.05343225
0000b0 9e c1 9c bd 7c e0 39 3f 8f 61 81 3e 36 ad 57 3d
       -0.07654117 0.7260816 0.25269744 0.05265542
0000c0 8c a8 2f 3e e9 7b 19 be 97 7f 4a 3e e3 e2 db 3d
       0.1715414 -0.14988674 0.19775234 0.107366346
0000d0 72 ff 9f 3f c4 ec 9c 3e e8 02 6a bc 6a b2 59 3f
       1.2499831 0.30649388 -0.0142829195 0.85037863
0000e0 fc b8 84 bc dc 12 ad bc 38 8a 85 3e 10 8d be bd
       -0.016201489 -0.021127157 0.26082015 -0.09304249
0000f0 b8 6b 83 be 1c a0 00 bd c4 2c b1 bd d0 a2 56 bc
       -0.2566812 -0.031402692 -0.086511165 -0.013100341
000100 b0 50 df bd 2f fa 28 be 8a 80 74 be 48 fb 8c bc
       -0.10904062 -0.16501687 -0.23877159 -0.017209664
000110 0b 7d 95 bd 79 69 45 bd 8e 7f 22 3e a8 8f 42 be
       -0.07299241 -0.04819629 0.15868971 -0.19000113
000120 b4 ba 24 3f b6 cb c8 bc 10 26 36 bd 66 ae 0c be
       0.64347386 -0.0245112 -0.044469893 -0.13738403
000130 63 51 12 be 63 92 12 be f9 d2 dc 3d 8e 11 68 3f
       -0.14288859 -0.14313655 0.10782427 0.90651786
000140 bd a8 32 3f 01 b0 a6 3f e4 d5 93 3e 3c 5c 18 be
       0.69788724 1.3022462 0.28874123 -0.14878935
000150 63 e9 9f 3f e4 17 2a 3f d8 4b 8a 3d 4c 6b 84 bd
       1.2493099 0.66442704 0.06752747 -0.06465778
000160 0b e6 6a 3f d0 d1 87 be 1e b9 9f bd ad 8a 89 bd
       0.9175727 -0.26527262 -0.0779898 -0.067159034
000170 1a 10 0d bd ae d4 c3 3e ec 1b 45 bd 71 34 87 bd
       -0.034439184 0.382482 -0.04812233 -0.06601799
000180 ba ca 3a 3e c4 d2 a0 be fd 9a 50 3f 53 79 44 3e
       0.18241397 -0.314108 0.81486493 0.19186907
000190 17 d8 79 bd d4 48 07 3d c7 b9 6b be bb 2b f9 bc
       -0.060997095 0.03302844 -0.23020087 -0.03041636
0001a0 6e 84 a2 bc cd 7b 7c be ef d3 8f 3e 00 a1 92 3d
       -0.019838538 -0.24656601 0.2809138 0.071596146
0001b0 da f8 fa bd a8 e7 9b bd 5e 1d 49 bd 30 fe 92 3f
       -0.12254496 -0.07612544 -0.049100272 1.1483822
0001c0 c6 0f a8 3e b0 9b 7a bc b7 e1 79 bd b4 03 d1 be
       0.32824534 -0.015295908 -0.061006274 -0.40823138
0001d0 45 49 04 3e 82 92 0e 3f e0 8f 85 3c 48 ca 88 bc
       0.12918575 0.55692303 0.016303957 -0.016698018
0001e0 ee 4e 23 bd d3 0b 39 3e d4 25 b1 bd 4f 35 98 bd
       -0.039870195 0.18070917 -0.08649793 -0.07432043
0001f0 9e 4e 85 3e c4 b7 1f be 9b a2 fd 3f ab 5f 32 bd
       0.26036543 -0.15597445 1.9815248 -0.043548267

stack.1.0.weight f4 [64, 128]
000000 fb c1 4c be 6b 54 59 be 73 ed 80 bd d6 2c c8 3d
       -0.19995873 -0.21223609 -0.0629529 0.09774177
000010 64 6d 1e be 7a 08 08 bf f4 f5 3a be 2a 4d 8e 3d
       -0.15471417 -0.53137934 -0.18257886 0.069483116
000020 d8 0e 5d bc bc b9 54 bd 74 fd 4f bd 26 59 1e bd
       -0.013492309 -0.051934943 -0.05077882 -0.038659237
000030 84 b9 7d 3d d0 b5 9a bd 6f 02 fc bd a8 d7 43 be
       0.0619445 -0.07554209 -0.12305152 -0.19125235
000040 ac 8e 28 be 2e f9 53 be 08 8c d0 bd 06 6f 71 be
       -0.16460675 -0.20700523 -0.10182959 -0.23577508
000050 19 78 10 bd c2 93 48 be b2 9f 6a bd 3e 4c 96 3e
       -0.035270784 -0.19587615 -0.057281204 0.29355043
000060 f5 ea 10 be 20 6f 19 3f 1a 46 27 be b2 e1 f9 3e
       -0.14152129 0.5993519 -0.16335335 0.48805004
000070 3c 31 57 3d e2 bc c4 bc 9b 71 03 be 30 2b 69 3b
       0.052537188 -0.024015848 -0.12836306 0.003557872
000080 32 0c cd bd 22 a4 63 be 89 c8 16 3e 1e c4 01 bd
       -0.10012092 -0.2223058 0.14724936 -0.031681173
000090 fc 4b ec 3e 60 70 9f bd 42 a0 4f 3e 40 ab 94 ba
       0.4615172 -0.07785106 0.20275977 -0.001134254
0000a0 a3 f2 b0 be 85 df 9c 3d 4c 1f bb bd dc 0a 05 3e
       -0.34560117 0.076598205 -0.09136829 0.12992424
0000b0 80 69 b5 bd e0 91 5d bd 74 1b 74 3e 4c 36 6b 3d
       -0.08858013 -0.054094195 0.23838598 0.05742483
0000c0 20 19 10 bd ea a8 41 bd d0 4d 36 bf 98 4b 58 be
       -0.03518021 -0.04728023 -0.7121248 -0.21122587
0000d0 85 07 95 be 22 f4 a6 3d 9b 72 0a 3d 8c d1 a6 3e
       -0.291073 0.081520334 0.033800703 0.32581747
0000e0 68 1b bd 3b 34 35 41 3e f3 65 c4 be 97 e4 45 3d
       0.0057710893 0.18867952 -0.3835903 0.048313703
0000f0 89 97 90 be 08 fb 0a 3e 70 f7 51 3e a9 40 1f 3e
       -0.28240612 0.13572323 0.20504546 0.1555201
000100 48 b8 f3 bd ab a2 80 be 24 d4 80 3c d8 18 f9 bd
       -0.11900383 -0.25124106 0.015726157 -0.12162942
000110 48 48 02 be 3e c3 3e 3d b5 db af be 7c e7 ba bd
       -0.12722886 0.046572916 -0.3434731 -0.091261834
000120 ab 8e 89 be aa 1c 2a 3e fc 00 15 be 5c 80 41 bd
       -0.2686666 0.16612497 -0.14551157 -0.047241554
000130 4c f1 76 be c9 f9 39 bd f2 5b e1 bc 50 b3 c9 be
       -0.24115485 -0.04540423 -0.027509663 -0.39394617
000140 16 61 da bc 59 2f 3f 3e cc a2 01 be e4 73 79 3c
       -0.026657622 0.18670405 -0.12659758 0.015225384
000150 c4 d4 df be 3d 38 04 bf ea f3 7b bd 56 72 44 3e
       -0.43717015 -0.5164831 -0.06151191 0.1918424
000160 5a 65 dc be 76 d6 02 be 2c d3 8c 3c 61 e4 24 be
       -0.43046075 -0.12777123 0.017190538 -0.16102745
000170 c8 1b b3 3d a7 20 0d 3e 17 7a 71 bd 1a fb 28 be
       0.08745533 0.13781987 -0.058954325 -0.16502038
000180 7f 03 dd 3d d5 c2 d0 3e fe 54 6f bd 4d 79 83 3e
       0.107916825 0.40773645 -0.058430664 0.25678483
000190 c9 5f 03 be c0 53 0e 3b 83 b3 4f 3c 2c a5 a9 bd
       -0.12829508 0.00217174 0.012677076 -0.08283457
0001a0 c4 c9 30 3d 76 6b 4e bd 84 b0 b6 3d bc f1 22 bd
       0.04316117 -0.05039545 0.089203864 -0.039781317
0001b0 8a d2 31 3c 53 a3 d7 bd d6 20 3d 3e 22 0c 04 3f
       0.010853419 -0.105291985 0.18469557 0.51581013
0001c0 40 43 cf bc 40 23 87 3a 42 f5 41 be 8f 94 26 3f
       -0.025300622 0.0010310188 -0.18941215 0.6507043
0001d0 28 46 99 bd 35 14 82 bd 02 4c f8 3d fe 4d 6a 3e
       -0.07484084 -0.063515104 0.12123872 0.22881314
0001e0 7d ba 49 bd 8a af a5 bd 02 fc 50 bd f8 49 0c 3d
       -0.049250115 -0.08090122 -0.051021583 0.03425023
0001f0 6a 98 e3 3d c0 9c 91 be 6a 62 9a bc 82 e3 49 be
       0.11113055 -0.28439903 -0.018845756 -0.19715694
000200 16 80 1b 3f 7b 34 8f be 5e 10 71 3e 3d 49 9d bd
       0.6074232 -0.27969727 0.235414 -0.07679985
000210 d4 6f f0 3d a9 93 94 3e b0 23 c3 bc f0 1c e2 3c
       0.117400795 0.29018906 -0.023820728 0.02760169
000220 fa 21 bc bc f5 e3 9b 3d 54 f6 fc 3c 0e f6 84 3d
       -0.02296542 0.07611839 0.030879177 0.06492244
000230 84 7d 37 3e c8 e7 9c bb 9e d7 15 3e 0c ef 3c 3d
       0.17918974 -0.0047883727 0.14633033 0.04612641
000240 b7 44 91 be fd 9c e0 3e 50 37 ec bb c2 d7 5f 3e
       -0.28372738 0.43869773 -0.007208742 0.21859649
000250 f5 92 e1 3d 8a ac 82 bd ea ef 30 be 9a 1a a1 bd
       0.11014358 -0.063805655 -0.1727902 -0.07866402
000260 a5 90 a7 3d 41 8b 73 be a8 dc fe 3d 51 bc 92 bf
       0.08181886 -0.2378359 0.124444306 -1.146372
000270 76 ce 00 3e f7 06 dc be bc 8b b8 bd 5c 57 fa bd
       0.12578759 -0.42974064 -0.09011027 -0.12223694
000280 8c ae 91 3d ba f6 ba bc 88 fd e7 bc 3f 73 ba 3d
       0.0711337 -0.022822727 -0.028319135 0.09104013
000290 54 a4 4a 3e 0d ad 17 be 23 f6 5d be 62 26 24 3e
       0.19789249 -0.14812107 -0.21675925 0.16030267
0002a0 e2 04 59 3e e7 f4 39 be eb 77 ed bd 92 d8 e6 be
       0.21193269 -0.18159829 -0.11595138 -0.45087105
0002b0 b0 2e a3 bc 91 30 61 3e f4 4e a4 3d ab 6a 9c 3d
       -0.019919723 0.21991183 0.080228716 0.07637533
0002c0 2a b7 fe 3d 2c 2d 56 3e 50 47 19 3e f5 69 b1 bc
       0.124372795 0.20915669 0.1496861 -0.02165697
0002d0 6a 13 9c 3e d6 28 b2 be 9e 9c 98 3b bb 08 88 be
       0.30483562 -0.3479678 0.004657342 -0.2656916
0002e0 6f 9b fe bd 5a 64 6a be 9a 34 19 3e 5f 64 25 be
       -0.1243199 -0.22889844 0.14961472 -0.1615157
0002f0 7c 21 40 3e 82 dd 0f bd d7 e3 81 3d b6 9e b1 bd
       0.18762773 -0.035123356 0.06342285 -0.0867285
000300 7e c6 92 bd 4a b9 45 3e e7 29 0f bd b4 42 82 bd
       -0.07166766 0.19308963 -0.03495207 -0.06360379
000310 a5 93 0f be 41 88 f1 3c 80 40 c9 39 3f 02 08 3e
       -0.14021166 0.029483916 0.00038385764 0.13282107
000320 d9 5a 04 3e 6d a8 c6 bd 21 46 17 3d 60 5d 0f be
       0.1292528 -0.097000934 0.036932115 -0.14000463
000330 c9 ee 38 3e 22 ce a7 bc 82 df ab 3e 98 98 91 bf
       0.1805984 -0.020484034 0.3356896 -1.1374693
000340 55 ad 3a 3e 74 6a 10 bf 3f ff dd bd 4c b4 ec 3d
       0.18230183 -0.56412435 -0.108397 0.115578264
000350 08 c0 13 bc c7 f3 3f bf 83 15 56 3d 47 7f c3 bc
       -0.009017952 -0.7498135 0.05226661 -0.023864402
000360 3e 65 6c be 82 3c 07 be e6 e0 c4 3d d0 e4 8c 3b
       -0.23085496 -0.13206676 0.096132085 0.0042997375
000370 8f ce a9 bd b0 aa 40 3f 6a 8d 39 3e f6 3b a1 bd
       -0.08291351 0.7526045 0.18120351 -0.07872765
000380 27 2f 2d be be ed 85 be 73 21 4b 3e ab 05 58 3e
       -0.16912518 -0.26157945 0.19836979 0.21095912
000390 85 47 7c be ac 98 a0 bd 90 b5 29 bc 52 59 5e 3d
       -0.24636658 -0.0784162 -0.010358229 0.0542844
0003a0 46 78 8b be 86 e0 54 3d a2 d0 3c bf 9c ea 2b be
       -0.272402 0.051971935 -0.7375585 -0.16788715
0003b0 9c b0 35 be be 91 96 bc 70 93 5b bc e0 e5 a3 3d
       -0.17743152 -0.018380042 -0.013401851 0.080028296
0003c0 52 40 86 be 87 a4 37 be aa 5b d3 3d 1b c2 9d 3e
       -0.26220948 -0.17933856 0.10320218 0.30812153
0003d0 f0 cf 84 3b f8 e3 5f bd 44 0d fb 3d 56 92 24 bd
       0.0040531084 -0.054660767 0.122583896 -0.04017862
0003e0 00 a1 91 3d dc 90 bd bc 1c 9c 24 3c 48 b7 df bd
       0.071107864 -0.023140363 0.010046985 -0.1092363
0003f0 0f 02 d3 bd 8c 21 cc 3c 5f 6a 22 3f df 5d 9a bd
       -0.10303127 0.02491834 0.6344356 -0.07537436

stack.1.0.bias f4 [64]
000000 f2 ee 37 be 30 9f 60 3e 0f 02 62 3e 96 b0 9f 3f
       -0.17962244 0.21935725 0.22071098 1.2475765
000010 56 5e ae 3e ae 3c 59 be 91 9b a8 3f be b8 27 3e
       0.34056348 -0.21214554 1.3172475 0.16379067
000020 cf 92 09 bf b8 78 4b 3f 7f a0 6e 3f 72 48 8a 3d
       -0.5373964 0.7948108 0.9321365 0.06752099
000030 d8 0e cd be bb d0 16 bf b9 8f e9 3e 7a c7 b6 3d
       -0.40050387 -0.5891225 0.45617464 0.08924766
000040 9e b1 b9 3d d2 a3 98 3d c3 7c 1b be 0f bb bd bd
       0.09067081 0.07453121 -0.15184312 -0.09264194
000050 c7 90 5b 3f ca 1c 8d be 5e ee d2 bd 6a 53 ee 3d
       0.8576779 -0.27561027 -0.10299371 0.11637004
000060 12 d2 6b bf d0 b4 81 3f 0e db 0f be 74 08 5d be
       -0.92117417 1.0133305 -0.14048406 -0.21585256
000070 55 8a 85 3f 76 cd 2b be ce d0 4b bd 2a 34 d7 3d
       1.043284 -0.16777596 -0.04975968 0.105079964
000080 47 4d 0c 3f 58 98 b6 3e 17 ac 24 3f 94 76 8e be
       0.54805416 0.35663104 0.6432509 -0.27824843
000090 fd 50 d3 3f 5c 75 13 be 8a 93 9f 3f b6 9d 2f 3e
       1.6509091 -0.14400238 1.24669 0.17150006
0000a0 91 06 c8 3e 60 1f c1 3f 62 05 96 3d d3 9a 3f bd
       0.3906751 1.50877 0.073252454 -0.04677851
0000b0 d9 45 7c 3e f3 78 98 3f de c8 42 3f 4a e0 33 be
       0.2463602 1.1911911 0.7608775 -0.17566028
0000c0 be 3f 07 bf 41 6b 08 be 4b 87 60 be 53 9b 3c 3f
       -0.5283164 -0.13322164 -0.2192661 0.73674506
0000d0 71 71 28 3f a0 53 db 3d 1a f0 16 3e 7b 76 58 bd
       0.657981 0.107093096 0.14740029 -0.052847367
0000e0 7c af d3 be 56 20 78 3e fb 30 e2 3f 9a d0 32 3f
       -0.4134482 0.24231085 1.7671198 0.6984955
0000f0 7e c6 a4 be 72 90 cc 3f 98 3f d7 3c 81 90 1b bf
       -0.32182688 1.5981581 0.026275441 -0.6076737

stack.2.0.weight f4 [32, 64]
000000 90 1b 22 be 8d 72 d0 bd 90 8c cd 3d 7d 22 1a be
       -0.15830827 -0.10178099 0.10036576 -0.15052219
000010 30 92 c9 bb ef 11 a5 bd 44 87 71 bb 59 e3 5e bd
       -0.00615146 -0.08060061 -0.0036854306 -0.054416034
000020 2a a4 18 be 96 77 f3 3c db ab 0e bd 83 71 b8 bd
       -0.14906374 0.029720109 -0.034831863 -0.09006026
000030 42 ea c4 bd 5a a5 83 3d 18 a0 60 be d8 3d 48 bd
       -0.09614994 0.06428023 -0.21936071 -0.048887104
000040 9b 79 b0 bd aa 9d da 3c c1 c4 fe 3d 3d 4e 42 be
       -0.086169444 0.026686508 0.124398716 -0.18975158
000050 f2 28 24 bd 20 cb 16 bc eb 28 65 be 82 4d 8c 3d
       -0.04007811 -0.009203702 -0.2237889 0.06850721
000060 0f 98 c3 bd 78 be 82 3c 4b d4 1a be b6 fe 1a be
       -0.09550487 0.015959963 -0.15120046 -0.15136227
000070 2a a4 04 be d9 94 d6 3d 25 65 2b 3d e8 84 9f 3c
       -0.12953249 0.10477609 0.041844506 0.019472554
000080 ea 56 1e be 88 e6 88 be 5c 57 56 be b1 4a 16 3e
       -0.15462843 -0.2673838 -0.20931762 0.1467693
000090 f5 7d a6 bd 04 d8 4d be d7 d4 b0 be 8a 84 59 3e
       -0.08129493 -0.20101935 -0.34537384 0.21241966
0000a0 f5 85 15 be fa e5 6a be 28 38 8a bd cf 24 4f bd
       -0.14601882 -0.22939292 -0.06748992 -0.050572213
0000b0 b8 a7 a6 3c 24 30 bf be a8 30 cc 3d b8 7a 14 3d
       0.020343646 -0.37341416 0.09970218 0.036249846
0000c0 ff 26 58 bd 1e 63 3d be 7f 14 81 bd f1 6f 21 bd
       -0.052771565 -0.18494841 -0.063027374 -0.039413396
0000d0 76 bc c2 3c 41 65 84 3d ec 6e 95 be b0 00 2c bc
       0.023771506 0.06464625 -0.2918619 -0.010498211
0000e0 68 e0 6a 3c 53 a3 7e bc 48 29 2f 3e bf 48 a3 bd
       0.014335729 -0.015541869 0.17105591 -0.079728596
0000f0 1a 7f 96 bd 13 6c 2e be 5a b6 ab be d1 70 15 3d
       -0.073484614 -0.17033415 -0.3353756 0.036484543
000100 bf be 06 3e 6e b1 11 bf 00 30 11 be f2 43 c2 be
       0.13158701 -0.5691136 -0.14178467 -0.37942463
000110 b8 08 8f 3d c2 17 eb bc 20 34 06 3d 84 1b 12 3e
       0.06984085 -0.028697852 0.032764554 0.14268309
000120 00 95 b9 3c fe 4c 92 be e1 58 2f be e6 d5 f5 bd
       0.022654057 -0.28574365 -0.17123748 -0.120036885
000130 03 33 26 bd 90 dc 22 3e de f7 2c 3c 76 e8 69 bd
       -0.040575992 0.1590445 0.010557143 -0.057106458
000140 92 55 df bc 7c 3a 94 bd e0 94 96 3c 08 d9 bb 3d
       -0.027262483 -0.072377175 0.018381536 0.09172255
000150 e6 69 c9 be 94 cc 8d bd e7 a6 62 bc 43 5f 55 be
       -0.39338607 -0.06923786 -0.013833738 -0.2083712
000160 13 80 21 3e 41 ae d9 bd 6e 5a d7 3d 0b 7f 7d be
       0.15771513 -0.106289394 0.10515295 -0.24755494
000170 42 3a 8b be 68 27 f9 bc 0e 0f 80 3c 03 07 71 bd
       -0.27192885 -0.030414298 0.015632179 -0.058844578
000180 5d 8b a3 3d 1d 36 c0 3d c0 76 fa bd 60 d9 8d 3d
       0.07985566 0.09385321 -0.12229681 0.069262266
000190 92 97 b5 3d f6 ad ab bd 39 86 ba be 74 33 44 3c
       0.088668 -0.0838279 -0.3643053 0.011975158
0001a0 d7 9c 89 be 28 ec 6c be db 26 06 be 03 30 c8 bd
       -0.26877472 -0.23136961 -0.1310076 -0.097747825
0001b0 61 91 56 bd 72 a9 97 3d 41 5f 34 be 42 fc 95 bd
       -0.052384738 0.07405366 -0.17614461 -0.07323505
0001c0 d0 a4 06 3c 31 b3 c3 bc 82 3b a8 3d 04 a2 9e be
       0.008218005 -0.023889156 0.08214475 -0.30982983
0001d0 5c c9 24 3c 55 f1 87 bd d4 73 46 be c8 7c 39 be
       0.010057773 -0.06637827 -0.19380122 -0.18114007
0001e0 e6 d4 08 3d 01 97 03 3d 9c f8 a9 3c c0 97 c9 bc
       0.03340616 0.03212643 0.020748429 -0.024608493
0001f0 0f 5f 40 be 3f 87 80 bd f8 54 40 be 6e 9b 72 bd
       -0.18786262 -0.06275796 -0.18782413 -0.05923026
000200 e1 3d 77 be 81 60 c6 3e 23 b0 f9 3d c1 5c c2 3d
       -0.24144699 0.38745502 0.121917985 0.09490348
000210 0e da 4b 3f 3e 5f 6e be 68 4a 45 3d 80 3d 0e bd
       0.796296 -0.2327852 0.048166662 -0.03472662
000220 b0 20 63 3e 0c a2 92 3d 74 17 a9 be 1e 76 67 3e
       0.22180438 0.07159814 -0.33025706 0.22603652
000230 8a 23 df 3e e8 5e bd be 82 7b ed bc cf 25 fe 3e
       0.43581802 -0.3698647 -0.028989557 0.4963822
000240 3a 57 05 bd ec b8 16 3c a8 dd bd 3e 85 e5 c1 3e
       -0.03255389 0.009199362 0.37083173 0.37870422
000250 85 2a 8a 3e c0 d7 65 3c dc 55 64 be 9a 06 2e 3c
       0.26985565 0.01402849 -0.22298378 0.010621691
000260 30 85 e6 bc fd eb a7 bd fe bc 6c be 68 5d 1b 3e
       -0.02813968 -0.08199308 -0.2311897 0.1517235
000270 25 3e 01 bf 5d 1f d7 3d 06 d4 c5 3c ee c6 35 bd
       -0.5048545 0.10504029 0.024148952 -0.044379167
000280 51 4a aa be 2c 9c 13 bf bf 26 a2 3e 12 67 67 3d
       -0.33259824 -0.57660174 0.31670186 0.05649478
000290 de fd 3c 3e 1c d5 1d be da 71 d6 3e 8e 3e 1c be
       0.18456218 -0.15413326 0.41883737 -0.15258238
0002a0 e8 6a 03 be 2d 4e cf 3e 6b 3e 53 3e c6 9f 7f 3e
       -0.1283375 0.4048933 0.2062928 0.24963292
0002b0 fb 71 d0 be b8 67 ac be e7 55 4b 3e c3 27 3e 3d
       -0.4071196 -0.3367288 0.19856988 0.04642464
0002c0 9a 3d 05 3e f0 11 fa 3d 95 1c 09 3e a4 31 78 3e
       0.1301178 0.122104526 0.1338981 0.24237686
0002d0 3e 55 47 3e bd 3c fc 3c 4a c6 60 be 83 d9 08 be
       0.19466111 0.030790681 -0.21950641 -0.13364224
0002e0 3f aa ab 3e c1 6d 26 bd ca 25 99 3d c0 67 0b 3e
       0.33528325 -0.040632013 0.07477911 0.13613796
0002f0 08 fd 75 3c 7f 23 e1 3e e5 fc 34 bd b8 8c ff 3e
       0.015013941 0.43972394 -0.04418649 0.49912047
000300 9e 5b d5 be 5f f1 9c 3e 74 3e c5 3e e5 57 86 be
       -0.4167146 0.30652902 0.3852421 -0.26238933
000310 3f ef 1d be 0e 1b 7a be 75 82 df 3e 40 67 85 3c
       -0.15423296 -0.24424383 0.43654218 0.016284585
000320 20 c6 30 bc 7c 50 be bc aa 40 09 3d d0 7f 38 be
       -0.010789424 -0.023231737 0.033508934 -0.18017507
000330 7b 76 d0 3d 74 ea 31 bd de 83 99 be 2f bf 05 3e
       0.10178848 -0.043436483 -0.2998342 0.13061212
000340 c0 13 ed bd 6f 1f ed 3e 80 fa c6 be bc ae 33 3f
       -0.11576033 0.46313044 -0.3886299 0.701885
000350 4f 24 f8 3d 90 a5 19 3e 98 7b 36 be 82 bd 8f 3e
       0.121163 0.15004563 -0.17820585 0.2807427
000360 db c5 04 3f 0a dc 20 be 46 bf 07 be ce 98 1d 3f
       0.51864403 -0.15708938 -0.13256559 0.61561286
000370 2f 7e bc bd f6 2f d1 bd 35 d3 00 bf 3e 07 23 3f
       -0.09203755 -0.10214226 -0.50322276 0.63682926
000380 85 be 11 be 64 d5 8c be df 3d d8 3e 18 f0 62 3e
       -0.14232834 -0.27506554 0.42234704 0.22161901
000390 c6 00 b7 bd a8 2e a2 bd 98 8a 0a 3f 5c dd 08 3e
       -0.089356944 -0.07919055 0.5411773 0.13365692
0003a0 31 11 d1 3d 04 50 c4 3e 88 e6 90 be 30 b3 51 3e
       0.10208357 0.38342297 -0.2830088 0.20478511
0003b0 c2 88 50 be bc fb a1 bd 74 84 6f bd 7e 28 04 3d
       -0.20364669 -0.07909343 -0.058475927 0.03226518
0003c0 02 68 a0 bd fa 38 e8 bc a1 92 36 3e 08 9b 23 3e
       -0.07832338 -0.028347481 0.17829372 0.15977108
0003d0 ae 11 31 bf 98 c2 dc be 68 48 29 bc e9 1c d8 be
       -0.691676 -0.43117213 -0.010332204 -0.42209557
0003e0 9c d1 ba 3e cd ec 03 be 08 8d da 3e 90 60 31 3e
       0.36488044 -0.12883301 0.42685723 0.17321992
0003f0 64 9b a8 bc fe 5a 58 3e 30 6f 8a 3d 42 44 d6 3e
       -0.020581909 0.21128461 0.067594886 0.41848952

stack.2.0.bias f4 [32]
000000 53 fa 4e bd 75 6c 06 bf 2f 4c 3f 3f 67 d7 89 3f
       -0.050531697 -0.5250924 0.7472562 1.076886
000010 0e 93 a1 3f 42 73 7c 3f a3 fd 51 3e d2 13 43 be
       1.2623003 0.9861337 0.20506911 -0.1905053
000020 d4 e2 54 bd fc 78 c2 be c1 a3 5b 3f 39 ff 2b 3f
       -0.051974133 -0.3798293 0.85796744 0.67186314
000030 2f b2 85 3f 6f 26 60 be a5 cb 99 3f 18 32 a8 be
       1.0445002 -0.21889661 1.2015272 -0.32850718
000040 8e 52 63 3f 79 24 1f bf 09 af 9f 3f b8 f0 3d 3f
       0.88797843 -0.6216503 1.2475291 0.7419543
000050 62 76 8f be 26 73 c3 3f 64 a2 27 be ce bf 9e bd
       -0.28020006 1.5269516 -0.16370541 -0.077514276
000060 6f 90 c7 3d 66 ea 95 3f 52 78 82 3f 44 25 cf be
       0.097443454 1.1712158 1.0192969 -0.4045812
000070 21 69 74 3e 87 56 c8 be 5f 36 ef 3f 00 98 94 be
       0.23868228 -0.39128515 1.8688468 -0.29022217

stack.3.0.weight f4 [10, 32]
000000 6f 05 80 3d e6 20 19 3d c5 73 cb 3d e7 52 b1 3d
       0.062510364 0.03738489 0.09934191 0.086583905
000010 78 d8 0c bc e5 9e b6 3d 23 96 b3 bd da 76 78 3c
       -0.008596532 0.089170255 -0.08768871 0.015165055
000020 08 fb 99 bd 48 0b ad 3b b0 96 4e bd f0 79 2b be
       -0.075185835 0.005280886 -0.050436676 -0.16745734
000030 9c ed 0a 3f 55 29 bc 3d 49 1c 60 bd 5c 9c d1 be
       0.54268813 0.09187571 -0.054714475 -0.40939605
000040 ea 72 3a be cc 7b 19 3d c9 0c df bd d5 0f c2 3d
       -0.18207899 0.037471578 -0.108911105 0.09475676
000050 7c 89 63 bd ec a2 db 3c 1e ad 38 bd 71 d3 0e be
       -0.055551037 0.026811086 -0.045086972 -0.13947846
000060 24 ba c5 3d 3c d0 55 be d8 c8 87 bc ce 78 eb 3d
       0.09654644 -0.20880216 -0.016575262 0.11497651
000070 66 d6 9b 3d 91 b9 61 3d 8b d0 d2 3d 02 c6 42 3c
       0.07609253 0.05510861 0.10293683 0.011888029
000080 4a 3a 0b 3e b7 86 5f be 8c 92 96 3d 46 a4 56 3d
       0.13596454 -0.21828733 0.0735217 0.052402757
000090 88 f1 01 3c 1e 9c cf bc e8 88 93 bb 1e cf c4 3c
       0.007931121 -0.025342997 -0.0045024045 0.024024542
0000a0 9e c4 7a be cf f8 37 3e 54 55 88 bd e1 01 9b bd
       -0.24489066 0.17966007 -0.066569 -0.07568718
0000b0 1c 6f 2c be da bd 48 3d 98 32 6b bd 1b fd 05 be
       -0.1683926 0.04900918 -0.057421297 -0.13084833
0000c0 42 83 38 be 75 21 98 be de 4b 55 3d 0c 4a 37 3d
       -0.18018821 -0.29713026 0.052074306 0.04474835
0000d0 f0 ef 80 3e 34 51 53 bd 46 f3 47 be bb ef e6 bc
       0.25183058 -0.051591113 -0.19526395 -0.028190484
0000e0 50 ef 35 3c ca 51 6e be 4b ed 2e bd 23 04 8e 3d
       0.01110442 -0.23273388 -0.04270677 0.06934383
0000f0 5b 63 0a be 3f 97 23 be 4c 5c ac bd c4 6e 6f 3e
       -0.13514464 -0.15975665 -0.08416042 0.23382097
000100 b5 cc b8 3d 94 04 47 be f1 b5 af 3d 25 a4 7e 3d
       0.0902342 -0.1943534 0.085796244 0.06216826
000110 23 fa f6 bd c5 9b 76 3e bb 36 2d bd 18 d9 15 3e
       -0.120594285 0.24082859 -0.042288523 0.14633596
000120 0a 65 19 be 67 89 27 be eb e2 02 bf 79 b0 c2 3e
       -0.1497995 -0.16361009 -0.511275 0.38025263
000130 c2 97 78 3e 92 26 1b be 16 c8 5d 3e 90 11 98 be
       0.24276641 -0.15151432 0.21658358 -0.297009
000140 d8 f1 23 3d 68 e6 db bd 84 87 0e 3e 60 e3 40 3d
       0.040025562 -0.10737306 0.13918883 0.04709184
000150 c8 f7 07 be 54 37 84 be c8 3f 63 3e d0 d8 f4 3c
       -0.13278115 -0.25823462 0.221923 0.02988854
000160 ee b5 04 bc d6 81 07 bf 57 21 c2 be 4c e6 44 bd
       -0.008100016 -0.5293249 -0.3791606 -0.04807119
000170 2f fa 8f be f9 57 97 3d 64 06 88 be 52 ff 7c 3e
       -0.28120562 0.07389826 -0.26567376 0.24706772
000180 c0 ea f6 bc 31 3d a2 3d 14 da b7 be 1f a1 8f be
       -0.030141234 0.079218276 -0.35908568 -0.28052613
000190 89 bf 93 bd 24 3f c0 3d ea 3a e4 bd d1 83 1d 3c
       -0.07214267 0.09387043 -0.111440495 0.009613947
0001a0 67 0c 3f 3e 02 1a 01 bd ce a1 68 3e c0 bc 61 be
       0.18657075 -0.031518944 0.22717974 -0.22044659
0001b0 40 09 de 3e 9c 4a c5 3e 65 46 d3 be cb 4b 20 3e
       0.43366432 0.38533485 -0.41264644 0.15653913
0001c0 80 85 59 3e fa e1 8b 3e 63 06 94 3e b1 db a3 bd
       0.21242332 0.27320844 0.28911123 -0.08000887
0001d0 7b db 8c bd a3 9a 41 3e 9f fe 25 be a6 de 17 3e
       -0.068778 0.18906645 -0.16210411 0.14831027
0001e0 22 7a c7 bd b2 e6 42 bd 98 01 e8 bc 93 e9 b1 bd
       -0.09740092 -0.04758329 -0.028321072 -0.08687129
0001f0 da 47 17 be d8 ca c6 3c 4c bf 35 3c a8 1f e9 3c
       -0.14773503 0.024266645 0.011092972 0.028457478
000200 b3 8d 0e be 38 42 6b 3e 08 eb a0 be dc b9 f8 bd
       -0.13921241 0.22974479 -0.31429315 -0.12144825
000210 c0 48 d5 be 5a 7a 43 3e 40 49 06 3b 6d a3 4f 3e
       -0.41657066 0.19089642 0.0020490438 0.20277186
000220 34 6d 1d be 04 2e 12 be 3a 13 a8 3d f2 3e 83 bd
       -0.15373689 -0.14275366 0.08206792 -0.0640849
000230 c8 6e c8 be c3 03 8d 3d 66 5d 94 bc a7 8a 3b 3d
       -0.3914702 0.06885483 -0.018110942 0.045786526
000240 ff 3b 03 3e d1 52 a1 be ca 5f 04 bd b5 0d 8c 3e
       0.12815855 -0.31508496 -0.032317914 0.27354208
000250 ac 02 f5 3d 8e 68 0e 3e ea 22 27 be 89 44 25 be
       0.119634 0.13907072 -0.16321912 -0.16139425
000260 1b 59 83 be 8c 6f 50 bd 70 49 93 be ab d9 26 be
       -0.2565392 -0.05088763 -0.28766966 -0.16293971
000270 10 1f 4c bc 6c a3 fd bd 7e 91 4b bd 00 1b dd 3c
       -0.012458578 -0.12384686 -0.0496993 0.026990414
000280 86 c9 70 bc 38 85 28 3e fa b7 d1 bd a9 61 3e be
       -0.014696484 0.16457069 -0.10240169 -0.18591942
000290 d3 04 fa bc aa f5 59 3d aa 49 a1 be da 44 08 be
       -0.030519878 0.0532128 -0.31501514 -0.13307515
0002a0 1f ba c2 bd 62 c5 c2 be 9b 3b 33 bd 77 54 b4 be
       -0.09508156 -0.38041216 -0.043758016 -0.35220692
0002b0 24 3a 1d be fe 41 cb 3d 94 33 1a 3e 18 00 60 be
       -0.1535421 0.099246964 0.15058738 -0.21875036
0002c0 55 27 44 be 92 08 54 3e c2 c6 d7 3e 10 90 80 be
       -0.19155629 0.20706394 0.42143828 -0.2510991
0002d0 0d dc ee be 79 c4 a9 3d 80 a0 bf be 1c a8 14 bd
       -0.4665226 0.08289427 -0.3742714 -0.036293134
0002e0 b6 11 70 3e ca 85 0f 3f 7a 20 74 be 09 80 c6 3d
       0.23444256 0.5606352 -0.23840514 0.096923895
0002f0 13 48 6b be d8 7d 2a bc ac a8 07 3f 0e 2f 33 3e
       -0.22976713 -0.01040598 0.5299175 0.17498419
000300 e0 2e 06 3e fa 21 08 3e 6d 3d a7 3d b5 b2 ed bd
       0.13103819 0.13294211 0.08166013 -0.11606351
000310 01 49 77 3e dc 5c ce bc 67 c0 a1 3d 0d 6a ae 3d
       0.24148943 -0.025190763 0.07898026 0.08516321
000320 1f 15 52 3d 86 e3 1f bd e0 3e d9 3c e3 91 ff 3d
       0.051289674 -0.039035343 0.026519239 0.124789976
000330 3a f4 de bc a2 21 f7 3d 2b 71 b6 3d 61 3a c7 bd
       -0.027216066 0.12066962 0.08908304 -0.09727932
000340 27 4d 85 3d 8c 61 60 bd 56 35 06 3d 7f 3a 02 3e
       0.06508856 -0.054780528 0.03276571 0.12717627
000350 00 07 e3 39 6f a1 b5 3d 3e df e6 3d 42 69 0e be
       0.0004330203 0.08868682 0.11273049 -0.1390734
000360 08 5c 04 3d 10 f1 06 bf 79 19 06 bd 9d 09 69 3d
       0.03231433 -0.5271158 -0.032739136 0.056893934
000370 00 6e 73 3c b2 99 86 3d 09 8c 4a be e4 a1 46 bd
       0.014857769 0.06572284 -0.19779982 -0.048494235
000380 d8 c3 a8 3d 0d 7b 06 3e 24 c7 d8 3c 55 4c 06 be
       0.08240479 0.13132878 0.026462145 -0.13115056
000390 2f 2f 97 be 28 96 35 3d 56 53 3f 3e b8 ce d3 3d
       -0.29528186 0.044332653 0.18684134 0.10342163
0003a0 0f 2d 06 3e e0 9e 98 bc 6d d2 e7 bd de e0 2b be
       0.13103126 -0.018630445 -0.113194324 -0.16784999
0003b0 f4 02 8f bd 0a 4f de 3d e4 39 d4 be a8 38 cf bc
       -0.06982985 0.10854919 -0.41450417 -0.02529557
0003c0 76 ca b0 bc 63 46 21 3d d0 24 bd bc ca 6f 90 bd
       -0.021580916 0.039373767 -0.023088843 -0.07052572
0003d0 3f 3f 14 3e 14 6a 27 bc 86 b8 0c 3e 81 0a b5 bd
       0.14477251 -0.010218162 0.13742265 -0.08839894
0003e0 92 2b b9 3d 30 4f d0 3d 5a 9e e3 3d a5 38 00 bd
       0.090415135 0.10171354 0.111141875 -0.03130402
0003f0 c0 ef 14 be 88 47 60 3e 2c c7 7b 3d ca f7 b0 be
       -0.14544582 0.21902287 0.061469242 -0.34564048

stack.3.0.bias f4 [10]
000000 2b 50 9d bd c5 10 85 be 08 15 3a be d2 58 9d 3e
       -0.076813065 -0.25989357 -0.18172085 0.30731827
000010 cb d3 5a bd 64 25 05 3f ee 51 bc 3e 70 4d 2a bd
       -0.053424638 0.5201018 0.36781257 -0.041577756
000020 23 59 11 3e e4 24 98 3d
       0.14194159 0.07428911
