src/fminst/models/transfer_5_5.pt (torch, 447681 bytes, 8 tensors)

stack.0.0.weight f4 [128, 784]
00000000: ff7c ce3c 5fbd 7d3d f352 8cbd ea29 1a3d
00000010: 86c4 453d 0432 b2bc 8760 e7bd 85dd 97bd
00000020: 29b5 efbd 6a3e 683c e0e2 0e3b 4798 1abe
00000030: 2b9d 09be 9c65 d7bd 00c4 5d3c 68c9 cabd
00000040: 4e17 5bbe 8ed6 a0bd 6924 13be e382 25bc
00000050: 3895 4ebc 1a7b 7a3d 658d 98bd 7fad ddbd
00000060: 7e4a 523c c531 cabd 2277 a53c 9fd4 523e
00000070: 853c 06be f953 9dbb 0e47 e0bd 2061 353a
00000080: cc9a 0abe d663 14be c7f9 36be ba08 6abd
00000090: 899c a6bd 125d 93be 184f 6dbe 987f 22be
000000a0: 7f32 32be 9ad3 babd 7a80 d0bd fb2c a4bd
000000b0: 2860 3cbe d0f2 c8bd 48a0 cfbd cffa 17be
000000c0: 749f 95bc 3b71 44bd a804 f83d 6707 dabd
000000d0: 60b1 38be d506 4ebc 463b 813d 24c7 80bb
000000e0: 266e 26bd 80d4 6c3d 0e0f 19bd 370c 813d
000000f0: da59 94bc 7f27 ea3d 08b1 4cbc 17a2 e2bd
00000100: 832d 62be 8b2e 47be ab3d 62bd a8a9 58be
00000110: 40e4 963b 382d ebbc d1da 6bbe 81be a63d
00000120: db2b 6bbe 21eb 69bd cd44 1ebe 16f6 8ebd
00000130: 50eb b2bc 79ae d1bd 1664 0a3d 6857 09be
00000140: 2272 b93d 294f b0bd 5832 5ebe f675 75bd
00000150: 7ab3 403e 092e 7e3d ec0b 433c 1bc6 71bd
00000160: c161 08be 9e22 603d df94 a0bd 00bb 20be
00000170: 605d 78bd 77f8 25be cea2 39be f93c 2cbe
00000180: 8a28 b1bd aac2 473d 98c3 aebb 5a97 91be
00000190: 67b7 83be c873 08bd 322c 4cbe f0b1 dfbc
000001a0: b83f f9bd c2b3 5bbe 3896 173d 44af 8e3d
000001b0: b4d4 a33d 1828 bbbd b637 e2bc 244e 08be
000001c0: 82a0 d7bd fa3c 71bd 24f5 2bbd 43a1 c43d
000001d0: 8e0d 28be c8ab c0bd 3ea0 cbbc 88d7 15be
000001e0: ca45 d5bd 9d8c 60be a8a2 78be 7df9 62be
000001f0: d9c0 44be 9de1 0bbe eccf 9abd f1de 29be
00000200: 2f31 7dbe 90a6 0cbe c634 67be 82aa 6fbe
00000210: 0c89 02be 36e5 2e3d 3602 d2bd 4c8e a8bd
00000220: e72d 3dbd d078 493c dce0 2f3d 38f5 483d
00000230: bf9b 1bbe 214e 1fbe 7204 b7bd c9b5 0cbe
00000240: 29c1 af3d c487 943d 340c 4dbe e091 85be
00000250: 7570 c3bd aec8 05be 3930 55be aacd 04be
00000260: faa1 25be 6a43 433d c1b1 59be bcde 8abe
00000270: c88a 10bd c71d 52be b923 31be 1ed3 0cbe
00000280: bed9 70be 3f29 5ebd 7490 593d 3e43 79bd
00000290: e65b e3bc cda9 c1bd 9dc6 4cbd dd40 4fbe
000002a0: 706a 2a3e ac3a 90bd ea14 89bd 696e 8abc
000002b0: 5da9 8ebc 9aaf cdbc 9c3b 35be 0c12 67be
000002c0: ac37 48be bd86 5bbe dbb9 87be d895 6dbe
000002d0: 59f5 8fbe 1a95 63be b1c6 83be 7f06 96be
000002e0: a11d 85be 510c 2ebe 3ddc 41be 1fec 8b3d
000002f0: 0abe 2cbe e080 843c 7824 47be 2e1c b8bc
00000300: 54ab 13be 8e68 183d 0e77 0cbd c4eb 413d
00000310: c3ba c83d 3ab3 c0bd efbc 0ebe 60ae b3bd
00000320: 645b 21be d932 6a3d 0aea 28be 4445 1dbe
00000330: 0ab6 bbbe 9afb 8cbe 7a6b 47be d8ff c9bc
00000340: d5af 47be 0d9d 91be be8a 40bd 1c61 61be
00000350: 3a7f a1bd 28df 79be b3ef 60be 7f4d 25be
00000360: 24d9 4abd f0b2 f8bd 8c4a e7bc 2657 883c
00000370: 529a c93d d4f2 cc3d 4bc5 17bd 0a99 203d
00000380: 12cc a53d 359b 80bd 6ce9 b5bd 7801 b73b
00000390: cae1 78bc a358 5bbd 18ba c1bd a832 febd
000003a0: 98b2 be3d e8e3 a0bd 8d09 96be c103 53be
000003b0: 352a 67be b0c9 00be d6a9 b2bd 737e a83d
000003c0: 64c7 d8bd 38fe 7fbe 3e5f 00be 3850 04bd
000003d0: 68a6 6bbe 3d77 1fbe 5537 02be 2302 95be
000003e0: 30e9 75be 48ef 1bbd a121 ca3d ea5e 6d3d
000003f0: c9a3 a13d 5cfd cbbd 7b7a 10be 0a97 4bbe
0.025206087 0.061948176 -0.06851759 0.03763763 0.048283122 -0.021752365 -0.11297708 -0.07415298
-0.117044754 0.014175037 0.0021802709 -0.15097152 -0.13438861 -0.10517427 0.0135355 -0.099016964
-0.21395609 -0.07853423 -0.14369358 -0.010102007 -0.012608819 0.061152555 -0.07448844 -0.108241074
0.012835143 -0.09872774 0.020198409 0.20588921 -0.13109024 -0.00480127 -0.109510526 0.0006919075
-0.13535613 -0.1449121 -0.1786872 -0.05713723 -0.081353255 -0.28781945 -0.23174703 -0.15868986
-0.17402075 -0.09122391 -0.10180755 -0.08016392 -0.18396056 -0.09811938 -0.10137993 -0.1484177
-0.01826451 -0.047959547 0.12110263 -0.10645943 -0.18036413 -0.012574871 0.06310134 -0.0039299894
-0.04063239 0.057819843 -0.037367873 0.06301158 -0.01810925 0.114333145 -0.012493379 -0.110660724
-0.22087674 -0.19451348 -0.055234592 -0.21158469 0.0046048462 -0.028708085 -0.2303269 0.081418045
-0.22965948 -0.057109002 -0.15455933 -0.06980531 -0.021840721 -0.10238356 0.033786856 -0.13412249
0.09054972 -0.086088486 -0.21698892 -0.05992695 0.18818465 0.06205562 0.011904698 -0.05902682
-0.1331854 0.054720514 -0.07840895 -0.15696335 -0.060635924 -0.16208063 -0.18128511 -0.16820134
-0.0865031 0.04876963 -0.005333375 -0.28435785 -0.25725862 -0.033313543 -0.19938734 -0.027306527
-0.121703565 -0.21455291 0.037008494 0.06967023 0.07999554 -0.09138507 -0.027614456 -0.13311058
-0.10528661 -0.058896042 -0.04198183 0.09601071 -0.1641142 -0.09407765 -0.024856683 -0.14633
-0.10413702 -0.2192864 -0.24280798 -0.22165485 -0.1921419 -0.13660283 -0.07559189 -0.16588952
-0.24725793 -0.13735414 -0.22578725 -0.23404887 -0.12747592 0.04269906 -0.10254328 -0.08230266
-0.046186354 0.01229687 0.042939052 0.049061984 -0.15196131 -0.15557148 -0.08936395 -0.1374122
0.08581764 0.07252458 -0.20024186 -0.26087856 -0.09542934 -0.13064834 -0.20819177 -0.1296908
-0.1617507 0.047671713 -0.21259214 -0.27123058 -0.035288602 -0.20519172 -0.17298783 -0.1375241
-0.23520562 -0.054238554 0.053116277 -0.060855143 -0.027753782 -0.09456215 -0.0499941 -0.20239587
0.16642165 -0.07042441 -0.06693442 -0.01689835 -0.017414743 -0.025108147 -0.1769852 -0.22565478
-0.19552487 -0.21438117 -0.26508984 -0.23201692 -0.28116873 -0.22224846 -0.25737527 -0.2930183
-0.25999168 -0.16996886 -0.1893167 0.06832146 -0.16869369 0.016174734 -0.19447505 -0.022474375
-0.14420825 0.037209086 -0.034293227 0.047343984 0.09801247 -0.09409185 -0.1393926 -0.08773494
-0.15757519 0.0571774 -0.16495529 -0.15358454 -0.36662322 -0.27535707 -0.19474593 -0.024658129
-0.19500668 -0.28440133 -0.047007315 -0.220097 -0.07885595 -0.24401534 -0.21966438 -0.16142844
-0.049523488 -0.121435046 -0.028233789 0.016643118 0.098438874 0.10007253 -0.037053388 0.03920845
0.08095564 -0.062796034 -0.08882412 0.005584892 -0.015190551 -0.053551327 -0.09459323 -0.12412006
0.09311408 -0.0785597 -0.29304162 -0.20606901 -0.22574694 -0.12576938 -0.087238 0.08227243
-0.10584906 -0.2499932 -0.12536332 -0.032303065 -0.23012698 -0.1557283 -0.1271642 -0.29103193
-0.24014735 -0.038069993 0.098696955 0.057951845 0.07892568 -0.09960434 -0.14109223 -0.19881836

stack.0.0.bias f4 [128]
00000000: 90d2 dfbd 3409 503f c5d2 65bd 26e6 13bf
00000010: 1e51 e3bd 7251 db3f 9a32 c53e 54f5 efbd
00000020: 4244 89be 0c72 8d3f e430 373f 0d7a a83e
00000030: 905d c4bd d232 cdbd e74a 21be 8ce7 31be
00000040: 444e fe3c d5a4 9a3e f672 a53d c146 273e
00000050: 22f8 8abd 10d4 0ebf e6e7 ddbd c022 00bc
00000060: d8d7 efbc a92f ac3f 7e94 923f e033 0bbb
00000070: b4b7 903d c3c9 4f3f 3a5d 16be ed74 643f
00000080: b286 7fbd 6c73 79bc 6bf1 a8bd 3e2d 27be
00000090: 112b 08bd 43ce ce3f 9eaa 4fbd 4dbc b8be
000000a0: f15b f43d f097 42bb 9189 0ebe 20de f9bd
000000b0: 428c a2be 92f9 743f 10c8 e23c 2d67 d1be
000000c0: 901c 0a3e 9c6c c03e 888f f23e 8811 17be
000000d0: 6f7d b7bd 9872 c0bd 60b8 fe3b 7208 57bf
000000e0: f69e 533f f7c4 c03e 68a9 9fbd bdd3 80bd
000000f0: 003e cd3a 0f14 b23d 28e3 043e ce64 203d
00000100: 0947 563f 8898 c8bc 1cb7 663f f453 cabd
00000110: 684b eb3b 3583 9abf af26 893d 9638 303d
00000120: f0ca 953e 8ba6 1ebe 356f 5c3d 9a1b c83e
00000130: 4679 2b3f b162 3d3f 4e74 9e3e 80a8 db3d
00000140: 2072 793c e08f 33bd 8d8b 4c3d 74ad d6bc
00000150: 72b9 943f 8af5 1bbe 8a2f 4f3d a2cd 1dbe
00000160: a09f 393c b1bf ed3f 8ef9 69bd 06a0 d8be
00000170: 37a4 37bf 49d7 d5bd d340 a63e 8e9e 733e
00000180: 31ea 07be 117b 5c3f 1c2d 98bc 3640 9abd
00000190: bb59 05bd fc54 bd3c 2b22 fc3d 5d5c f6bd
000001a0: 26d9 b03f 9db5 7b3f 2c96 3a3e f85b 43bf
000001b0: be69 8b3f 34ce f13c 0409 813c 114c 00bd
000001c0: 8215 4f3e c7af cd3e 0033 9db9 fb65 993d
000001d0: 2851 673d 95e2 ab3e 28c5 f33e f445 7d3f
000001e0: 69d5 f33d f441 e6bc a585 e03c 303c b8bb
000001f0: 4ede 083f d204 a1bc 039e efbd 78c0 8e3e
-0.109288335 0.8126404 -0.05610921 -0.57773054 -0.11099456 1.713423 0.38515168 -0.117167145
-0.2680989 1.1050429 0.71558976 0.32905617 -0.09588158 -0.10019459 -0.15751229 -0.17373484
0.03104318 0.30203882 0.08078568 0.16335584 -0.06785609 -0.5579233 -0.10835247 -0.007820785
-0.029277727 1.3452045 1.1451566 -0.0021240637 0.070662886 0.8116724 -0.14684 0.89240915
-0.062384315 -0.015225273 -0.08249172 -0.16325852 -0.033244196 1.6156696 -0.050699823 -0.36081162
0.11931599 -0.0029692613 -0.13919665 -0.1220057 -0.31747633 0.95693314 0.027683288 -0.4089903
0.13487458 0.37582862 0.4737513 -0.14752781 -0.089594714 -0.09396857 0.007773444 -0.8399726
0.8266443 0.37650272 -0.077959836 -0.06290386 0.0015658736 0.08695232 0.12977278 0.039158635
0.8370214 -0.024486795 0.9012315 -0.09879294 0.00718062 -1.2071291 0.066968314 0.043022715
0.29256392 -0.15493219 0.053816993 0.39083558 0.66981924 0.73978716 0.30948108 0.10725498
0.015224963 -0.04383838 0.049937773 -0.026205756 1.1619093 -0.15230384 0.050582446 -0.15410474
0.0113295615 1.8574125 -0.05712276 -0.42309588 -0.71734947 -0.10441453 0.32471332 0.23790953
-0.1327293 0.86125284 -0.018576197 -0.075317785 -0.032556277 0.023111813 0.123112045 -0.12029336
1.3816268 0.98323995 0.18221349 -0.7631221 1.0891645 0.02951727 0.01575137 -0.031322543
0.20223048 0.4017317 -0.00029983371 0.07490154 0.05647388 0.33571306 0.47611356 0.98934865
0.11905939 -0.02810762 0.027407477 -0.0056224093 0.5346421 -0.019655619 -0.1170006 0.27881217

stack.1.0.weight f4 [64, 128]
00000000: f46f 2e3e e5aa 16bd e311 d1bb b694 49bd
00000010: 8aa2 d4bd d409 32bc 08aa fabc 266c 2bbd
00000020: fc89 aebc 501f 5ebd 4c7c c3be 1071 86be
00000030: a245 a2bd bb78 4fbd a722 ec3e 0d27 283e
00000040: 0043 cabd d39f 5d3d fe19 9cbe d233 e33d
00000050: bef4 a0bd 4cb1 ea3d 1385 5fbe 9c2c 403d
00000060: 2374 bb3d f413 26be 7ce6 c0be 6834 613d
00000070: f862 de3c 3f7c 5f3e 1050 323b 4e7f fdbe
00000080: 63fb 843e b178 113e d899 a2bc b6cd e8bd
00000090: a06d 443e 0eeb 50bf 6d50 433e a2f1 a83d
000000a0: 2585 69bd 189c 20bd 95fb 8d3d 28ce 3d3e
000000b0: ebf1 b9bd 98cd 8c3d 52ed e7bd a812 20be
000000c0: cb23 27be 47f3 27be 7459 3e3d 5611 5c3d
000000d0: 76ac 203d cd38 0b3e 1471 773e 4023 5d3c
000000e0: 2616 f8bc fec9 c6bd 2cc3 fd3d 6827 9cbc
000000f0: e342 863c c0c0 a8bd 9af9 bdbd e8de 9cbe
00000100: c983 09be 1189 dcbd 26c0 69bd 1490 5ebd
00000110: 3015 1cbc c46a 833e faba e63d f8d2 5dbc
00000120: c348 8ebd 781d eb3c b63f 2dbd a5d6 85be
00000130: c66e 5b3e 7a7e 97bc f050 f9bd fc87 493d
00000140: 2d07 153e 3658 c03d e461 453d f877 c43d
00000150: 1a8e fbbc 2441 083e 761c 1a3e 583b bcbc
00000160: 35df 1d3e 14ff c9bd a625 953c 3a5f 3ebe
00000170: 9b3e 5cbe 3494 3dbc ac8d 97be fb38 3dbd
00000180: ea15 0ebd 640d acbd a19a f93d 47fa 173e
00000190: 5444 0d3e ea17 29bd 74d5 7dbd c072 bcba
000001a0: 5a33 7abe 95ca aa3d 048b 143e 09c7 18bf
000001b0: 4bb7 14be 5b28 31be d0dd fc3d 2e9e 313e
000001c0: f6c9 923d deb5 c7bc e73e 18be eeb5 823d
000001d0: 5096 67bb 220c babe 6c9c 623e abcf 3b3d
000001e0: f215 88bc 8540 20be 8674 37be 4bd5 833c
000001f0: 6a9d b2be 0485 353e 028c 50be 4277 bebc
00000200: 26ef 0b3e 90f2 ecbd 7ac5 a8bd d283 07be
00000210: 686c 133d 4866 96be 0580 083e 821c 85bd
00000220: b930 ab3e 9721 bdbd 1af3 53bd 5a59 92bd
00000230: 2aeb 65bc f9ba b1bd f546 963d cf8b 8d3d
00000240: 5a03 2bbd 4c44 fd3d c277 123d 360b 3abe
00000250: 80b3 29be ca74 66be 7473 27bd 4aa9 adbd
00000260: 4845 82be 0441 12be a5e3 893d 3eb1 a0be
00000270: 64f5 75bd 9993 3cbd fa26 1b3d c541 18bd
00000280: 00c4 dcbd 18cb 993d 68ed 16bd ed2f b6bd
00000290: 285b 98bc ca4c 5cbe 0056 433a ba26 4fbd
000002a0: 1c95 363e 3d7d 13be bee6 083e fa08 d83c
000002b0: 2ed5 6dbd ca8f 55bd 7628 0c3c 5c66 11be
000002c0: 42cb 233d 109c 18bd 2858 78be dcc4 973c
000002d0: 0eb6 2fbd 2a3a f53c ea05 46be 624f 4fbf
000002e0: 2bf9 febd 3e45 3dbe 8490 97bd a6c7 a4bd
000002f0: c06e 77bc 9839 bbbd c1d9 59bd 1a73 17be
00000300: 8e12 07be 44b9 d03d f496 b0bd 1abe e23d
00000310: 682b b4bd 843e f3bd c05d 52bd 84df 783c
00000320: 3eee 86bd 84be eebd 8775 9c3d b78a 8ebe
00000330: ebd3 0ebe 2d7f d63d 8c43 98bd e4a6 533e
00000340: e43e 28be 6e71 df3d f64c 693e 4225 14bd
00000350: 52b5 a5be 71d3 01be c001 963b ade9 073d
00000360: 9f95 22bd 0ee4 90be 8581 013e 52d0 ebbd
00000370: 0ea5 26be 757e 60bd c6a2 f1bd 973c 053d
00000380: e058 183e efef 023e 4690 963d 758e 153e
00000390: 327f 72be 0414 893b c226 dc3c fe75 5d3d
000003a0: b1d6 aebe d7a3 8b3d 82f4 0a3d 4c98 3fbd
000003b0: ad32 a9bd 9b4b 963d 3af6 1e3e 176a 3cbd
000003c0: 1efc 03be 8689 ddbd 87d5 973d ef8c e53d
000003d0: 06fb 58bd a81d d43d a849 a9bd aa92 f7be
000003e0: 28fc 8dbe 1a77 acbc 4f6b 3cbd 146c 543d
000003f0: f57c bcbd 3c46 adbc fc16 f43b 5ae2 0d3d
0.17034894 -0.03678407 -0.006380306 -0.049214087 -0.10382564 -0.010866601 -0.030598655 -0.041851185
-0.02130603 -0.05422908 -0.38180768 -0.26258135 -0.07923438 -0.050652247 0.46120188 0.16421147
-0.098760605 0.0541075 -0.3048858 0.11093868 -0.07859181 0.11459598 -0.21828108 0.046917543
0.09153011 -0.16218549 -0.37675846 0.05498162 0.027146801 0.2182474 0.0027208365 -0.49511188
0.25973043 0.14206196 -0.019848749 -0.11367361 0.19182444 -0.81608665 0.19073649 0.08249213
-0.057011742 -0.039211363 0.06932751 0.18535674 -0.09079345 0.068751514 -0.11324562 -0.15632117
-0.16322248 -0.16401397 0.046472028 0.05372747 0.03922697 0.13595887 0.2416423 0.013497174
-0.030283999 -0.09706496 0.12390742 -0.01906176 0.016389316 -0.08239889 -0.09276123 -0.30638814
-0.13429178 -0.10768331 -0.057068013 -0.054336622 -0.009526536 0.25667393 0.11266132 -0.013539068
-0.06947472 0.028700575 -0.042297088 -0.26140323 0.21428975 -0.018492926 -0.12173641 0.04920195
0.14553519 0.09391825 0.04818906 0.09593195 -0.030707408 0.13306099 0.1504992 -0.022977516
0.15417178 -0.098631054 0.018206429 -0.18591014 -0.21508257 -0.011570979 -0.29600275 -0.04619692
-0.034688868 -0.084009916 0.12187696 0.14841567 0.13795596 -0.04128257 -0.061971143 -0.001437746
-0.24433652 0.08339421 0.14506155 -0.59678704 -0.14523046 -0.1730055 0.12346995 0.17345497
0.07167427 -0.024378713 -0.14867745 0.063823566 -0.0035337396 -0.36337382 0.22129983 0.045852344
-0.016612027 -0.15649612 -0.17915544 0.016092917 -0.34885722 0.17726523 -0.20365909 -0.023250226
0.13665447 -0.115697026 -0.08240791 -0.13233879 0.035992056 -0.2937491 0.13330086 -0.06499578
0.3343561 -0.092349224 -0.05174551 -0.07145949 -0.014033118 -0.0867824 0.07337753 0.06911432
-0.041751243 0.12366542 0.03575874 -0.18168339 -0.1657238 -0.22505489 -0.04088159 -0.08479555
-0.25443482 -0.14282614 0.06732873 -0.31385225 -0.060048476 -0.046039198 0.037878968 -0.037172098
-0.107795715 0.0750944 -0.036847502 -0.0889586 -0.018598154 -0.21513668 0.00074514747 -0.050574042
0.17830318 -0.14403243 0.13369271 0.026371468 -0.058064632 -0.05213908 0.0085545685 -0.14199203
0.039988764 -0.037258208 -0.24252379 0.018526487 -0.04289823 0.029934961 -0.19338194 -0.80980504
-0.12449869 -0.18483445 -0.07400611 -0.080458924 -0.015102088 -0.091418445 -0.053186182 -0.14790002
-0.13190672 0.101915866 -0.08622542 0.11071415 -0.087973416 -0.11877158 -0.05135894 0.015190009
-0.0658841 -0.11657432 0.07639604 -0.27840206 -0.13948028 0.104734756 -0.074347585 0.20669132
-0.16430241 0.10910307 0.22783265 -0.036168344 -0.323649 -0.12678315 0.0045778453 0.033181835
-0.03969347 -0.28298992 0.12647064 -0.11514343 -0.16273901 -0.0548081 -0.11798625 0.032528486
0.14877653 0.1278684 0.07351737 0.14605124 -0.23681334 0.0041832943 0.02687395 0.054067604
-0.34148172 0.06818359 0.033924587 -0.0467761 -0.08261619 0.07338639 0.15523615 -0.045999613
-0.12889144 -0.10817246 0.07413774 0.112085216 -0.05297377 0.10357219 -0.08266002 -0.48354083
-0.27731442 -0.021052886 -0.046000775 0.051860884 -0.09203521 -0.021151654 0.007449029 0.034639694

stack.1.0.bias f4 [64]
00000000: 6c4c 6f3d 4dce a8be a034 9e3b 12c1 2f3e
00000010: f985 07bf 558a 53bf f6af 10bf 8b16 03be
00000020: 7dca 85be ba10 003e 261a ddbd 0856 fcbd
00000030: e8d6 a5bd c838 49bd ca20 0bbf b9c9 a3bd
00000040: f115 aabe f52f 743f 5298 2ebe 54c8 b0be
00000050: 36fe 80be 7318 43be 37a1 9ebe a3ba 103f
00000060: 0b47 b93f 00a5 13ba b1a3 363f 2634 96be
00000070: c254 be3e f094 533f 8474 9c3e dd9b 943f
00000080: c29a e6be bdb2 52be 17cb 4d3f 60e8 50be
00000090: e415 973d daaa a3be 49fd 7abe bde6 6abe
000000a0: b088 9cbe 9d1c b9be 3ad0 fbbe 245e 96be
000000b0: a053 4f3f b307 953f b364 e73f e123 73be
000000c0: 80f5 a0be 1427 0cbe fbd1 173f bdb5 16be
000000d0: 1029 48be b3eb ae3d d0d5 d83e 19de 9d3f
000000e0: f12f f2bd 788a 25be b07b 383f 8d8a 8abe
000000f0: fbfb a43f e3c8 f4be 0d74 1c3f c446 ac3e
0.05842249 -0.32969895 0.0048280507 0.17163494 -0.529388 -0.8263295 -0.56518495 -0.12801568
-0.2613105 0.1250638 -0.10796003 -0.12321097 -0.08097631 -0.049126416 -0.5434691 -0.0799746
-0.33219865 0.95385677 -0.17050293 -0.34527838 -0.25193948 -0.19052295 -0.30982372 0.56534785
1.4474806 -0.0005632192 0.71343523 -0.2933666 0.3717404 0.82649136 0.30557644 1.1610066
-0.45039946 -0.20575996 0.80388016 -0.20401144 0.07377222 -0.31966287 -0.24510683 -0.22939582
-0.30573034 -0.36154643 -0.49182302 -0.293687 0.80986977 1.1642975 1.8077606 -0.23744155
-0.31437302 -0.13686782 0.5930478 -0.14717765 -0.19546914 0.0854105 0.42350626 1.2333404
-0.1182555 -0.16166103 0.7206373 -0.2705883 1.2889398 -0.47809514 0.6111458 0.3364774

stack.2.0.weight f4 [32, 64]
00000000: 38c1 f23d e515 323e aafe fc3c 406b df3d
00000010: c0ed 47bb 6a2c 05bf b624 95be b5c4 8d3e
00000020: e5a5 89bd 73e8 d8be c654 253d e6f3 f4bd
00000030: d4fd 223e 75dc 69bd 7d9e d7be 3d47 2c3e
00000040: 19a7 353e bcf2 39be 16ff 563d 6b97 ac3d
00000050: ecb4 e2bd 75db 1cbd cf93 cdbd dfc0 42be
00000060: 720c 2e3f 98e4 893e 588a cdbe 3187 833c
00000070: d4f5 8dbf efa3 4fbe d0ac d33c 2fc5 fe3e
00000080: 033a 0ebe ff0e afbe 2651 e4be d51b 1abe
00000090: 0229 643e ccbc e1be bc49 2bbe b322 ad3b
000000a0: b2d5 a53d 92bd b23e cbad 80bc d84d 8dbe
000000b0: 854b 663e 62cb 293f 0f99 77be f732 87bd
000000c0: 48d3 e13a 0e8d 31bd 17fc 093e caf2 163e
000000d0: 9bec 41bd 90c6 2d3d 6b7b 46be 3ed9 89bd
000000e0: e77b c9bd ba7a a0bc d65c dfbe 0015 243e
000000f0: c313 c0be 3b5d 45be 862b e8be 9309 f5bd
00000100: fe80 133e 4ac0 24be 9cb8 fb3d 9f48 b7bd
00000110: 1754 bcbd 8cd4 adbd 20c5 6d3e 58cb d53c
00000120: 1049 cdbd 1912 40be 9682 a03d d697 f5bd
00000130: afe5 fd3d 28b4 5f3d fc10 273e f3a9 2a3e
00000140: f44c 53be 74ef 5ebd 40af a63c aad4 a4be
00000150: 8034 5e39 3433 b93c ee58 fa3c 31ae 25be
00000160: 9032 8c3d 8112 b3be 227a 4cbe 1462 133e
00000170: 07a4 5ebe 843f bfbd 89d8 d53d e96d 06bf
00000180: 29f4 a2be c7a4 733e 0a12 73be baf4 81be
00000190: af86 fabe 285c 083d c08d 7ebc a86d 2fbe
000001a0: c24d 433d aabd 7b3c ab84 fc3d e652 26bd
000001b0: c66c 8bbd ef76 24be 2e95 84be e5e6 6b3e
000001c0: dfc2 be3e 3331 c2be f0b5 a9bd 60d9 1f3e
000001d0: 9633 45be 877a 6cbe b267 4ebe c051 37bb
000001e0: f681 c13d be5d 4fbe a488 fabd 4799 ee3e
000001f0: 48dc 02be c9c8 8bbd 4fa8 12be f2dc bebd
00000200: 2db9 34bd 8cdf fe3c f4cf 0a3e 90bf ad3d
00000210: 3d60 213e ee59 1b3e 5006 573d d253 7dbd
00000220: 6d16 9b3d c6f0 3bbe df0d f2bd e9d6 0e3d
00000230: 1d21 97bd 98db 693e 5ba7 a43d ec82 4dbe
00000240: 0395 0dbe fe8a 323e 7d64 46bd 7122 a73d
00000250: e2d7 bebd 178c 0e3e 8e98 393d 56ff 523d
00000260: 5f2e bb3d 7b5f 8dbe 54e0 dfbc 4835 7a3d
00000270: 4a98 c8be 0de8 e1bd e80a 09bc 0ec1 12bf
00000280: b822 133d d251 743d f160 aabd 5f75 adbd
00000290: b65f 93bc 3c1d 4a3c 0793 0e3e aeb7 663d
000002a0: c6e6 9dbd 54cf 52be 2bc5 13be d6e3 5b3d
000002b0: de76 3abe 4067 8dbe 9f9e e4be 189b 6cbd
000002c0: a62a 543d fb87 9ebe 20cb 48be 484f e33c
000002d0: d874 733c 9869 95be 03d4 86bd 3b5d c4be
000002e0: baa5 1cbe 3a05 5e3d 40db 14bd 0cf8 c83c
000002f0: f854 e6bd 48b6 08bc 5f04 04be a088 633c
00000300: 7959 bd3e 3c4f 1a3f 1837 43bc ec9c 1abd
00000310: 7642 9c3e 8af7 c13e 4cc1 473e 9dc9 a43e
00000320: e141 573d fef6 8d3e 8c65 0e3e d1f3 8a3d
00000330: 9021 983e 561d cabd 30a9 e53e 7464 f03d
00000340: baa7 b7bd 3f25 a2bd 7130 ef3d b167 fdbe
00000350: 1289 44bd 24b8 6d3e cade afbe 9707 7cbe
00000360: 08f4 2b3f bf85 1f3e d01a 6bbe d201 0f3f
00000370: 0908 30bd fab5 a53d 1077 69bb f6c5 09be
00000380: 425e d8be ceb2 d23e 180f c8bc e7af 7d3e
00000390: 2de4 69be 5227 2c3e 908c 1ebc b48c c6be
000003a0: b401 7bbd 7425 b03e 1158 863e b04a e63b
000003b0: b20f 183e 5400 babe 192b 553e 500f 273e
000003c0: cd3d 543f c3d2 19bf dbb1 333e f62e afbd
000003d0: d6ee 6c3d 3635 0ebf ef80 543e 2b0a 1e3e
000003e0: 735b b6bd a719 ff3d 12c1 a1bd 3746 a53e
000003f0: f45a 2abf 5b75 31bf 92f2 ad3d 9a0c 82be
0.1185326 0.17391165 0.030883152 0.10909128 -0.00305067 -0.52020895 -0.2912957 0.27689138
-0.06721095 -0.42364845 0.04036405 -0.119605824 0.1591714 -0.05709501 -0.42113104 0.1682405
0.17739524 -0.18159002 0.052489363 0.08427318 -0.11069664 -0.038295228 -0.10037958 -0.19018887
0.6798774 0.26932216 -0.4014461 0.016055675 -1.1090646 -0.2027738 0.02583924 0.49759814
-0.13889317 -0.3419113 -0.4459316 -0.1504968 0.22281268 -0.44089353 -0.16727346 0.0052836775
0.080974 0.34910256 -0.015707871 -0.27598453 0.22489746 0.6632596 -0.24179481 -0.06601518
0.0017229104 -0.04334741 0.13475071 0.14741054 -0.047344785 0.042425692 -0.19383018 -0.06730889
-0.098380856 -0.01958977 -0.43625516 0.16023636 -0.37515077 -0.19273846 -0.45345706 -0.11964717
0.14404675 -0.16088977 0.12291071 -0.08949398 -0.09195726 -0.08487806 0.23219728 0.026097938
-0.10023701 -0.18756904 0.07837407 -0.11991851 0.12397324 0.05461517 0.16315073 0.16666393
-0.20634824 -0.05442758 0.020347238 -0.321935 0.00021191128 0.022607423 0.030559983 -0.1617973
0.068455815 -0.34975055 -0.19968465 0.14392883 -0.21742259 -0.093382865 0.104416914 -0.5251146
-0.31826904 0.23793326 -0.2373735 -0.25382024 -0.4893088 0.033291012 -0.0155367255 -0.17131674
0.047681578 0.015365044 0.12329992 -0.0406064 -0.06807856 -0.16060995 -0.25895065 0.23037298
0.3725805 -0.3792816 -0.08286655 0.15610266 -0.1925796 -0.23093615 -0.20156744 -0.002797231
0.09448616 -0.20250604 -0.122330934 0.46601316 -0.12779343 -0.06825406 -0.14322017 -0.09319486
-0.04412191 0.031112455 0.1355589 0.08483803 0.15759368 0.15171024 0.052496254 -0.061847515
0.07572637 -0.18353567 -0.11819052 0.034872923 -0.07379363 0.22837675 0.08039733 -0.20069474
-0.13826375 0.17435834 -0.048435677 0.08160866 -0.0931852 0.13920628 0.045311503 0.05151304
0.09139704 -0.27611908 -0.027328648 0.06108597 -0.39178687 -0.11030588 -0.008364417 -0.5732583
0.035921782 0.059648342 -0.08319271 -0.084696524 -0.017989974 0.012336072 0.13923274 0.056327514
-0.07710032 -0.20586902 -0.14430682 0.05368408 -0.18209407 -0.27617836 -0.44652268 -0.057765096
0.051798485 -0.3096312 -0.19608736 0.027747765 0.014859401 -0.29182124 -0.06583407 -0.3835238
-0.15297595 0.054204203 -0.036341906 0.02453234 -0.11246675 -0.0083442405 -0.12892292 0.013887554
0.36982325 0.6027715 -0.011914991 -0.03774731 0.30519456 0.3788417 0.1950733 0.3218507
0.05255306 0.27727503 0.13905925 0.067847855 0.29713106 -0.09868877 0.44855642 0.1173791
-0.08967538 -0.079172604 0.11679161 -0.49493173 -0.047982283 0.23214775 -0.34349662 -0.2461227
0.6716924 0.15578364 -0.22959447 0.5586215 -0.042976413 0.0809135 -0.0035623945 -0.13454422
-0.42259413 0.41152042 -0.02442126 0.24774133 -0.22840948 0.16811875 -0.009677067 -0.38779223
-0.06128092 0.34403574 0.26239064 0.0070279464 0.14849737 -0.36328375 0.20817222 0.16314435
0.829068 -0.6008722 0.17548315 -0.08553879 0.05784496 -0.55549943 0.2075231 0.15433566
-0.08904161 0.12456065 -0.07898153 0.32280132 -0.66545033 -0.69319695 0.08493532 -0.2540024

stack.2.0.bias f4 [32]
00000000: 4655 fc3d a400 77be d2c3 98be af57 0440
00000010: 8782 7bbe 57bd ab3f 64c5 b13f 8eb3 b33f
00000020: 96ca c33e 619e 7e3f bdec b13c f86b 9e3e
00000030: bd93 1ebe d9ab 2b3f 9c64 a1bd e8a3 443f
00000040: fcc8 4e3b 9a5a 413f d1ad 9dbd 9c29 2e3f
00000050: 1807 1cbc 7f8c e0be be53 c3bd b04f aa3b
00000060: d212 0dbf ec29 5f3f 3e8c 103f 3a5f 343d
00000070: b0d6 0ebb f1cf 42be 4ade 033f e7b6 5b3f
0.12320952 -0.24121338 -0.298369 2.0678518 -0.24561511 1.3417157 1.3888364 1.4039171
0.38240498 0.9946042 0.02171933 0.3094175 -0.15486045 0.67059094 -0.07880518 0.768126
0.0031552901 0.7552887 -0.076991685 0.6803224 -0.009523176 -0.4385719 -0.09537457 0.005197488
-0.5510684 0.8717334 0.5646399 0.044036128 -0.0021795444 -0.19024636 0.5151106 0.8582596

stack.3.0.weight f4 [10, 32]
00000000: 2056 6cbe e833 473e f8bf 38be 90f5 833b
00000010: af41 eabb 7ee6 33be 0dcf 06be b8ba 073e
00000020: c26f c93d 9e24 06bd 2620 bebd f89d 4cbd
00000030: 36a1 acbe 2121 c13e b47c 9f3b 738e a3be
00000040: ca8b 5bbe 8a04 623d b6ad 61be 0293 cd3e
00000050: 6df1 e0bd d098 13bc e5c1 74bc ceea b33d
00000060: d392 29bd 9059 ad3c b3d1 9d3d 42e6 84be
00000070: 30f7 6d3d 507d 663e 1697 1bbd f4a0 b3bd
00000080: 85d7 663e 947f 03be a97d 243e 2aa5 963d
00000090: 48b9 6a3e f135 5cbd c4e2 7b3e ecd5 9c3d
000000a0: c097 a23d 7c60 e3bd 0ecc 8a3e 42cd 153d
000000b0: 458d 323e 6aeb 943c 90f5 dfbd b61d 6bbe
000000c0: 10fe 84be b8b4 bbbd a4ee 8d3c 89cf bbbd
000000d0: 8a42 4dbe 8bfd b63d 48bb 80bc 3a51 653e
000000e0: 306f 463a b4c5 abbd 7bc5 c53d 18e2 9abe
000000f0: 781d 3a3e 3406 1dbe 2625 33be 9a64 ef3d
00000100: bc67 18be 797a 0dbd 3c6f c2bc 156f 843e
00000110: cb49 efbd d572 b3bd 9f14 6a3e 9c72 993d
00000120: f022 37bc 22e3 b23e a32c 7e3e 8856 7fbc
00000130: c6b9 cb3d 675e d4bd d1ee b03d 21e4 f4be
00000140: 88b3 9b3d f88f d63c 3794 c13c df57 053e
00000150: d0e1 12be bb32 10bd 3265 14bd 67aa cc3d
00000160: fd62 b6be 481f 49bc 7e09 ab3e 529b d73d
00000170: a881 7c3e 84b5 b53e b56b 9f3c d150 a1be
00000180: 55b1 383e 76c7 1b3e 46f9 e13d d2f2 f9be
00000190: 1dcd 39be fed6 53bd a00b 9dbd 44a5 623e
000001a0: ef29 eb3d 0032 8f3a 94f1 283d 1388 72bd
000001b0: cc3d 27bc 2a70 fabc ac58 4e3d f112 73be
000001c0: 4684 1dbd fce5 8e3e 2004 fbbb 7703 aa3d
000001d0: c027 64bd ee4d 4f3e 33c3 34be db66 9d3d
000001e0: 978d 8dbd d75e 203e 3c95 193e 280f bebe
000001f0: 3e66 81be 6d7c 953d abe6 a2be e002 31bc
00000200: b401 2e3e 58df 94bc c24e 9b3e 62a3 323d
00000210: e432 893c 009b d939 e47e a5be c08f 3dbe
00000220: 51cb 7bbe 4f6a 543e 1027 773e e1ad aebe
00000230: bdc5 0a3c 9b52 273e 9af3 803e 7b60 6fbe
00000240: be3d 01be 4cd6 5c3e 36ca 76bd d70c 6dbe
00000250: 4e8e 14bd 31aa c8bd 8aea e2bd 45d5 30be
00000260: 0ea8 69be 7e8f 523e 4235 a63d 7f50 c23d
00000270: c830 8b3c 4847 ab3e ee7c cfbc c1fc ebbd
00000280: 368c 843d 974c 0fbd 05bc f7bd 806a acbb
00000290: ac32 d43d f97e bf3d bdd1 2b3e f40e 67be
000002a0: 9dec 28be 1850 94bc e5d1 f3be 6efc 8b3c
000002b0: ef75 c3be 1288 17bd 7dea 1f3d af01 cb3e
000002c0: fc0c 05be ac76 6e3e ec9c aabd 7ca2 7c3e
000002d0: 9d6e 04be 7057 173c feba 023d 3f11 5b3e
000002e0: 8fa9 85bd fe24 733e 527a 52bd 48d1 2e3e
000002f0: 84fd 01be 6740 4abe 26ed 483e d8d7 aa3d
00000300: daca 203e fcde 573d 60b7 ecbb 97d3 683e
00000310: f63e 18be 1b83 47be 4fce 393e 4ce9 aa3e
00000320: 2eee 073d acc9 04be 3d36 9d3e 8f39 58be
00000330: a93f 91be 0439 d43c 4094 6f3d d08e b5bd
00000340: a72a 3f3d 9844 01bd 24b6 11be d075 b33e
00000350: a496 38bd 30a3 00be 9274 153e 2c3a 59bd
00000360: 80cf 69be 6f95 b93d 889e 9ebd f2f7 6bbe
00000370: 5431 ccbc 10b7 efbc ea35 d33d 47dc d9bd
00000380: 7694 123e c743 df3d cc98 2abe 223a 03be
00000390: 58b5 4abe bc9a 753d a304 8b3d f349 4abd
000003a0: 44a3 11be 6d6a ddbd a874 63bd 5188 873d
000003b0: 9aa7 1abe f234 adbd 8be3 3d3d 420a fbbd
000003c0: 3e26 52be 96af ea3d fa31 8c3e 40df a33b
000003d0: 633c 203e 705a 22be e197 813d 1cbf 87be
000003e0: ed22 ba3d 5d33 81bd 78bb 3cbd 9076 f63b
000003f0: 73f9 ea3d 2b32 df3d 08e4 c0bd 7803 3dbc
-0.23079729 0.19453394 -0.1804198 0.004027076 -0.0071489434 -0.17568395 -0.13164921 0.13254821
0.09835769 -0.032749765 -0.092834756 -0.04995534 -0.33716744 0.37720588 0.0048671607 -0.31944618
-0.21440044 0.05518011 -0.22038922 0.4015122 -0.10983548 -0.009008601 -0.014938806 0.0878502
-0.041399788 0.02116087 0.077060126 -0.25956923 0.058097064 0.2250874 -0.037985884 -0.08770934
0.22543152 -0.12841636 0.1606356 0.07355721 0.22922242 -0.05376238 0.24598223 0.0765799
0.079391 -0.11102387 0.27108806 0.036572702 0.17436703 0.01817866 -0.10935509 -0.22960553
-0.25975084 -0.09165329 0.017325707 -0.091704436 -0.20044914 0.08935078 -0.015714303 0.22394267
0.0007569669 -0.08387318 0.09656807 -0.3025062 0.18175304 -0.15334398 -0.1749464 0.1168911
-0.14883322 -0.034540627 -0.023734681 0.25866 -0.11683997 -0.08762137 0.22859429 0.07492563
-0.011177763 0.34938914 0.24821715 -0.0155845955 0.09947543 -0.10369568 0.086393006 -0.478303
0.07602602 0.026191697 0.023630245 0.13021801 -0.14343953 -0.03520463 -0.03622932 0.09993439
-0.35622397 -0.012275524 0.3340568 0.10527672 0.24658835 0.35490048 0.019460538 -0.3150697
0.18036397 0.15212807 0.11033873 -0.4881807 -0.18144651 -0.051718704 -0.07668233 0.22133356
0.114826076 0.0010924935 0.04124601 -0.0592118 -0.010207605 -0.030571062 0.050377533 -0.23737694
-0.038456224 0.2790984 -0.007660404 0.08301442 -0.05570197 0.20244572 -0.17652588 0.07685634
-0.06911772 0.15661179 0.14998335 -0.37120938 -0.25273317 0.07299123 -0.3181661 -0.010803908
0.16992837 -0.018172905 0.30333525 0.043612845 0.0167479 0.0004150495 -0.32323372 -0.18511868
-0.24589278 0.20743679 0.24135995 -0.34117034 0.008469996 0.16340105 0.25185853 -0.23376648
-0.12621209 0.21566123 -0.060251437 -0.2314943 -0.036268525 -0.097980864 -0.11079891 -0.17268856
-0.22818014 0.2056255 0.08115627 0.0948801 0.016991034 0.3345282 -0.025328126 -0.11522818
0.064720556 -0.03498515 -0.12096409 -0.005261719 0.103612274 0.0935039 0.16779228 -0.22564298
-0.16496511 -0.018104598 -0.47621074 0.017088141 -0.38175914 -0.036995 0.039041985 0.39649722
-0.12993234 0.23287457 -0.08330712 0.24671358 -0.1293282 0.009237155 0.03191661 0.21393298
-0.06526481 0.2374458 -0.051386185 0.17072022 -0.12694365 -0.1975113 0.19621715 0.0834195
0.15702382 0.05270289 -0.0072240084 0.22736965 -0.14867768 -0.19483607 0.18145107 0.33381116
0.03318613 -0.12967557 0.30705443 -0.21115707 -0.2836888 0.025906093 0.05849099 -0.0886513
0.046671536 -0.031559557 -0.14229637 0.3505082 -0.045065537 -0.12562251 0.1459525 -0.053033993
-0.22833061 0.09061705 -0.07745081 -0.23043802 -0.024925865 -0.029262096 0.10313018 -0.10637718
0.14314446 0.109015994 -0.1665985 -0.12815145 -0.1979574 0.05996202 0.06787994 -0.04938693
-0.14222437 -0.10811315 -0.055531174 0.06617797 -0.15102997 -0.08457364 0.04635958 -0.12257816
-0.205224 0.114592716 0.2738188 0.0050009787 0.15648036 -0.15854812 0.06327797 -0.26512992
0.09088693 -0.06308625 -0.04607722 0.007521458 0.1147336 0.10898241 -0.094184935 -0.011536472

stack.3.0.bias f4 [10]
00000000: 70e5 cfbd 706e 7cbe 3e07 323f 00d4 1b3b
00000010: 8de8 bfbe 2acd 073f a792 0e3f 7699 10be
00000020: aefe ebbd 22a3 773e
-0.101511836 -0.24651504 0.695423 0.0023777485 -0.3748211 0.5304743 0.55692524 -0.1412104
-0.11523186 0.24183324
