src/fminst/models/transfer_5_1.pt (torch, 447681 bytes, 8 tensors)

stack.0.0.weight f4 [128, 784]
0.23956941 -0.110878766 -0.063674144 -0.043467052 -0.0016225651 0.11945352 -0.1627085 0.019347847
0.046695493 -0.05828286 -0.0909397 -0.1785844 -0.03932113 0.044719018 -0.12902522 -0.08359669
-0.004205294 -0.13613844 -0.19800873 -0.091165036 -0.057352547 -0.150426 -0.011943087 -0.020331502
-0.14673567 -0.14101419 -0.07322391 0.071456134 0.057443492 -0.06821995 -0.17564651 -0.07712958
-0.0027154423 -0.04583966 -0.0974805 -0.16274878 -0.1966832 -0.09225098 -0.080161646 -0.11607522
-0.058238316 -0.1464679 -0.012513064 -0.12005079 -0.09016064 0.19045413 -0.14869574 -0.117260486
-0.23084968 -0.14671767 -0.11634927 -0.10528539 0.14769347 -0.043212898 0.088298425 0.17781898
0.08982231 0.022242323 -0.07655099 -0.05227393 -0.028709523 0.1158354 -0.055775985 -0.1983734
-0.1359546 -0.022430498 -0.049038142 -0.11903077 -0.02472477 -0.058830902 -0.010678563 0.0865799
-0.003396172 -0.33970624 -0.0045520104 -0.047602534 -0.0688461 -0.1549249 -0.03642392 -0.028445225
-0.03449648 -0.01222378 -0.12864849 -0.023402276 -0.06576797 -0.081263505 -0.018076055 -0.11270179
-0.08878608 -0.18393765 -0.011105582 -0.25082183 -0.063547164 -0.14328633 -0.1944322 -0.105181836
-0.15246333 0.029970512 -0.11313366 0.052973934 -0.091813065 -0.11352284 -0.036416814 -0.015333036
0.03878347 0.060659915 -0.038099892 -0.18920094 0.01598281 -0.04016556 -0.011019278 -0.02911663
0.100063816 -0.03741694 -0.074379645 -0.096854456 -0.23129262 -0.14669336 -0.034023937 -0.1484759
-0.083360754 -0.0827848 -0.02293587 -0.0021403804 0.006457366 -0.095170915 -0.20186514 0.036578037
-0.11281669 -0.13085122 0.06986671 0.029377006 0.0089658145 -0.045936525 -0.034572456 -0.025941603
0.10524412 -0.015779678 -0.13670135 -0.19990507 -0.15007922 0.080223754 0.0056968033 0.072443776
0.09226832 -0.101423346 0.06634997 -0.10319074 -0.24635054 0.11339759 -0.20624462 -0.08501521
-0.25708398 0.008330166 -0.2525816 -0.04269156 -0.14848216 0.057996392 -0.08547795 -0.056525517
-0.3074056 0.09834725 0.05192347 -0.0673705 -0.058351763 0.029833414 -0.027731106 0.015714243
-0.17389555 -0.085984 -0.024007004 -0.01690634 0.2588756 -0.05933848 0.02884855 -0.07109674
0.022084314 -0.0460524 -0.044554673 -0.101607546 0.025337875 -0.06535823 0.010759033 0.030836329
0.040340923 -0.11514577 -0.06816835 0.042518385 -0.22373477 0.03332428 -0.08992469 -0.083352774
-0.05798892 0.030652013 -0.11790557 0.12125907 -0.066203006 -0.083207235 -0.086048305 0.05883117
-0.0966797 -0.17000677 -0.033610564 -0.004668422 -0.12003414 -0.20026395 -0.02407172 0.08957718
0.077633314 -0.0475461 -0.19478089 -0.08968991 -0.18903306 0.13105702 -0.012331711 -0.055109248
-0.01480319 0.03359644 -0.13447921 -0.0636456 -0.14552495 0.048768215 -0.109715596 -0.0068195723
0.03241676 -0.016346954 -0.07748581 0.00059227645 -0.18609822 -0.15879093 0.051068626 -0.21399522
0.13787293 -0.031515807 -0.069806166 0.001504194 -0.002683431 -0.16801582 0.099906474 -0.29595777
0.10345878 -0.054902285 0.080871165 -0.045440357 -0.019499771 -0.068000026 -0.17356038 0.0124971345
-0.011232719 -0.06950514 -0.14998515 0.06507291 0.045630682 -0.09746866 -0.20778123 0.019755878
00000000: af51 753e 6814 e3bd 9767 82bd 820a 32bd
00000010: 40ac d4ba 0ca4 f43d 0f9d 26be 607f 9e3c
00000020: c643 3f3d 02ba 6ebd 983e babd d4de 36be
00000030: 310f 21bd 4a2b 373d 301f 04be be34 abbd
00000040: 90cc 89bb e067 0bbe cdc2 4abe bcb4 babd
00000050: 81ea 6abd 4609 1abe f0ac 43bc 408e a6bc
00000060: e041 16be 0666 10be 6bf6 95bd 9857 923d
00000070: de49 6b3d e7b6 8bbd aedc 33be 1df6 9dbd
00000080: 90f5 31bb 5ec2 3bbd dba3 c7bd 9ea7 26be
00000090: 5267 49be 15ee bcbd ca2b a4bd d8b8 edbd
000000a0: 4d8b 6ebd aefb 15be 9803 4dbc 30dd f5bd
000000b0: 24a6 b8bd 6806 433e b243 18be 4426 f0bd
000000c0: dc63 6cbe 283d 16be 8748 eebd de9f d7bd
000000d0: f53c 173e 0200 31bd ced5 b43d 2e16 363e
000000e0: c2f4 b73d 8835 b63c c4c6 9cbd 301d 56bd
000000f0: 3c30 ebbc 1c3b ed3d 5c75 64bd 6622 4bbe
00000100: af37 0bbe 2ac0 b7bc 38dc 48bd 68c6 f3bd
00000110: 9a8b cabc acf8 70bd 24f5 2ebc cd50 b13d
00000120: 5092 5ebb faed adbe 0829 95bb e0fa 42bd
00000130: 2fff 8cbd a2a4 1ebe 4031 15bd f605 e9bc
00000140: 2e4c 0dbd 4046 48bc 6ebc 03be 21b6 bfbc
00000150: 5cb1 86bd 7b6d a6bd 3c14 94bc 32d0 e6bd
00000160: 7ad5 b5bd 275a 3cbe 30f4 35bc b86b 80be
00000170: 0425 82bd a7b9 12be 3c19 47be 9369 d7bd
00000180: 591f 1cbe b884 f53c 9fb2 e7bd 32fb 583d
00000190: 7d08 bcbd aa7e e8bd cc29 15bd 6a37 7bbc
000001a0: 6adb 1e3d 8876 783d a20e 1cbd e4bd 41be
000001b0: 62ee 823c a484 24bd 348a 34bc 0086 eebc
000001c0: 42ee cc3d 8142 19bd 5b54 98bd a15b c6bd
000001d0: f9d7 6cbe c936 16be af5c 0bbd 110a 18be
000001e0: 0bb9 aabd 148b a9bd 01e4 bbbc a045 0cbb
000001f0: 5098 d33b f8e8 c2bd bcb5 4ebe dad2 153d
00000200: 700c e7bd ddfd 05be 4716 8f3d 0ca8 f03c
00000210: 5ae5 123c f027 3cbd d99b 0dbd 7c83 d4bc
00000220: 3b8a d73d 6244 81bc 70fb 0bbe eab3 4cbe
00000230: 5eae 19be 5a4c a43d 40ac ba3b 675d 943d
00000240: 2cf7 bc3d 0bb7 cfbd 7ee2 873d ab55 d3bd
00000250: 5143 7cbe ff3c e83d ca31 53be 741c aebd
00000260: 83a0 83be 407b 083c 6052 81be 58dd 2ebd
00000270: b50b 18be a08d 6d3d 100f afbd 4d87 67bd
00000280: 4464 9dbe 486a c93d b4ad 543d 8bf9 89bd
00000290: 4202 6fbd 3465 f43c 582c e3bc 28bb 803c
000002a0: ad11 32be 6118 b0bd 56aa c4bc 2a7f 8abc
000002b0: 588b 843e e80c 73bd cb53 ec3c 2b9b 91bd
000002c0: 2aea b43c 71a1 3cbd f67e 36bd 9e17 d0bd
000002d0: 6091 cf3c 89da 85bd a846 303c 789c fc3c
000002e0: 863c 253d 8cd1 ebbd d99b 8bbd c227 2e3d
000002f0: ba1a 65be 0a7f 083d 702a b8bd dcb4 aabd
00000300: ca85 6dbd ee19 fb3c 7a78 f1bd ad56 f83d
00000310: 7195 87bd 8e68 aabd 183a b0bd f4f8 703d
00000320: 0200 c6bd 4116 2ebe 3bab 09bd 90f9 98bb
00000330: 76d4 f5bd fe11 4dbe 0e32 c5bc 3e74 b73d
00000340: 37fe 9e3d b3bf 42bd a474 47be 58af b7bd
00000350: e291 41be d033 063e f20a 4abc 3cba 61bd
00000360: 1489 72bc 6c9c 093d ebb4 09be a058 82bd
00000370: 7e04 15be 2ec1 473d 92b2 e0bd b876 dfbb
00000380: 70c7 043d 0cea 85bc e1b0 9ebd 0043 1b3a
00000390: 8890 3ebe 179a 22be 562d 513d 9021 5bbe
000003a0: 902e 0d3e b816 01bd 89f6 8ebd 6028 c53a
000003b0: 80dc 2fbb 570c 2cbe c49b cc3d c787 97be
000003c0: 32e2 d33d 38e1 60bd c89f a53d ab1f 3abd
000003d0: fcbd 9fbc 9943 8bbd d0b9 31be c8c0 4c3c
000003e0: 7009 38bc b658 8ebd b595 19be f244 853d
000003f0: 3de7 3a3d a69d c7bd 9ac4 54be 14d7 a13c

stack.0.0.bias f4 [128]
-0.057526045 -0.099234894 -0.31410173 -0.010333605 -0.08026069 1.3677061 -0.01694341 -0.09666001
-0.06480184 0.45422095 -0.120537736 0.085619465 1.0767719 0.015110485 0.33933777 -0.17450324
0.038530666 -0.08971363 1.064922 -0.33740735 -0.039631464 0.7631905 0.28248143 -0.1291363
-0.040168855 -0.055327784 0.4821894 0.016883455 -0.02124013 1.0350021 0.29196858 0.4230417
0.6090385 0.9783081 0.04713723 0.60661525 0.10540889 -0.029703569 1.4625995 -0.051534325
-0.114140704 -0.33124173 -0.2636824 1.0630006 -0.12146474 0.9786532 0.041836224 0.110267326
2.6484134 0.6553774 0.47105956 0.7512606 0.1094525 0.0011392683 -1.1459752 0.45745155
-0.2400078 0.52475566 -0.0065372437 0.48550886 1.2456114 -0.16777554 1.1435366 0.017321885
-0.08463698 -0.005049374 -0.06968625 0.0729988 -0.6464638 0.957695 0.5323391 -0.13451432
0.8872242 -0.07239429 -0.20015368 0.07779321 0.19620448 -0.12797987 -0.21374035 -0.35631424
-0.061383776 -0.077575326 -0.047293715 0.30140847 -1.4172982 -0.07364699 -0.12624255 0.9734466
-0.7124051 -0.04823168 0.12893303 0.22709033 0.69231063 -0.26852122 -0.090397045 0.28611088
0.10802001 0.06951445 0.013424113 0.7997344 -0.15964593 0.51240134 0.00468345 0.9182143
0.034615904 -0.041146375 -0.09306341 1.5427296 0.7859197 -0.1109732 -0.24775696 0.4313141
0.44350535 -0.051751256 -0.019925121 0.16761935 -0.13591209 -0.09731605 0.061139204 -0.07787869
-0.10037724 1.1037378 0.09405872 -0.028855475 -0.25968492 0.7542261 -0.0077165887 0.3037092
00000000: 6ea0 6bbd aa3b cbbd f1d1 a0be 484e 29bc
00000010: b75f a4bd fe10 af3f e8cc 8abc aff5 c5bd
00000020: d4b6 84bd a68f e83e 7ddc f6bd 4259 af3d
00000030: a9d3 893f f891 773c aebd ad3e fab0 32be
00000040: 55d2 1d3d c8bb b7bd 5d4f 883f a8c0 acbe
00000050: 9a54 22bd 7460 433f 68a1 903e 4e3c 04be
00000060: 1988 24bd 639f 62bd 87e1 f63e 2c4f 8a3c
00000070: c8ff adbc f37a 843f e87c 953e ec98 d83e
00000080: f2e9 1b3f 6672 7a3f f812 413d 234b 1b3f
00000090: 9ee0 d73d e654 f3bc 7636 bb3f a815 53bd
000000a0: 9ac2 e9bd 8498 a9be 6101 87be 6710 883f
000000b0: 81c2 f8bd 0489 7a3f 765c 2b3d d6d3 e13d
000000c0: 9b7f 2940 d0c6 273f b82e f13e 9d52 403f
000000d0: a228 e03d 8053 953a 51af 92bf 1737 ea3e
000000e0: 9bc4 75be 6356 063f 6036 d6bb 9e94 f83e
000000f0: 3270 9f3f 5acd 2bbe 685f 923f a0e6 8d3c
00000100: 2756 adbd 3875 a5bb aab7 8ebd 6580 953d
00000110: a77e 25bf 802b 753f 6047 083f 1fbe 09be
00000120: 2021 633f 7543 94bd 16f5 4cbe 0c52 9f3d
00000130: d4e9 483e 280d 03be c0de 5abe d26e b6be
00000140: 8e6d 7bbd d0df 9ebd 0eb7 41bd 3652 9a3e
00000150: 076a b5bf 3cd4 96bd ba45 01be cc33 793f
00000160: 2e60 36bf 958e 45bd 0507 043e 5e8a 683e
00000170: 453b 313f 9d7b 89be 1622 b9bd 207d 923e
00000180: 9839 dd3d 985d 8e3d d0f0 5b3c 65bb 4c3f
00000190: 397a 23be bc2c 033f a077 993b 1810 6b3f
000001a0: 68c9 0d3d 1a89 28bd 0798 bebd 2a78 c53f
000001b0: 0932 493f eb45 e3bd 00b4 7dbe 34d5 dc3e
000001c0: 2213 e33e 20f9 53bd 023a a3bc 68a4 2b3e
000001d0: 8a2c 0bbe a34d c7bd 1a6d 7a3d dd7e 9fbd
000001e0: 9592 cdbd 4847 8d3f dca1 c03d 5162 ecbc
000001f0: 6cf5 84be f614 413f 70db fcbb c67f 9b3e

stack.1.0.weight f4 [64, 128]
0.05365889 -0.10304514 -0.58352757 -0.023111913 -0.17705376 -0.007318355 -0.17444009 0.09155686
-0.112279095 -0.085278824 -0.025433108 -0.033584088 -0.26974383 0.099517874 -0.08382262 -0.29461262
-0.07422528 0.013944343 -0.19383168 -0.07854322 0.047066744 -0.2684595 0.010893503 -0.110554
-0.044421755 0.05073027 -0.16778518 0.121979125 -0.25766647 -0.3840993 -0.25956398 0.008087449
-0.10752047 -0.39112592 0.080879696 -0.0033501983 0.04648494 -0.1891934 -0.08725322 0.08842621
-0.049649414 0.14141913 -0.09073582 -0.13942833 -0.06096395 -0.4387808 -0.18668233 -0.20277877
-0.066548325 -0.2133735 -0.23960084 -0.23861405 -0.09848424 -0.12429626 -0.56910133 -0.22133271
-0.05213239 -0.44630587 -0.052593917 0.09550135 -0.11195858 0.10235327 -0.13661288 0.091705695
0.14608075 0.019694075 0.11737171 -0.26932597 -0.006451361 -0.054542035 0.20197469 -0.12489504
0.3884728 0.014988982 0.05020539 -0.32590172 0.15737386 -0.053770386 0.1753291 -0.2653135
-0.04888341 0.14046362 -0.07165548 -0.043080673 -0.09268571 -0.059286576 0.000338424 -0.26248795
0.2610431 -0.04508104 -0.10641817 -0.2904434 -0.19284606 -0.045065776 -0.10734993 -0.03434089
0.31072375 0.038018 0.14028618 -0.20150687 0.11155511 -0.63638353 -0.10104408 0.008361828
-0.023777582 -0.10670609 0.052373905 -0.061654933 0.033848394 0.022142837 -0.05885019 -0.034175545
-0.10701626 -0.19410181 0.08818853 -0.10244482 -0.09256395 -0.021508683 -0.15866116 -0.052786734
0.21872659 -0.25786382 -0.042194705 -0.08396871 0.06244175 -0.4735226 -0.18795079 -0.1079668
0.2138494 -0.06634499 -0.04403998 0.10667142 -0.047967378 0.020770714 -0.20058702 -0.17237654
-0.14670466 -0.029671738 0.078925505 0.04428675 -0.10103117 0.067495205 0.04004453 -0.030902531
-0.20380817 -0.017283838 -0.12117782 -0.191771 -0.02849119 0.010911956 0.053574957 -0.21797511
0.08778218 -0.19034375 -0.059516236 0.019190133 -0.14593934 -0.02072972 -0.057455048 0.12144709
-0.033238012 -0.37042966 0.061507076 -0.07185637 -0.10835235 -0.12641405 -0.17086531 -0.10922662
-0.08546077 0.03543646 0.096469 0.05507858 -0.15526183 -0.20276031 0.011928156 0.024639599
-0.21784088 0.100389026 -0.013905272 -0.14098008 -0.13779211 0.18243022 -0.22568452 -0.13448717
0.0034658276 -0.16931371 0.10381505 -0.064693645 -0.019080717 -0.1647501 -0.3459863 0.026733816
0.015985735 -0.060724117 -0.06381202 -0.08122049 0.0138644725 0.013100058 0.17041762 -0.17159408
-0.011320223 -0.1811453 -0.07428219 0.019755451 0.0075640604 0.00860128 -0.035403572 -0.030728877
-0.12330524 -0.08183393 -0.07615561 -0.25755987 -0.14561291 0.044245895 0.14926173 -0.12848368
0.09474482 -0.26071972 -0.07592655 -0.16216247 -0.16882773 -0.030751519 0.011303797 -0.1089392
-0.16798925 0.05010128 -0.086700484 -0.27893358 -0.12609363 -0.12118469 -0.026561871 -0.05618841
0.025209986 -0.042112615 -0.13207585 -0.004232865 -0.013584621 -0.09824655 0.16232501 -0.071899466
-0.1444799 0.044467013 0.21009515 -0.14384343 -0.1426166 -0.059030294 -0.049016044 -0.06456745
0.022458311 -0.019749122 -0.14629039 0.027275942 6.684338e-05 -0.042993367 0.050504997 -0.03801101
00000000: 6dc9 5b3d 5509 d3bd 1062 15bf 3255 bdbc
00000010: 954d 35be d0ce efbb 6ca0 32be 2a82 bb3d
00000020: 95f2 e5bd aaa6 aebd 1859 d0bc 788f 09bd
00000030: dd1b 8abe 07d0 cb3d 32ab abbd 77d7 96be
00000040: 6c03 98bd d076 643c d07b 46be 45db a0bd
00000050: 0fc9 403d 8673 89be aa7a 323c 236a e2bd
00000060: 96f3 35bd 8bca 4f3d e1cf 2bbe 31d0 f93d
00000070: dcec 83be aaa8 c4be 92e5 84be 3881 043c
00000080: b133 dcbd a841 c8be 41a4 a53d 008f 5bbb
00000090: fe66 3e3d eabb 41be d1b1 b2bd cd18 b53d
000000a0: 2f5d 4bbd 2dd0 103e b4d3 b9bd 4dc6 0ebe
000000b0: 56b5 79bd e1a7 e0be a729 3fbe 3da5 4fbe
000000c0: 7d4a 88bd 957e 5abe ec59 75be 3e57 74be
000000d0: 1bb2 c9bd 0a8f febd a0b0 11bf 0ba5 62be
000000e0: c688 55bd 3482 e4be b86c 57bd 3696 c33d
000000f0: 8a4a e5bd 979e d13d 3fe4 0bbe 32d0 bb3d
00000100: 3196 153e 7855 a13c 9460 f03d 18e5 89be
00000110: f065 d3bb 7867 5fbd 74d2 4e3e f9c8 ffbd
00000120: e8e5 c63e 5994 753c 2ba4 4d3d 97dc a6be
00000130: 9d26 213e 563e 5cbd 7989 333e 2cd7 87be
00000140: f839 48bd b2d5 0f3e 1cc0 92bd 5c75 30bd
00000150: 01d2 bdbd 7bd6 72bd 806e b139 d264 86be
00000160: 71a7 853e e6a6 38bd c5f1 d9bd ffb4 94be
00000170: 7079 45be e496 38bd 48da dbbd 08a9 0cbd
00000180: 2f17 9f3e c3b8 1b3d 2ea7 0f3e d157 4ebe
00000190: 0177 e43d 08ea 22bf 33f0 cebd 0c00 093c
000001a0: 34c9 c2bc b988 dabd 0586 563d e289 7cbd
000001b0: 9da4 0a3d e564 b53c e60c 71bd a8fb 0bbd
000001c0: 572b dbbd a0c2 46be 309c b43d 97ce d1bd
000001d0: 2b92 bdbd fa32 b0bc 1278 22be e736 58bd
000001e0: ddf9 5f3e ba06 84be 5bd4 2cbd c9f7 abbd
000001f0: ecc2 7f3d 8e71 f2be 2c76 40be b31d ddbd
00000200: 56fb 5a3e e2df 87bd 4463 34bd 8c76 da3d
00000210: 7179 44bd 5827 aa3c af66 4dbe 7a83 30be
00000220: bf39 16be 2512 f3bc b2a3 a13d 0666 353d
00000230: 6ee9 cebd ed3a 8a3d bc05 243d 4e27 fdbc
00000240: 17b3 50be d696 8dbc 142c f8bd 9e5f 44be
00000250: 5b66 e9bc 10c8 323c 6a71 5b3d de34 5fbe
00000260: 25c7 b33d 79e9 42be 4cc7 73bd a034 9d3c
00000270: 1f71 15be 60d1 a9bc fc55 6bbd 40b9 f83d
00000280: 9524 08bd f5a8 bdbe d8ee 7b3d 6f29 93bd
00000290: d6e7 ddbd af72 01be 51f7 2ebe 35b2 dfbd
000002a0: 0e06 afbd d225 113d 8a91 c53d 149a 613d
000002b0: f5fc 1ebe 66a0 4fbe 506e 433c fcd8 c93c
000002c0: ae11 5fbe c398 cd3d f0d2 63bc 155d 10be
000002d0: 6019 0dbe fdce 3a3e d819 67be 01b7 09be
000002e0: f022 633b 9360 2dbe fc9c d43d 1a7e 84bd
000002f0: 2a4f 9cbc 40b4 28be 1e25 b1be e000 db3c
00000300: 84f4 823c dab9 78bd e0af 82bd ee56 a6bd
00000310: d027 633c a0a1 563c f581 2e3e 5cb6 2fbe
00000320: 7578 39bc 277e 39be 4321 98bd 2fd6 a13c
00000330: f0db f73b 62ec 0c3c 5603 11bd 20bb fbbc
00000340: 7587 fcbd 8c98 a7bd 79f7 9bbd e3de 83be
00000350: 8d1b 15be 2f3b 353d 11d8 183e 3a91 03be
00000360: 9209 c23d 0e7d 85be 617f 9bbd eb0d 26be
00000370: 2de1 2cbe 9cea fbbc 9033 393c 841b dfbd
00000380: 6005 2cbe 0037 4d3d 0690 b1bd 62d0 8ebe
00000390: b01e 01be ae2f f8bd 4898 d9bc d125 66bd
000003a0: 2c85 ce3c 477e 2cbd e43e 07be d8b3 8abb
000003b0: 0892 5ebc 7d35 c9bd 8738 263e 0740 93bd
000003c0: 8af2 13be 0b23 363d 2f23 573e b14b 13be
000003d0: 160a 12be c0c9 71bd 0cc5 48bd f03b 84bd
000003e0: 7efa b73c e9c8 a1bc 26cd 15be cc71 df3c
000003f0: 442e 8c38 d019 30bd 54de 4e3d 6fb1 1bbd

stack.1.0.bias f4 [64]
0.12754378 -0.015882738 1.6616986 1.6396306 0.12026883 -0.6355196 -0.74475586 -0.19155034
-0.60294884 0.54515564 0.3210086 -0.84010607 -0.22178678 1.1693426 -0.24213931 -0.099458195
-0.4928257 1.6204671 -0.44053873 0.47835082 -0.05762699 -0.10172965 -0.52008057 1.9394453
-0.34544244 0.645604 0.3008722 -0.3323034 1.4179177 0.18760286 0.9746147 0.6836574
0.62577826 0.014107265 0.8726758 0.83034736 -0.049364127 -0.060666583 1.2065511 0.44825205
-0.5478051 -0.5749138 0.99964494 -0.20669736 0.75062054 1.1660973 -0.35863468 -0.17879917
-0.33852315 0.90217245 -0.29249778 -0.43325332 -0.018588908 0.16421944 -0.29906094 -0.30649304
0.43496138 0.17060688 -0.28261784 -0.04437422 -0.4121132 -0.3032515 0.9704783 0.49439347
00000000: d69a 023e 841c 82bc 8ab2 d43f 6adf d13f
00000010: 814f f63d 6ab1 22bf 52a8 3ebf c625 44be
00000020: db5a 1abf 528f 0b3f 3d5b a43e 3111 57bf
00000030: 131c 63be 05ad 953f 5ef3 77be bdb0 cbbd
00000040: a653 fcbe 776b cf3f 4b8e e1be 66ea f43e
00000050: 470a 6cbd a257 d0bd 0024 05bf be3f f83f
00000060: d5dd b0be 4e46 253f ec0b 9a3e ac23 aabe
00000070: 547e b53f f71a 403e 5980 793f 2c04 2f3f
00000080: 0133 203f 2822 673c ae67 5f3f a591 543f
00000090: 0a32 4abd 867d 78bd 4470 9a3f 4b81 e53e
000000a0: f43c 0cbf 8d2d 13bf bbe8 7f3f 79a8 53be
000000b0: ab28 403f ad42 953f f79e b7be 2117 37be
000000c0: e852 adbe c6f4 663f 45c2 95be 61d3 ddbe
000000d0: c447 98bc 2429 283e 841e 99be a8ec 9cbe
000000e0: 42b3 de3e 92b3 2e3e 49b3 90be bec1 35bd
000000f0: 8000 d3be c843 9bbe 4471 783f 2421 fd3e

stack.2.0.weight f4 [32, 64]
0.035447735 -0.0006048044 -0.0907924 -0.22842303 -0.09469411 0.09865752 -0.018413508 -0.0170419
-0.029108627 -0.17244014 0.13954583 -0.021541925 0.06806093 -0.16202246 0.25390235 0.04401297
-0.18789351 -0.12740378 -0.0559242 -0.17292145 -0.26219207 0.025379252 0.080225945 -0.02445896
0.019372411 -0.117726065 0.20586877 0.021931436 -0.26500523 -0.05265387 -0.34900743 -0.2551644
0.011270884 -0.24494052 -0.13559896 -0.11090671 0.021472167 0.15587343 -0.02829273 0.1984569
0.026040684 0.11436552 -0.008129839 -0.02901656 0.015224012 -0.02548699 0.00044071767 -0.18439952
-0.12569755 0.09117967 -0.14217207 -0.113984905 0.028187841 -0.057920247 0.0170862 0.118812
-0.029313248 0.009263169 -0.07717981 0.09841367 0.036622807 0.122381054 -0.18230955 -0.20382258
0.19127238 -0.037421793 0.23249736 0.021521779 -0.06514185 -0.050513357 -0.5102458 0.08304251
-0.06861815 -0.054324098 -0.020559624 0.28255534 0.26595742 -0.26657647 -0.027689893 -0.010354318
0.06645189 0.19692928 0.0801344 0.18050992 -0.06819343 0.044494864 0.1769568 0.09203428
-0.008501671 0.17500716 0.16416948 0.32631785 -0.39905974 0.20871228 -0.22349028 0.03684843
-0.16870645 -0.11685807 -0.15908852 -0.019501157 -0.3175431 0.0854186 0.043238338 0.019584851
0.17973492 -0.011031626 0.12703252 -0.04810953 -0.09956009 -0.34629938 0.07880826 -0.14963233
0.2367841 0.44238633 -0.08176769 0.09896862 0.09667085 0.07811274 -0.00621514 -0.08806248
-0.12890483 -0.028724153 -0.08384933 0.0747891 -0.012911297 -0.11514794 -0.05782582 0.21080154
-0.09227579 -0.16621497 0.0909828 0.16902387 -0.07558619 -0.28400695 -0.18242669 -0.11347418
0.34172145 0.040982697 -0.5677884 0.4427334 -0.053965837 0.4654276 0.09365876 -0.10266093
-0.37832808 -0.015033025 -0.10995441 -0.22073707 -0.1017462 0.18825829 -0.014427289 0.03438963
-0.023333527 -0.0029468015 0.08689436 -0.36990735 0.008335829 0.045328114 0.5278667 -0.0014244914
-0.10184245 0.113239706 -0.51670295 0.49847198 0.02114999 -0.060705114 -0.1881085 0.28400794
0.11486021 -0.1588651 -0.021945588 0.029463641 -0.22216871 -0.048546962 0.20214072 -0.04727789
0.104296096 -0.018948615 -0.31664178 -0.37586382 -0.06509004 -0.088839754 -0.006365047 0.09637506
0.14394249 -0.0853034 -0.09429906 -0.036467176 -0.19352692 0.27620083 -0.12757513 0.28182593
-0.0141389705 -0.17901348 -0.2269679 -0.31787768 -0.02723033 0.14971182 -0.11746931 -0.23725113
-0.14378402 -0.4131811 -0.1387807 -0.20146236 -0.031796306 -0.41851515 -0.121623605 -0.1874613
-0.38940096 -0.13477653 -0.18502235 -0.2896318 -0.12176052 0.18414712 0.13081975 -0.33469436
0.048600797 -0.21263826 -0.34242526 -0.23003039 -0.14011434 -0.049292196 -0.110759385 0.15550949
0.01803564 0.07075202 0.21285589 0.1701471 0.13526271 0.084032975 0.11161695 0.21818624
0.16121225 0.199636 0.09426008 -0.026291175 -0.04808545 -0.357485 -0.043419734 -0.2865355
0.20877504 -0.10365269 -0.21513307 -0.16700491 0.21641901 0.087690905 -0.034801163 -0.18065201
-0.1864876 -0.26914448 -0.2647643 -0.20587833 -0.011671694 0.12194014 -0.6305931 -0.6977226
00000000: a531 113d bc8b 1eba 5ef1 b9bd bae7 69be
00000010: fcee c1bd f40c ca3d edd7 96bc 749b 8bbc
00000020: 3775 eebc 2694 30be 1ae5 0e3e b178 b0bc
00000030: 8763 8b3d 37e9 25be 7dff 813e f246 343d
00000040: 2867 40be 2376 02be c610 65bd 5212 31be
00000050: 0a3e 86be 26e8 cf3c 804d a43d 285e c8bc
00000060: e4b2 9e3c 5d1a f1bd 43cf 523e 8ea9 b33c
00000070: c4ae 87be 96ab 57bd 1ab1 b2be e9a4 82be
00000080: 84a9 383c b0d1 7abe 74da 0abe 0f23 e3bd
00000090: 66e6 af3c 499d 1f3e 28c6 e7bc 4938 4b3e
000000a0: 4653 d53c 7838 ea3d 0433 05bc 23b4 edbc
000000b0: 226e 793c 18ca d0bc 2010 e739 3ad3 3cbe
000000c0: dcb6 00be 68bc ba3d 8e95 11be eb70 e9bd
000000d0: 30ea e63c c83d 6dbd 5cf8 8b3c b553 f33d
000000e0: 5622 f0bc 8cc4 173c 7310 9ebd 1b8d c93d
000000f0: cc01 163d eba2 fa3d 5baf 3abe deb6 50be
00000100: e8dc 433e 9847 19bd ca13 6e3e 714e b03c
00000110: 1769 85bd 18e7 4ebd 789f 02bf 3112 aa3d
00000120: ac87 8cbd f282 5ebd a86c a8bc 18ab 903e
00000130: 922b 883e b67c 88be ead5 e2bc 28a5 29bc
00000140: ee17 883d d4a7 493e 811d a43d 98d7 383e
00000150: ffa8 8bbd 3f40 363d 2a34 353e 787c bc3d
00000160: 984a 0bbc 1435 333e 0b1c 283e 2213 a73e
00000170: 8f51 ccbe acb8 553e a3da 64be 61ee 163d
00000180: 62c1 2cbe 4953 efbd 1ae8 22be e4c0 9fbc
00000190: 0295 a2be f2ef ae3d af1a 313d 6970 a03c
000001a0: 6e0c 383e febd 34bc d014 023e 800e 45bd
000001b0: 29e6 cbbd 274e b1be 3a66 a13d 3839 19be
000001c0: 8877 723e 7680 e23e d275 a7bd 0fb0 ca3d
000001d0: 5efb c53d 92f9 9f3d 60a8 cbbb 1a5a b4bd
000001e0: a1ff 03be ea4e ebbc 33b9 abbd 072b 993d
000001f0: e889 53bc afd2 ebbd c4da 6cbd 5cdc 573e
00000200: 17fb bcbd 4234 2abe 3155 ba3d 9814 2d3e
00000210: efcc 9abd 5c69 91be 10ce 3abe 2765 e8bd
00000220: 1df6 ae3e 79dd 273d 955a 11bf f4ad e23e
00000230: 480b 5dbd 874c ee3e 2ad0 bf3d e53f d2bd
00000240: 38b4 c1be 144d 76bc c72f e1bd e608 62be
00000250: 5060 d0bd c8c6 403e 7060 6cbc 24dc 0c3d
00000260: f425 bfbc 201f 41bb acf5 b13d 7f64 bdbe
00000270: 0093 083c f9a9 393d 4622 073f 00b6 baba
00000280: c692 d0bd 38ea e73d a546 04bf b837 ff3e
00000290: be42 ad3c eda5 78bd 849f 40be 7d69 913e
000002a0: d43b eb3d 88ad 22be 3cc7 b3bc bc5d f13c
000002b0: 3280 63be 2ed9 46bd fafd 4e3e 76a6 41bd
000002c0: 3199 d53d 203a 9bbc df1e a2be 3971 c0be
000002d0: ed4d 85bd 9ef1 b5bd e291 d0bb 4a60 c53d
000002e0: a965 133e 8db3 aebd de1f c1bd 9b5e 15bd
000002f0: ec2b 46be 326a 8d3e 0ea3 02be 7d4b 903e
00000300: 24a7 67bc 4f4f 37be 466a 68be ddc0 a2be
00000310: 2412 dfbc 0e4e 193e c093 f0bd f6f1 72be
00000320: 1e3c 13be 798c d3be 871c 0ebe 264c 4ebe
00000330: d83c 02bd 9e47 d6be cc15 f9bd dbf5 3fbe
00000340: 905f c7be dc02 0abe 8076 3dbe 9f4a 94be
00000350: 945d f9bd 1091 3c3e 9df5 053e 0f5d abbe
00000360: a111 473d d8bd 59be 5d52 afbe 168d 6bbe
00000370: 227a 0fbe 9de6 49bd d1d5 e2bd e13d 1f3e
00000380: 7abf 933c 6fe6 903d e5f6 593e 0b3b 2e3e
00000390: 4f82 0a3e 7b19 ac3d 6d97 e43d 376c 5f3e
000003a0: d314 253e 616d 4c3e 6e0b c13d 9760 d7bc
000003b0: 40f5 44bd 4608 b7be e4d8 31bd c8b4 92be
000003c0: 20c9 553e dd47 d4bd d84b 5cbe 5603 2bbe
000003d0: f29c 5d3e 4a97 b33d aa8b 0ebd d7fc 38be
000003e0: 9bf6 3ebe 4ecd 89be 308f 87be c5d1 52be
000003f0: a23a 3fbc c1bb f93d 8d6e 21bf f39d 32bf

stack.2.0.bias f4 [32]
0.0043182 -0.06184923 0.8237092 -0.273315 0.8779497 0.8532672 -0.47720438 1.3364644
0.713882 0.5836668 -0.07676194 0.7556503 -0.09806192 0.3784489 -0.4113202 1.1155307
-0.22203967 0.5590255 0.96158123 -0.45348102 0.12382935 -0.38606316 0.7594845 0.13652642
0.51882905 -0.31699464 1.0407678 -0.2544274 -0.30387375 -0.25132567 -0.05075243 -0.22266576
00000000: b07f 8d3b 9e55 7dbd 9bde 523f f2ef 8bbe
00000010: 50c1 603f b86f 5a3f 2254 f4be 4411 ab3f
00000020: f9c0 363f 306b 153f 5d35 9dbd 4c72 413f
00000030: b0d4 c8bd 0ec4 c13e 9098 d2be b6c9 8e3f
00000040: 5e5e 63be 4c1c 0f3f 302a 763f aa2e e8be
00000050: 3e9a fd3d 12aa c5be 946d 423f 95cd 0b3e
00000060: fbd1 043f 1f4d a2be e137 853f 4f44 82be
00000070: 5795 9bbe c2ad 80be c8e1 4fbd 7e02 64be

stack.3.0.weight f4 [10, 32]
-0.20790407 -0.25940928 0.17350765 0.1714546 -0.08041315 0.40023538 0.04769413 0.031746678
0.04014939 0.19704016 0.1882375 0.083842635 -0.019154325 0.10512169 0.13423207 0.116349325
-0.14224884 -0.2809208 -0.2326253 -0.064256445 -0.36286837 -0.058770403 -0.016429476 0.054169152
0.006140828 0.066928595 0.053154223 0.04482368 0.036484286 -0.20801316 0.08169627 0.0027198903
-0.15851125 -0.30403307 0.002298832 0.07637909 0.015059538 0.14811277 0.38521844 0.03182988
0.050404064 0.18205823 -0.13268375 0.09184191 0.040132143 -0.2191423 -0.020024505 -0.08986726
-0.14905149 -0.06064224 0.0021457374 0.1004012 -0.05737707 0.048970997 0.2089332 0.1251091
0.22048779 -0.051977955 -0.21623671 0.13240619 0.24481446 -0.0800021 -0.11958643 -0.0062658787
0.036351874 0.047467314 -0.007101454 -0.037681 0.2288238 0.1036758 0.04927577 -0.2304223
-0.09714484 0.3314575 0.017451841 0.0029148161 0.013221391 -0.13309336 0.015133424 0.06760977
0.13474295 0.32322827 -0.22261177 -0.033532258 -0.30546874 0.038173497 0.0180423 -0.28619546
0.050177492 0.11424999 0.37121397 -0.017004326 -0.17748255 -0.19747649 0.12822136 0.049620196
-0.18917903 -0.4462437 0.026850205 0.18054584 -0.029595848 -0.06635673 -0.3904605 0.06295769
0.058264878 0.112302676 0.17738383 0.32293767 -0.1477402 0.14805435 0.022540472 0.123623
0.07800768 -0.14712979 -0.13812372 0.2230215 -0.5718845 0.28933156 0.16277713 0.1846939
0.18109584 -0.042170603 0.14557882 -0.04765872 -0.19751345 0.15002398 -0.40853238 -0.18265806
-0.19413707 -0.15894945 -0.31459183 -0.07527389 -0.11956648 -0.096502915 -0.12015242 -0.3692444
-0.102562204 0.11616759 -0.07600893 0.21521379 0.20222056 0.09952605 -0.11458312 -0.14765954
0.21868733 0.08240936 -0.11372182 0.14902319 0.042515803 -0.07453369 0.14677818 -0.057677247
0.13577731 0.19711098 0.2830119 0.09176473 -0.070072174 -0.011794064 0.09983601 -0.09482238
0.1856275 0.39918336 -0.047891587 0.154674 -0.0476612 -0.08941069 -0.057737295 0.16507976
0.04724904 -0.1722278 -0.17457935 0.18927565 -0.037620656 -0.081256576 -0.17724155 0.017135669
0.21287882 0.0898474 0.1269284 -0.3734422 0.17036664 0.06581533 -0.21897537 -0.07678195
-0.07774828 0.13492566 0.3523792 -0.39072433 -0.19389483 0.2671355 -0.48500678 0.30356064
0.09362973 -0.31371447 -0.19259171 -0.09528274 0.19883306 0.055024665 -0.052671734 -0.22566882
-0.37980255 0.26166135 0.13655776 0.09364015 -0.04670295 0.08282779 0.06458126 0.14742917
-0.06072681 -0.13063659 0.08099818 0.07752711 -0.54965436 -0.10385041 -0.08057254 0.11976439
0.24034637 -0.028949125 0.29911014 0.27010214 -0.13614632 0.15046702 -0.052906945 -0.14881898
-0.0049587823 -0.27148402 0.0109918825 0.081432484 0.52699363 -0.22334383 -0.020363484 0.0791378
-0.004911132 -0.26124647 0.025966093 0.30688435 0.07405346 0.10927837 -0.30193394 0.20973754
-0.029621407 -0.27839935 0.04910685 0.05012575 -0.36171404 0.014095619 -0.860736 0.040928967
-0.26988754 -0.07120345 0.42624003 0.15065435 0.30326724 0.16669753 -0.22464746 -0.0058434494
00000000: cee4 54be 4bd1 84be fdab 313e cb91 2f3e
00000010: a6af a4bd a7eb cc3e ec5a 433d ce08 023d
00000020: b073 243d e5c4 493e 55c1 403e b0b5 ab3d
00000030: 88e9 9cbc 0a4a d73d 2274 093e 8e48 ee3d
00000040: aea9 11be dad4 8fbe 5435 6ebe e298 83bd
00000050: e2c9 b9be 3cb9 70bd 1c97 86bc 79e0 5d3d
00000060: 0039 c93b dc11 893d 3eb8 593d 0999 373d
00000070: 8c70 153d 6701 55be 6050 a73d 3040 323b
00000080: c650 22be 39aa 9bbe 00a8 163b a46c 9c3d
00000090: 48bc 763c e0aa 173e 5a3b c53e 0c60 023d
000000a0: 7e74 4e3d 796d 3a3e 40de 07be 9c17 bc3d
000000b0: 9a61 243d d766 60be 6e0a a4bc 530c b8bd
000000c0: f4a0 18be ff63 78bd 809f 0c3b 259f cd3d
000000d0: 3804 6bbd d095 483d 96f2 553e 9a1c 003e
000000e0: 8dc7 613e d6e6 54bd 286d 5dbe 7d95 073e
000000f0: a4b0 7a3e 24d8 a3bd bbe9 f4bd 0052 cdbb
00000100: b4e5 143d 166d 423d 50b3 e8bb 6457 1abd
00000110: c950 6a3e fa53 d43d 64d5 493d d3f3 6bbe
00000120: e0f3 c6bd ccb4 a93e 2af7 8e3c 8006 3f3b
00000130: 889e 583c a049 08be 2ef2 773c fe76 8a3d
00000140: 0efa 093e 2d7e a53e 57f4 63be 1f59 09bd
00000150: 6666 9cbe d05b 1c3d 72cd 933c 3688 92be
00000160: ea86 4d3d e6fb e93d c20f be3e a84c 8bbc
00000170: fcbd 35be 4737 4abe 764c 033e 8c3e 4b3d
00000180: 26b8 41be 0e7a e4be f6f4 db3c 02e1 383e
00000190: fe72 f2bc 0ae6 87bd 70ea c7be f6ef 803d
000001a0: 27a7 6e3d f2fe e53d 1ba4 353e 1658 a53e
000001b0: 3549 17be 8f9b 173e cca6 b83c 0e2e fd3d
000001c0: 7ec2 9f3d 31a9 16be 4e70 0dbe c05f 643e
000001d0: 0667 12bf 4423 943e 0caf 263e 6620 3d3e
000001e0: 3071 393e 15bb 2cbd 9d12 153e ca35 43bd
000001f0: f740 4abe e39f 193e 282b d1be b70a 3bbe
00000200: decb 46be a5c3 22be 2e12 a1be 3229 9abd
00000210: 45df f4bd 52a3 c5bd 7912 f6bd 9a0d bdbe
00000220: 220c d2bd 46e9 ed3d 92aa 9bbd 0161 5c3e
00000230: e812 4f3e 50d4 cb3d 8eaa eabd 1034 17be
00000240: 92ef 5f3e 3dc6 a83d fce6 e8bd 8999 183e
00000250: 0d25 2e3d 1fa5 98bd 054d 163e fa3e 6cbd
00000260: 3509 0b3e 76d7 493e f0e6 903e 26ef bb3d
00000270: 0082 8fbd e43b 41bc d276 cc3d 3c32 c2bd
00000280: 2315 3e3e c361 cc3e f829 44bd dc62 1e3e
00000290: 6438 43bd f41c b7bd f17d 6cbd ab0a 293e
000002a0: 3688 413d 7c5c 30be eec4 32be 7ad1 413e
000002b0: 1e18 1abd d969 a6bd cf7e 35be 1a60 8c3c
000002c0: e8fc 593e ea01 b83d 85f9 013e d133 bfbe
000002d0: 9874 2e3e 30ca 863d 143b 60be db3f 9dbd
000002e0: 7d3a 9fbd f429 0a3e 0c6b b43e 050d c8be
000002f0: 5e8c 46be fcc5 883e cf52 f8be 4d6c 9b3e
00000300: f2c0 bf3d 2f9f a0be c336 45be 9923 c3bd
00000310: e59a 4b3e 8b61 613d 51be 57bd ba15 67be
00000320: 7b75 c2be 7af8 853e ccd5 0b3e 68c6 bf3d
00000330: 984b 3fbd 9ea1 a93d 2e43 843d acf7 163e
00000340: adbc 78bd 99c5 05be 60e2 a53d 89c6 9e3d
00000350: 26b6 0cbf 86af d4bd 3703 a5bd 0847 f53d
00000360: 5c1d 763e b726 edbc f724 993e d44a 8a3e
00000370: f169 0bbe 0714 1a3e f4b4 58bd 0164 18be
00000380: 487d a2bb f4ff 8abe 4c17 343c 13c6 a63d
00000390: 0ee9 063f 3fb4 64be 52d1 a6bc 0013 a23d
000003a0: 90ed a0bb 19c2 85be d8b6 d43c f21f 9d3e
000003b0: 57a9 973d 57cd df3d 1697 9abe 70c5 563e
000003c0: 98a8 f2bc 5c8a 8ebe 4424 493d a950 4d3d
000003d0: 9532 b9be 50f1 663c 3259 5cbf 22a5 273d
000003e0: b32e 8abe 1dd3 91bd 223c da3e 2245 1a3e
000003f0: d845 9b3e c2b2 2a3e fc09 66be 687a bfbb

stack.3.0.bias f4 [10]
-0.08874529 0.0077566095 -0.06024394 -0.014718745 -0.20307016 0.44180557 0.52150726 0.5634515
-0.27593577 0.028226618
00000000: 17c0 b5bd 282b fe3b 5ac2 76bd e426 71bc
00000010: a0f1 4fbe 5734 e23e 8081 053f 5c3e 103f
00000020: 7447 8dbe 823b e73c
