src/fminst/models/transfer_5_0.pt (torch, 447681 bytes, 8 tensors)

stack.0.0.weight f4 [128, 784]
000000 a8 bd 40 bd 30 07 25 bd 4c b4 84 3d 8b f7 3e bd
       -0.04705587 -0.040290058 0.064797014 -0.046622794
000010 a6 50 1a be 20 21 8d bc d8 f6 90 bd 88 e5 22 bd
       -0.15069827 -0.01722771 -0.07078332 -0.03976968
000020 8f 00 0a 3e 78 42 01 3d d0 73 d8 3d 0a ed 86 bd
       0.13476776 0.03155753 0.105689645 -0.0658818
000030 68 d4 c9 3c 84 b0 1e be bc de 52 bd d2 f2 04 be
       0.024637416 -0.15497023 -0.051481947 -0.12983254
000040 7d fb 13 3d 71 c7 cf 3d 16 a6 dd 3d ba f4 30 bc
       0.03612851 0.10145462 0.10822694 -0.010800535
000050 00 48 6d 3d ee e5 16 bd 57 3d bc bc 0b 3d 33 bd
       0.057929993 -0.03684037 -0.022978468 -0.043759387
000060 94 7e 88 bd a9 b6 a1 3d 60 eb db 3a d0 9a cc bd
       -0.06664768 0.07896168 0.0016778521 -0.09990466
000070 b6 c8 4b 3d ad 51 c2 bd a2 be 57 3d 31 3e 37 bd
       0.04975196 -0.09488235 0.052672036 -0.044737045
000080 0a 5b cf bd 47 1e c7 bd 9c 44 25 3d 3e 30 17 be
       -0.10124786 -0.09722572 0.040348634 -0.14764497
000090 b4 97 98 3d 1a cb 95 3d c8 fa dc 3c d8 18 7f 3c
       0.0745081 0.07314129 0.02697505 0.015569888
0000a0 14 e4 09 be 0e 1f 06 3d de 1c b0 bd 50 63 bf 3d
       -0.13465911 0.03274446 -0.08599256 0.09345114
0000b0 1d 12 0c be 30 1c 8f 3c f1 8b 81 3d d7 a8 99 3b
       -0.13678785 0.017469496 0.0632552 0.0046893167
0000c0 94 2e 6e bd d8 b5 3b 3e ef 6c 9e bd 7a 08 a7 bc
       -0.05814989 0.18331087 -0.07735621 -0.020389784
0000d0 3b c8 a8 bd 80 37 fc bd f8 e5 03 3e 20 2f 67 be
       -0.08241316 -0.12315273 0.12880695 -0.2257657
0000e0 c7 9b e9 bb e5 10 e9 bd ac 96 bc 3d e0 c9 f9 bd
       -0.007129166 -0.113801755 0.09208426 -0.12196708
0000f0 a8 47 a5 3c ee 04 53 bd 06 a5 f5 bc 25 f9 7c 3d
       0.02017577 -0.051518373 -0.029985916 0.06176104
000100 d0 22 66 bb 3e ea 4b be c5 60 02 bd 9a cc c2 bd
       -0.0035115965 -0.19913575 -0.031830568 -0.09511681
000110 94 ca c8 3d 0c d8 43 be ec c4 19 be bb b8 3a be
       0.09804264 -0.19125384 -0.15016526 -0.18234532
000120 b1 33 51 3d 4f 81 37 be 68 5d ec bc d9 5f 2a bd
       0.051074687 -0.17920421 -0.028853133 -0.041595314
000130 f7 a9 5f bd b4 33 d2 bc ea 68 5e be 79 93 db bd
       -0.05460545 -0.02565942 -0.21719709 -0.107214876
000140 6d 0c 5f be 9e f4 95 3d 9d 35 2a be 23 77 20 be
       -0.21782084 0.07322048 -0.16622014 -0.15670447
000150 4c da fe 3d be 7f 09 be c2 4b 4c be 26 71 4b be
       0.124439806 -0.13427636 -0.19950774 -0.19867381
000160 10 bd e1 bd ca 6b 42 3d 3e 87 f0 bd 10 fe 48 3c
       -0.11022389 0.047466077 -0.117445454 0.0122676045
000170 78 90 e9 3b 81 7b 8b bd 2d 1d f4 bd 12 dd 5d bd
       0.0071278177 -0.06810666 -0.11919627 -0.054165907
000180 b6 90 0c bd 02 3a 8b bd 4e 41 c7 bc a9 93 43 be
       -0.034317695 -0.067981735 -0.024323132 -0.19099297
000190 be e9 5a bc 7f 75 59 3d f1 c1 3a be 53 77 5c be
       -0.013361393 0.05309057 -0.18238045 -0.21529894
0001a0 1a 75 69 be 5b 2e fc bd 4e 7a 3a be a1 31 1a 3d
       -0.22798577 -0.12313529 -0.18210718 0.037644986
0001b0 16 86 99 be db ae 5a bd 9d 59 de bd 9c ad 12 be
       -0.29985112 -0.05338941 -0.10856936 -0.14324039
0001c0 98 a2 27 bc 6e 2f b6 3c ae 08 51 bd cb 3a a7 bd
       -0.010231636 0.022239413 -0.05103367 -0.08165511
0001d0 2a 7a e3 bc 44 7d 2f be 67 ae 93 bd ab 23 c6 bd
       -0.027768213 -0.17137629 -0.07210999 -0.09674772
0001e0 ca d2 59 bd e0 8c 0a 3e 0b 2e 0e bd 1e b8 76 be
       -0.05317954 0.13530302 -0.03471188 -0.24093673
0001f0 60 0c b4 bb 20 ba 85 3b 60 0b 46 3c a3 08 58 be
       -0.0054946393 0.0040810257 0.012087673 -0.21097045
000200 64 01 8b be 04 fc cd bd e8 1e 17 be e1 30 9d bd
       -0.27149498 -0.10057834 -0.14757884 -0.076753385
000210 12 53 a0 bd 55 95 d3 bd 5a eb 0b 3e 01 9c fe bc
       -0.078283444 -0.10331217 0.13663998 -0.031080248
000220 b9 dc 6f be 23 fa 82 bd c8 88 1c 3c 90 dc 67 bd
       -0.23424043 -0.06395366 0.009554096 -0.05660683
000230 f1 10 42 3d 22 f0 bf 3a a6 9f ca bd 21 51 21 3d
       0.047379438 0.0014643709 -0.09893732 0.03938401
000240 7a f5 53 be bc 7a 4c be 2c db 58 bd a6 a4 05 bd
       -0.2069911 -0.19968694 -0.052943394 -0.032627724
000250 a3 a9 2a be 72 44 28 3d 48 01 d2 3c b4 39 49 3d
       -0.16666274 0.0410809 0.025635377 0.049127296
000260 28 9f ff bb b6 da d3 bd d0 5f a0 bd b4 a1 29 be
       -0.0078009553 -0.1034445 -0.07830775 -0.16565591
000270 46 3a ba bd 8e fd cf bd 30 ba 65 3c f4 86 46 3d
       -0.09093146 -0.101557836 0.014021441 0.048468545
000280 de 2a a6 3d ac 3e ce bd 20 10 a6 bb c4 a9 a2 bc
       0.08113645 -0.100705475 -0.00506784 -0.019856341
000290 94 28 57 bd 2b 36 f3 bd a7 ef a1 bd 7c 82 f0 bd
       -0.052528933 -0.11875566 -0.07907038 -0.11743638
0002a0 f7 1a 13 3d c2 19 7b bd 1c 6f 4e 3d 1f 4a cc bd
       0.035914388 -0.06130386 0.05039893 -0.09975075
0002b0 9f 4e 1f be c8 09 ce bc 6f 5b 68 bd 95 7a 03 3d
       -0.15557335 -0.025151148 -0.056727823 0.032099325
0002c0 68 0d 4a bc eb 6d d0 bd dc 19 7a bd 80 65 19 bd
       -0.012332298 -0.10177215 -0.061059818 -0.037450314
0002d0 52 65 05 3d 31 95 90 3d 48 cf 69 bd d4 67 32 bd
       0.03256733 0.07059706 -0.057082444 -0.04355605
0002e0 ae f6 84 bd 27 d1 04 be fa 0d 8d be 20 06 72 bb
       -0.06492363 -0.1297041 -0.27549726 -0.003692992
0002f0 6f 9a 9c 3d 70 34 60 bc 61 bd 2a be 00 06 f2 bd
       0.07646643 -0.013684377 -0.16673805 -0.11817551
000300 f0 ca 70 be 83 d3 86 bd 90 73 6d bd d2 c2 58 3d
       -0.23514915 -0.065833114 -0.057971537 0.05292017
000310 18 0a 93 bc 94 df 0b 3e ce 26 1d 3d 5e e7 bb bd
       -0.017949149 0.13659507 0.038367085 -0.09174989
000320 71 8e 36 3e e8 eb c0 bd 90 49 82 bc 65 ec f3 bd
       0.17827775 -0.094199955 -0.015904218 -0.11910323
000330 eb 2c bc bd 44 a8 88 3d 3a 57 2f be c0 1f 7b bb
       -0.09188255 0.06672719 -0.17123118 -0.0038318485
000340 6c 89 e6 bd d2 dd 95 bd 7b 62 9d be a8 7c c2 bd
       -0.1125668 -0.073176995 -0.30739197 -0.094964325
000350 bc 83 f1 bd 6f 41 39 bd 2a 54 98 bc 8a 76 a5 3d
       -0.117927045 -0.045228418 -0.01859482 0.0807925
000360 e8 66 62 bc ca c6 7c bd d8 39 f7 3b ad 9f 7b bd
       -0.01381848 -0.061713018 0.0075447373 -0.061431576
000370 f2 ff 8c 3c 26 69 de 3d a1 8c b1 bd 8c 34 89 3c
       0.017211888 0.10859899 -0.08669401 0.01674869
000380 94 94 7e 3c cf 50 ef bd 66 aa 07 bd 24 3f f0 3c
       0.0155383535 -0.11685335 -0.03312149 0.029326983
000390 cd 38 0f be af 99 4d 3e a2 79 35 be c5 9c 06 bd
       -0.13986512 0.20078157 -0.1772218 -0.03286435
0003a0 35 f0 50 3d 11 58 36 be fe d5 24 be f8 94 a5 bd
       0.05101033 -0.17807032 -0.16097257 -0.08085054
0003b0 44 d1 8a bd e4 4b 57 3d 16 6d 0c 3d 0c ba 5c bd
       -0.067781955 0.05256261 0.03428372 -0.053888366
0003c0 a7 93 27 bd 74 75 00 be ee 7a cd bd ee 7f 77 be
       -0.040912297 -0.12544805 -0.100332126 -0.24169895
0003d0 17 c7 19 be 35 17 33 bd 92 f3 ce bd b9 6e 1a be
       -0.15017353 -0.043723304 -0.10105051 -0.150813
0003e0 7a b4 a7 bd 90 98 cd 3d 37 33 50 bd 23 f8 c3 3d
       -0.0818872 0.100388646 -0.050830092 0.09568813
0003f0 7d f5 08 3e 22 75 88 bd ff 88 3a bd 2e 4b 96 bc
       0.13374896 -0.06662966 -0.045540806 -0.018346395

stack.0.0.bias f4 [128]
000000 7e 39 5b be ff f1 13 3f 70 33 a7 3e 8a 2d d2 bd
       -0.2140865 0.5779113 0.3265643 -0.10262592
000010 90 47 8c 3f d0 84 38 bd 04 1d 2a 3c c0 c7 87 bd
       1.0959339 -0.045048535 0.010382894 -0.06629896
000020 d0 64 ac 3d 04 94 74 3f 72 b6 aa 3f e2 01 99 3e
       0.08417666 0.95538354 1.3336928 0.2988425
000030 7e 81 0f 3f b4 f3 0e be 72 35 2c bd 4c 91 0c be
       0.56056964 -0.13960153 -0.042043157 -0.13727301
000040 8a 7c 91 bd 80 b7 5a bf f0 0b 88 be c7 08 35 be
       -0.07103832 -0.8543625 -0.26571608 -0.1767913
000050 49 d6 4a be 94 92 0c bd 10 db b8 bd 11 39 16 bd
       -0.19808306 -0.034319475 -0.09026158 -0.036675517
000060 2e 8c 8d 3d d9 1e 2f 3f d2 5c 05 be 30 07 ae 3a
       0.06911503 0.68406445 -0.1302369 0.0013277289
000070 8c b0 9c bd 14 e9 9f 3f 8c 93 5b be 5c 67 05 be
       -0.07650861 1.2493005 -0.21443003 -0.1302771
000080 6d d8 0e 3d e8 39 fa 3f de 9e cf 3c 23 ef 13 3d
       0.03487437 1.9548922 0.025344308 0.03611673
000090 d5 3d 67 bd f1 1b 6b 3f 4f d8 c4 bd 16 51 6b 3d
       -0.056455452 0.9183951 -0.0961157 0.057450376
0000a0 eb ac 96 3d f6 63 9c 3d 4c 4c f1 bd 30 04 26 be
       0.073572 0.076362535 -0.117821306 -0.16212535
0000b0 60 e3 1e be f2 11 6b 3f a4 e7 99 3d df 86 6b be
       -0.15516424 0.9182426 0.07514885 -0.23000668
0000c0 9f ca 26 bd 66 cd 6e 3d 4d 5e 65 bd 0c 74 ca bd
       -0.04072058 0.058301352 -0.055998135 -0.098854154
0000d0 00 85 fc bb 94 95 9a 3f b8 a3 4f 3f 70 19 56 bd
       -0.0077062845 1.2076898 0.8110919 -0.052270353
0000e0 e8 3b 62 3c 30 fa e9 bf 1c 5e 94 bd 4e e7 9e 3f
       0.013808228 -1.8279476 -0.072445124 1.2414339
0000f0 16 3d 44 be 58 7c 09 be 74 c8 82 bf 96 52 92 3d
       -0.19163927 -0.1342634 -1.0217423 0.07144658
000100 fd 72 a9 bf 52 ba 36 bc 90 cd 96 3f 48 83 c2 3e
       -1.3238217 -0.011152821 1.1781483 0.37990785
000110 31 75 90 bf d3 7f 75 3f 8c 43 4d bd 95 5b fa bd
       -1.1285764 0.9589817 -0.050113246 -0.12224499
000120 51 c2 57 3d 92 e8 9a bd 87 cf 43 bd 89 01 2e be
       0.05267555 -0.075638905 -0.047805335 -0.16992773
000130 f2 73 bf 3d 75 30 5b 3f 70 c9 d3 3e 05 8c 22 bd
       0.09348287 0.85620815 0.41364622 -0.039684314
000140 d7 5b ba 3c dd 83 a1 3e 64 5a 08 be 48 2c 9f bd
       0.02274887 0.31545916 -0.13315731 -0.07772118
000150 e6 86 dd bd dc 68 e0 bc d0 71 ca bb a5 d6 8b 3f
       -0.108167455 -0.02739375 -0.0061781183 1.0924879
000160 6e 15 2d be 3f d8 3c bd 7b 72 d8 3e 15 da 24 be
       -0.16902706 -0.046104666 0.42274842 -0.16098817
000170 64 82 49 3d 26 5c 06 3f 92 db 23 bd 6c b0 77 bc
       0.049196616 0.5248436 -0.04000432 -0.015117746
000180 50 96 7b 3b 95 6a 05 3e 4e 0f 9a bd 80 2d 9b 3a
       0.0038389154 0.13028939 -0.075224504 0.0011839122
000190 76 fa c4 bd 91 9c 07 be fe 64 54 be 44 0c 98 3c
       -0.09618084 -0.13243319 -0.2074165 0.018560536
0001a0 9e ba 6e be a6 08 34 3f cc c6 dd 3e 1a fe ca bd
       -0.23313376 0.70325696 0.43315732 -0.09911747
0001b0 be df 4b 3d b0 11 10 3d d4 56 80 bd 7c ce f2 bd
       0.049773924 0.035173118 -0.06266561 -0.1185579
0001c0 78 56 01 be 64 8e a5 3d 19 3d 1c 3d ee 18 50 3f
       -0.12630641 0.080837995 0.038144205 0.8128804
0001d0 e0 85 2b bb cd d4 81 be bb 76 c8 bf 6e 41 fb 3c
       -0.0026172325 -0.25357667 -1.5661234 0.030670848
0001e0 96 0c c4 3c 2e bb 07 be a8 2a 7b bc c1 42 2c be
       0.023931783 -0.13254997 -0.015329994 -0.1682234
0001f0 20 48 ec bb 03 70 2f 3f 42 25 be bd 6c 3e 22 3d
       -0.0072107464 0.6853029 -0.0928445 0.03961031

stack.1.0.weight f4 [64, 128]
000000 4c 91 8c be 88 d1 b3 3d 51 4c 2e bd 06 c0 3c 3e
       -0.27454603 0.08780199 -0.04255325 0.18432626
000010 2c e5 65 bd 9c 06 b6 3c 3e 79 93 bd 30 15 79 3e
       -0.05612676 0.022219948 -0.072008595 0.24324489
000020 42 6c 91 3e 64 9e 1f bf 0a 58 63 be 51 e6 0b bf
       0.28402907 -0.6235106 -0.22201553 -0.5464831
000030 c1 84 bd 3d 7f 83 a4 bd 38 7a ac 3d 52 5f 5a 3e
       0.092538364 -0.080328934 0.08421749 0.21325424
000040 00 c4 8a 3e 82 85 9c 3e 71 85 b8 bd ea a9 69 bd
       0.2710266 0.30570608 -0.09009827 -0.05704681
000050 89 32 01 be fb e3 d6 3d 29 a4 17 3e 32 7a 07 bd
       -0.12616934 0.104927026 0.14808716 -0.03307552
000060 d8 d8 93 3d c0 58 a2 3b 4a 46 b3 3d 64 12 50 be
       0.07219094 0.0049544275 0.08753641 -0.20319515
000070 74 48 56 3d d9 ec 85 be 67 de bd bd 04 27 28 3c
       0.05231519 -0.26157263 -0.092709355 0.010263208
000080 90 c2 2e bc d7 12 d5 3e e1 c1 1e 3e 99 28 54 3e
       -0.0106665045 0.41615936 0.15503646 0.20718612
000090 80 58 c1 ba 26 74 f7 be 47 66 02 be 74 35 a7 3c
       -0.0014751107 -0.48330802 -0.12734328 0.02041123
0000a0 fa f6 68 3e 30 ea a8 bc 24 68 81 3e ee 04 3e be
       0.22750464 -0.020619482 0.25274765 -0.18556568
0000b0 6a ee 1e 3e bc 75 d1 3e 8a 43 18 be ce 00 6b bc
       0.15520635 0.40910137 -0.14869514 -0.014343454
0000c0 a0 ce 75 bb aa ba 52 3e cf 74 13 3d fe eb 08 3e
       -0.0037507191 0.20579019 0.03600007 0.13371274
0000d0 1e 17 74 bd 7a 8c 05 3d fb 54 4b be 9f ad a8 bd
       -0.05959236 0.032604672 -0.19856636 -0.082362406
0000e0 6a 19 40 3d 0a 16 ec 3d de 26 8c 3d 08 b3 4a 3f
       0.046899237 0.11527641 0.06843351 0.7917943
0000f0 d1 42 1f 3e e2 2a 15 3e c0 a4 0d bd 27 f9 c6 bd
       0.15552832 0.1456714 -0.034580946 -0.09715491
000100 53 09 ed 3e 38 5b 76 3d 4a f0 02 be d4 e8 b7 3e
       0.46296176 0.060145587 -0.12786976 0.3591982
000110 be 13 d1 be 51 c9 f8 bd b4 9e 6c 3c f8 f6 23 bc
       -0.40835375 -0.12147773 0.014442135 -0.010007612
000120 a4 5b 56 3e 77 43 13 3e 18 5a c7 3d a6 09 70 3d
       0.20933396 0.14381205 0.09733981 0.05860295
000130 6f 8c ea 3d 0d 8f 1b 3e 51 6d bf bd 37 cb 95 3c
       0.11452567 0.15191288 -0.09347022 0.018285377
000140 9d 97 04 be 0d c9 a8 3e 0a 85 de bd b0 5c 31 3d
       -0.12948461 0.3296589 -0.10865219 0.043301284
000150 93 32 08 3e b8 bb af 3d 9a 50 42 3e 18 2c 43 3d
       0.13300543 0.085807264 0.1897606 0.047649473
000160 ce 58 9e 3d 0b 62 e1 bd 4c 2e 20 3f 2a 09 17 3d
       0.07731782 -0.11005028 0.62570643 0.036873974
000170 bf 18 f6 bd e1 a9 44 be d9 43 91 3e 4a 03 66 3e
       -0.12016439 -0.19205429 0.28372076 0.22462192
000180 89 69 6a 3d 40 d4 1c bb 40 1c 30 b9 98 72 62 bd
       0.057229552 -0.0023930222 -0.00016795192 -0.055285066
000190 5e 55 ce be 85 b2 ca bd e5 5c 7d 3c d0 fd 5f be
       -0.40299505 -0.09897331 0.015464042 -0.21874166
0001a0 79 40 dc 3e 05 4e 26 3e 71 4c 5d 3e 35 23 e6 3d
       0.4301794 0.162407 0.21611191 0.11237184
0001b0 89 49 3d 3d ca 03 5b 3e d0 bd 04 3c ff b0 12 3e
       0.046212707 0.21388164 0.008101895 0.14325331
0001c0 94 a4 93 3d 9e 22 e8 3d 4a 40 b7 bd 5f ed 37 be
       0.07209125 0.11334728 -0.08947809 -0.17961644
0001d0 35 6a a2 3d 0e 07 31 3e 2c e5 fd bd 5c 86 cc 3d
       0.07930414 0.17287847 -0.12397227 0.099865645
0001e0 48 a9 f2 3d 00 a4 3d 39 fe 23 2b 3e 57 7c 98 bc
       0.11848694 0.0001808554 0.16712949 -0.018613977
0001f0 f4 e8 00 3e 74 22 b8 be b7 f9 61 3d 6a aa 27 be
       0.12588865 -0.35963786 0.055169787 -0.16373602
000200 14 9c a3 3c 90 5f 64 3b 00 c1 5b 3e ba 57 02 3d
       0.019971885 0.0034846999 0.21460342 0.031821944
000210 0e 75 7c be 24 72 79 3d 4c 84 55 bd 00 ae 69 bb
       -0.24654028 0.06089987 -0.05212812 -0.003565669
000220 d6 c0 5d be 27 04 24 bf 44 f8 04 3e 47 b7 7f bf
       -0.21655592 -0.64068836 0.12985331 -0.99889034
000230 b8 03 78 bf a0 e3 1d 3e b1 6e 2a bd 7e 77 78 be
       -0.96880674 0.15418863 -0.04160947 -0.24264333
000240 98 2c 7b be 82 31 1e be 21 e1 a8 bd 09 78 8b 3d
       -0.2452873 -0.15448573 -0.08246065 0.06810004
000250 19 9d eb bc 30 7b 50 bc d2 29 be bd a8 9a a0 3b
       -0.028761433 -0.012724683 -0.0928532 0.004901249
000260 90 2b e9 3d 75 54 53 bf 17 85 0a be e6 ef 46 be
       0.11385262 -0.82550746 -0.13527332 -0.19427451
000270 da 4e 9c bd 4f 4a a2 3e 91 8a 8c bd 96 d9 4d 3e
       -0.07632227 0.31697318 -0.06862367 0.20102534
000280 8e ec 2b be fc 69 a3 ba 71 29 e6 bd db 50 f4 bd
       -0.16789457 -0.0012467499 -0.11238373 -0.119294845
000290 5f 6c 92 bd 7c 0a 4d be 59 b4 74 be 40 30 33 3d
       -0.071495764 -0.2002353 -0.23896922 0.043747187
0002a0 23 69 87 be 59 a8 28 be 67 8e 39 be 70 c7 65 bd
       -0.264474 -0.1647047 -0.18120728 -0.0560984
0002b0 2b ef 0a bd be 7a 57 be 5d e6 c4 3c ea 27 55 3d
       -0.033919495 -0.21042916 0.024035627 0.05204002
0002c0 f8 d0 e3 bc 7b f7 ba be 32 fa d8 bc 1a 26 ad 3d
       -0.027809605 -0.36516938 -0.02648649 0.08454533
0002d0 80 df 64 3c 57 33 df be ed 10 0d bf c1 5d 57 3e
       0.013969302 -0.43593857 -0.5510395 0.21031858
0002e0 39 5f e1 be 9b 17 5f 3e 05 94 26 be 5f dc e5 be
       -0.44017962 0.21786349 -0.16267402 -0.44894692
0002f0 66 65 09 bd e7 07 9e bc 00 b1 93 bc 41 3a 97 3c
       -0.033543967 -0.019290878 -0.018028736 0.018460395
000300 83 24 1f bf b1 13 8f bd 88 ac 83 be a4 40 19 3f
       -0.6216509 -0.06986178 -0.25717568 0.5986426
000310 82 0f 3c bf 14 a6 09 be 32 93 82 bd b0 7d 4e be
       -0.73461163 -0.1344226 -0.063757315 -0.20165133
000320 a2 6e e1 3c af 7d cb 3d 80 9e 1e bb c4 03 9f bc
       0.027518574 0.099360816 -0.002420336 -0.019410975
000330 2c 8a 8c bd 6b ae fa be c2 96 07 be 10 cc 88 3b
       -0.06862292 -0.48961195 -0.13241103 0.004174717
000340 6a cd 5b be cc bc 0e 3e ef c0 e5 3d d1 e6 da bd
       -0.21465078 0.13939208 0.1121844 -0.10688556
000350 e6 40 ea bd f9 d5 cf bc 91 1e 3d 3e 96 31 aa bd
       -0.1143816 -0.025370585 0.18468691 -0.08310239
000360 c3 70 9d bc 90 eb 40 be f8 83 8b 3d 2d 19 36 be
       -0.019218808 -0.1883986 0.068122804 -0.17783041
000370 16 b2 f0 bd 8a a4 a9 be 80 8d 38 bd be d9 3c be
       -0.11752717 -0.33133346 -0.04505682 -0.18442437
000380 ac 43 2e bf 08 3c 11 be 51 06 c9 bd 84 a6 18 be
       -0.6807201 -0.14183056 -0.09815658 -0.1490727
000390 10 39 3d bf 4d 30 36 3d 1b 3c 8f 3d 7a 77 d8 bc
       -0.73915195 0.044479657 0.06993886 -0.026424158
0003a0 e6 32 bd 3e 70 e0 93 bb f0 fa 29 bf cd 52 e4 bd
       0.36952895 -0.004512839 -0.66398525 -0.111486055
0003b0 dd 30 91 bd 5a 70 b6 bc b4 34 e4 bd bc bf 5a bd
       -0.07089398 -0.02227037 -0.11142865 -0.05340551
0003c0 86 18 a3 3e 59 60 73 be 5f 30 28 bd 40 bd ca be
       0.31854647 -0.23767222 -0.041061755 -0.3959751
0003d0 56 a7 2a 3e e9 47 4e bd 90 16 e0 bb 0c b5 4f 3d
       0.16665396 -0.050361548 -0.006838627 0.05070977
0003e0 8c c8 18 3d 22 2f bb bd 8c 1a 9e bd e8 f6 e5 3c
       0.03730063 -0.09139849 -0.07719907 0.028071836
0003f0 bc 4b 12 be 00 cf 27 ba 18 11 59 3d d8 03 72 bd
       -0.14286703 -0.000640139 0.052994817 -0.059085697

stack.1.0.bias f4 [64]
000000 29 9f 77 3f 83 fa 23 bf 9e e7 be bd f5 5b fd 3e
       0.96727234 -0.64054126 -0.09321521 0.4948422
000010 10 12 33 bc e6 85 e5 be 8f e4 fd 3f 10 cd 8d 3e
       -0.010929599 -0.4482872 1.9835376 0.27695513
000020 33 b5 50 be 01 25 98 3f a6 3f 60 3f be 4f 28 bf
       -0.20381622 1.1886293 0.8759712 -0.65746677
000030 c1 b7 2e 3f f8 dd 65 be 35 f1 c5 3f b1 5d 5b 3f
       0.68249136 -0.22447956 1.5464236 0.85689837
000040 6c ed 01 be 01 c4 ec 3e ff a5 6c be 90 08 a2 be
       -0.12688226 0.4624329 -0.23110197 -0.31647158
000050 5f f3 8d 3f 9e 3e 83 3f 74 ce 54 be 3b c0 2d 3f
       1.1089896 1.0253484 -0.2078188 0.67871445
000060 c9 a5 9c be 38 82 d8 3e 86 30 52 bd 2a 7a 5d bd
       -0.30595234 0.4228685 -0.051315807 -0.054071583
000070 d1 0d 1b 3f 2e b9 4d 3c 66 ac d4 be 76 f3 11 be
       0.6056796 0.012556357 -0.4153778 -0.14253029
000080 3d 63 cd be b7 fe 72 be 1b 5a a7 3f d5 e2 bb 3f
       -0.40114775 -0.23729979 1.3074373 1.4678599
000090 fc 40 b3 bd 9c 7d d1 bd 30 d3 a2 3e a4 fc 61 3f
       -0.08752629 -0.10229036 0.31801748 0.88276124
0000a0 b1 d2 51 3f 36 bd 82 be 36 9f 6e 3d 34 7a ed 3f
       0.81962115 -0.2553498 0.058257304 1.8552918
0000b0 9e da 9b be a2 e3 f8 bd 6f 9f a5 3e 4e 0c 86 be
       -0.3044023 -0.121527925 0.323482 -0.26181263
0000c0 d6 6e 07 bf a1 75 b4 be 33 6e 93 3d 7c fc 5b 3f
       -0.529035 -0.35245994 0.07198753 0.85932136
0000d0 e5 c5 88 3f 10 06 00 be 73 43 4a be 8f f9 7e 3f
       1.0685393 -0.12502313 -0.19752292 0.99599546
0000e0 2c 3e 17 bc 94 54 39 3e ea d2 3b be d2 91 dc be
       -0.0092311315 0.1809867 -0.18342176 -0.43080002
0000f0 d4 1e a4 3e 60 78 dd 3f 7d 37 bf be dd 2f e1 3f
       0.3205477 1.730236 -0.37347022 1.7592732

stack.2.0.weight f4 [32, 64]
000000 70 7f 35 bd 86 3e aa be 26 32 a1 bd 55 83 07 be
       -0.044310987 -0.33250827 -0.07870893 -0.13233693
000010 2a ea 49 be fe 34 b0 3e 39 9b 53 3e 4c c4 30 3f
       -0.19718233 0.3441543 0.20664681 0.69049525
000020 ad fd 10 be 67 9d a5 3e 3e a4 0b 3e ae 43 01 bd
       -0.1415927 0.3234665 0.13636872 -0.031558685
000030 7c ee 00 3e f8 5e bd 3d 3c aa 18 3e ca 33 73 be
       0.12590975 0.092466295 0.1490869 -0.23750225
000040 5e 3a 2d 3d 72 87 7c be f3 9d 3d bd a0 3f 2d be
       0.04229199 -0.24661043 -0.04629321 -0.16918802
000050 68 66 06 bf ff 6c d7 3d a0 14 cc 3d 7f 06 f5 be
       -0.5250001 0.10518836 0.099648714 -0.4785652
000060 ec 4b 8c bc 78 77 97 be 58 7b a1 bd ec 2e 0e 3e
       -0.017126046 -0.29583335 -0.07884854 0.13885087
000070 00 51 cf be e4 4e 4d 3c fd a5 2a be 2f 0b 41 be
       -0.40491486 0.012531016 -0.16664882 -0.18851922
000080 6a 16 9e 3d 70 b2 00 be c5 17 e9 3d 8d e6 2f bf
       0.07719119 -0.12568069 0.11381487 -0.6871117
000090 48 9f 51 bd d2 19 13 be 32 f5 ed bd ec dd 98 be
       -0.051177293 -0.14365318 -0.11619033 -0.29856813
0000a0 7c 82 f2 bc 80 1c ab 3d 99 87 91 3e 87 b3 f6 be
       -0.029603235 0.08355045 0.28423765 -0.48183843
0000b0 09 ac 40 3e a5 24 4d 3d ed a4 1c 3f 0c e8 61 3e
       0.18815626 0.050083775 0.61189157 0.22061175
0000c0 e9 ca d4 bd 64 20 f1 3d cb a9 1f be e6 37 2e bd
       -0.103902645 0.11773756 -0.15592115 -0.042533778
0000d0 68 9f dd 3e d1 0e ba 3d 58 1f 2c be db 82 1c 3f
       0.4328568 0.09084857 -0.16808832 0.6113717
0000e0 74 41 65 be 93 46 0a be e5 0b 0f bf d0 2b a3 3e
       -0.2238825 -0.13503484 -0.55877525 0.31869364
0000f0 a2 d0 f2 3d 90 07 01 3e 52 5e 99 3c 61 22 a2 3e
       0.118562 0.12600541 0.018721733 0.31666854
000100 d2 e9 50 3d 7d 3b a0 bd 70 32 85 bb d4 34 b9 bc
       0.05100424 -0.078238465 -0.0040648505 -0.022608198
000110 a3 f2 f5 3d 64 b3 02 be c3 3e 68 be 82 93 39 3d
       0.1200917 -0.12763745 -0.22680192 0.04530669
000120 4a a8 2a bc e6 9f bb 3d e9 69 9f bd 3c 5a 61 bc
       -0.0104161 0.091613576 -0.07783873 -0.013754424
000130 80 9c 53 3a 33 3b 2a 3e d3 a4 2b be bd ca c4 bd
       0.00080723315 0.16624145 -0.16762094 -0.09608982
000140 8e 3f 17 be 3e 5c 86 be da 92 26 3d 58 f4 0f 3e
       -0.14770338 -0.2624225 0.040667392 0.14058053
000150 68 d5 39 3d fc 97 b7 3c 75 75 03 be b6 87 60 be
       0.045369536 0.022411339 -0.12837775 -0.2192677
000160 70 d8 42 be 6e 08 cd bc 19 a4 78 be 2b 95 a1 bc
       -0.19027877 -0.025028434 -0.24281348 -0.01972445
000170 16 95 ed bd 8e fa b9 bd d5 54 ea bc 2a 7c b9 bd
       -0.116007015 -0.09080993 -0.028604904 -0.090568855
000180 d0 1d d6 bd 20 73 5a 3b 18 7c cd bb 4b cd c0 be
       -0.10454905 0.003333278 -0.0062708966 -0.37656626
000190 0c b5 ba be fa 45 12 be 7e 94 ad 3d 3a 39 61 be
       -0.36466253 -0.14284506 0.08475588 -0.21994486
0001a0 d4 47 dc bd d0 d5 da 3d 54 c8 56 3c 8b 19 f2 bd
       -0.10755888 0.10685313 0.013109285 -0.11821278
0001b0 07 cf 05 3e c8 de ca bb f0 71 e5 bc 35 2a fb bd
       0.13067256 -0.0061911084 -0.028008431 -0.1226391
0001c0 bd 09 7f bc 20 5c 1e 3d 56 b2 2c 3e 33 79 6c 3e
       -0.015566287 0.038662076 0.16864905 0.23093109
0001d0 b1 26 c9 bd eb 5f 5c bd a8 ce 88 3c 8c 57 d7 3d
       -0.09821833 -0.053802412 0.016700104 0.10514745
0001e0 c9 19 d3 bd 86 04 ab bd df 50 ea bd 87 16 92 bd
       -0.103076525 -0.08350472 -0.11441206 -0.07133203
0001f0 b4 24 29 3d 7e 5e a0 be 00 0d 2d 3b c4 d2 16 3d
       0.04129477 -0.31322092 0.0026405454 0.036822096
000200 88 3e 93 be f8 eb b2 3e b9 e1 11 3e 81 fb 1b 3e
       -0.28758645 0.34945655 0.14246263 0.1523266
000210 52 a2 ba 3d b5 16 d5 be 50 e1 cc 3b 84 b0 9f 3e
       0.091129914 -0.41618887 0.0062524453 0.31189358
000220 43 4a c8 be b7 9d b2 3e 54 ba 1f 3e 30 b6 c7 bc
       -0.39119157 0.34885952 0.15598422 -0.024378866
000230 6a 8d a4 3d 8a 75 21 3d 1d 4f 10 bc 28 fe f2 bd
       0.08034785 0.039418735 -0.008807925 -0.11864883
000240 36 89 6a 3e fa 5b a1 3e 44 f5 ce 3d 89 87 99 3d
       0.22903904 0.31515485 0.101053745 0.074965544
000250 bd 9e 2a be 8d 73 25 3e 12 a8 44 3d 18 45 7f bd
       -0.16662116 0.1615736 0.048011847 -0.062321752
000260 0a 02 dc bd df c2 1e bd 40 22 5b 3d 80 b8 c8 3e
       -0.107425764 -0.038760062 0.05349946 0.39203262
000270 f0 34 05 3c 4c 7f 81 3d 3a 09 f6 bd 92 d9 eb 3d
       0.008130297 0.06323108 -0.120134786 0.115161076
000280 e8 ee b5 bc 6f 74 c2 3e 17 24 28 be 1c b9 45 3e
       -0.022208646 0.37979457 -0.16420017 0.19308895
000290 a2 bc 85 3c ba fc 26 be 65 ab ff 3d 16 b0 b5 be
       0.016325299 -0.16307345 0.12483863 -0.35485905
0002a0 6c 1a 89 be 88 0d d0 3c d9 11 d1 3e 52 80 5e 3d
       -0.2677797 0.025397077 0.4083393 0.054321595
0002b0 20 c6 2d 3c 52 06 29 3e ec 22 ba bc 84 4a f4 3e
       0.010606319 0.16506317 -0.02272173 0.477131
0002c0 eb 8e cd 3e 7f de 9f 3e 2f 04 8f be 9c a9 c9 be
       0.401481 0.3122444 -0.2793288 -0.39387214
0002d0 22 f7 27 3e 96 36 a6 3e 57 2c 40 be 5e 79 cf bd
       0.16402867 0.3246352 -0.18766914 -0.10130571
0002e0 de ab 93 3e b0 b8 05 3b 42 ae c9 3e 1e a8 bd be
       0.28842062 0.0020404272 0.3939076 -0.37042326
0002f0 1b 85 4c be ea 23 9a bd 4e 71 68 bd c0 c5 1e 3d
       -0.1997265 -0.07526381 -0.05674868 0.038762808
000300 23 4a 1b 3d 28 d0 8f 3d 02 5e b5 3d ac a4 86 bc
       0.0379125 0.070221245 0.08855821 -0.016435944
000310 46 af eb 3d 50 e0 60 bc 1a 29 f8 3d 75 4a 2c be
       0.1150804 -0.013725355 0.121172145 -0.16825278
000320 f7 ce 14 bf f5 16 1f 3f de 4e 6d bc 96 86 87 be
       -0.58128303 0.62144405 -0.014484135 -0.26469868
000330 0a 0f a1 3d 01 ea 1e 3e 1e 8c 2a be 47 6a 4d 3e
       0.078641966 0.15518953 -0.16655013 0.20060073
000340 00 28 5e 3e 86 7f 23 3e ee 8d 91 3e a7 9d 09 be
       0.21694946 0.15966615 0.28428596 -0.13439046
000350 58 6a a4 be e5 d1 ff 3e d1 23 e4 3e ce 37 14 3e
       -0.32112384 0.49964824 0.44558576 0.14474413
000360 eb 8d 5b 3e ec 1e c1 bd e0 7a b6 3d 78 62 ea 3d
       0.21440856 -0.09429726 0.08910155 0.11444563
000370 40 5b 77 3c 17 99 c0 3d 83 14 0e bf a9 53 3a 3c
       0.015097439 0.094041996 -0.5550005 0.011372485
000380 2c 16 15 3f 9e e5 aa 3e 56 f3 34 3e 79 1f cf 3d
       0.58236957 0.3337831 0.1767095 0.10113425
000390 2e 42 bc 3e 5a 7c b5 bd 90 55 63 3c c8 7a 93 be
       0.3676924 -0.08861609 0.01387538 -0.28804612
0003a0 2a ca 47 be 11 4c 95 3d 40 52 a3 3e 0f 74 4e be
       -0.19510713 0.07289899 0.3189869 -0.2016146
0003b0 66 42 00 3e 7d 60 82 bd 80 cd bb 3b 00 2b 5e be
       0.12525329 -0.0636606 0.0057312846 -0.2169609
0003c0 72 c8 49 3e 0b 22 05 be f0 4c b8 3e 78 a0 4b 3e
       0.1970537 -0.13001268 0.359962 0.19885433
0003d0 c1 00 b8 3e 0b 5b 93 be de 5a 6d bd 46 2e cc 3e
       0.35938075 -0.28780398 -0.057947986 0.39879054
0003e0 39 da 5e be ea ca 01 3e ac c3 0f bf d8 b1 00 be
       -0.21762933 0.12675062 -0.56157947 -0.12567842
0003f0 84 45 af 3e da 12 d6 3c e8 f1 e5 3e 68 64 83 3e
       0.34232724 0.026132036 0.44911122 0.2566254

stack.2.0.bias f4 [32]
000000 f9 29 aa 3f c9 96 83 be fa 54 f0 3d 8e 05 03 3f
       1.3294059 -0.25700977 0.11734958 0.5118035
000010 5e 25 6d 3f e9 3e 83 be 8a ab 46 bd 8c 72 57 be
       0.9263514 -0.25633934 -0.048503436 -0.2103979
000020 5c 84 5d bf dd 6f 8c 3f 12 a6 23 3f c2 c4 a7 be
       -0.8653009 1.0971638 0.6392528 -0.32767302
000030 a6 b6 83 be 1d c0 89 3f 67 cf 13 3c 0b 7d 3b 3f
       -0.25725287 1.0761753 0.009021617 0.73237675
000040 7d ca a4 3f 9f 91 5c be 32 82 0a be dc ad b9 bc
       1.2874295 -0.21539925 -0.13526228 -0.02266591
000050 02 99 d0 3e c4 84 c5 3e aa 79 b9 be 9e 63 1b 40
       0.40741736 0.38577855 -0.36225635 2.4279552
000060 52 c6 97 3c 51 b2 67 3d f8 a4 84 3f da 31 8d 3f
       0.018527184 0.05656654 1.0362844 1.1030838
000070 0a 49 26 be 76 5b 4b 3f 34 a9 3b 3d 27 d2 82 3f
       -0.162388 0.79436433 0.04581566 1.0220383

stack.3.0.weight f4 [10, 32]
000000 5e c0 2e 3e 3d c8 63 bd 1e 46 69 be 49 c6 e9 3c
       0.1706557 -0.055610884 -0.22780654 0.028536933
000010 ef 5b 5d 3d 82 bc 1a be 4e c4 6a 3e 4a 39 0a 3e
       0.054042753 -0.15110973 0.22926447 0.13498417
000020 96 91 0e 3e f0 2e 21 bc cd c1 99 bd 06 d9 4b 3e
       0.13922724 -0.009837851 -0.07507668 0.19907007
000030 de 24 12 be 19 0b 04 be b2 5a bd be d0 e7 81 3e
       -0.14271876 -0.12894858 -0.36983258 0.2537217
000040 5c a4 9d bd 4e 8b 54 be c8 8e bc be 72 bc 31 3e
       -0.07697365 -0.20756266 -0.36827683 0.17357042
000050 12 f8 71 be 62 75 86 3e 3c 25 80 3d 3e e6 33 3d
       -0.23629788 0.2626143 0.06257102 0.043920748
000060 02 10 c2 be 76 82 9d 3d f0 04 8b 3b c8 06 f9 3d
       -0.37902838 0.07690899 0.004242532 0.121594965
000070 5a d8 77 be 17 8d f6 be b6 44 10 bc 88 ab 9c 3d
       -0.24203625 -0.48154518 -0.008805444 0.076499045
000080 4e 85 fd 3d 88 09 31 3e 98 65 d2 3d 78 a6 17 bf
       0.123789415 0.17288792 0.10273284 -0.59238386
000090 3a b7 67 3d 87 04 b0 bd 14 5d 75 3e 50 70 8c be
       0.056571223 -0.085946135 0.23961288 -0.27429438
0000a0 23 a0 05 be c6 03 6a 3d c4 79 83 3e b1 e0 f9 bd
       -0.13049369 0.057132505 0.25678837 -0.122010596
0000b0 e9 cf 13 3e 46 f1 f9 be 72 77 37 3e 74 ea 36 bd
       0.1443478 -0.4881689 0.17916659 -0.044657186
0000c0 c4 cd 9a bd f0 d9 37 bd da 92 90 3e 2a 7c 67 bd
       -0.07558778 -0.044885576 0.2823704 -0.056514896
0000d0 55 61 24 3e e0 af a1 bd cd e0 10 3e b4 53 9e 3d
       0.16052754 -0.078948736 0.14148255 0.07730809
0000e0 52 0c 54 3e 32 2e 80 3e 29 cd 3d 3e d0 b4 68 3c
       0.20707825 0.25035244 0.18535294 0.014203265
0000f0 a1 f9 6b 3d f7 35 7c 3e 4f 47 a3 bd f2 4a 45 be
       0.05761111 0.24629961 -0.079725854 -0.1926687
000100 42 ab 07 3e b1 78 93 bd d6 50 a4 bd a6 3d bc 3d
       0.13248923 -0.072007544 -0.08023231 0.09191446
000110 10 10 32 bd 52 44 0a be de 3a 14 be 64 ce e7 bd
       -0.04347235 -0.13502625 -0.14475581 -0.11318663
000120 03 4b da bc f8 44 2d 3d 58 c4 6b 3e fe 14 f4 bd
       -0.026647096 0.0423021 0.23024118 -0.119180664
000130 60 2d 24 3e a4 a0 0c bd 07 68 e5 3d 90 ab 1f 3e
       0.16032934 -0.034332886 0.11201482 0.1559279
000140 88 a5 f2 3d 31 ef 23 bd eb a7 34 be 71 02 83 be
       0.11847979 -0.040023033 -0.1764218 -0.255878
000150 7a 7c 7f be 10 60 8b be 91 46 2f be 3a 54 51 be
       -0.24949828 -0.27221727 -0.17116763 -0.20442286
000160 94 57 f5 bd cb 77 19 be 76 53 9e 3d 88 de 2f bc
       -0.11979595 -0.14987104 0.07730763 -0.010734208
000170 18 c6 91 be ae e1 7d be 20 ab f4 3c d0 bf b2 3c
       -0.28471446 -0.24793121 0.029866755 0.021819979
000180 82 85 2d 3e 04 81 f1 bd da ff 6e be d2 c5 7e be
       0.1694546 -0.11792186 -0.23339787 -0.2488015
000190 e6 05 52 3e 39 67 2d be e9 92 71 3e f8 92 0f be
       0.20510063 -0.16933908 0.23591198 -0.14020908
0001a0 36 4f 8b bd 76 d8 0c 3e 4e 62 95 be 4c 0c 30 be
       -0.06802218 0.13754448 -0.29176563 -0.17192191
0001b0 98 7c 0a 3e 72 d9 04 3e e1 9c 9d bd 10 4a fa bb
       0.13524091 0.12973574 -0.07695938 -0.0076382235
0001c0 26 16 a5 bd dc ad a4 bd 18 ca ea bc 28 2a 1d bd
       -0.08060865 -0.080409735 -0.028660819 -0.03837028
0001d0 f5 17 90 be 3a d5 4a 3e ab fa 29 3d a8 a9 48 bc
       -0.28143278 0.19807902 0.04149882 -0.01224748
0001e0 1f 99 2e 3e fe 8f 2a be 5a 28 65 3e b4 99 a7 3d
       0.17050599 -0.16656491 0.22378674 0.081836134
0001f0 4a e4 f1 3d 35 1c e4 bd 1f 3b 4c 3e b8 8d 2d bc
       0.11811121 -0.111381926 0.19944428 -0.01059287
000200 2c b3 9a 3e 56 ce e0 3d 02 95 54 3e 92 76 de 3d
       0.30214822 0.109768555 0.20759967 0.10862459
000210 31 9e 35 3e 6a ce 7f bd f2 cd ff bd 5a 0d e6 3d
       0.17736126 -0.06245271 -0.12490453 0.11233015
000220 e5 39 41 bd e2 7f 21 3c aa 92 9e 3e ac 83 49 be
       -0.047174353 0.00985715 0.3097127 -0.19679135
000230 9a d1 fc 3c 9b 7e b5 3d b4 bd 59 3d eb e1 98 bd
       0.030861665 0.08862039 0.05315943 -0.074649654
000240 52 b1 25 be 89 2e cd bd 27 3e 4c 3e 71 95 f1 3d
       -0.16180924 -0.100186415 0.19945584 0.11796082
000250 cc 6d 62 be 1b c0 00 bd 58 6f 63 bc 89 3d 3a be
       -0.22112197 -0.031433206 -0.013881527 -0.18187536
000260 db a9 1d be 64 f3 74 be 8e 56 79 be c3 a7 89 bd
       -0.15396826 -0.23920971 -0.24349424 -0.06721451
000270 34 af 0a be dc 44 9f 3d f8 81 a1 3c 92 9b 72 3e
       -0.13543397 0.07776806 0.019715294 0.23692158
000280 08 dc a0 bd 66 50 cb bd c0 55 dd bc d2 fd 51 be
       -0.07854468 -0.09927444 -0.027018428 -0.20506981
000290 41 b1 60 be e2 14 6f 3e 9e 11 d6 bd ca 51 0f be
       -0.21942617 0.2334781 -0.10452579 -0.13996044
0002a0 05 ba 90 3d 1c d6 5f 3e 90 2c 7f bb 74 7a 0d bd
       0.070667304 0.2185902 -0.0038936473 -0.03454061
0002b0 be 19 2e 3d 24 34 97 3e 5f 1c 19 3e c1 be bd be
       0.04250502 0.29531968 0.14952229 -0.37059596
0002c0 3c cd 83 3e 13 f1 50 3e d3 91 1e 3d c7 b3 48 be
       0.2574252 0.20404463 0.038713288 -0.1959983
0002d0 98 72 57 3e 4e b8 b1 be 34 d7 9e 3d c1 c0 ab bd
       0.21039808 -0.34710926 0.077558905 -0.08386374
0002e0 20 1f 16 3b 93 40 5f bd c4 fb 94 be 32 ce 37 3e
       0.0022906736 -0.054504942 -0.29098332 0.17949751
0002f0 b0 15 47 be 3f 31 d1 bc 9c be 6f 3c bf 05 6e be
       -0.19441867 -0.025536178 0.014632847 -0.2324438
000300 a3 ab 80 3e 67 97 71 be ea d0 10 be a2 10 d1 bd
       0.25130948 -0.23592912 -0.14142194 -0.102082506
000310 17 cd 8f bd e8 73 cd 3d 6a 94 11 3e 63 5e da bd
       -0.0702154 0.10031873 0.14216772 -0.10662534
000320 8d 28 34 be 10 49 07 be 61 d6 d2 3d a3 45 26 3e
       -0.17593594 -0.13211465 0.10294796 0.16237502
000330 5c a1 57 bd 00 7a 5a 3d a0 f0 2a be f6 3a 26 3e
       -0.05264412 0.053339005 -0.16693354 0.1623343
000340 39 c3 08 be b8 b9 a8 3e 5d 00 95 bd f8 52 a3 3d
       -0.13355722 0.32954192 -0.0727546 0.079748094
000350 00 1b 36 be 8d dc 1f 3e 0a ef a7 bd e7 07 c0 bd
       -0.17783737 0.15611477 -0.0819989 -0.09376507
000360 3e 1b 32 be fe bd 96 be f3 92 e6 bd 70 5d e2 3d
       -0.17393205 -0.29441828 -0.11258497 0.11052978
000370 95 27 d6 be 58 b7 28 be 3a 56 b9 3d 5b 83 06 be
       -0.41827074 -0.1647619 0.090496495 -0.13136046
000380 62 5d fb bd bc ac 95 be 4c 1e 93 bd 2a 91 a6 be
       -0.12273671 -0.29233348 -0.07183513 -0.32532626
000390 80 ed bf be 1e fc 93 3d 80 6e f3 bd a5 92 c8 bd
       -0.37485886 0.07225822 -0.118863106 -0.09793595
0003a0 f9 8b d8 bd 06 1c fa 3d 9c d4 b6 bd ce b5 07 3e
       -0.10573573 0.12212376 -0.08927271 0.13252947
0003b0 3f 49 5d 3e d0 d7 60 3e 38 59 96 3c 79 20 c6 3d
       0.21609972 0.21957326 0.01835309 0.096741624
0003c0 ac aa 9e 3e 3b 47 64 3e 89 15 8f 3e c2 34 31 be
       0.30989587 0.22292797 0.27946118 -0.17305282
0003d0 1a 8d 63 bd 66 3d 4d bd 24 b4 40 be cb 16 66 3e
       -0.055554487 -0.050107382 -0.18818718 0.22469632
0003e0 84 9d d5 bd be 56 43 bd 10 25 70 bf 6e 0f b5 be
       -0.10430434 -0.047690146 -0.9380655 -0.35363334
0003f0 64 61 86 be 10 e2 98 be f8 ab 01 3c eb ba 03 bd
       -0.26246178 -0.29859972 0.007914536 -0.03216068

stack.3.0.bias f4 [10]
000000 fc 44 8a 3b db 50 84 bd b6 03 5f be b8 b2 ad bd
       0.0042196494 -0.064607345 -0.2177876 -0.084813535
000010 00 50 ff 37 83 e6 03 3f 20 ae c5 3c 1a 34 c6 3e
       3.0435622e-05 0.5152361 0.02413088 0.38711625
000020 f1 ff ad bd d1 a1 a5 3d
       -0.084960826 0.08087505
