src/fminst/models/transfer_5_9.pt (torch, 447681 bytes, 8 tensors)

stack.0.0.weight f4 [128, 784]
00000000: d71f 0d3e 9296 d23c 29cc f43e 1811 f13e
00000010: 8687 ba3d ea16 873f bba7 f13f dba9 7b3f
00000020: bc23 bdbd 5af4 c13d 06bf 81be 9c4c 323f
00000030: ac31 e03f cadd f63e e42c 0abf 5c98 a23e
00000040: 789b 37bb c88b be3e c4a7 323f 7a43 3b3f
00000050: b283 b83e 87d8 d83f 1a81 a33f 4efe 7f3f
00000060: 0c17 f83d 005f e83e e945 09be b767 94bd
00000070: 0cff aa3b 5e6a 17bd ccad 49be a342 3b3e
00000080: 072b 773e a74f e13e 0474 c83e 5470 b43e
00000090: 887e 42bb 85a5 873e 9df3 ddbe 947f 3fbc
000000a0: 426c 0dbe f007 493e 80b6 803e b08c a9be
000000b0: e86a 253d 8e36 fdbe 764a 043e f864 3a3f
000000c0: bcf6 893d 58f0 013f f797 743f 1dee fc3d
000000d0: cb06 523f dfad 323f 8ae2 b13d dea5 a7bd
000000e0: bee2 8cbd a774 19be 65cd f4be 5f98 0abd
000000f0: 9501 073e b8f2 77be 0ea3 ec3e fdc4 5b3f
00000100: 2c87 c53e ec35 8a3c 6d68 53bf ec7b a3be
00000110: 02bf efbe f081 ca3c f281 fa3e 3bff 1ebe
00000120: 5c1e b03d e2e7 2ebe 84fc 393e 631a 0b3f
00000130: 6faa 053f e7e4 b63f f49a b2bd 3116 233f
00000140: 673c 74be 61dd 213f 6aee f6bd 2699 6a3c
00000150: d677 29be ad76 f23d adcf 37bf 6055 edbe
00000160: 0e42 5abd 9e2b 80be 0f3e 71bd fdda b93f
00000170: 7af9 c03e 762e e6be 6111 d9be 3071 22bd
00000180: 6668 4cbe fce9 40bd 2cb6 653e 159a 293e
00000190: b67e 3d3e 554f 77bd 3030 453e 4c74 a33e
000001a0: a122 403f 0994 693f c027 a73e f5a9 9bbd
000001b0: 6693 b2bf 5414 023f d152 9cbe 443d 4bbc
000001c0: 042a a1be 8260 c1be d6fb 62bf d6e4 14be
000001d0: 9a42 e83e 7ba3 d0be eec0 9f3e 129a 663f
000001e0: f9a4 8fbe 7e3d 40bf 8d5f 933e 8b7c a03f
000001f0: e6d2 d53d 408c c13b f0ce 25be 8b97 8a3e
00000200: fbfc 053f 1512 123f 461f debe ddf4 1bbf
00000210: a768 af3e 1ad0 1a3f f675 223d f492 b03f
00000220: 4fad 19bf 7044 453e 60fb 08be 4e4d a5bd
00000230: 6427 aa3d d97c 033d ac63 25bf 41ab fabd
00000240: 5664 22bf 482e 873f 52fc 16bf 9fa5 19be
00000250: c698 20bf 6a46 a8be e282 ee3e f2e9 543f
00000260: 4dec 383f b675 8cbe 669a 6bbe 0a30 893e
00000270: bbc3 a23e a0b3 e33e b9e1 e4be 55ae 62bf
00000280: 600b 2bbf 187e 09be 9146 af3f 6424 c23f
00000290: 1f86 07bd 5712 3bbe 4f8b 5ebd 06cc 42be
000002a0: d7aa c8bd 5819 60be 27d6 82bf 29b7 f8be
000002b0: 5062 563e d536 043f fb89 0abf 9033 a0bf
000002c0: d4ec d5bf 40d0 033e d0b9 223f 48bc de3e
000002d0: 7e64 913e a8e7 ebbe fdf5 92be 2976 983c
000002e0: 32dd 863e 52be 413f 43f8 db3d 0025 7ebf
000002f0: 2399 50bf 98ad 72bf bd70 da3f 4be3 353f
00000300: aa33 47bf 743b 0dbf 7716 81bd 32fd 013e
00000310: 1045 e3bd 00b8 a1bd c312 79bf 3425 943d
00000320: 0c7e 143f 809c 053f 42eb 6bbf e8df f6bf
00000330: 6c22 2ec0 1c77 77be 34a7 9c3e 6788 8e3e
00000340: 3256 143e 94ff adbd 66e2 96bd f0c1 4c3e
00000350: 95ea 9d3e ed80 cc3d b942 cebc 2858 00c0
00000360: ee5d aebf 314c 11bf a203 09bd 58d4 683e
00000370: f385 03c0 8a2c cbbe e9f1 f5be cc66 183d
00000380: bf26 e73d 0a5e b8bd 3058 1ebf a63f 51be
00000390: dd5e 21bd e87d d5be 845c ffbf d6d4 0cc0
000003a0: 0d70 40c0 f524 48bf ecae 0fbe 7c4c f23d
000003b0: 18b7 a83e 5f4b 7cbe 5392 a4be 0f54 eabd
000003c0: 4732 63be a4c9 96be 9aac 78be fe14 c7bf
000003d0: 3de9 00c0 4faf 17c0 cfec b5bf 83a5 bdbf
000003e0: 968c 16c0 c8a6 39bf ac3c 28bf cc4e d23d
000003f0: 32c1 09bd ff45 15be 1a2b a1be d5c3 72be
0.13781677 0.025706563 0.47812012 0.47083354 0.0910788 1.0553868 1.8879312 0.98306054
-0.092353314 0.094704345 -0.25341052 0.69648147 1.7515159 0.48216087 -0.5397475 0.31756866
-0.002801625 0.3721602 0.6978724 0.73149836 0.36037976 1.6941079 1.2773774 0.99997413
0.12113771 0.4538498 -0.13405575 -0.072463445 0.0052183922 -0.036966674 -0.19695204 0.18287139
0.24137507 0.44006082 0.39151013 0.3524195 -0.002967747 0.2649347 -0.43349925 -0.011688132
-0.13810828 0.19631934 0.25139236 -0.3311515 0.040385157 -0.49455684 0.1291903 0.72810316
0.06736514 0.5075736 0.9554438 0.12350104 0.82041615 0.69796556 0.08685787 -0.081859335
-0.06879185 -0.14985906 -0.47812954 -0.03383672 0.13184197 -0.24213684 0.4621815 0.85847455
0.3857969 0.016871415 -0.82581216 -0.31930482 -0.46825415 0.024720162 0.48927265 -0.1552705
0.085995406 -0.17080644 0.18162733 0.5433714 0.52213186 1.4288605 -0.08720961 0.63705736
-0.23851167 0.6322842 -0.120571926 0.01431874 -0.1654962 0.11839042 -0.71801263 -0.46354198
-0.05328565 -0.25033277 -0.058897074 1.4519955 0.37690336 -0.44957322 -0.42396072 -0.039658725
-0.199617 -0.047098145 0.22432774 0.16562684 0.18505368 -0.06037839 0.19256663 0.31924665
0.7505284 0.9124151 0.32647514 -0.07600776 -1.3951232 0.5081227 -0.30531934 -0.012404744
-0.31477368 -0.37768942 -0.8866552 -0.14540419 0.45363313 -0.40749726 0.3120188 0.9007884
-0.28055552 -0.7509383 0.28783837 1.2538007 0.10440616 0.0059066117 -0.16192222 0.27068743
0.5233914 0.5705884 -0.43383235 -0.60920507 0.3425953 0.6047379 0.039663278 1.3794847
-0.6003007 0.19264388 -0.13377142 -0.08071385 0.083082944 0.032101486 -0.6460521 -0.12239695
-0.6343435 1.0560999 -0.5897876 -0.15004586 -0.62733114 -0.32866222 0.4658423 0.8316947
0.72235566 -0.27433556 -0.23008117 0.26794463 0.31789955 0.4447298 -0.44703463 -0.8854726
-0.6681423 -0.13427007 1.369341 1.5167356 -0.033086892 -0.18268715 -0.054332074 -0.19023141
-0.0979821 -0.21884668 -1.0221604 -0.4857724 0.2093594 0.5164617 -0.5411679 -1.2515736
-1.6712899 0.1287241 0.6356478 0.43503022 0.28396982 -0.46075177 -0.287033 0.01861103
0.26340634 0.7568103 0.107407115 -0.9927521 -0.8148367 -0.94796133 1.7065655 0.71049947
-0.7781321 -0.55168843 -0.06303113 0.12694243 -0.11097157 -0.07896423 -0.97294253 0.072336584
0.5800483 0.52191925 -0.9215585 -1.9287081 -2.720851 -0.2416653 0.30596316 0.27838442
0.14486006 -0.08496013 -0.07367401 0.19995856 0.30843034 0.09985528 -0.0251783 -2.0053806
-1.3622415 -0.56756884 -0.03345073 0.22737253 -2.0550506 -0.39682418 -0.48036125 0.03720741
0.11286687 -0.090023115 -0.61853313 -0.20434436 -0.03939711 -0.4169762 -1.9950109 -2.2004905
-3.006839 -0.7818139 -0.14031571 0.118309945 0.3295219 -0.24638127 -0.32142887 -0.11441814
-0.22187148 -0.29450715 -0.24284592 -1.5553281 -2.0142357 -2.370075 -1.4212893 -1.4816135
-2.3523307 -0.72520113 -0.6571758 0.102689356 -0.03363151 -0.14577483 -0.31478196 -0.23707516

stack.0.0.bias f4 [128]
00000000: eeea ad3f e288 81bd 4ae2 abbd f0af 7fbd
00000010: 3a22 5ebe 9d1c 7d3e be43 47bd 00f0 5dbe
00000020: ea3d c23e 2402 1bbd 779d 6abe ceca 963f
00000030: a476 47bd 1d9c 273e be67 b93f 78ad 343d
00000040: 7c3f 00bf b2e4 b53e 140e c8bd d5da 113e
00000050: e14e 073f e8e5 8c3f 4a65 cf3f 270e 4e3f
00000060: 9063 4e3b 563c 22bd ee59 8e3e b87a 82bc
00000070: 99dd f13e 7af3 93be 7de6 603e 7685 b93d
00000080: 8416 a3bd a462 0ebf 592f ffbd 8f58 153e
00000090: e2da 903f fdf6 483f beaf c33f 0c18 be3b
000000a0: d978 c4bf a80a a9bd aa41 94bc 90f5 08bb
000000b0: 16f9 c93e f257 173f bc5b e23e ae49 3cbf
000000c0: f290 383d 376a ebbd 4b2e 803e 66da 8e3e
000000d0: 657d 73be 2009 76bb 4b94 133f d2e7 84be
000000e0: f4a4 c8bd a3dc 91bd 64c3 583e 2eb3 64be
000000f0: d4fb 82bd 5cf5 fd3d 4046 33be 26e1 de3d
00000100: 417a 063f e2ab 413f 3c85 f93d 6260 da3d
00000110: 5ab2 de3f 4648 993c e003 7b3f 7ccc d6bd
00000120: f5ef b3bd faee 00be 2e83 58bd 889d 573e
00000130: 3e8c 4a3d 8a7f d2bc ec07 85bc 56ea 8dbd
00000140: 993d 293f 688e c2bc 8fb9 4a3e de60 2dbd
00000150: 5290 2ebe f530 813e ba33 87be 34b9 8abe
00000160: 6f12 11be 5f26 e03e d315 b0bf dc43 9c3d
00000170: 60df 143f b89c c33d c01c 25be d29e afbd
00000180: a850 75bc 16fa 7dbd d156 94be 9a47 a23c
00000190: b234 93bd b8f8 78be 6c25 91be c4e7 0c3e
000001a0: d283 0abe 0e1f cc3e d290 b0bd 6df5 a8bc
000001b0: f1ef 6c3f 6a3b b93e 0a2a 1b3d edab d8bd
000001c0: 9084 82bd 3139 6dbe 356d ef3e 6265 d1bd
000001d0: 2421 eb3c b736 c43e 4240 83bd 640f a63f
000001e0: 211d 833f 8e43 bebd b838 0b3d 6d95 bdbd
000001f0: ca73 38bd be57 9b3c ef90 c93f 7596 36be
1.358732 -0.063249364 -0.083927706 -0.062423646 -0.21692744 0.24717946 -0.04864859 -0.21673584
0.37937862 -0.03784384 -0.2291163 1.1780641 -0.04869713 0.16368146 1.4484785 0.044110745
-0.5009687 0.35526043 -0.0976831 0.14243634 0.52854735 1.1007662 1.6202786 0.80490345
0.003149245 -0.039608322 0.27802986 -0.015927657 0.47239378 -0.28896695 0.21962924 0.09058659
-0.07963279 -0.55619264 -0.12460203 0.14584564 1.1316798 0.78501874 1.5288007 0.0058012065
-1.534938 -0.08253986 -0.018097717 -0.002089832 0.3944785 0.5911857 0.44210613 -0.73549926
0.045060106 -0.11494868 0.2503532 0.27901 -0.23778303 -0.003754206 0.5764815 -0.25958115
-0.09797087 -0.07122161 0.21168286 -0.22333977 -0.06395689 0.12400314 -0.17507267 0.108827874
0.52530295 0.756529 0.121836156 0.10662915 1.7398179 0.01871122 0.9805279 -0.10488221
-0.087860025 -0.12591162 -0.052859478 0.21056187 0.04945015 -0.025695581 -0.016239129 -0.06929462
0.66109616 -0.023749545 0.19797347 -0.042328708 -0.17047241 0.25232664 -0.26406652 -0.27094424
-0.14167188 0.43779275 -1.375666 0.07630131 0.58153343 0.09551376 -0.16124249 -0.085752144
-0.014972843 -0.06200608 -0.28972486 0.019809533 -0.07187785 -0.24313629 -0.28348863 0.13760287
-0.13526848 0.39867443 -0.08621372 -0.02062484 0.9255362 0.36178142 0.03788189 -0.10579667
-0.063729405 -0.23166348 0.46763006 -0.10224415 0.028702326 0.38322994 -0.064087406 1.2973447
1.0243264 -0.09290229 0.033989638 -0.09257016 -0.0450323 0.018962737 1.5747355 -0.17830832

stack.1.0.weight f4 [64, 128]
00000000: de19 5cbd 7594 20be bc7c 33bc e3d2 05be
00000010: acfe a0bd f8d7 b3bd 5e9c 883d 1f23 36bd
00000020: 06e7 07be 2cd0 1e3e dd78 d53d 0c18 0bbd
00000030: 9f7a 983d 24e2 0dbe eeaa 1dbe 5f3d 82bc
00000040: 608e 40bd ff50 4dbe 908f 503c a746 89bd
00000050: 8f32 64be d243 9c3d d277 dfbd 7ad5 92bd
00000060: 5865 e1bd 06b3 5fbe 182a a4bd 5267 403c
00000070: cca7 b9bd 548e a7bd 4209 fcbd 0ef2 09be
00000080: f5ba 1ebd f20a 1dbe b220 0b3d 0cab eebd
00000090: 2899 77bd 7cc9 0ebe f8e0 a6bd 0e3b 5cbe
000000a0: 064b 3fbd f661 b03d 0eb9 17bd 0092 2d3a
000000b0: 18bf fdbd bed8 173d 0869 ef3c 20df 51bd
000000c0: 6421 483d 95c8 9dbd 50d4 e43b 7d8e 8fbe
000000d0: 8e32 ccbd 42b7 873d d772 80bd cddd 72be
000000e0: 3b33 07be 6a87 81bd a81f 1cbd 5b79 4d3d
000000f0: 142d e73d 2f24 043e f773 25bd 5806 e5bb
00000100: 1aa1 0d3d 3033 2ebc c330 d3bd e6ad 44bd
00000110: 30a6 c53d 0d09 9ebd eeed b6be 8e37 11be
00000120: fc69 363d c415 cbbd 0749 9cbd 102c e0bd
00000130: 482e 28bc e61f cfbd 7419 b7bd d6f9 e0bd
00000140: aa0c a2bd f8bf 633c 0895 e8bd d07e 2fbe
00000150: 1c97 38bd d962 57be c6fc eebd c06f bebb
00000160: 8447 febb c79f 2cbe 929b 90bd 92c4 5dbe
00000170: c0ef 4c3d 4675 4a3e ea7a 6bbe 5b07 be3d
00000180: ced1 533d fe1f 343e d5ee 0dbe a0f9 e23b
00000190: a057 3dbe e939 493e 4089 ffbd 800e cfbd
000001a0: 400c a6bd 366b cfbd 20f4 503d fe7f ac3d
000001b0: 644a 54bc e866 3fbc 1c4f 8f3c 9fa9 e13d
000001c0: f0ac 8abb 9a12 403e ec56 b83d 6090 f03c
000001d0: 68f7 8bbc 351d c6bd d300 a43c e062 27bd
000001e0: 24a9 8d3d 1e26 103e 5b55 163e 0ce8 ad3d
000001f0: be07 3a3e 7d33 0ebe b060 4bbb d00f d73c
00000200: 84b7 3fbe 5cf4 6f3c 2600 d83d 028b f5bc
00000210: 14fe 263c 4a00 ccbe 47d8 953d a010 fcbc
00000220: 7018 2e3d de21 463e 92fd 7cbd 810d 08bf
00000230: a2d2 873d dacb 4abf 9b58 90be a617 0ebe
00000240: 785a e1be a850 36bf 5f4c 943e 8c64 5bbd
00000250: 1b06 83be 928f edbe 12e8 d8be ecba ffbc
00000260: acab 8ebc ff3d 3dbd 5a2b 1d3f b852 473e
00000270: 5e5c aebe 0208 99be 8835 5bbc ecdb 13bd
00000280: 600e ab3e 83f5 c7bd 9623 bc3c 3bf8 50be
00000290: 3e91 71be da8b ca3c 11b5 43bf 5664 803e
000002a0: c42f e1be 937b a2bd 1c21 1d3c 8e02 a5bd
000002b0: 9aba a63d 758d 89be 36ec 673d 635a a6be
000002c0: 4144 c1bd f0e8 03bd 280d b6bd ab19 43bf
000002d0: 4e84 a3be 485c 4bbc cdec bc3e ec61 58be
000002e0: e4dd e3bd d005 ab3d 80c7 8bbe 4cb9 c3bd
000002f0: 68f8 52bd 4636 453e 20a4 89bc 4c07 d73d
00000300: ea73 e5bd dd79 0ebf cad8 13be 1ee3 78be
00000310: d4f4 883e e8d8 463d 3e4a a1bd 1bb2 8a3d
00000320: cdff 39be 6812 9bbd acdd 39be 3e06 6f3d
00000330: 4848 073d 52dd 8d3c 49b6 933e af68 7d3e
00000340: 03e8 b7be 60dd 16ba 4462 3d3d e581 17be
00000350: 7252 8d3d 66cd f1bd 6327 13bf b0ef 7fbe
00000360: 72bf d53d 80db 9abe e2b7 efbe b1aa 5c3e
00000370: 93d9 b23c aca4 78bb 9b7c ba3d 5c93 72bc
00000380: c5cc 9b3c 965f 7f3e 74b8 eb3c 483b 3cbd
00000390: b153 3fbe cc34 ff3c 5d2d 74bd 548d 34bc
000003a0: 7e1c 0cbe cc49 963c c71b 933c a05c 89bc
000003b0: 61f5 a0bc 66be 403e 31dd 44bd 4044 9c3c
000003c0: d440 013e 681d 0bbd 8e06 0d3e 7a08 e8bd
000003d0: f33d 83be b991 32be a94b 32be e33e 8ebe
000003e0: e8a2 18bf 4453 483c 2035 8dba acfa 68bd
000003f0: 6060 f5bd 5dc2 33be c8f6 42be ec66 9abd
-0.053735606 -0.15681632 -0.010955032 -0.13068728 -0.07861075 -0.08781427 0.0667045 -0.044467088
-0.13271722 0.15509099 0.104234435 -0.03395848 0.07445263 -0.13855797 -0.15397236 -0.015898405
-0.04701078 -0.20050429 0.0127295405 -0.06702929 -0.22284912 0.07630123 -0.10911526 -0.07169624
-0.11005658 -0.21845636 -0.08015841 0.0117433835 -0.09065208 -0.08181444 -0.12306453 -0.13471243
-0.038752515 -0.15336207 0.033966728 -0.11653718 -0.060448796 -0.13944048 -0.08148378 -0.21506903
-0.046702407 0.086124346 -0.037041716 0.0006621182 -0.12389964 0.037071936 0.029224887 -0.05123818
0.04885997 -0.077042736 0.0069833174 -0.28038397 -0.0997058 0.066267505 -0.06271904 -0.23717423
-0.13203137 -0.06324656 -0.038116127 0.05016456 0.11287895 0.12904428 -0.040393796 -0.0069892816
0.034577467 -0.010632321 -0.10312035 -0.048017405 0.096508384 -0.0771657 -0.357284 -0.14181349
0.04453467 -0.09916261 -0.07631116 -0.10945904 -0.010264941 -0.10113506 -0.08940402 -0.109851524
-0.07912572 0.013900749 -0.113565505 -0.17138219 -0.045065984 -0.21033801 -0.116693065 -0.0058116615
-0.00775999 -0.16857825 -0.07060923 -0.21657017 0.05003333 0.19771299 -0.22996107 0.09278747
0.051713757 0.17590329 -0.13860638 0.0069267303 -0.18490458 0.19650997 -0.1247735 -0.101101875
-0.08107805 -0.10127871 0.051014066 0.0842285 -0.012957189 -0.01168225 0.017493777 0.11018681
-0.0042320415 0.18757096 0.09000954 0.029365718 -0.017085746 -0.096735395 0.020019924 -0.04086578
0.06917027 0.1407704 0.14680998 0.08491525 0.18167016 -0.13886829 -0.0031032972 0.026252657
-0.1872235 0.014645662 0.10546903 -0.02997351 0.010192413 -0.3984397 0.07316642 -0.030769646
0.042503774 0.19348857 -0.06176526 -0.53145605 0.06631972 -0.792173 -0.281926 -0.13876209
-0.44014335 -0.7121682 0.28964517 -0.053562686 -0.25590596 -0.46398598 -0.42364556 -0.031217061
-0.017415844 -0.046201702 0.61394274 0.19465148 -0.34054846 -0.29888922 -0.013379462 -0.036098406
0.33409405 -0.097636245 0.022966187 -0.20407192 -0.23590562 0.02472489 -0.7644816 0.2507655
-0.43981755 -0.07933726 0.009590413 -0.08057128 0.0814106 -0.26865736 0.056621753 -0.32490835
-0.094368465 -0.03220457 -0.08889228 -0.7621104 -0.31936878 -0.012412138 0.36899415 -0.21131104
-0.11126307 0.08350718 -0.27300644 -0.09556827 -0.05150643 0.19258985 -0.016801894 0.10499439
-0.112037495 -0.556547 -0.14438167 -0.24305388 0.2674929 0.0485467 -0.07875489 0.06772252
-0.18163987 -0.0757187 -0.18150967 0.058355562 0.033027917 0.017317448 0.2885001 0.24746965
-0.35919198 -0.00057550333 0.04623629 -0.14795645 0.06900491 -0.11806755 -0.57481974 -0.24993777
0.10436906 -0.3024559 -0.4681998 0.21549489 0.021832263 -0.003793995 0.09105798 -0.014805641
0.01901854 0.24938807 0.028774478 -0.045954973 -0.1868427 0.031153105 -0.059613574 -0.011020023
-0.13682744 0.018345736 0.017957581 -0.0167678 -0.019648256 0.18822631 -0.048062507 0.019075513
0.12622386 -0.03396359 0.13772032 -0.11329742 -0.256332 -0.17438401 -0.17411675 -0.27782354
-0.59623575 0.012226883 -0.0010773279 -0.056879684 -0.11981273 -0.17554612 -0.19039452 -0.07539162

stack.1.0.bias f4 [64]
00000000: f14c 95be cf62 16bf d623 713e b5af 1ebe
00000010: 9c24 403c a6b7 09bf 5efe 823d c290 343d
00000020: 643e f3bc 2806 8fbd a7d2 273f 59f0 7dbd
00000030: 9b61 233f 70ad aabe 2039 4c3f ac8d 66bd
00000040: 6b56 67be d9af 6d3d b472 65be 46e5 cabc
00000050: 4254 a63e b907 33be d69d d6be 14b7 ef3f
00000060: ba2e 00bf f4bc 3d3f 1b27 b83f c07c 613f
00000070: 0c54 283f 3db1 cc3f 4b10 e13e 880b 443f
00000080: cdef fbbd ddaf 803e 6c46 a43f 4e83 073f
00000090: c882 663e 628e 443f 2a87 8abd 0583 04bf
000000a0: d44e c6bd 5cb3 f03f b27c 3ebd f50c 263f
000000b0: e39d d63d 08e3 57be 1246 be3d dbbf 943f
000000c0: 0c06 023f c9fe 8b3f 6d76 2fbe 2bf8 453f
000000d0: ece9 6abf c4a6 51bf 3a17 c0be 8a00 1abe
000000e0: 717a a63f 245f 9e3e 01b8 613e 614f 0e3f
000000f0: b8c8 d0bd 8ed6 28bf bef2 723f 861b 033f
-0.29160264 -0.5874452 0.23548827 -0.15496714 0.011727478 -0.5379585 0.06396173 0.044083364
-0.029692836 -0.06983596 0.65555805 -0.06199679 0.6382081 -0.33335447 0.79774666 -0.056287453
-0.2259156 0.05802903 -0.22407037 -0.02476753 0.3248616 -0.17483415 -0.41917294 1.8727746
-0.500713 0.74116445 1.4386934 0.8808098 0.65753245 1.5991589 0.43957743 0.76580095
-0.12301598 0.25134173 1.2833991 0.5293473 0.22510827 0.7677976 -0.06764062 -0.5176242
-0.09683004 1.8804736 -0.046505637 0.6486352 0.10479333 -0.210827 0.092907086 1.162105
0.50790477 1.0937129 -0.1713502 0.773318 -0.91763186 -0.8189509 -0.3751772 -0.15039268
1.3006116 0.30931962 0.22042848 0.5558987 -0.10194534 -0.65952384 0.94901645 0.5121387

stack.2.0.weight f4 [32, 64]
00000000: 10b3 d63d 115e 313e 92cd 72be 64bf 3fbe
00000010: aacf 73bd a10a 5f3e 4fca d43e de6d 9dbd
00000020: 6ea0 37bd 4de6 1bbf ae65 043f 8605 be3d
00000030: 95d6 7fbd a47c ae3d 801f 253e 4e2a d5bd
00000040: 2f05 743d 3053 a53c 2caa 10be a425 623e
00000050: 6a3f 49be 57d5 e7bd 4c9a 20be 528e 03bd
00000060: 964c 323e c68a c63e 4022 9ebd 4fc3 113f
00000070: 0aec d73d 2726 05bf 25b5 893e 7f79 1ebe
00000080: 0390 813d 8cbd 69be a444 013e 0097 7fbd
00000090: c7f3 f43e 1438 bb3e bd47 20be ea99 90be
000000a0: e250 48bd a896 483c 7733 1b3d f9cd d23d
000000b0: 685b a8be d4df 7d3c 546f a13c ffe6 743e
000000c0: 4005 81bd 4610 0e3e 8ca6 8dbe 916b 8d3e
000000d0: f64c b23e d8d8 efbd 5f73 323e 7daa 9a3d
000000e0: 5dfa e1be 1e16 0c3e d278 be3e f684 32be
000000f0: f461 1b3e caed 113f fe2b 303d 3ac1 4f3e
00000100: 4f24 0d3d be67 03bd ca2a 163d 9034 3cbc
00000110: 6450 f8bd 7997 db3e 601c e6bb 8e7d 4e3e
00000120: 5d5c 0cbd 106c e93d 3061 d63c 4075 bfbd
00000130: f09a 00be be6b b83d 2918 adbe bfc1 95be
00000140: c388 59be d06a efbc 943b 143d 5e4b bd3d
00000150: ccef 833d 3415 45bd 6ec2 6c3e 4a0e 903d
00000160: 727a 233e a9d8 9abd 2249 07be 3e81 babe
00000170: 9406 123e 8cbb 4a3e 8fc8 f2bc f34c b83e
00000180: 915a 603d c0fd 293c 4052 28bc 4241 f0bc
00000190: 68dd 82bb 9077 773c ce89 403d e460 dbbd
000001a0: 8d8d 203e a662 8b3e c1c0 db3d a889 933e
000001b0: 5776 bfbd 32c3 5ebe decf cbbc 5044 8abe
000001c0: 1ed0 acbe e7c0 8bbe 240e 043e 1734 2cbd
000001d0: 50a0 eebd b85b 54bf 1822 5dbd d2d1 4fbe
000001e0: aaf1 533e bc2f ff3c 3bb8 a9be 79ee 88bd
000001f0: 505c 66bd b64d a13d 6226 06be 16d0 89be
00000200: 1c80 e83d 801b 123b 9c90 b53e 0cd8 5bbd
00000210: 2c2c a2be 3e43 26be 4fe0 16be cf4f c63c
00000220: fe50 993c 5f30 0dbe cde3 f8be 116c d4bd
00000230: 022f 4dbd a000 79bc 820f 14bf b2ef 6dbd
00000240: bd28 d8bd db5d ba3e 8a77 273e 126e c0bc
00000250: 0e07 603c 0d4a 0c3e 1ba2 d83e 29c6 063e
00000260: 16af 06be ca52 54be fc90 5b3e e654 72bd
00000270: 01bc 103f 8870 413e b003 f83d 0ec6 efbc
00000280: 08c5 04be 37f7 2d3e 5af8 35be bceb 8d3e
00000290: 70f3 20bd 6c71 133f 7716 923d d11b 263e
000002a0: d7cf 4e3d e2ab bd3e 3485 66be 200c 04be
000002b0: ff5c b1be 1e92 3d3d 7b60 c43d 5b0d 863d
000002c0: a76f d83e 7a12 81be c3d7 74be ca7a 6bbe
000002d0: 93a2 cfbe f577 78be 71de 923e 5bf3 b8be
000002e0: faac 473e 5e78 9bbe 9725 86be de4c 263f
000002f0: b180 443e 8ded febe e6d2 093e ff72 3d3e
00000300: 2fc2 f6bd 4f1a f0bd 970d 873d 08ea 9f3c
00000310: 2a6b 11be 0a49 3cbe 179f 133e a445 66bd
00000320: e05f 8b3c 508a 51be 2c0a 8fbe 7487 9ebd
00000330: 5675 f2be 9c58 f83d d7aa ab3e 66a9 eabd
00000340: 10c6 eabd 34e0 8cbe e49b 21bb 0028 dc38
00000350: f433 71bd f068 103b 94c6 3d3e 44f1 253e
00000360: 7e00 fcbd 80f0 e0bd dc86 d43e 4ce2 dcbd
00000370: d8b0 8bbc ad15 413e 76a4 93bd 4848 e43b
00000380: 44df af3e 2075 83bc 0c33 65be 4dc6 ecbd
00000390: 94a3 793d ce6f f23d e209 553c 0bfd 29be
000003a0: 20e8 dd3a 4670 0a3c 35e4 e3bc 8529 ed3d
000003b0: 4ff4 863e a2bd 593d 0d18 643c 02bd 87bd
000003c0: 9e39 febd 6b26 b73d e557 673e fef4 1dbe
000003d0: f135 0f3e 7c48 9e3e 9f17 01bf 6516 b23d
000003e0: a0fc 313d 4861 d2bd 1823 72bc 8e13 a83e
000003f0: e012 ffbd 88ba 72be f68e 453d dc33 05be
0.10483372 0.1732104 -0.23711231 -0.18725353 -0.059524216 0.21781398 0.415606 -0.07686971
-0.044830732 -0.60898286 0.5171765 0.09278397 -0.0624605 0.08519867 0.16125298 -0.104084596
0.059575256 0.020181268 -0.14127415 0.22084671 -0.19653097 -0.11319988 -0.1568386 -0.03211815
0.17412028 0.3877775 -0.077213764 0.5693864 0.10543068 -0.5201134 0.26896015 -0.15476035
0.06326296 -0.22826213 0.1262384 -0.062399864 0.47842237 0.36566222 -0.15652366 -0.28242427
-0.04890526 0.0122429505 0.037890878 0.102931924 -0.32882237 0.015495259 0.019706406 0.23916243
-0.062998295 0.13873395 -0.27666128 0.2762113 0.34824342 -0.117112815 0.17426823 0.07552049
-0.44136325 0.13680312 0.37201554 -0.17433533 0.15174085 0.5700346 0.043010704 0.20288554
0.034458455 -0.032081358 0.0366619 -0.011487141 -0.12124708 0.42889002 -0.0070224255 0.20165083
-0.034267772 0.113975644 0.02616939 -0.093485355 -0.12559104 0.09004925 -0.33807495 -0.2924938
-0.21243577 -0.029225737 0.03618963 0.09242891 0.06442222 -0.048115924 0.23121044 0.070339754
0.15964678 -0.07560856 -0.13211492 -0.3642673 0.14260322 0.19798106 -0.02963665 0.35996208
0.05477387 0.01037544 -0.010273516 -0.029327992 -0.003993679 0.0151041895 0.04700642 -0.1071184
0.15678997 0.272237 0.10730124 0.2881596 -0.093487434 -0.21754149 -0.024879392 -0.27005243
-0.3375253 -0.2729561 0.12896019 -0.042041864 -0.11651671 -0.8295245 -0.053987592 -0.20294884
0.20697656 0.031150691 -0.3314837 -0.0668611 -0.05624038 0.0787615 -0.1310058 -0.2691657
0.1135256 0.0022294223 0.3546189 -0.053672835 -0.31674325 -0.16236588 -0.14734004 0.024207978
0.018715378 -0.13787983 -0.48611298 -0.103721745 -0.05009366 -0.015197903 -0.57836163 -0.05808992
-0.10554645 0.3639973 0.16354194 -0.023489986 0.013673557 0.13700123 0.42311177 0.1316153
-0.13152727 -0.20734707 0.21442026 -0.059162997 0.5653687 0.18890584 0.12110078 -0.029269245
-0.12965786 0.16988836 -0.1777052 0.27718914 -0.03929466 0.57594943 0.07133191 0.16221549
0.05049118 0.370452 -0.2251175 -0.1289525 -0.34641263 0.046281926 0.09588715 0.06545516
0.42272684 -0.2520941 -0.23910432 -0.22996059 -0.40553722 -0.2426451 0.28685334 -0.36123165
0.19499579 -0.3036527 -0.26200554 0.6496104 0.19189717 -0.49790612 0.13459358 0.18500899
-0.12048756 -0.11723768 0.06594389 0.019520774 -0.14201036 -0.18387237 0.14416157 -0.05621876
0.01701349 -0.20462918 -0.27937448 -0.077406794 -0.47355145 0.12126276 0.33528778 -0.114580914
-0.11463559 -0.27514803 -0.0024659568 0.00010497868 -0.058887437 0.0022035204 0.18532783 0.16205317
-0.123047814 -0.10983372 0.4150914 -0.1078535 -0.0170521 0.18855925 -0.07209103 0.0069666244
0.34350026 -0.01604706 -0.22382754 -0.1156126 0.060947016 0.11837731 0.0130028445 -0.16600434
0.001693014 0.00844962 -0.027818779 0.11580185 0.26358268 0.053159364 0.01392175 -0.06627847
-0.12413333 0.089428745 0.22592123 -0.15425488 0.13985421 0.30914676 -0.5042667 0.08695678
0.043453813 -0.10272461 -0.014778875 0.3282742 -0.12454772 -0.23703969 0.04823204 -0.13008064

stack.2.0.bias f4 [32]
00000000: cda7 573f 0eb1 c0bd b850 733f e6f9 1b3f
00000010: b802 013f 493c f1be 166d 94be eac5 2bbe
00000020: ea41 7ebe 0c29 5e3f cd09 df3f ba93 85bd
00000030: 6cc3 2ebc 5036 3e3f 9895 573f 8bf2 a43f
00000040: 86be 513e 53e7 303f bcd8 313d 6be4 c83d
00000050: b68f d13f b218 db3e 4226 8a3f bcdd 133f
00000060: 4ef9 bc3e 92a3 b2bd c283 823f 71fb c3be
00000070: a341 423f 2b35 9c3e 3d99 42bd c004 2a3e
0.8424042 -0.094087705 0.9504504 0.6092819 0.50394773 -0.47116306 -0.28989476 -0.16774717
-0.24829832 0.8678138 1.7424866 -0.06522317 -0.010666709 0.74301624 0.84212637 1.2886518
0.20482835 0.6910297 0.043419585 0.09809192 1.6371982 0.4279228 1.0792925 0.57760215
0.36908954 -0.08722605 1.0196459 -0.38277772 0.75881404 0.30509314 -0.04750942 0.16603374

stack.3.0.weight f4 [10, 32]
00000000: 4c2c 803e d995 b03d eeb5 2dbc 7c2d 673e
00000010: fcdf 20be 08be b43b c625 f33d 00a7 16bd
00000020: 6c77 65bd c871 41bd 0cae 93be 9d82 e5bd
00000030: 145f dbbc 5c62 cd3d d7ef b2bd 99f4 d3bd
00000040: 6378 84bd 5043 39bb 569c c33c 8830 993c
00000050: bf19 823d ce49 c1bd 880f 66be 23d7 32be
00000060: e6ea bb3d 6858 2d3e fecc 773e 3e3f 5d3e
00000070: 4913 a3bd 2892 85bd 35d0 673d 863b edbc
00000080: 9d5c c63c fb87 bbbe b55d b9be 490b e53d
00000090: d5ec 9a3e f80b 423e 406e aabd 9330 5cbe
000000a0: 7b7c a8bd 5270 b0be 8269 9dbe 86ef aa3e
000000b0: 1775 debd 3ea3 e93d 463a 9cbd a526 313e
000000c0: 73a4 423d c672 89be f793 933d 2022 a93d
000000d0: c4f6 e1bd 483f 9dbe 589c 3ebd 7154 4e3d
000000e0: db6f 5e3e cf05 dc3d a0eb 99be aad3 01bd
000000f0: 8437 e73d b5fc b73e 50d9 803e 5426 46bd
00000100: f219 82bd 5902 6c3e beac 8c3d 13dd 8bbe
00000110: 1499 843d 5e27 e6bd d3d7 43be d4e8 41bd
00000120: ea67 afbd 5f83 4d3d d2df 843e 5103 12be
00000130: 6c41 d3bd a371 763d 7b08 623d 3d46 97bd
00000140: 241d a23e 9c67 1d3e 908a 11bf da11 5ebe
00000150: 3ad5 37be 1837 2abe 9a99 543e bfd0 c63e
00000160: d99e adbd 04bc 943d 0306 06be 8302 9cbd
00000170: 11a0 423e 4311 1ebe eb43 febd 6aff 64be
00000180: 071f 523e 6734 08be 5a71 583c 4cf7 02be
00000190: dead 003e 0715 efbd e241 3ebe eabc bdbe
000001a0: 6afd 83be 9898 41bc f620 193e 7e92 d9bd
000001b0: 80c1 b3be 7fbe 0fbe 047d d93d a5d9 b43e
000001c0: aa29 a43d c456 24be 8f06 92be b9a1 88be
000001d0: 70ad e23d cc5a 06bf d008 0a3e a078 7fbc
000001e0: ba1a 383d abc1 10bd 3655 0dbd 00be 1e3b
000001f0: 8043 b13d bcb9 9cbe 9ec4 6bbd 04bb 2dbe
00000200: e294 1d3e ec56 333d fc49 b6bd ace2 92bd
00000210: e9ba 753e 6fdc 7b3e d69b 4bbe 1093 afbd
00000220: b940 bdbd 92de 2a3d 661a 873d d09a 3cbe
00000230: ef6d d43d 2d4f a0be 435c 063e 906f 27be
00000240: 32c3 06be 3480 4e3e d05d 463e 4812 d63d
00000250: b8f8 84bc 3546 4ebe 38e8 f9bd ebc8 dd3e
00000260: 8a7f 8c3e 9f50 c2bc 6845 a9bd 0e0e 9e3d
00000270: 801a a13c 7c4a 88be 3f71 723e 3843 f03c
00000280: fcf0 0d3e 19f9 c4be de82 a2bc 4df9 843d
00000290: b9ee cbbd 2a02 5abe 16f3 65be df9d adbe
000002a0: 6844 433c db05 88be a780 243e 4a40 0c3d
000002b0: 272f 7fbe 04ee eb3c d67d bc3d bdd4 073e
000002c0: d97d ca3d 659c 96be 8baf 50be 0c35 fabc
000002d0: 0c35 043e 3ea6 b23c e8ec 1fbe a1c7 f7bc
000002e0: 5467 ea3d 6ad1 0bbe a674 af3e 61f5 7a3d
000002f0: 9f0d a7be c8b3 b0bc f80e 22be 44ab 1fbe
00000300: d6b2 61be d868 963e 1c81 91bd fdc9 fc3d
00000310: d2a3 443e 47f6 9e3d 0089 13be 5d00 c7be
00000320: 4c41 be3c b47f ed3c 68bf 6c3e 90e3 73be
00000330: 222e 4abd 2c88 a7be 16cf 25be 8571 963e
00000340: 545a 6c3d af66 f1bc 194a cfbe c1fa 58bd
00000350: 5e5d 5bbd 28d3 2abe 3907 183e 78ed 653d
00000360: 7b97 243e a079 a73d c453 153d c07e b93b
00000370: 00cc 093a 0483 513c 80f3 edb9 95c4 59be
00000380: e5e5 023e 243f 1fbd f7f8 91bc 9dab cb3e
00000390: 54e4 d2be 2988 06be 05c0 6ebe f5a9 0bbe
000003a0: b71a 473d 5e87 7fbe 9817 933e 8376 31be
000003b0: 6e8b 4d3e 6fd6 013f ada4 9dbe 7d9e 29be
000003c0: 4214 2d3e a08b 21bf 22a4 333d 007b b0bb
000003d0: f63b 9f3e 11a1 ef3b 2a18 b2bd e232 f8bd
000003e0: a0ab 41be 1882 803c be27 70be 0367 95be
000003f0: 4fc1 45bf 80ed 383d 9f55 e33d 47c8 26be
0.25033796 0.08622331 -0.010602457 0.22575945 -0.15710443 0.0055158176 0.11872439 -0.036780357
-0.056022093 -0.04722765 -0.28843725 -0.11206553 -0.026778735 0.10028526 -0.08737152 -0.10349388
-0.064682744 -0.002826888 0.023878258 0.0186999 0.06352567 -0.09437905 -0.22466862 -0.1746488
0.09175663 0.16928256 0.24199292 0.21606156 -0.07962663 -0.06522018 0.056595046 -0.028959047
0.024214083 -0.36627182 -0.36204305 0.11183793 0.30258814 0.18949878 -0.0832181 -0.21502905
-0.08226868 -0.34460694 -0.3074456 0.33385867 -0.10862177 0.11408089 -0.07628302 0.17299898
0.047520112 -0.26845378 0.072059564 0.08258462 -0.11033395 -0.30712342 -0.04653582 0.0503735
0.21722357 0.107432954 -0.3006258 -0.031696 0.11289886 0.35934988 0.25165796 -0.048376396
-0.06352605 0.2304777 0.068688855 -0.27317104 0.0647451 -0.112379774 -0.19125299 -0.047341183
-0.08564742 0.050174113 0.2595201 -0.14259078 -0.103152126 0.060166966 0.05518387 -0.07386444
0.31662858 0.15371555 -0.56852055 -0.21686497 -0.17952433 -0.16622579 0.2076172 0.38831136
-0.084775634 0.07262424 -0.13088231 -0.076176666 0.19006373 -0.15436272 -0.12415298 -0.22363058
0.20519648 -0.1330124 0.013210619 -0.12789649 0.12566325 -0.116739325 -0.1857982 -0.37058192
-0.25779277 -0.011816166 0.1495398 -0.10623644 -0.35108566 -0.14037512 0.10619548 0.353223
0.08015759 -0.16048723 -0.2852063 -0.26685885 0.11068237 -0.52482295 0.13479924 -0.015592724
0.044947363 -0.035340946 -0.03450509 0.0024222136 0.08655453 -0.30610454 -0.057560556 -0.16965872
0.15388826 0.043784067 -0.0890083 -0.071721405 0.23997082 0.24595807 -0.19883665 -0.08572972
-0.092408605 0.041716166 0.06596832 -0.18418431 0.10372531 -0.31310406 0.13121133 -0.16351151
-0.13160399 0.20166093 0.19371724 0.104527056 -0.01623188 -0.2014397 -0.12202495 0.4331735
0.27441055 -0.023720084 -0.08265191 0.077175245 0.019665956 -0.26619327 0.23676012 0.029328927
0.1386146 -0.38471296 -0.019837793 0.06492863 -0.09957642 -0.21289888 -0.22456011 -0.3390951
0.011918165 -0.26566967 0.16064702 0.034241 -0.24920331 0.028800018 0.09203689 0.13264747
0.09887285 -0.29416195 -0.20379464 -0.030542873 0.12910861 0.021807786 -0.15617716 -0.030246558
0.114454895 -0.13654104 0.34268683 0.061269168 -0.3262758 -0.021570101 -0.15826023 -0.15592676
-0.22040877 0.29376864 -0.07104704 0.12343214 0.19203117 0.077618174 -0.1440773 -0.38867465
0.023224495 0.028991558 0.2311989 -0.23817277 -0.049360402 -0.32721078 -0.16192278 0.29383484
0.05770333 -0.029467909 -0.4048622 -0.052973513 -0.05355584 -0.16682112 0.14846505 0.05613467
0.1607341 0.08177495 0.03645684 0.0056608617 0.00052565336 0.012787584 -0.00045385584 -0.21266396
0.1278301 -0.038878575 -0.017818911 0.39779368 -0.41189826 -0.13137878 -0.23315437 -0.13639052
0.04860946 -0.24953982 0.28728938 -0.17330365 0.2007272 0.50717825 -0.307897 -0.16564365
0.16902259 -0.63103676 0.0438577 -0.0053857565 0.31100434 0.007312902 -0.08696015 -0.1211908
-0.18913126 0.015687034 -0.2345266 -0.29180154 -0.7724809 0.045148373 0.11100315 -0.16287337

stack.3.0.bias f4 [10]
00000000: 4c67 adbd 3e9d 833e e05e 80bc 4e08 273e
00000010: 80b1 143a 8e12 82bd 77a2 d33e 4ebd a53e
00000020: 355e 9bbd c0ae 013f
-0.08466968 0.25705904 -0.01567024 0.16311762 0.00056722015 -0.06351195 0.41334888 0.3237099
-0.07586328 0.5065727
