models/teacher_0.pt (torch, 445919 bytes, 4 tensors)

stack.0.0.weight f4 [128, 785]
000000 80 12 9d 3a c6 79 f2 3d 2f d2 85 3d 9a d6 6d 3d
       0.0011983663 0.11839633 0.0653423 0.058065988
000010 c8 86 bd 3d 2d e3 c4 3d f4 3a 37 bd 7d be 05 3c
       0.09254223 0.09613643 -0.044733956 0.008163092
000020 29 ca d5 3d e8 eb 34 3e c2 38 2a 3e 3d e4 00 3e
       0.104389496 0.17668116 0.16623214 0.12587066
000030 9e 16 71 ba 2f c1 a5 3d 28 83 ea 3d 7b 0d 9b 3d
       -0.00091967906 0.080934875 0.11450797 0.075709306
000040 63 83 c8 3d c2 ce 99 3d 16 d2 88 3d d4 66 01 3e
       0.09790685 0.07510139 0.06680696 0.12636882
000050 42 90 bb 3d a2 cf 16 3d e0 2f 4c 3d 72 82 cb 3d
       0.09158374 0.036819108 0.049850345 0.0993699
000060 da 36 1e 3b de 6c 11 ba 4b 56 b8 3d 1b f2 bc bd
       0.002414158 -0.00055475335 0.09000834 -0.092258655
000070 a3 0f 1b bc bb c4 8f 3d 44 74 a2 3d d5 f8 f0 3d
       -0.009464177 0.07019945 0.07932332 0.11766211
000080 e6 0e dd 3d 98 c1 26 3d 46 0d e8 bd 7f cf fe bd
       0.10793857 0.04071197 -0.11330657 -0.124419205
000090 75 10 f5 bc c8 d5 4f bc 74 f1 46 3d 02 e0 3a 3d
       -0.029915074 -0.012685247 0.04857011 0.045623787
0000a0 9a 65 87 bc 21 50 bc bd 5d 7f 31 bd 02 96 81 bd
       -0.01652794 -0.09194971 -0.043334354 -0.0632744
0000b0 78 10 e4 3b e2 c7 48 3c ed 8e bc bc e4 0f 39 3d
       0.006959971 0.012254687 -0.023017371 0.04518117
0000c0 bb 9c e4 3b aa 3d b7 bc e5 00 70 3d b8 c9 0a 3e
       0.0069766915 -0.02236827 0.058594603 0.13553512
0000d0 f8 63 e5 3d 23 cf 05 3d 7e 93 b9 3d 4e 45 1d bc
       0.11200708 0.032668244 0.09061335 -0.009599043
0000e0 f1 8f 6e 3c ec b3 60 3d 37 bd 80 3d 65 36 69 3d
       0.0145606855 0.054859087 0.0628609 0.05693664
0000f0 ba 3c e0 3d a6 48 34 bb 1c da 2f be 8d 53 25 be
       0.10949083 -0.0027509122 -0.17173046 -0.16145153
000100 b2 05 b2 bc c7 e6 bf bd f3 2b 52 bc 70 37 76 bc
       -0.021731231 -0.09370189 -0.012827861 -0.015027866
000110 f2 58 1b bc 6f 90 92 bd 0e 00 d7 bd 85 1f 93 bc
       -0.009481655 -0.07156455 -0.10498057 -0.017959366
000120 fb 4f e0 3b 64 56 dd 3c 0e 96 a5 3b fc e5 70 3c
       0.006845472 0.027018733 0.0050532883 0.01470327
000130 17 18 1a bd 28 e3 a3 bd fd 8b ab 3c 10 ba bb 3c
       -0.03762063 -0.08002311 0.020940775 0.02291587
000140 78 f4 92 3d 8a 07 24 3e a0 f0 10 3e b6 29 29 3d
       0.07175535 0.16018501 0.14154291 0.041299544
000150 c9 f0 3a bd 6d 6d 2d 3d 41 6f 25 3d 26 35 1a 3d
       -0.045639787 0.042340685 0.040389303 0.037648343
000160 37 72 6e 3d 56 ec 86 bd 74 13 35 be d6 94 25 be
       0.058214393 -0.06588046 -0.17683202 -0.16170058
000170 f8 51 31 bd e8 20 74 3b 38 e3 3c bd 85 10 88 bd
       -0.043291062 0.003725106 -0.04611513 -0.06643776
000180 18 90 e6 bc b6 a1 70 bd b2 07 3c bd 48 6d 58 bd
       -0.028144881 -0.05874797 -0.045905776 -0.052838594
000190 5e 86 17 3c d8 36 55 3c 27 7b e7 bc fa c2 ae bb
       0.009248344 0.013013564 -0.028256966 -0.0053333016
0001a0 cc 13 73 bd 34 3d 78 bd 16 1a 45 bd 84 15 da 3b
       -0.05934505 -0.060605243 -0.04812058 0.006655397
0001b0 c0 bc a3 3d 58 ab 07 3e 69 b1 b2 3d 2a c0 c6 3d
       0.079949856 0.13248956 0.087252446 0.09704621
0001c0 6e 7f d8 bc 16 8b 9a 3d b6 9b af 3d aa 61 90 3c
       -0.02642795 0.0754606 0.085746214 0.017624695
0001d0 43 67 d6 3c 6a 8b 20 bd 8d 30 21 be aa aa 36 be
       0.026172286 -0.039195456 -0.15741177 -0.1783854
0001e0 04 97 ac bd b0 e9 1d 3d d0 c0 a2 bd 67 63 78 bd
       -0.084272414 0.03855294 -0.07946932 -0.060641672
0001f0 b9 a5 9d bd ce ba 0c bd cf 43 1f bc e6 39 31 bd
       -0.07697625 -0.03435784 -0.009720757 -0.043268107
000200 28 eb b5 bb d0 82 61 bd 2f 82 1b 3c 6c 0f 96 3d
       -0.0055517145 -0.055056393 0.009491487 0.0732716
000210 7f df cc 3c fe 53 49 3c 0c 39 dd 3c d3 ad dd 3c
       0.025008915 0.012288092 0.027004741 0.027060425
000220 62 a4 bb 3d 27 45 cb 3d 99 a4 74 3d c0 3c 49 3e
       0.09162213 0.09925299 0.059727285 0.1965208
000230 a8 ff 5a 3b c8 5f d4 3a 37 e4 e9 3c fb 75 c4 bd
       0.0033416543 0.0016202861 0.028551204 -0.095928155
000240 0a 2c 3a bd 2e c3 0a be 10 90 cd bd 6c fb 02 be
       -0.045452155 -0.13551018 -0.10037243 -0.12791222
000250 73 77 a0 bd fd d0 ad bc bc 43 e1 bd df fe a8 bd
       -0.07835283 -0.021217817 -0.109992474 -0.08251738
000260 cf 7c 20 bd 85 d5 1a 3d 7d 5e 4b 3d 38 19 7a bd
       -0.039181527 0.037801284 0.049650658 -0.061059207
000270 9a f3 ae 3c dc 10 2f bd eb cc 7f 3c 98 3a b0 3c
       0.021356393 -0.042740688 0.015612821 0.021512315
000280 8b 69 1c bd c5 7a 4a bc 85 f1 44 bd c7 80 bb bb
       -0.03818659 -0.012358372 -0.048081893 -0.0057221386
000290 40 95 31 3d c7 3e 80 3d 05 02 4b 3d cf 65 27 3e
       0.043355227 0.06261974 0.049562473 0.1634743
0002a0 b3 27 06 be b2 2e da bd 66 1a 09 bd 4e f9 28 be
       -0.13101082 -0.10653438 -0.03347244 -0.16501352
0002b0 75 9b 86 bd 40 9e dd bd a2 16 3e be f2 13 1d be
       -0.0657262 -0.108211994 -0.18563321 -0.1533964
0002c0 d3 c7 1f bc 6f 0e 0c bc 1e d3 a1 bc 42 f2 c7 bc
       -0.009752232 -0.008548363 -0.019753989 -0.02440751
0002d0 18 d5 13 bd 00 30 9d 3b 91 05 75 3d 40 92 66 3b
       -0.036091894 0.004796982 0.05981976 0.0035182387
0002e0 d7 a1 d9 3c e7 00 8e 3d 97 c2 6e 3c 8e 0a 50 3d
       0.026566429 0.06933766 0.014572761 0.050791316
0002f0 83 50 7e bd 46 bb 74 bc 52 44 d2 3c 45 49 91 3c
       -0.0620885 -0.014937228 0.025667343 0.017735133
000300 a8 d7 60 bc 75 45 9e 3d 28 9b b7 3d cb b5 d3 3d
       -0.013723291 0.077280916 0.089651406 0.10337409
000310 f4 d2 23 be eb dc 13 be 31 d8 01 be ac f9 fd bd
       -0.15998441 -0.14439742 -0.12680127 -0.12401137
000320 79 25 78 bd e5 36 c1 bd f1 f4 6f be 28 42 75 be
       -0.06058261 -0.094342984 -0.23433281 -0.23951018
000330 5e 74 4b bd a8 a6 85 3c ff 9c 6b bc 57 13 fd 3c
       -0.049671523 0.01631482 -0.0143806925 0.030893011
000340 f6 17 c4 bc 0e 1d a5 3c bb f6 cc 3c aa a1 71 3c
       -0.023937207 0.020155456 0.025019994 0.014748016
000350 cc dc cb 3c 46 c5 86 3d 80 e5 9c 3d a4 c8 c2 3d
       0.024885558 0.06580596 0.07660961 0.095109254
000360 b5 9d 89 bc 09 a3 92 bd a8 93 8e 3c e3 d5 e9 bc
       -0.016798833 -0.07160003 0.017404392 -0.028544372
000370 ba ea fc 3c 7f 33 f9 3d 1c 77 c2 3d d8 7e 31 3d
       0.030873645 0.12168025 0.094953746 0.04333386
000380 f3 04 3e be ca 4c 3b be 12 d7 05 be a7 c7 27 be
       -0.18556575 -0.18291011 -0.13070324 -0.16384755
000390 61 41 2c be 58 d0 71 be 5d 18 8b be a7 bf 46 be
       -0.16821815 -0.23614633 -0.27167025 -0.19409047
0003a0 7d 50 94 bc 87 96 57 3b f1 eb 6a 3d 0c b2 53 bd
       -0.018104786 0.0032896118 0.057353918 -0.05168347
0003b0 c9 84 ab bc 3a 4b e2 bc 2c 3e 94 bc 81 3c e0 3b
       -0.02093734 -0.027623761 -0.018096052 0.00684315
0003c0 07 7e 99 3c 2c 2a c7 3d 39 6a 01 3d 99 69 32 3c
       0.018736852 0.097248405 0.031595442 0.010889434
0003d0 17 c3 c1 bc 26 ea 96 bd 83 46 de 3b 2a e4 f8 bc
       -0.023652596 -0.07368879 0.006783308 -0.030382235
0003e0 eb 89 67 3d a5 12 75 3d 23 e1 14 3d 2d b7 43 3d
       0.056528013 0.059832234 0.03634752 0.047782112
0003f0 41 30 0c be ac bc 2e be 9b 7d 24 be f7 75 4f be
       -0.13690282 -0.1706416 -0.1606354 -0.20259844

stack.1.0.weight f4 [64, 128]
000000 51 23 6b 3d f9 4e 79 bc d0 31 c7 3d 1d 45 48 bd
       0.057406727 -0.015216582 0.09726298 -0.048894037
000010 04 d2 11 bd 01 9b 22 bc f0 6a 3a 3d ca 15 2a bd
       -0.035600677 -0.009924651 0.04551214 -0.041524686
000020 6f bc df 3d 91 3e f7 bd b8 a1 17 bd 78 e2 41 bc
       0.10924613 -0.120724805 -0.03701946 -0.0118337795
000030 42 14 7c bd a9 92 fd 3d d4 11 02 bd 95 cd ba 3d
       -0.061542757 0.12381489 -0.031755283 0.09121243
000040 2a cd a5 3d 50 bc 0f 3e bd 80 99 3d c7 49 71 3c
       0.080957726 0.1403668 0.07495258 0.014727063
000050 f6 d0 33 bc 09 03 ae 3c 64 f5 c0 3d d0 23 e7 bd
       -0.010975113 0.021241682 0.094218045 -0.112861276
000060 25 fa 85 3d ef 1d 17 be 9f 0c 99 3d 2d ed 6f bc
       0.06541852 -0.14757513 0.074731104 -0.014643949
000070 c7 9a e9 bc 05 93 6d bd b1 49 f7 bc bc 7a 15 bd
       -0.028516186 -0.058001537 -0.030186506 -0.036494
000080 ff 74 84 bb dd 62 00 3e 39 bc b7 bc ff b8 e4 3d
       -0.0040422673 0.12537713 -0.022428619 0.11168098
000090 9f d0 e6 3b 23 83 9f bd 58 04 f9 bd 80 99 8d 3d
       0.0070439125 -0.07788684 -0.12159032 0.069140434
0000a0 e3 a2 dc bc 3d 23 b3 3d 15 71 67 3d cb 05 eb bd
       -0.02693314 0.087469555 0.056504328 -0.11475714
0000b0 0d f4 6e 3c c0 bc 98 3d bd 99 f4 bd b1 39 e7 3d
       0.014584553 0.07457876 -0.11943386 0.11290301
0000c0 77 70 34 3d 0d dc 37 bd 98 a9 b4 3c a8 d2 63 3c
       0.044052567 -0.04488759 0.022053525 0.013905205
0000d0 c9 82 e5 bc 22 e6 7e 3d 6f 0b aa bc 5b 37 52 bd
       -0.028016465 0.06223119 -0.020757405 -0.051322322
0000e0 1e 5c 73 bc a1 b5 ae 3d b8 ff 3b 3d 07 ab ca 3d
       -0.014853505 0.08530737 0.04589817 0.09895902
0000f0 3c 8c a2 3d fb 60 e9 bd 6d 9f 2a bd d4 4e 12 bd
       0.07936904 -0.11395451 -0.041655947 -0.035719708
000100 18 3f 68 3e 11 e2 02 3e 18 16 a6 3d 99 b7 cb 3d
       0.22680318 0.1278155 0.08109683 0.09947128
000110 2b 7c 70 bd 87 b8 03 be 8b 63 43 bb ed 4c 91 3d
       -0.058712166 -0.1286336 -0.002981397 0.070947506
000120 24 7c c8 3d 5c 90 84 3e 61 a5 e3 bc 2c 38 a3 3d
       0.09789303 0.25891387 -0.02778882 0.07969698
000130 ed 7c 94 3d 5e c0 44 bd bb 48 6b 3d b7 7b a4 bd
       0.0725039 -0.04803502 0.057442408 -0.08031409
000140 84 e9 01 3e 84 61 37 3e cf 9e 1c be 4c 64 a8 3d
       0.12686735 0.17908293 -0.15294956 0.08222255
000150 15 61 75 bd cf 7b a6 bd 43 fc b0 3d 90 77 59 bc
       -0.059907038 -0.08129083 0.08641865 -0.013273135
000160 00 e5 49 3e 11 37 e4 bc c9 7b 89 be f0 a7 9b 3d
       0.19716263 -0.027858289 -0.26852253 0.07600391
000170 c1 04 c7 bd 5c 9f db 3d 45 50 0c 3e ec c2 c6 bc
       -0.097177036 0.10723755 0.13702495 -0.024262868
000180 be f7 ba 3d 58 fd c3 3d 54 97 13 be fc 39 c6 3d
       0.09129284 0.09569806 -0.14413196 0.096790284
000190 b9 93 eb bc be 2c 18 be dc 8d 3b bc e0 c2 b2 bd
       -0.028756963 -0.14860818 -0.011447396 -0.08728576
0001a0 0b 70 10 3e 4c 01 da 3c 8d af 99 3d f2 8a 19 3e
       0.14105241 0.026611947 0.07504187 0.1499441
0001b0 69 ad d6 bd 35 6a ec 3d 6d 2d 0c 3d ed 42 25 bd
       -0.10482294 0.11543695 0.03422301 -0.04034703
0001c0 6d 86 a4 3d 50 0f a0 bd 9a c5 89 bd 47 f8 47 bd
       0.08033452 -0.07815421 -0.06727143 -0.04882076
0001d0 db 3e 57 3d fe 1c c3 bc 0c d5 4c 3d 83 7f 84 bd
       0.052550178 -0.023817535 0.050007865 -0.064696334
0001e0 c2 99 4e bd 39 87 b1 bd 26 4f 29 be b7 8a 5f bd
       -0.050439604 -0.0866837 -0.16534099 -0.05457565
0001f0 46 ff ed 3c 31 0f ae bd 29 69 51 3d 0a 01 95 bc
       0.029052388 -0.08498991 0.05112568 -0.018188972
000200 da b7 36 3e 2a 8f eb 3d ab b4 c0 3d bd 38 83 bd
       0.17843571 0.11501916 0.0940946 -0.06407306
000210 3b c8 89 bc 66 e2 4d 3b 87 1b c2 3d b8 33 22 3d
       -0.01681911 0.0031415462 0.09477907 0.039600104
000220 33 a6 79 bd 15 cf 22 3e 6d 70 b1 bd 42 a0 ce 3d
       -0.060949516 0.15899308 -0.08664022 0.100891605
000230 c0 6f c9 bd ac fa 5c be 6a 05 30 be 9f f1 4f bd
       -0.09835768 -0.21579999 -0.17189565 -0.050767537
000240 31 b5 d7 bc a6 71 0d 3e 00 03 2f be 72 85 d1 3d
       -0.026331516 0.13812885 -0.17090988 0.10230531
000250 be 84 d4 3d 0d 8c 15 3e 2f 87 01 bd 9c 9a d1 3c
       0.10376881 0.14604206 -0.03162306 0.025586419
000260 34 25 bd bd e3 26 23 3e 5e 71 9c bd 4e f4 10 bc
       -0.092356116 0.15932803 -0.076388106 -0.008847309
000270 b2 1c 5c bd fc 4b ef bc 95 e0 bc bd 1f fa 5f 3e
       -0.053738303 -0.029211037 -0.09222523 0.21872757
000280 ed d7 fb bd 68 3d 81 bd 82 ed 3d bb 34 33 76 3d
       -0.12297044 -0.063105404 -0.0028980677 0.060107425
000290 0b 32 f5 bc ba c2 7f bd 41 ab fe 3d 6b 61 8e bd
       -0.029931089 -0.062441565 0.12435008 -0.06952175
0002a0 9a b4 32 bb 2b b3 bf bd 44 3e 62 bd 5a 01 3f 3d
       -0.0027268291 -0.093603455 -0.055235162 0.04663215
0002b0 48 c2 c3 bd b4 ea cb 3d 03 f0 84 3d 9b 9c 46 3d
       -0.095585406 0.099568754 0.06491091 0.048489194
0002c0 83 fe 39 3d 11 93 96 bc 28 41 83 3d c0 d6 f7 3d
       0.045408737 -0.018380674 0.06408912 0.12101507
0002d0 7c e4 20 3d cd 29 ad bd 7f e1 b4 bd 04 d4 08 3e
       0.0392804 -0.084552385 -0.088320725 0.13362128
0002e0 4b d7 64 3c d9 0d 03 3e 84 e7 53 bc fc 94 d0 bc
       0.0139673455 0.12798251 -0.012933616 -0.025461666
0002f0 42 7c dd bd b6 2b 04 3e 79 1a f8 3d 97 a2 00 3e
       -0.10814716 0.129073 0.12114424 0.12562023
000300 aa 1a a5 be 97 7e ad bd f1 5c fa bd a4 d2 39 3d
       -0.32246906 -0.08471411 -0.122247584 0.0453669
000310 44 fa da 3d 2c 00 f2 bd 9a ff ec 3c e3 15 02 be
       0.10692266 -0.11816439 0.028930474 -0.12703662
000320 d6 fe 0c bd 83 45 54 3e 73 6f e6 3c 00 69 57 bd
       -0.034422718 0.20729642 0.028129315 -0.05259037
000330 89 42 3b 3d c5 19 ac 3d 95 be bb 3d e6 64 26 3d
       0.04571775 0.08403353 0.0916721 0.040623568
000340 8f d6 74 bc 41 df 38 bd 43 1f 49 3e f1 7b bd bd
       -0.014943733 -0.045134787 0.19640832 -0.092521556
000350 90 88 c5 3c 75 96 18 3e d6 78 ba 3d fb d8 21 bd
       0.02411297 0.14901145 0.09105079 -0.03951357
000360 41 a2 d7 bd 71 39 4d 3c d7 86 5f bc ef 48 9e bd
       -0.10528994 0.012525902 -0.013642988 -0.07728755
000370 26 f9 98 3d 84 1b 7f bd 39 82 6c 3d 2f 84 17 be
       0.07469396 -0.0622821 0.057741378 -0.14796518
000380 1f 32 8c bd 0b 89 b7 bd ec 52 ad 3c 7a 2a 16 bd
       -0.06845497 -0.08961686 0.021157704 -0.036661603
000390 96 b5 e6 bb 0a 9b a0 3d 26 04 b9 bd e6 ee c0 3c
       -0.0070406897 0.07842071 -0.090339944 0.023551416
0003a0 e4 40 32 bc 1d 7f b5 3d c5 72 ef bd 9b 2a 21 bd
       -0.010879729 0.088621356 -0.116918124 -0.039347272
0003b0 4b 31 05 be d2 25 ca 3d 3d 50 5f 3b 48 6f e0 3d
       -0.13007085 0.09870495 0.0034074925 0.10958725
0003c0 1d 8e fc 3d 00 52 13 be ba 8f c2 3d 70 91 d7 bc
       0.123317935 -0.1438675 0.0950007 -0.026314467
0003d0 f1 cb 99 3d c1 3a a3 bd 0c d8 99 3d 57 fe a1 bc
       0.07509602 -0.07970191 0.07511911 -0.019774599
0003e0 70 93 bd 3d 3d 6d 1d be d1 44 b6 3d fa a6 0f 3d
       0.09256637 -0.15373702 0.088998444 0.03507135
0003f0 cb 66 11 bd ce b4 29 bd c2 72 21 bd d2 48 09 3e
       -0.03549842 -0.041432194 -0.039416082 0.13406685

stack.2.0.weight f4 [32, 64]
000000 19 0c 02 3e b4 7b 56 3e 40 b4 64 bc c2 82 ad 3d
       0.12699927 0.20945626 -0.013958991 0.08472206
000010 99 11 35 3e c2 76 1e bd 3c 47 f8 3d fa 46 4e be
       0.17682494 -0.038687475 0.12122962 -0.20144263
000020 09 97 0d bd ed 7a 80 bc 06 00 fa 3d f3 e3 01 bd
       -0.034567866 -0.015683616 0.12207036 -0.03171153
000030 3b 14 3f bd 3e 3a 8b 3d 29 1b fc 3d 1a 9f 1c bd
       -0.046650153 0.06798218 0.12309868 -0.03823767
000040 1f ae c6 bc cd 88 1b bd 03 3f ad bd 22 59 00 be
       -0.02425295 -0.03797226 -0.08459284 -0.12534001
000050 3f dd 03 bd 54 e4 14 be 50 5b 4e be a5 ae 23 be
       -0.03219342 -0.14540225 -0.2015202 -0.1598459
000060 a7 8a 24 3d e2 87 b2 bc e3 8e db bd 49 af 33 3e
       0.04017129 -0.02179331 -0.10720613 0.17547335
000070 bb eb e7 bd a5 8e ee 3d 24 b5 37 3e f8 d9 1f 3e
       -0.11324259 0.11648301 0.17940193 0.15610492
000080 3c b9 57 bd c7 ff e8 bd 48 bc b1 bd e1 d4 04 be
       -0.052666888 -0.11376911 -0.0867849 -0.12971832
000090 d7 ef 04 bc ca 68 9a bd 6e f1 f3 bd 03 ac cf bd
       -0.008113823 -0.07539518 -0.119112834 -0.101402305
0000a0 a3 a2 c7 3d c9 5e c2 bd 8c 0f 26 bd 03 23 6b 3d
       0.09747817 -0.09490735 -0.04054217 0.057406437
0000b0 12 73 a2 3d 39 04 21 3d 52 4b 44 bd 1a 6d cb 3d
       0.07932104 0.039310668 -0.047923394 0.09932919
0000c0 f9 4f 2f 3e 1e 3b 77 bc 61 3e 4c 3d f8 80 39 be
       0.17120351 -0.015089778 0.049864177 -0.18115604
0000d0 98 d3 e3 3c d4 15 4a be 37 53 4a 3e 07 8d 33 3e
       0.027810857 -0.1973489 0.19758306 0.17534266
0000e0 e7 88 73 3d 40 79 91 3c cd d4 f6 3c 10 30 ef bd
       0.059456732 0.017758012 0.030130768 -0.11679089
0000f0 bd e9 20 bd 20 aa e8 3d f1 71 a2 3d aa 0f 06 3e
       -0.03928541 0.11360574 0.07931889 0.13091913
000100 33 67 02 be 21 6c 8d 3e b2 cb 11 be a1 b5 a2 bd
       -0.1273468 0.27621558 -0.1423786 -0.07944799
000110 ed 2b 50 bd d7 32 04 3e 89 e3 63 3e ac 1e 7e be
       -0.05082314 0.12910019 0.22254767 -0.24816388
000120 25 3b 91 3b 04 44 53 3e c0 26 d3 3d 48 93 a7 3c
       0.0044320994 0.20631415 0.10310125 0.020455971
000130 84 65 9c 3d 6b 16 28 3d 2b d7 e7 bc c4 cb f7 3c
       0.0763655 0.041037004 -0.028300842 0.03024853
000140 82 22 3c 3e a0 71 5a bc 05 46 67 3e eb 9b 6e be
       0.18372539 -0.013332754 0.22585304 -0.23301665
000150 fc 31 06 3e 9e e8 fc 3d 94 ac 0d 3d 9d e0 13 bd
       0.13105005 0.12349056 0.03458841 -0.03610288
000160 04 c1 ad 3d 1b e4 99 be 48 2b 8f bd de f0 61 bc
       0.084840804 -0.30056843 -0.06990677 -0.013790337
000170 c6 51 5a bc 25 80 3a b9 f9 89 a0 ba ac 80 27 be
       -0.01332516 -0.0001778608 -0.001224815 -0.16357678
000180 b8 b5 35 bd 50 4b 0a bc a2 15 0e 3e c8 f8 b4 bd
       -0.044362754 -0.008440807 0.1387544 -0.08836514
000190 af b5 fd 3d 43 f2 00 bd 10 73 2e 3d a0 fd 9f bd
       0.12388169 -0.03148104 0.0425902 -0.07812047
0001a0 80 4c 9c bd 57 35 b8 3b 62 66 e4 bc 98 ef 0f bd
       -0.07631779 0.005621593 -0.027880851 -0.035140604
0001b0 30 47 2d 3e 71 95 d6 bd cd 08 b5 3d a7 07 36 3e
       0.16921687 -0.104777224 0.08839569 0.17776357
0001c0 6e 5c 0c 3e 78 56 8b bd 75 fd 72 3d 4e b2 d5 3d
       0.13707134 -0.06803602 0.059323747 0.104343995
0001d0 fb 43 25 3e b1 a7 fd 3d 65 ef 31 be 3a 71 70 3e
       0.16139214 0.123855 -0.17376478 0.23480693
0001e0 57 11 84 3d da 06 e5 3d fb 18 a6 bc 72 60 43 3e
       0.0644862 0.111829475 -0.020275583 0.1907976
0001f0 19 19 03 bd 89 2a b8 3d 4f ce 4f bd a2 52 0d 3e
       -0.032006357 0.08992488 -0.05073386 0.13801053
000200 51 b6 fe 3d e0 59 a4 bd c0 04 ad 3d 54 46 0f be
       0.12437118 -0.08024955 0.084481716 -0.13991672
000210 0a 02 dd 3c c5 b3 e9 bd 1a 1e 78 bb cb a8 0e 3e
       0.026978511 -0.114112414 -0.0037859739 0.13931577
000220 ae 9b c3 bb 2d f8 ee 3d c7 06 8e 3d b3 38 b3 3c
       -0.005969486 0.116684295 0.069348864 0.021877622
000230 9f 9b 77 3e 81 ce f3 bc f0 18 88 3d 1f f8 4a be
       0.24180458 -0.029761555 0.066453815 -0.19821213
000240 fa c6 32 bd 36 c1 f1 bd 1a 3c d9 3d cc 39 18 3e
       -0.04364679 -0.1180443 0.106071666 0.14865798
000250 3f 0c 39 bc 2e a1 db bd d9 e2 f0 bc 55 1d 93 bd
       -0.011294424 -0.10724102 -0.029405044 -0.07183329
000260 03 eb 90 bd 27 cd 86 3e ec ab 97 be df 4e e8 bc
       -0.07076075 0.26328394 -0.29623353 -0.028357921
000270 80 0c 12 bd b4 c0 47 bc 87 d4 47 3e ac d0 92 3d
       -0.035656452 -0.01219194 0.19514666 0.07168707
000280 98 3f 77 3d 01 6c b1 3d 25 fb de 3d 29 77 d2 bd
       0.060363382 0.08663178 0.10887746 -0.10276634
000290 44 82 92 3c c2 5f 50 bc 63 d8 c5 3d 02 12 a0 3a
       0.017884381 -0.012718143 0.09660413 0.0012212398
0002a0 54 54 e0 bc 62 d8 31 3d 91 6c d2 3d 11 cc 5f bd
       -0.02738396 0.04341925 0.10274614 -0.054637972
0002b0 cc db 0e 3e 5f 4a 54 3e bb c2 75 3d 2c 53 17 be
       0.13951033 0.20731495 0.060000163 -0.14777821
0002c0 de ff be 3d 13 81 7a bc bf 87 24 3e ec 4c 97 3d
       0.093261465 -0.015289563 0.16067408 0.073877186
0002d0 37 79 1a bd d6 ef 81 bd 1d 7b 45 3e 10 ac 18 be
       -0.037713256 -0.06344573 0.19285245 -0.14909387
0002e0 1f 57 30 3d 79 7c 96 bd 20 33 de bd 66 3c 6c 3d
       0.043051835 -0.0734796 -0.10849595 0.057674788
0002f0 51 8e 8e 3d 50 10 10 be cb 3c d0 bb df 36 6b 3d
       0.069607385 -0.14068723 -0.0063549033 0.057425376
000300 3f c3 51 3d 9b be 66 be dd f9 15 3e b0 06 9d 3d
       0.05121159 -0.22533648 0.14646097 0.07667291
000310 46 64 ff bc 6e 69 c0 bd e2 95 3c 3e 18 3b 26 3e
       -0.031175744 -0.09395109 0.18416551 0.1623348
000320 4e e4 6f bd 30 f8 01 3e 36 94 b0 3d 3a 7c 67 bd
       -0.058567338 0.12692332 0.08622019 -0.056514956
000330 44 d0 6b 3e 24 db c4 3d e6 6a 43 3e 94 d8 da bd
       0.23028666 0.0961211 0.19083747 -0.1068584
000340 59 39 98 3d 8d 56 70 3d 64 9c d5 bd 6e 40 ac 3e
       0.07432813 0.05867629 -0.1043022 0.33642906
000350 0c a7 a6 bc 90 dd 35 3d fa 96 2b be 6a 5b d7 3c
       -0.020343326 0.04440075 -0.16756812 0.026288707
000360 71 31 c0 3d 00 ca 51 3e 80 88 81 bd 51 77 1b 3e
       0.0938443 0.20487213 -0.063248634 0.15182234
000370 8c 31 88 bd a2 dd d1 3d b4 fc 0b 3e c7 52 a7 3d
       -0.06650075 0.10247351 0.13670617 0.081700854
000380 a6 dd 54 bd 5a 2f 34 3d fa 46 a7 3c 98 c5 15 3d
       -0.051969193 0.04399047 0.020419586 0.036565393
000390 13 75 00 bb 4b 47 b7 be 87 f3 25 bd 1c 23 91 bd
       -0.0019601032 -0.3579658 -0.04051545 -0.07086775
0003a0 66 d7 18 be 11 d1 9a 3c ba 4d ad bd b4 2f 88 bc
       -0.14925918 0.018898519 -0.08462091 -0.01662431
0003b0 23 95 dc 3a 40 ed e7 3e 65 7f d9 3c 82 45 c2 bd
       0.0016829114 0.45298195 0.026550004 -0.09485914
0003c0 02 62 f1 bd 9b 99 8c 3b 9d 0f aa bd 89 71 b2 bd
       -0.11786272 0.004290772 -0.08303759 -0.08713061
0003d0 86 33 da 3c 2f 4a 39 bc 5e 17 6d 3e 3f 66 aa 3d
       0.026635896 -0.011309191 0.23153445 0.08320283
0003e0 fb d0 06 3e fb b9 68 bc a3 78 e8 3b 5b 8e c0 bd
       0.13165657 -0.014204497 0.007094459 -0.09402152
0003f0 d8 28 81 bd 92 70 8c 3d 61 a7 02 be c2 65 9d bb
       -0.063066185 0.068574086 -0.12759162 -0.0048033902

stack.3.0.weight f4 [10, 32]
000000 21 9b 2c bd 5d ac 2d be ba 90 7c be a9 49 80 be
       -0.04214013 -0.16960283 -0.24664584 -0.25056198
000010 26 80 14 be b5 f2 ca bb a4 1c 54 be 7c 98 f1 3d
       -0.1450201 -0.0061934837 -0.2071405 0.11796662
000020 1a 28 02 3d 9c de 47 3d bd e4 9f 3d bf 22 6e b9
       0.031776525 0.04879628 0.078073 -0.00022710393
000030 74 c1 f5 3c 3e 05 b1 3b 3d 8f f1 3c b8 d7 b8 bd
       0.029999472 0.0054022362 0.029487247 -0.0902552
000040 c4 6d 6d 3d 73 27 ec bc 09 3d 9f bd 39 b4 a3 3d
       0.05796601 -0.028827405 -0.077753134 0.07993359
000050 fb 23 b2 3d 12 7b 8c bd c2 73 2a 3c 72 b3 c0 bd
       0.08698269 -0.06859411 0.010403575 -0.094092265
000060 1e ef b6 3d c4 67 9b 3c 3f dd 0c be b3 4d 65 bd
       0.08932327 0.018970378 -0.13756274 -0.055982303
000070 4b d4 9a 3d 75 9d b3 bb 3f d2 12 be d8 4e b2 bc
       0.07560023 -0.005481417 -0.14338015 -0.021766111
000080 7b 80 43 3e 05 11 7c 3d 25 e2 42 be 45 3d fc bd
       0.1909198 0.06153967 -0.1903158 -0.12316374
000090 d8 51 81 be d3 60 3a 3d 6f d6 55 be 11 a7 76 3d
       -0.25257754 0.045502495 -0.20882581 0.06021792
0000a0 c3 4b 0f be 3f 7f 96 be 05 10 6a bd be 34 0d 3e
       -0.13993745 -0.29393956 -0.057144184 0.13789651
0000b0 ff b1 b5 bc 35 f2 34 3e 41 b0 04 3d 83 e0 59 3e
       -0.022179602 0.1767052 0.03239465 0.2127705
0000c0 36 1d 9e be bc 3a 34 be f2 da 84 bc f0 46 b0 3d
       -0.3088166 -0.1760053 -0.016217683 0.0860728
0000d0 2f 83 89 3c 9e 5f 62 3d 35 02 d8 3d c2 e5 95 be
       0.016786186 0.05526697 0.10547296 -0.29276854
0000e0 c6 23 0a be 25 4c af 3e ae 75 43 bd a8 ad 58 bd
       -0.13490209 0.3423778 -0.04771965 -0.052899987
0000f0 6c 81 07 3d af 8a e6 3d 48 0d a4 3d a8 a2 92 3d
       0.03308241 0.112569205 0.08010346 0.071599305
000100 bd 1b fe 3d 10 e2 4b be ea e7 94 bd 8b 7a a0 3e
       0.124076344 -0.19910455 -0.072707966 0.31343493
000110 0c e6 db 3c 96 7a 73 bc 50 6f 46 3e c5 23 36 bc
       0.026843093 -0.01486077 0.193784 -0.011116927
000120 e5 d0 b8 be a7 4c 06 be c1 70 43 3e 10 7e ad bd
       -0.36096874 -0.13115178 0.19085981 -0.0847131
000130 58 89 b0 3d 77 f0 0e be 2d 85 cc 3d 42 f2 68 3e
       0.08619946 -0.13958918 0.09986339 0.22748664
000140 fb b8 f5 bd 7b f8 cc 3c 41 79 30 bd 2f 90 bf 3b
       -0.11998173 0.025020828 -0.043084387 0.0058460454
000150 6b ef 1c be 7b 69 e3 bd ae 26 cb bd 1e df 2f 3e
       -0.15325706 -0.11104103 -0.09919487 0.17174956
000160 f9 c7 0d 3e 50 f6 08 3e e9 49 01 3e 8a 89 4d 3e
       0.13845815 0.13375211 0.1262585 0.20071998
000170 fa b3 b6 3b 7a 78 9a bd 97 8b 3f 3e b6 da 05 be
       0.005575654 -0.0754251 0.18705593 -0.13071713
000180 ff e4 a0 3a ab 5c 57 3d 5f 28 06 be 05 94 37 3e
       0.0012275277 0.05257861 -0.13101338 0.17927559
000190 e9 ea cc bd 16 54 88 be 82 f1 0d 3e 12 2c 0a 3e
       -0.10005743 -0.26626652 0.13861659 0.13493374
0001a0 3c fd 65 3e 75 80 82 be fd fc ba be 45 e0 7c bd
       0.22459882 -0.2548863 -0.3652114 -0.061737318
0001b0 a0 60 18 3e 98 2d 13 3e 4e c3 4f 3d 97 3f 02 3e
       0.1488061 0.14372861 0.050723366 0.1271957
0001c0 5b b0 05 3e 1b 2a 05 be 77 c6 52 bc c8 20 23 be
       0.13055556 -0.13004343 -0.0128647005 -0.15930474
0001d0 1e 0f 23 3e e9 e5 02 3e db d5 02 bc fc 6e 02 3e
       0.15923735 0.12783016 -0.007985557 0.1273765
0001e0 30 02 d1 bd bf 6c 1a be 5e c1 b3 be ee 53 92 3e
       -0.10205495 -0.15080546 -0.35108465 0.28579658
0001f0 7a 91 57 be 16 87 f7 3d 5e cb 04 be 15 2b 8a 3d
       -0.21051589 0.120863125 -0.12968203 0.067464985
000200 f8 65 c0 bd 0c 86 e1 bd 19 a1 c8 bc ba 1c 87 be
       -0.09394449 -0.110118955 -0.02449088 -0.26389104
000210 6d 71 06 be e6 5f 70 3d d9 a5 4e be d6 37 31 3e
       -0.13129206 0.058685206 -0.20180453 0.17306456
000220 49 1e 1a 3d 32 68 9a 3d 20 74 be 3d 4a 0b 39 be
       0.03762654 0.07539405 0.09299493 -0.18070713
000230 5f 52 e6 bc c1 4f 6b be 1e 2b 95 bd b9 5f 48 be
       -0.02811545 -0.22979642 -0.072836146 -0.19567765
000240 cd 45 6d bd 19 f0 0e bd 2d 03 1f be 36 dd 48 3d
       -0.057927895 -0.034896944 -0.15528555 0.04903909
000250 46 03 cb 3d 2c 81 a6 3d 30 1b 28 bd 9d b3 ad 3d
       0.09912734 0.08130106 -0.041041553 0.08481524
000260 a2 82 07 3e 5b 77 0b 3e 58 4b c7 3d 3b ac 14 be
       0.13233426 0.13619749 0.097311676 -0.14518826
000270 c8 5e 32 bd 02 0f 0b be d4 4e 0e be f5 09 38 ba
       -0.04354742 -0.13579944 -0.13897258 -0.00070205267
000280 18 db 22 bd c1 a9 0c bd 8b 38 a2 bc bf f7 ce 3e
       -0.039759725 -0.034341577 -0.019802352 0.4042339
000290 de 9b ed bd d2 93 0e be 40 7b 48 be a1 a0 11 be
       -0.11601995 -0.13923576 -0.19578266 -0.14221431
0002a0 44 62 42 be 01 30 8f 3e e2 40 1f 3e 8a 8e 42 be
       -0.18982798 0.27966312 0.15552095 -0.18999687
0002b0 c0 b8 8d 3e 7d 32 b4 3e d8 5b 51 be 30 b6 26 be
       0.27680016 0.3519477 -0.20445192 -0.16280437
0002c0 51 f3 30 3e 37 7e 0c be ec f7 90 bc 1d 00 72 3e
       0.17280318 -0.13720022 -0.017696343 0.23632856
0002d0 cc 1e 6b 3e 19 ce ad be f8 a8 04 be ad f1 24 3d
       0.22960967 -0.33946303 -0.12955081 0.040269542
0002e0 01 89 6b be 48 55 bf bd 87 76 b9 3c 60 9b 06 be
       -0.23001482 -0.09342438 0.022639526 -0.13145208
0002f0 fc 3e 96 be 26 dd c4 3d f9 7a 98 be 17 e4 1f be
       -0.29344928 0.09612493 -0.2978132 -0.15614353
000300 e2 1f 19 be ee c9 fc bd 6b 81 9c be d9 f6 99 be
       -0.14953569 -0.123432025 -0.30567488 -0.30071142
000310 f4 7c 14 3e 5c 38 04 3e 62 62 06 3e f0 92 54 39
       0.14500791 0.12912124 0.13123468 0.00020272634
000320 4c c8 b4 3e 33 4f b3 3d 15 c4 8f 3e e1 f5 2c bd
       0.35309064 0.087553404 0.28079286 -0.042226676
000330 55 5a 93 be fe 52 81 3e 05 46 57 bd 4f 43 d9 3d
       -0.28779855 0.2525863 -0.05255701 0.10608541
000340 13 f9 0c 3e 09 86 ba bd 18 c8 20 bd 88 ad 90 bd
       0.1376689 -0.091075964 -0.039253324 -0.070643485
000350 c5 5d 7b be 7a cf 38 be 17 86 be 3d bf fe 54 3e
       -0.24547489 -0.18047896 0.09302919 0.20800303
000360 cb 28 5e be e8 4d f8 bd 08 5d b7 3b 68 f1 9b 3e
       -0.21695249 -0.121242344 0.005595807 0.30457616
000370 d2 3a 84 3d 55 d1 1f 3c aa 22 be bd 93 8a 98 3d
       0.064565316 0.0097544985 -0.092839554 0.07448306
000380 c3 25 1c bc 46 bf 09 bd 16 ae 06 3c 43 89 4f 3d
       -0.0095304875 -0.03362968 0.008220216 0.050668012
000390 6a 39 4d 3d 72 75 be bd 00 f3 43 3d 77 16 fc bd
       0.050103582 -0.09299745 0.047839165 -0.12308972
0003a0 7c ea 76 bd f5 9e 13 be 83 a6 10 3e a4 c2 3d bd
       -0.060282215 -0.14416106 0.14126019 -0.046328202
0003b0 6c e4 22 be 18 e3 d8 3d 44 ed 09 be 87 76 0a be
       -0.15907449 0.1059019 -0.13469416 -0.13521777
0003c0 05 ef 29 be 35 94 fa 3d a6 f8 dd 3d 3f de fe bd
       -0.16595085 0.122352995 0.108384416 -0.12444734
0003d0 4f 4a b9 3d ea 74 c6 bc 44 a5 27 be 65 8f e7 3d
       0.09047376 -0.02422567 -0.16371638 0.11306647
0003e0 9c fc f5 bc c9 c8 15 bd d0 56 03 be 21 f5 d3 3d
       -0.03002768 -0.036568437 -0.12826085 0.10349489
0003f0 c2 16 dd bd 2c c7 1f be a0 45 16 be ce c4 51 bc
       -0.10795356 -0.15603322 -0.14674997 -0.01280327
