models/teacher_5cl_0.pt (torch, 445919 bytes, 4 tensors)

stack.0.0.weight f4 [128, 785]
-0.04415024 0.024543624 0.013659335 0.025358494 -0.046233147 -0.07065928 -0.12428006 0.037839178
0.10757782 0.043568578 -0.023990152 -0.06927938 -0.13781354 -0.137626 -0.1084899 -0.10171397
-0.045866337 0.006276692 0.013158947 0.113449186 0.07654941 -0.054043554 -0.1005561 0.018192861
0.084438585 0.042005654 -0.006713449 -0.0013865413 -0.025925223 -0.01879722 0.06621415 0.04832397
-0.016406292 -0.06657385 -0.1458765 0.006020829 -0.03322393 -0.02662595 0.0028242443 -0.011251997
-0.03369539 -0.06301146 -0.046142343 -0.054160263 -0.02991273 0.0012723261 0.032688152 0.024627319
0.044705786 0.0007614107 -0.06657887 -0.019479565 0.08300239 0.10713173 0.08120056 0.028235514
0.018610511 -0.042261146 0.03955945 -0.008808737 -0.035956077 -0.083695106 -0.050002363 0.027667738
-0.021445487 -0.04512458 -0.016885774 -0.0027278482 0.040524155 0.019968055 -0.06355026 -0.009164842
0.012163889 0.023644743 0.029952358 0.013669408 0.031641148 0.0010974711 0.016011974 -0.076727726
-0.005968715 0.11062033 0.10400045 0.020872869 -0.005136283 0.022038195 0.08032964 0.025717378
-0.04983274 -0.07256137 0.028460816 -0.044009212 -0.008949394 0.0067826267 -0.035879422 -0.053856354
0.023307549 -0.0075025856 -0.052772757 -0.03396021 0.008044378 0.02023564 0.008084508 -0.011567303
-0.0524425 0.014875718 0.0245199 -0.0044286554 0.055919986 0.06614905 0.07634303 0.08507729
0.013007166 0.08577471 0.0798014 -0.005157151 -0.044558376 -0.043111812 -0.018679624 -0.05339676
-0.023060601 0.011679495 -0.032519784 -0.0330821 -0.06255061 -0.030792562 -0.017621081 -0.040907677
-0.058957905 -0.0495831 0.01880979 0.022009868 -0.04333208 -0.0011975343 0.04689919 0.01892529
0.032799944 0.060794044 0.09685144 0.089012556 0.03163988 0.12045851 0.08466228 -0.027522298
-0.03811983 -0.062127203 -0.009801221 -0.077922724 -0.043909505 -0.0397409 -0.062439747 -0.061660085
-0.036021788 0.015550219 0.016495122 -0.05733048 -0.0037162665 -0.036910515 -0.0029677823 0.0069529135
-0.018638654 -0.013377243 -0.020868331 -0.024407659 0.018811908 0.038051818 0.067970715 0.08548116
0.046400245 0.09099509 0.0227729 -0.026610611 0.001965441 0.01292232 -0.07390859 -0.03396821
0.006699183 -0.04341113 0.002733218 -0.045258343 -0.028048135 0.003251539 0.04103685 0.018762508
0.0076817214 0.01122299 -0.010432064 0.009342792 -0.043828085 -0.015965423 0.04625199 0.03892138
-0.04127189 0.093043484 0.049105532 0.031677447 0.07387643 0.03165954 -0.029973224 -0.029139262
-0.015989821 0.014988771 -0.08848379 -0.06405702 0.008193282 0.007919781 -0.022809021 0.011108284
-0.00020970457 0.0061689024 0.005869473 -0.0008780626 0.0003216156 0.006908413 0.0026056091 0.03519207
-0.045483205 -0.07843838 0.025902104 -0.02102811 -0.01930783 0.055810697 0.06666183 0.018191978
-0.006962466 0.036425415 -0.03747009 -0.005357336 0.0033060128 -0.018831396 -0.06218166 0.005108115
0.03330883 0.03987643 0.038775325 -0.031974018 0.015332019 -0.016945478 -0.0016021515 0.020678082
0.025304904 0.07016625 0.014831671 0.040982902 -0.008368068 -0.104032025 0.023226008 -0.0012313408
-0.003900616 -0.019399036 0.038726464 0.025294073 0.13042757 -0.025025617 -0.034351125 -0.013165219
00000000: e2d6 34bd b60f c93c 67cb 5f3c 9ebc cf3c
00000010: f85e 3dbd d0b5 90bd 8b86 febd 41fd 1a3d
00000020: c351 dc3d f774 323d ff86 c4bc 59e2 8dbd
00000030: fe1e 0dbe d5ed 0cbe f42f debd 6a4f d0bd
00000040: 57de 3bbd b5ac cd3b a098 573c 0c58 e83d
00000050: f0c5 9c3d c65c 5dbd 5bf0 cdbd 3209 953c
00000060: 23ee ac3d 1f0e 2c3d 7efc dbbb 9bbc b5ba
00000070: 2261 d4bc a1fc 99bc 499b 873d 5bef 453d
00000080: 7d66 86bc df57 88bd a660 15be 604a c53b
00000090: d115 08bd aa1e dabc f516 393b 4c5a 38bc
000000a0: 2d04 0abd 270c 81bd c1ff 3cbd 27d7 5dbd
000000b0: 8b0b f5bc 2ec4 a63a 03e4 053d 3bbf c93c
000000c0: 6a1d 373d 6899 473a 815a 88bd 9c93 9fbc
000000d0: 28fd a93d e167 db3d 7b4c a63d 2a4e e73c
000000e0: 1275 983c 061a 2dbd 1709 223d 8552 10bc
000000f0: ae46 13bd 5768 abbd 47cf 4cbd 74a7 e23c
00000100: 72ae afbc 8dd4 38bd 0954 8abc b3c5 32bb
00000110: a8fc 253d 0c94 a33c a426 82bd 2228 16bc
00000120: 0c4b 473c 9fb2 c13c a65e f53c a7f5 5f3c
00000130: 269a 013d 05d9 8f3a 8b2b 833c 6d23 9dbd
00000140: 3695 c3bb e98c e23d 30fe d43d 94fd aa3c
00000150: 444e a8bb 7289 b43c de83 a43d 40ad d23c
00000160: 6a1d 4cbd 0e9b 94bd a826 e93c 0143 34bd
00000170: 7ba0 12bc cc40 de3b 4df6 12bd 7b98 5cbd
00000180: 79ef be3c 40d8 f5bb 3f28 58bd dc19 0bbd
00000190: 91cc 033c 37c5 a53c e274 043c c984 3dbc
000001a0: f2cd 56bd 49b9 733c f5dd c83c 411e 91bb
000001b0: 5b0c 653d 2779 873d bc59 9c3d 013d ae3d
000001c0: 021c 553c a7aa af3d eb6e a33d 51fd a8bb
000001d0: d882 36bd 0396 30bd 0306 99bc 90b6 5abd
000001e0: 96e9 bcbc 5a5b 3f3c 7733 05bd 1981 07bd
000001f0: 891a 80bd af40 fcbc 165a 90bc cf8e 27bd
00000200: d87d 71bd a617 4bbd fd16 9a3c 0a4e b43c
00000210: fb7c 31bd 95f6 9cba 5d19 403d 3609 9b3c
00000220: 3c59 063d 2d03 793d 0c5a c63d 374c b63d
00000230: d298 013d f4b2 f63d 6b63 ad3d 7176 e1bc
00000240: 8a23 1cbd 1879 7ebd 4d95 20bc f395 9fbd
00000250: 74da 33bd 5bc7 22bd d2c0 7fbd 498f 7cbd
00000260: 958b 13bd 59c6 7e3c c720 873c 5ed3 6abd
00000270: 9b8c 73bb 7b2f 17bd 207f 42bb 44d5 e33b
00000280: 17b0 98bc 392c 5bbc 10f4 aabc 92f2 c7bc
00000290: 6e1b 9a3c 39dc 1b3d 3b34 8b3d bf10 af3d
000002a0: 2f0e 3e3d a25b ba3d 3c8e ba3c 7ffe d9bc
000002b0: a1ce 003b 23b8 533c 635d 97bd 4022 0bbd
000002c0: d284 db3b decf 31bd ca1f 333b d060 39bd
000002d0: 34c5 e5bc c617 553b 4216 283d d5b3 993c
000002e0: f3b6 fb3b a2e0 373c 3feb 2abc 8312 193c
000002f0: 1485 33bd ebc9 82bc ba72 3d3d 066c 1f3d
00000300: b70c 29bd 958d be3d e222 493d 36c0 013d
00000310: 874c 973d 6fad 013d 688a f5bc 76b5 eebc
00000320: 16fd 82bc 7693 753c fd36 b5bd 5430 83bd
00000330: 1e3d 063c f8c1 013c fcd9 babc 85ff 353c
00000340: 24e4 5bb9 8124 ca3b b554 c03b c92d 66ba
00000350: 849e a839 f85f e23b dec2 2a3b 8f25 103d
00000360: 994c 3abd 4da4 a0bd a630 d43c 2543 acbc
00000370: 742b 9ebc c299 643d ff85 883d 5807 953c
00000380: 6625 e4bb d132 153d 3d7a 19bd 978c afbb
00000390: b1a9 583b 4d44 9abc 32b2 7ebd f961 a73b
000003a0: d76e 083d 7855 233d e0d2 1e3d 30f7 02bd
000003b0: 2633 7b3c 3ed1 8abc 49ff d1ba 1565 a93c
000003c0: 3b4c cf3c 53b3 8f3d 8900 733c b0dd 273d
000003d0: 391a 09bc be0e d5bd 7844 be3c f164 a1ba
000003e0: 7aa1 7fbb baea 9ebc a49f 1e3d 8435 cf3c
000003f0: ce8e 053e 8602 cdbc c4b3 0cbd eeb2 57bc

stack.1.0.weight f4 [64, 128]
-0.004903914 -0.013414515 0.104499996 0.074724086 -0.08677211 0.027350836 0.005821462 -0.08333581
0.12565574 0.0033840898 0.0053026 -0.048888292 -0.04552112 -0.0036282262 0.030756842 0.10121102
0.113354765 0.0959303 -0.02204513 0.017961215 -0.028845713 0.006927988 0.107379176 -0.0911058
0.08708729 -0.05534657 0.07766685 -0.07502196 0.022362277 -0.0070028645 -0.03474643 -0.020951606
0.0023130178 0.12842827 0.0055274186 0.1261055 -0.35819465 -0.02552728 0.046910588 0.042756245
0.046581168 0.08396874 0.064525016 -0.09545327 0.0032126007 0.09011692 -0.0413531 0.084470436
0.08068705 -0.0057125757 0.009110597 0.018389203 -0.044650137 0.082280815 -0.1442892 -0.05454113
-0.037498817 -0.015049399 0.014572316 0.10159289 0.10570665 -0.061072454 -0.100035235 -0.024732785
0.11983555 0.12807919 0.076536 0.0792439 -0.019685948 -0.12140062 -0.013755718 0.10256531
0.13056754 0.07786515 -0.037932 0.08767957 0.08963049 -0.10508521 0.06307326 -0.09350512
-0.063537985 0.12092307 0.02318284 -0.07892577 -0.020909 0.00016560973 0.053545434 -0.0025340177
0.013339063 -0.031141277 0.14542058 0.06137204 -0.097083926 0.10160068 0.12127282 -0.029543167
0.1029201 0.10348579 -0.04074327 0.083772376 -0.034770094 -0.113936566 -0.0066886884 -0.04710243
0.07950955 0.05801013 0.035446476 0.07381059 -0.008598208 0.12837908 0.02805423 0.041325934
0.09793619 -0.08779818 0.009906952 0.007043652 0.04770022 -0.0025251566 0.03965825 -0.09734992
-0.04799786 0.056864325 -0.1026245 -0.14152507 0.10166582 -0.057412922 0.06787514 -0.03777371
0.09660871 0.12478341 0.09760567 0.049325477 -0.058127835 -0.014537137 0.11316052 0.075630605
-0.06530483 0.13588364 -0.000476907 0.063135006 -0.05578806 0.05243712 -0.09351571 -0.07631646
-0.02484 0.09307749 0.013859386 0.05961322 0.10453341 0.09475961 -0.0110009825 0.07106664
-0.07234172 0.12529188 -0.06766475 0.0056102662 -0.040031478 -0.05403327 -0.121375635 0.12500982
-0.081220664 -0.054796495 -0.018700387 0.06781432 -0.3461384 -0.0011466473 -0.048404127 -0.08890051
-0.008083588 -0.07402941 -0.067038916 0.14297695 -0.04431089 0.059147906 0.058130875 0.01178983
0.03811617 -0.007746235 0.102895826 0.11005617 0.059086587 -0.06447217 -0.22934064 0.13449508
-0.01097084 0.031458575 0.018078955 -0.030467378 -0.079482086 0.07819053 0.12225964 0.07489013
-0.11355072 -0.07423014 -0.09210641 0.020922983 0.06833382 -0.05757596 0.039183374 -0.1097048
-0.066353455 0.041277073 0.018211657 -0.053387396 0.049521692 -0.09663943 0.052654404 0.03193199
-0.04822222 -0.069317006 0.0892313 0.003895375 0.0254547 0.084159985 0.12868227 0.11487865
0.06609727 0.046678234 -0.30206183 -0.067065425 0.092773564 -0.0016261534 0.022160392 -0.05441831
-0.05289615 -0.10311318 0.08979642 -0.055568855 -0.015078301 0.09673754 -0.05041544 0.064765476
-0.022513937 0.046784144 -0.030711532 -0.07309414 -0.05158921 0.11404996 0.052833725 0.051636398
0.117728196 -0.10100188 -0.06071956 0.016228197 0.062059868 -0.05331878 0.090616465 -0.02632802
0.10830648 -0.048365436 0.14669552 -0.014681999 -0.07276589 -0.024215173 0.033510655 0.0989073
00000000: 03b1 a0bb 8ec8 5bbc 1804 d63d f108 993d
00000010: 93b5 b1bd dc0e e03c f6c1 be3b f7ab aabd
00000020: e6ab 003e 9bc7 5d3b 6fc1 ad3b 173f 48bd
00000030: 5b74 3abd 89c7 6dbb c6f5 fb3c b947 cf3d
00000040: 8b26 e83d 1b77 c43d fd97 b4bc 6623 933c
00000050: d84d ecbc 2d04 e33b 9de9 db3d ad95 babd
00000060: d25a b23d 16b3 62bd cc0f 9f3d 1da5 99bd
00000070: 1831 b73c 4978 e5bb 4652 0ebd b4a2 abbc
00000080: 0096 173b b382 033e 591f b53b cd21 013e
00000090: 4a65 b7be 961e d1bc 5125 403d 2c21 2f3d
000000a0: e5cb 3e3d cef7 ab3d b125 843d 017d c3bd
000000b0: 7f8a 523b 388f b83d de61 29bd d6fe ac3d
000000c0: 413f a53d 8f30 bbbb 9d44 153c f4a4 963c
000000d0: 10e3 36bd d882 a83d 8cc0 13be 8566 5fbd
000000e0: 5c98 19bd c191 76bc b9c0 6e3c ef0f d03d
000000f0: ba7c d83d 1c27 7abd 46df ccbd 699c cabc
00000100: 576c f53d 3127 033e e8be 9c3d a04a a23d
00000110: 6d44 a1bc e3a0 f8bd aa5f 61bc c30d d23d
00000120: 7fb3 053e c477 9f3d 965e 1bbd 5991 b33d
00000130: 3190 b73d ea36 d7bd 8e2c 813d 9d7f bfbd
00000140: 3420 82bd 84a6 f73d f0e9 bd3c d6a3 a1bd
00000150: 5a49 abbc 86a7 2d39 7552 5b3d c311 26bb
00000160: 168c 5a3c fe1b ffbc 22e9 143e 4061 7b3d
00000170: f0d3 c6bd 0414 d03d e25d f83d 8304 f2bc
00000180: c6c7 d23d 5cf0 d33d 6ae2 26bd da90 ab3d
00000190: 166b 0ebd 9357 e9bd c92c dbbb 7aee 40bd
000001a0: e7d5 a23d 089c 6d3d 5330 113d 022a 973d
000001b0: 80df 0cbc ce75 033e fcd1 e53c 6245 293d
000001c0: c592 c83d 88cf b3bd c550 223c 6fce e63b
000001d0: 4e61 433d 197d 25bb b070 223d 655f c7bd
000001e0: 6799 44bd 91ea 683d cb2c d2bd f3eb 10be
000001f0: 2b36 d03d d029 6bbd 1f02 8b3d 9bb8 1abd
00000200: cada c53d 728e ff3d 7be5 c73d 8309 4a3d
00000210: 7417 6ebd 2c2d 6ebc b4c0 e73d 38e4 9a3d
00000220: 8abe 85bd 1525 0b3e 6009 fab9 ed4c 813d
00000230: 0582 64bd 4ec8 563d 2a85 bfbd ce4b 9cbd
00000240: 417d cbbc 699f be3d 7a12 633c fe2c 743d
00000250: 9d15 d63d 5411 c23d 773d 34bc 638b 913d
00000260: e527 94bd 844c 003e d193 8abd 53d6 b73b
00000270: 0cf8 23bd fd51 5dbd ca93 f8bd 9302 003e
00000280: 0557 a6bd 4a72 60bd 8e31 99bc 3ce2 8a3d
00000290: 0d39 b1be 194b 96ba 6843 46bd 7811 b6bd
000002a0: 0771 04bc bb9c 97bd b34b 89bd 8d68 123e
000002b0: 567f 35bd 1345 723d a41a 6e3d 222a 413c
000002c0: b31f 1c3d 21d4 fdbb 0cbb d23d 2165 e13d
000002d0: c704 723d fc09 84bd 46d8 6abe 14b9 093e
000002e0: 0abf 33bc b5da 003d 511a 943c b996 f9bc
000002f0: 81c7 a2bd 5b22 a03d 4363 fa3d ff5f 993d
00000300: 488d e8bd f905 98bd 49a2 bcbd ad66 ab3c
00000310: 9af2 8b3d c5d4 6bbd bf7e 203d e9ac e0bd
00000320: 52e4 87bd 2612 293d 9d30 953c beac 5abd
00000330: 42d7 4a3d e5ea c5bd 25ac 573d 1ecb 023d
00000340: aa84 45bd 13f6 8dbd e6be b63d 8c49 7f3b
00000350: 6086 d03c 125c ac3d 49c5 033e 7f45 eb3d
00000360: 015e 873d ad31 3f3d d9a7 9abe 9959 89bd
00000370: 1100 be3d a724 d5ba b689 b53c bce5 5ebd
00000380: a2a9 58bd 012d d3bd 2fe7 b73d 2b9c 63bd
00000390: fa0a 77bc 551e c63d 6c80 4ebd c3a3 843d
000003a0: 266f b8bc bba0 3f3d c096 fbbc 61b2 95bd
000003b0: 354f 53bd 0793 e93d 2d68 583d b080 533d
000003c0: 7b1b f13d 13da cebd 13b5 78bd fff0 843c
000003d0: 7d32 7e3d cb64 5abd 2095 b93d dcad d7bc
000003e0: cacf dd3d d61a 46bd 5a37 163e c48c 70bc
000003f0: 4806 95bd e65e c6bc 7842 093d e98f ca3d

stack.2.0.weight f4 [32, 64]
0.11551806 0.16562639 -0.048652213 0.08912227 0.23732491 0.056825016 0.045774758 -0.12099008
-0.034957513 -0.026414316 0.055317357 0.0060048117 -0.059857354 0.11288739 -0.12999244 -0.04391255
-0.024050094 -0.050943576 -0.040453017 -0.05547704 0.04909025 -0.109638505 0.043314084 -0.10485939
-0.023127591 0.012391142 0.045625348 0.13508332 -0.045848276 0.059427764 0.114344195 0.16784777
-0.0059524337 -0.07235336 -0.12616095 -0.081561185 -0.087569885 -0.06570108 -0.118405625 -0.09882606
0.08840727 -0.069667086 -0.021762805 0.044774275 0.07006417 -0.123084486 0.016508628 0.12841237
0.06657793 -0.08974479 0.04557643 -0.11031637 0.036873627 -0.13791436 0.1199739 0.09231398
0.02791219 0.037088502 0.08506524 -0.08196195 -0.02403541 0.0831672 0.09067074 0.11146643
-0.112235464 0.094761975 -0.14496894 -0.08973374 -0.00487777 0.18787122 -0.0067066494 -0.06406573
0.004642904 0.15091386 0.12085953 -0.0010942116 0.19109848 0.0954871 0.01909291 -0.09713681
0.18093063 -0.040004436 0.11289571 -0.03272466 0.044615302 0.06962342 0.09151031 -0.043069467
0.03773498 -0.065852515 -0.06998762 0.030975033 0.005271396 -0.00911153 -0.030813951 -0.120122716
0.034524255 -0.07583532 0.1468898 -0.06400823 0.11933842 -0.053831562 0.04363013 -0.102745436
-0.042051755 0.081145875 0.030104851 -0.09046123 0.13101262 0.021061866 0.25984076 0.07925434
-0.023247126 -0.0231199 0.0799412 0.08941666 0.09389826 0.07775148 0.014700465 0.14776646
0.08592569 -0.040738244 0.0070415307 0.13530678 -0.060342446 0.000880402 -0.03599637 0.11589417
0.10453757 -0.18192305 0.135031 -0.113653176 -0.013204882 -0.024974527 -0.07317555 0.115030244
-0.006953925 0.10157598 0.12742534 0.036243226 0.22391763 0.009782512 -0.068927884 -0.16532014
-0.05971087 -0.02318224 0.12572353 -0.03208016 0.0091133835 0.025167607 0.15611446 -0.090519875
-0.11058207 0.16280219 -0.15478419 0.050379634 0.00775057 -0.02463624 0.14055225 0.014000364
0.066631556 0.061983056 0.16666688 -0.11861721 0.008642436 -0.07822124 0.09717867 -0.048936546
-0.05910285 0.2275927 0.21705766 -0.1436865 0.15338731 0.04839034 0.11373796 -0.068087265
0.07910256 0.08378169 0.21279867 0.05774564 -0.10788873 -0.014316365 -0.009656504 0.089938015
0.10073479 -0.085601345 -0.16164279 0.038662456 0.12223359 -0.046169277 -0.036114752 0.08121019
0.025801264 -0.20693672 0.10025268 0.06801244 -0.12782796 -0.07388398 0.09476735 0.027647091
-0.058051646 0.1312484 0.10747947 -0.04825187 0.20620257 0.13346455 0.109890275 -0.08459818
0.07690755 0.070002794 -0.063233756 0.030506043 -0.032504838 0.099847116 0.10187177 0.06303855
0.09439429 0.008259142 -0.0026763272 0.12617803 -0.0029462029 0.105317354 0.07104238 0.09278349
-0.0061632204 0.10005669 -0.009103481 0.056694735 -0.06319952 -0.07775397 -0.040597253 -0.08024383
-0.118220896 0.05626205 -0.028362473 -0.071340285 0.022871058 0.09579543 -0.11015482 -0.15023667
-0.14690816 -0.052901678 -0.017366242 -0.04638296 0.022774782 0.07508698 -0.08176204 0.029100336
0.1425033 -0.03419925 0.032863196 -0.082221195 -0.053037968 0.089953095 -0.1256673 -0.022181954
00000000: bc94 ec3d f799 293e 8b47 47bd bd85 b63d
00000010: 4d05 733e 59c1 683d 507e 3b3d a6c9 f7bd
00000020: 9c2f 0fbd d662 d8bc 7494 623d 03c4 c43b
00000030: fc2c 75bd 8131 e73d bd1c 05be a5dd 33bd
00000040: b404 c5bc 36aa 50bd 10b2 25bd e53b 63bd
00000050: dc12 493d 278a e0bd 1c6a 313d 85c0 d6bd
00000060: 1376 bdbc 3704 4b3c a5e1 3a3d 4853 0a3e
00000070: 67cb 3bbd 876a 733d 4a2d ea3d 49e0 2b3e
00000080: a20c c3bb 002e 94bd 5630 01be 8d09 a7bd
00000090: d757 b3bd 4a8e 86bd a67e f2bd 5165 cabd
000000a0: df0e b53d 9ead 8ebd e947 b2bc 3b65 373d
000000b0: ce7d 8f3d b813 fcbd 1a3d 873c 887e 033e
000000c0: 025a 883d 1ecc b7bd 5aae 3a3d 8ded e1bd
000000d0: cd08 173d 6c39 0dbe e0b4 f53d 1d0f bd3d
000000e0: 1ba8 e43c 1dea 173d af36 ae3d abdb a7bd
000000f0: e8e5 c4bc 9153 aa3d 95b1 b93d 8348 e43d
00000100: b5db e5bd 9112 c23d bd72 14be 53c6 b7bd
00000110: b3d5 9fbb 5061 403e 74c3 dbbb e534 83bd
00000120: 8023 983b 2a89 1a3e 3485 f73d a66b 8fba
00000130: 52af 433e be8e c33d bc68 9c3c aaef c6bd
00000140: e145 393e b1db 23bd de35 e73d 4b0a 06bd
00000150: 89be 363d b996 8e3d c269 bb3d 9c69 30bd
00000160: ff8f 1a3d afdd 86bd ab55 8fbd 5abf fd3c
00000170: adbb ac3b 8748 15bc 8a6d fcbc e602 f6bd
00000180: 4e69 0d3d 8c4f 9bbd 486a 163e bf16 83bd
00000190: b467 f43d 7c7e 5cbd 82b5 323d 336c d2bd
000001a0: 763e 2cbd cf2f a63d 739e f63c bd43 b9bd
000001b0: 2c28 063e ef89 ac3c d909 853e 1950 a23d
000001c0: c270 bebc f265 bdbc 36b8 a33d 1520 b73d
000001d0: bb4d c03d 2b3c 9f3d 38da 703c 1750 173e
000001e0: cff9 af3d 25dd 26bd a4bc e63b dc8d 0a3e
000001f0: a429 77bd c7ca 663a ee70 13bd ec59 ed3d
00000200: cb17 d63d 094a 3abe 9145 0a3e ffc2 e8bd
00000210: 4a59 58bc 6197 ccbc 10dd 95bd fa94 eb3d
00000220: c0dd e3bb 1107 d03d ca7b 023e c773 143d
00000230: aa4a 653e d446 203c 102a 8dbd af49 29be
00000240: 6393 74bd aee8 bdbc abbd 003e 7c66 03bd
00000250: 4d50 153c 4c2c ce3c 78dc 1f3e 7c62 b9bd
00000260: da78 e2bd 9eb5 263e bf7f 1ebe e05a 4e3d
00000270: 7ef8 fd3b f1d1 c9bc eeec 0f3e c861 653c
00000280: 2076 883d f2e1 7d3d b9aa 2a3e 94ed f2bd
00000290: 0199 0d3c 7532 a0bd 9c05 c73d b071 48bd
000002a0: d415 72bd 100e 693e 5d44 5e3e 8e22 13be
000002b0: 9011 1d3e f334 463d 73ef e83d 5671 8bbd
000002c0: 8600 a23d bc95 ab3d e5e7 593e b186 6c3d
000002d0: c4f4 dcbd 308f 6abc 5036 1ebc 6c31 b83d
000002e0: 0b4e ce3d c24f afbd b085 25be 865c 1e3d
000002f0: 9b55 fa3d ff1b 3dbd 10ed 13bd 8751 a63d
00000300: 2c5d d33c 38e7 53be 4751 cd3d 1b4a 8b3d
00000310: 55e5 02be 7c50 97bd 6215 c23d 277c e23c
00000320: 90c7 6dbd fb65 063e 321e dc3d c1a3 45bd
00000330: c426 533e eeaa 083e 270e e13d d041 adbd
00000340: b581 9d3d a05d 8f3d b380 81bd cfe7 f93c
00000350: cb23 05bd a57c cc3d 26a2 d03d 5b1a 813d
00000360: cb51 c13d 5a51 073c 5265 2fbb d034 013e
00000370: 1515 41bb a0b0 d73d ab7e 913d 4505 be3d
00000380: d7f4 c9bb 86ea cc3d c426 15bc bd38 683d
00000390: c06e 81bd 793d 9fbd 4e49 26bd e156 a4bd
000003a0: cc1d f2bd 0973 663d 6b58 e8bc db1a 92bd
000003b0: 165c bb3c 6530 c43d da98 e1bd a4d7 19be
000003c0: 186f 16be 6eaf 58bd a643 8ebc 0ffc 3dbd
000003d0: 2e92 ba3c 34c7 993d db72 a7bd d463 ee3c
000003e0: 63ec 113e 8314 0cbd 8f9b 063d 9663 a8bd
000003f0: 573e 59bd 5439 b83d eeae 00be eeb6 b5bc

stack.3.0.weight f4 [10, 32]
-0.0029082338 -0.17927797 -0.25108597 -0.23199463 -0.10214115 0.034465592 -0.22916421 0.11796662
0.054766946 0.13966124 0.18613823 0.001817397 0.12110628 0.07867746 0.14574315 -0.04125242
0.1772707 0.030234363 -0.16653171 0.16038576 0.16188462 -0.04116555 0.0106499 -0.06590999
0.12771653 -0.044169877 -0.07330152 0.027194904 0.122854516 0.13313682 -0.120564476 0.05659816
0.20855945 0.15089372 0.04752113 -0.0898849 -0.122747146 0.12081751 -0.15933733 0.06021792
-0.17097285 -0.16050737 0.027437422 0.25491607 0.008720707 0.16521636 0.0092192115 0.18439032
-0.24021646 -0.21832366 0.033329688 0.101733856 0.065228745 0.063918985 0.10539599 -0.17003372
-0.10897341 0.20885327 -0.017918233 -0.05484838 0.06403069 0.13410287 0.08854377 0.11841815
0.08560146 -0.18096861 0.082934804 0.231267 0.095932946 0.04439457 0.22147532 -0.011116927
-0.060798198 -0.060349807 0.15491581 -0.19413401 0.101522475 -0.098817155 0.13919263 0.1824996
-0.015072809 0.07782544 -0.16089249 0.092805795 -0.077115804 -0.0666194 -0.099640824 0.13663268
0.17023852 0.10469499 0.10314449 0.25263909 -0.004490566 0.030427909 0.14062946 -0.13674831
-0.08695338 0.093042456 0.13503388 0.20279744 -0.03997886 -0.16378048 0.098373905 0.13493374
0.15424187 -0.15820065 -0.23391666 -0.095285915 0.12292238 0.07734596 0.034719877 0.0628587
0.13822015 -0.16221325 0.053714782 0.053402446 0.16239989 0.11117488 -0.0069671273 0.101417676
-0.081618465 -0.1349975 -0.1578963 0.19546363 -0.116186604 0.087812565 -0.050127715 0.05267568
-0.07920506 -0.010726564 0.089825414 -0.1342443 -0.09494916 0.13155334 -0.12798916 0.17306456
0.08667581 0.18307784 0.18519919 -0.14032212 0.045764305 -0.1960028 -0.021851517 -0.15993652
-0.033061277 -0.23049605 -0.105857655 0.13192663 0.18789063 0.11967924 -0.035028182 0.12830551
0.20219812 0.19672804 0.15103778 -0.17783359 0.012447144 -0.10946436 -0.09305157 0.07623289
0.08401818 0.029173965 -0.15546657 0.13734192 -0.053237285 -0.020155171 -0.06611865 -0.14221431
-0.11676447 0.17191261 0.054016665 -0.01352505 0.17494048 0.15991485 -0.13436599 -0.06797564
0.14365011 -0.13789578 -0.018582461 0.12252893 0.17364922 -0.13113162 -0.14141902 0.11047873
-0.14701377 -0.014453819 -0.0077489507 -0.029079007 -0.08483488 0.049222987 -0.08487014 -0.06832514
-0.033979084 -0.06455654 -0.14197768 -0.12669848 0.15000826 0.117153846 0.10163291 0.00020272634
-0.044826902 0.06626014 0.1464388 -0.0027849793 -0.11619696 0.1513065 -0.025297107 0.12349098
0.09308772 -0.090842664 -0.039555218 0.004231101 -0.13934678 -0.13395199 0.09587331 0.15707423
-0.15006141 -0.15356113 -0.010316705 0.1738859 0.0382819 0.035935942 -0.086981714 0.08767331
-0.008936544 -0.033031814 0.008220216 0.050668012 0.050103582 -0.09239868 0.048438784 -0.12308972
-0.05968434 -0.14416106 0.14185956 -0.04573342 -0.1589626 0.1059019 -0.13469416 -0.13461803
-0.16535275 0.122352995 0.108384416 -0.12444734 0.091072954 -0.02422567 -0.16312507 0.11366581
-0.029431544 -0.03597048 -0.12826085 0.10409315 -0.10795356 -0.15603322 -0.14674997 -0.012203999
00000000: 1198 3ebb a594 37be 578e 80be 0090 6dbe
00000010: 612f d1bd cb2b 0d3d 06aa 6abe 7c98 f13d
00000020: 4e53 603d 5b03 0f3e 059b 3e3e b935 ee3a
00000030: 9206 f83d a621 a13d b13d 153e 4cf8 28bd
00000040: 7386 353e 0eae f73c 4a87 2abe 2a3c 243e
00000050: 15c5 253e 359d 28bd eb7c 2e3c d1fb 86bd
00000060: 1fc8 023e 79eb 34bd 1b1f 96bd d9c7 de3c
00000070: 269b fb3d 0555 083e 82ea f6bd 79d3 673d
00000080: 9c90 553e e283 1a3e 84a5 423d 9315 b8bd
00000090: db62 fbbd 2c6f f73d 5329 23be 11a7 763d
000000a0: 8213 2fbe 0b5c 24be 72c4 e03c 5c84 823e
000000b0: 4ce1 0e3c 7a2e 293e 2d0c 173c d1d0 3c3e
000000c0: 4efb 75be 3d90 5fbe b684 083d d759 d03d
000000d0: a696 853d f5e7 823d dad9 d73d 521d 2ebe
000000e0: 742d dfbd a2dd 553e 42c9 92bc b2a8 60bd
000000f0: 8622 833d 4352 093e 7056 b53d 3785 f23d
00000100: d14f af3d d64f 39be b9d9 a93d 42d1 6c3e
00000110: 7e78 c43d 15d7 353d 6dca 623e c523 36bc
00000120: 8807 79bd 5c31 77bd 40a2 1e3e 11cb 46be
00000130: 04eb cf3d a660 cabd 8388 0e3e 2de1 3a3e
00000140: f1f3 76bc f262 9f3d 00c1 24be f710 be3d
00000150: e4ee 9dbd c16f 88bd 7d10 ccbd 70e9 0b3e
00000160: 0253 2e3e 546a d63d 6b3d d33d e959 813e
00000170: 9925 93bb f343 f93c 2b01 103e c007 0cbe
00000180: 9d14 b2bd 0b8d be3d 5246 0a3e 22aa 4f3e
00000190: e0c0 23bd 12b6 27be 4278 c93d 122c 0a3e
000001a0: 95f1 1d3e 5aff 21be d987 6fbe 4325 c3bd
000001b0: bbbe fb3d 8f67 9e3d 6e36 0e3d 10bc 803d
000001c0: 9589 0d3e 3b1b 26be 0804 5c3d 86bc 5a3d
000001d0: 284c 263e a8af e33d 804c e4bb 12b4 cf3d
000001e0: 9527 a7bd c93c 0abe 91af 21be 9e27 483e
000001f0: 3ef3 edbd 13d7 b33d b852 4dbd 74c2 573d
00000200: 4336 a2bd 78be 2fbc 63f6 b73d 5677 09be
00000210: b574 c2bd ebb5 063e 970f 03be d637 313e
00000220: 1683 b13d c278 3b3e dba4 3d3e 9ab0 0fbe
00000230: 5a73 3b3d f5b4 48be f401 b3bc 66c6 23be
00000240: 436b 07bd 2807 6cbe e6cb d8bd c617 073e
00000250: 6766 403e 641a f53d b679 0fbd 8562 033e
00000260: 060d 4f3e 1373 493e a6a9 1a3e 021a 36be
00000270: 1bef 4b3c da2e e0bd d291 bebd fd1f 9c3d
00000280: b911 ac3d 3dfe ee3c a132 1fbe 5ca3 0c3e
00000290: 570f 5abd 751c a5bc 3769 87bd a1a0 11be
000002a0: 3622 efbd dc09 303e 9440 5d3d 2c98 5dbc
000002b0: 9923 333e b8c0 233e 3d97 09be d036 8bbd
000002c0: 0419 133e 8d34 0dbe 3f3a 98bc 73f0 fa3d
000002d0: 1ad1 313e 5e47 06be 26d0 10be ac42 e23d
000002e0: c78a 16be b6cf 6cbc e9ea fdbb 1937 eebc
000002f0: e9bd adbd 0b9e 493d 65d0 adbd 0dee 8bbd
00000300: a72d 0bbd 3836 84bd 9962 11be 3fbd 01be
00000310: c49b 193e 5bee ef3d ea24 d03d f092 5439
00000320: 6a9c 37bd 65b3 873d 0ef4 153e 3384 36bb
00000330: acf8 edbd 17f0 1a3e e13b cfbc d7e8 fc3d
00000340: c6a4 be3d b80b babd a704 22bd 0ca5 8a3b
00000350: ecb0 0ebe b62a 09be 3a59 c43d 11d8 203e
00000360: b3a9 19be 213f 1dbe 6607 29bc 250f 323e
00000370: 7bcd 1c3d 9131 133d 7823 b2bd 108e b33d
00000380: 956a 12bc 5e4c 07bd 16ae 063c 4389 4f3d
00000390: 6a39 4d3d 853b bdbd bf67 463d 7716 fcbd
000003a0: 9177 74bd f59e 13be a243 113e f752 3bbd
000003b0: 18c7 22be 18e3 d83d 44ed 09be 4fd9 09be
000003c0: 3b52 29be 3594 fa3d a6f8 dd3d 3fde febd
000003d0: 7584 ba3d ea74 c6bc 420a 27be 9fc9 e83d
000003e0: 6c1a f1bc c855 13bd d056 03be ca2e d53d
000003f0: c216 ddbd 2cc7 1fbe a045 16be 48f3 47bc
